ML_stuff/results/cw_06/FindCubeWife/FindCubeWife-2096.onnx (onnx, 356907 bytes, 13 tensors)

discrete_act_size_vector f4 [1, 4]
3.0 3.0 2.0 2.0
00000000: 0000 4040 0000 4040 0000 0040 0000 0040

network_body._body_endoder.seq_layers.0.weight f4 [256, 69]
-0.07158946 0.10462025 0.111504056 0.2336068 -0.07395469 0.021790529 -0.16954812 0.06614831
-0.05027311 0.0736393 0.13135877 0.12432457 -0.06895933 -0.21610385 0.11498447 -0.05735225
0.21832362 -0.053636942 0.018941324 -0.035481784 -0.028508767 0.003682753 -0.040007997 -0.040701713
-0.24825525 0.037113007 -0.06499929 0.08486056 -0.050657157 0.06577473 -0.17475998 -0.078804776
-0.07780308 0.14645657 -0.09162387 0.07140032 0.021860676 -0.09721225 -0.042799436 0.0421212
-0.0034816593 0.25827527 -0.06229863 0.0912486 -0.042508524 0.03678738 0.035883695 -0.04287122
-0.025677511 -0.21928813 -0.16337729 -0.0557755 0.21298414 0.0881664 0.081435055 0.06651098
-0.10234639 -0.11644487 0.0962997 -0.028476538 -0.026944991 0.1494848 -0.051517237 -0.072565764
-0.02221703 -0.05468309 -0.008389848 0.027607998 -0.05808432 -0.018932572 -0.09749077 0.15086561
0.18445235 0.026434993 0.020017851 0.19460003 -0.07074149 0.05129222 0.26896828 -0.09012232
0.054587957 -0.12422323 -0.012472346 -0.14777751 -0.07925514 -0.059959814 -0.046950746 -0.09974213
0.053569034 0.09104103 -0.17247818 -0.08085759 0.059605297 0.10145434 0.1350753 0.06680821
-0.10076461 0.03695276 0.019925375 -0.06334868 0.07779549 0.1608094 0.06914107 0.04905325
-0.15287271 0.030545458 0.16110273 0.18026131 0.2360954 0.012680319 0.1611076 0.02314326
0.019880747 -0.048470873 0.10509065 -0.048379477 0.09735394 0.0021821565 0.07840866 -0.21317805
-0.05537291 -0.26769537 -0.29733828 0.1381709 0.019622652 0.2801562 0.073001474 0.17842974
0.108432546 0.0319713 0.0265772 -0.13853891 -0.0115484 -0.100651294 -0.24383406 -0.060748123
0.04394458 0.062746495 0.0286738 0.1994367 0.02649735 -0.12446563 0.1469065 0.16153967
0.14537044 -0.16121736 -0.03399884 0.10797817 -0.051916763 0.086682014 0.17342104 -0.09558615
-0.048949998 -0.052855894 0.10284034 0.008123916 -0.034695756 -0.040572006 0.06678026 -0.1368754
-0.07244827 -0.008168745 0.0014327342 -0.076174475 -0.012042746 0.039672468 0.0122034075 -0.27124387
0.009475505 -0.07995707 -0.080486126 -0.027468687 0.049130596 -0.17514622 -0.12971352 0.09901416
-0.026919764 0.037488587 -0.038686443 -0.30120835 0.030605493 0.015572685 0.020942742 -0.11938181
-0.27334997 0.06318853 -0.017842226 0.2593212 -0.14698939 -0.025218546 0.011730699 -0.040550698
0.03839648 -0.049406406 0.40264598 -0.0586587 -0.20351882 0.12047015 0.10969243 0.11187948
0.02434042 -0.0673261 -0.10217752 0.3810067 -0.10600968 -0.009944967 -0.16666232 0.006356781
-0.040417653 -0.060533565 0.02584377 -0.35781175 0.05881851 -0.104323365 -0.054715436 -0.04005167
0.15091114 0.17164062 -0.02971848 0.029021233 -0.06402843 -0.42517024 -0.018463869 -0.06735814
-0.06370284 -0.04914797 0.13426034 0.015322045 -0.17077088 -0.011110809 -0.078364655 0.099483594
-0.009301274 -0.007162104 -0.021573314 0.16560893 -0.1199397 0.010386398 0.029098302 -0.034975834
0.04069443 -0.06454942 -0.14874305 -0.027846014 -0.041601993 0.1047905 -0.08265865 0.008153054
0.36327618 0.15636434 0.018303243 -0.006875939 -0.07196815 0.09734516 -0.06896644 -0.16882026
00000000: 7f9d 92bd 2443 d63d 3d5c e43d 9f36 6f3e
00000010: 8e75 97bd 0d82 b23c 069e 2dbe c478 873d
00000020: 2deb 4dbd 34d0 963d ea82 063e e19d fe3d
00000030: 8d3a 8dbd 544a 5dbe fa7c eb3d 31ea 6abd
00000040: 3a90 5f3e 69b2 5bbd d62a 9b3c 5955 11bd
00000050: 388b e9bc 585a 713b 6ddf 23bd d7b6 26bd
00000060: a036 7ebe cf03 183d 591e 85bd 60cb ad3d
00000070: e17d 4fbd e7b4 863d 48f4 32be 6664 a1bd
00000080: 3957 9fbd b6f8 153e 4ca5 bbbd 553a 923d
00000090: 2915 b33c 3717 c7bd 764e 2fbd 4887 2c3d
000000a0: 8d2c 64bb a83c 843e d92c 7fbd 8ce0 ba3d
000000b0: 6b1d 2ebd 5dae 163d c8fa 123d bb99 2fbd
000000c0: a559 d2bc 118d 60be 604c 27be da74 64bd
000000d0: 8418 5a3e 9690 b43d 6cc7 a63d e936 883d
000000e0: fc9a d1bd a67a eebd c738 c53d a147 e9bc
000000f0: bebb dcbc 8b12 193e bd03 53bd 5c9d 94bd
00000100: 7d00 b6bc 60fb 5fbd 9375 09bc 2b2a e23c
00000110: d3e9 6dbd 7b18 9bbc 3ea9 c7bd 847c 1a3e
00000120: 14e1 3c3e 338e d83c 7afc a33c 3b45 473e
00000130: eae0 90bd ca17 523d 36b6 893e 0d92 b8bd
00000140: 9f97 5f3d c068 febd d058 4cbc fd52 17be
00000150: 8550 a2bd 6c98 75bd 6d4f 40bd 9a45 ccbd
00000160: 346b 5b3d b873 ba3d 1f9e 30be aa98 a5bd
00000170: af24 743d 4bc7 cf3d 2e51 0a3e bed2 883d
00000180: ad5d cebd c75b 173d 8a3a a33c f4bc 81bd
00000190: 3e53 9f3d 38ab 243e d599 8d3d 10ec 483d
000001a0: aa8a 1cbe 783a fa3c 1df8 243e 6c96 383e
000001b0: fec2 713e 1dc1 4f3c 64f9 243e ef96 bd3c
000001c0: f3dc a23c 6589 46bd c439 d73d 8f29 46bd
000001d0: 8161 c73d 8302 0f3b b894 a03d 594b 5abe
000001e0: b4ce 62bd 5e0f 89be b93c 98be ac7c 0d3e
000001f0: afbf a03c a270 8f3e cc81 953d 49b6 363e
00000200: e211 de3d 56f4 023d 6eb8 d93c 25dd 0dbe
00000210: 8035 3dbc 4422 cebd a3af 79be 06d3 78bd
00000220: 3bff 333d 3c81 803d 51e5 ea3c 2239 4c3e
00000230: f810 d93c d6e7 febd a86e 163e a86a 253e
00000240: fddb 143e 2a16 25be 5e42 0bbd a923 dd3d
00000250: aca6 54bd 5786 b13d 4995 313e acc2 c3bd
00000260: cb7f 48bd 6c7f 58bd f59d d23d 2c1a 053c
00000270: 231d 0ebd d52e 26bd 17c4 883d 1129 0cbe
00000280: c25f 94bd 33d6 05bc 95ca bb3a 5d01 9cbd
00000290: f04e 45bc 997f 223d cdf0 473c 7ae0 8abe
000002a0: 263f 1b3c 88c0 a3bd e9d5 a4bd 0306 e1bc
000002b0: 2a3d 493d 8859 33be 9fd3 04be f0c7 ca3d
000002c0: d686 dcbc a28d 193d ad75 1ebd fb37 9abe
000002d0: 5fb8 fa3c 9324 7f3c 1d90 ab3c 737e f4bd
000002e0: 87f4 8bbe fd68 813d dc29 92bc c0c5 843e
000002f0: 6384 16be 2097 cebc 1e32 403c 7d18 26bd
00000300: a145 1d3d 5f5e 4abd 9d27 ce3e 1b44 70bd
00000310: 3d67 50be 0eb9 f63d 6da6 e03d 1221 e53d
00000320: 8f65 c73c 44e2 89bd 7342 d1bd 4f13 c33e
00000330: 9a1b d9bd 37f0 22bc 87a9 2abe 8b4c d03b
00000340: fb8c 25bd 0bf2 77bd 50b6 d33c 1a33 b7be
00000350: aeeb 703d 7da7 d5bd 4b1d 60bd 380d 24bd
00000360: 7388 1a3e 8fc2 2f3e 2b74 f3bc f0bd ed3c
00000370: 5621 83bd eaaf d9be 8a41 97bc 11f3 89bd
00000380: a276 82bd 624f 49bd 8b7b 093e 5109 7b3c
00000390: 90de 2ebe 1c0a 36bc a67d a0bd 0ebe cb3d
000003a0: 5f64 18bc 15b0 eabb 85ba b0bc 6395 293e
000003b0: f2a2 f5bd b62b 2a3c 905f ee3c d242 0fbd
000003c0: 34af 263d 7c32 84bd 1950 18be 531d e4bc
000003d0: da66 2abd 679c d63d f048 a9bd 6394 053c
000003e0: 56ff b93e f91d 203e aff0 953c 8f4f e1bb
000003f0: 0a64 93bd e65c c73d 473e 8dbd 38df 2cbe

network_body._body_endoder.seq_layers.0.bias f4 [256]
-0.0020288676 0.0024914453 0.003948942 -0.0025364228 -0.00092231616 0.0022180092 0.0025329578 0.0020828706
-0.0031920727 -0.003295803 -0.0030962152 0.0006687099 0.0029303117 -0.0048731593 0.00401364 0.00083738513
0.002244304 0.0010762642 0.0007612881 0.0019445039 -0.0030244489 0.0004109862 -0.0024663892 -0.002224918
0.0047566313 0.0020145306 -0.00090080546 0.0014700263 0.0029496257 -0.0005273082 -0.0015331331 -0.0046144878
0.0011088134 0.0049288026 0.0024189237 0.0038372874 0.00040587696 -0.001295972 -0.0046361918 -0.00080137723
0.0040074363 0.0024627782 0.0021170229 0.0033843992 -0.0025599871 -0.0014058945 -0.0006474476 0.0032365029
0.0010947208 -0.002366073 0.00063208345 0.002249001 -0.00030943938 0.0022864174 -0.0033803335 -0.0035431804
0.0030407042 0.003449067 0.004952235 0.0024772785 0.0044744457 0.0021604998 0.0025071742 0.0012810233
0.0013588796 0.0028263514 0.0017299216 0.0042283316 0.002691558 0.00052982365 -0.0010595273 -0.0024520403
-0.00018179661 -0.002449091 0.0002530526 0.0022711924 0.0020322325 -0.00066795567 0.0020781101 -0.0018052488
-0.001602614 0.002762723 0.0040895706 -0.00063440466 0.001517699 -0.0006854887 0.0028901086 -0.0015660449
0.0032821805 0.0015006885 0.00077879545 -0.001963111 0.0007647525 0.0005022435 -0.0039485246 -0.0011151944
0.0013955975 -0.0025487042 -0.001202945 0.0035792592 0.00039421706 -0.0010704363 -0.0015051772 0.00013117073
-0.0028790298 0.00035799245 -0.0016389062 0.0012129393 -0.00018637048 0.0027140616 0.006985648 0.0012570919
0.0013347223 -8.624741e-05 2.2726024e-05 0.0026986413 -0.0028165192 0.001945579 0.0026791662 0.000787941
0.003986974 -5.016118e-05 -0.002739205 -0.0032253626 0.0036455784 -0.001615515 -0.0021911096 -0.00010746646
0.0011963198 -0.0010945138 0.0014605088 -0.0007597515 -0.0009802374 0.0051498255 -0.0022203543 0.00010118667
-0.0004730083 0.0025502502 -0.0035056644 0.0008233475 0.0025442613 -0.0022922386 0.0016872359 0.0009993537
0.0013713018 0.0005719751 0.0060417317 -0.0020355652 0.00048330438 0.0024139488 -0.0012768123 0.0034710309
-5.0387505e-05 0.0030337977 -0.0018301556 0.0006777442 -0.0056673847 0.0019594636 -0.0013579879 0.0027908834
0.00035954412 0.0027306671 -0.0037815105 -0.00085293554 0.00032035273 -0.0022785033 -0.0015334508 0.0020282604
-9.085376e-05 -0.0040534195 0.004592075 0.004818843 -0.00069811195 0.0081119165 -0.0030847297 0.0021824923
0.0026130925 0.0027841975 -0.002683127 0.0040366463 0.002510303 0.0040045218 0.0064378898 0.0066266223
0.00023689748 -0.0046327882 0.0060610315 -0.001752771 0.0034721154 -0.0032029625 0.0018991343 -0.003255751
-4.9418122e-05 0.001809525 0.0029488464 -0.003634889 0.0012877813 -0.0017867251 0.00018403708 0.0018701536
0.0026407856 -0.004069443 0.0016636823 -0.001557968 -0.0032786652 0.0021868472 0.0006343896 0.003300919
0.0030947323 0.00275087 8.94408e-05 -0.0010186442 -0.0024314679 -0.0011268943 0.0030099319 0.00039556334
0.0051292116 -0.003814826 0.000780917 -0.0043621273 -0.0008667702 -0.002174185 -0.0028668644 -0.0037937686
0.0033028044 -0.00023143688 -0.00083972065 -0.0031329487 0.00414039 -0.002643584 0.003090035 0.0025579012
0.00032194302 0.0006355026 0.0025419588 -0.0023818621 -0.0014343348 -0.0018609521 0.003410786 -0.003523303
0.0028799793 -0.0032481875 -0.0018619795 -0.0016539933 0.0055109137 0.002232807 3.37082e-05 0.0015164863
0.0032593214 0.0020234645 0.003849518 0.0008463737 0.00084614905 0.00031362096 -0.0004062993 0.0003980718
00000000: c0f6 04bb 8447 233b 2066 813b 1d3a 26bb
00000010: 97c7 71ba 055c 113b fbff 253b c580 083b
00000020: 1832 51bb 66fe 57bb dfe9 4abb 5d4c 2f3a
00000030: 790a 403b 06af 9fbb da84 833b f783 5b3a
00000040: 2c15 133b 6f11 8d3a 2e91 473a b9de fe3a
00000050: d535 46bb a279 d739 25a3 21bb eecf 11bb
00000060: 84dd 9b3b 3706 043b 0824 6cba e6ad c03a
00000070: 824e 413b 0e3b 0aba 69f3 c8ba 2135 97bb
00000080: 9b55 913a cb81 a13b ce86 1e3b 007b 7b3b
00000090: e2cb d439 9bdd a9ba 32eb 97bb 8413 52ba
000000a0: d050 833b 9066 213b c0bd 0a3b cccc 5d3b
000000b0: 75c5 27bb fe45 b8ba 79b9 29ba 821b 543b
000000c0: bc7c 8f3a 1e10 1bbb 67b2 253a fa63 133b
000000d0: 403c a2b9 b8d7 153b 9688 5dbb b434 68bb
000000e0: 8d46 473b be09 623b 5c46 a23b d659 223b
000000f0: 5f9e 923b 2c97 0d3b 674f 243b 02e8 a73a
00000100: 6f1c b23a 4f3a 393b 89be e23a d18d 8a3b
00000110: da64 303b dde3 0a3a d6df 8aba 69b2 20bb
00000120: a8a0 3eb9 ee80 20bb 25ac 8439 49d8 143b
00000130: 342f 053b bf19 2fba e730 083b 199e ecba
00000140: cd0e d2ba cd0e 353b ce01 863b 2d4e 26ba
00000150: 87ed c63a 5eb2 33ba fa67 3d3b bf43 cdba
00000160: da19 573b c0b2 c43a 1428 4c3a 8aa7 00bb
00000170: ac79 483a fea8 033a a062 81bb b72b 92ba
00000180: 7bec b63a 2908 27bb 23ac 9dba 0192 6a3b
00000190: ebae ce39 e24d 8cba 5e49 c5ba e08a 0939
000001a0: 1bae 3cbb efb0 bb39 91d0 d6ba 7dfb 9e3a
000001b0: 726c 43b9 66de 313b dde7 e43b 01c5 a43a
000001c0: d9f1 ae3a badf b4b8 c4a3 be37 b0db 303b
000001d0: 5a95 38bb cc02 ff3a f394 2f3b d38d 4e3a
000001e0: 29a5 823b 2864 52b8 3c84 33bb 9b60 53bb
000001f0: a8ea 6e3b b0bf d3ba b898 0fbb 9e5f e1b8
00000200: d5cd 9c3a ca75 8fba 8b6e bf3a 0f2a 47ba
00000210: 4f7b 80ba debf a83b 5d83 11bb 2e34 d438
00000220: 19fe f7b9 1922 273b 4abf 65bb ead5 573a
00000230: 9fbd 263b 6239 16bb 3e26 dd3a bffc 823a
00000240: 41bd b33a 99f0 153a b8f9 c53b 1e67 05bb
00000250: 0464 fd39 5733 1e3b b65a a7ba 3c7a 633b
00000260: 2c57 53b8 aed2 463b d5e1 efba a5aa 313a
00000270: 78b5 b9bb 586a 003b 83fe b1ba 41e7 363b
00000280: 3281 bc39 fef4 323b 38d3 77bb 8997 5fba
00000290: 04f5 a739 f152 15bb 12fe c8ba 90ec 043b
000002a0: be88 beb8 8cd2 84bb 1e79 963b 63e7 9d3b
000002b0: 8001 37ba d8e7 043c 2d29 4abb 2508 0f3b
000002c0: 6b40 2b3b 1577 363b 67d7 2fbb d845 843b
000002d0: e583 243b 5d38 833b eff4 d23b 2324 d93b
000002e0: af67 7839 a5ce 97bb 9e9b c63b 3cbd e5ba
000002f0: 6e8c 633b cbe8 51bb 5fec f83a 705e 55bb
00000300: 4e46 4fb8 952d ed3a 6f41 413b 5137 6ebb
00000310: c5ca a83a 8c30 eaba 14fa 4039 f11f f53a
00000320: 0811 2d3b f658 85bb ea0f da3a bb34 ccba
00000330: e0de 56bb 3551 0f3b 2a4d 263a 3b54 583b
00000340: fed0 4a3b f147 343b 2a92 bb38 0784 85ba
00000350: 4359 1fbb 4cb4 93ba 4742 453b 9d63 cf39
00000360: f212 a83b 2902 7abb 74b6 4c3a 2df0 8ebb
00000370: f737 63ba c57c 0ebb 01e2 3bbb e0a0 78bb
00000380: dd73 583b ddad 72b9 b320 5cba 2852 4dbb
00000390: 1cac 873b fb3f 2dbb 2f82 4a3b 76a2 273b
000003a0: 76ca a839 dc97 263a fe96 263b 0419 1cbb
000003b0: 4a00 bcba 31eb f3ba 7e87 5f3b 37e7 66bb
000003c0: 09be 3c3b 8bdf 54bb aa0d f4ba ceca d8ba
000003d0: e594 b43b 4954 123b e761 0d38 d6c4 c63a
000003e0: 579a 553b 1a9c 043b 3248 7c3b 2ddf 5d3a
000003f0: 1ad0 5d3a 7e6d a439 9204 d5b9 4bb4 d039

network_body._body_endoder.seq_layers.2.weight f4 [256, 256]
0.12972818 -0.010777821 -0.050924566 0.05995138 -0.08011068 -0.030805435 -0.08631896 -0.02824974
-0.06997001 -0.020875715 -0.11371446 -0.08002187 -0.05005107 -0.09420324 0.01113633 -0.024649115
-0.014555419 -0.036355574 -0.074887834 0.05975813 -0.046165667 0.024254583 0.03943331 -0.12493262
0.056584314 0.023456974 0.07172299 -0.005781854 -0.1159902 0.028618911 0.03336284 -0.013033299
0.05568088 0.075184874 -0.017349096 0.0016257259 0.1624882 0.04548923 0.021529946 0.006883571
-0.01222584 0.07655416 -0.009655713 0.0639209 0.0524595 -0.032085363 0.035524793 0.08139792
-0.02998794 -0.05081402 -0.05002223 0.063099384 0.0012118584 0.049962685 0.011676455 -0.09445042
0.04769465 0.06364121 0.011833857 0.12090354 0.026712188 0.02265659 0.04473891 -0.015361783
0.00023201201 -0.008115258 0.05108675 0.023683507 -0.006578013 -0.045011237 -0.015798356 -0.02464108
0.03654494 0.04819821 0.007097369 -0.0579234 -0.024637284 0.06819948 0.026016794 0.019874189
0.0832854 -0.015100854 0.06413255 -0.14988962 -0.06310107 -0.0064181336 -0.009966851 0.06453681
-0.03460966 0.008575319 -0.013668336 0.001608979 -0.021540541 -0.0819561 0.02897341 -0.03455806
-0.11684911 -0.06720295 -0.0739785 -0.0010174264 0.025191173 -0.028393675 -0.018498572 -0.0348866
-0.04050128 0.013032757 0.04760152 0.03912998 -0.123076215 0.10910542 0.01242491 -0.015452997
-0.041558813 -0.004515235 0.004847439 -0.06049478 -0.05249018 0.029795326 -0.031228622 0.06287707
0.03712213 -0.082550466 0.05635059 -0.0037278358 -0.063818745 -0.060488123 0.012459196 0.022118645
0.030120322 -0.1608447 0.08804947 -0.105105154 7.175637e-05 0.032295283 0.034819048 0.12446115
-0.06500845 -0.0070712534 -0.09881146 0.0025256008 -0.050647546 0.024915803 -0.09634945 -0.029545935
0.0632777 -0.025373606 0.001079098 0.014449005 0.017596805 0.030369008 0.047278173 0.048370443
-0.023429403 -0.058178175 -0.062258378 -0.009781285 0.02211466 0.018479533 0.047458682 -0.0038599437
-0.009711708 -0.040192116 -0.07262179 -0.037919268 0.042718083 -0.020758219 0.030455334 -0.02109246
-0.0018812609 -0.06703073 0.00023362663 -0.006329632 -0.016560465 -0.08187335 0.029716462 0.013492009
-0.09109486 0.18534286 -0.13871725 0.08193397 0.020853411 0.052282307 0.026979264 0.038727704
-0.060754746 -0.050354224 0.085767135 0.04454467 0.10319702 0.038551833 0.073625416 -0.03394179
0.039676405 0.06450627 -0.04000168 0.060319684 -0.05685269 0.022846952 0.007756375 0.050164867
-0.042344294 -0.09724474 -0.03428013 0.014409688 -0.03556014 -0.076722436 -0.07878097 -0.016568176
-0.068955526 -0.07401441 -0.018144185 -0.056074522 -0.19874445 0.03554621 0.010634723 0.10046226
-0.19669251 -0.10974645 -0.101331145 0.033529796 -0.02688725 0.027035443 -0.020539073 -0.020131333
0.006562109 0.11585356 -0.020587845 0.024016913 0.053126182 0.04946581 -0.121332504 -0.049642317
-0.00024355378 -0.007539354 0.080633305 2.8466942e-05 -0.023516215 -0.051705845 -0.061180986 0.047726836
0.03438086 0.023324104 0.037608303 0.026632631 -0.039465263 -0.005261346 -0.07654983 0.012899202
-0.08353138 0.052154243 -0.062079642 0.030232038 -0.075441115 0.03302883 0.099700235 -0.030608753
00000000: 77d7 043e 7595 30bc 4796 50bd 948f 753d
00000010: 1111 a4bd ae5b fcbc ffc7 b0bd 006c e7bc
00000020: 704c 8fbd 8c03 abbc 20e3 e8bd 82e2 a3bd
00000030: 5a02 4dbd a1ed c0bd 2775 363c f1ec c9bc
00000040: da79 6ebc 95e9 14bd cb5e 99bd f1c4 743d
00000050: 3618 3dbd 8cb1 c63c d384 213d acdc ffbd
00000060: f4c4 673d d728 c03c 81e3 923d b575 bdbb
00000070: 458c edbd 3572 ea3c 79a7 083d 9e89 55bc
00000080: a211 643d 87fa 993d b11f 8ebc 4f16 d53a
00000090: 4f63 263e ea52 3a3d 925f b03c 948f e13b
000000a0: e44e 48bc 6dc8 9c3d ff32 1ebc f6e8 823d
000000b0: c6df 563d f16b 03bd 7282 113d f4b3 a63d
000000c0: 45a9 f5bc 5d22 50bd 1ce4 4cbd 403a 813d
000000d0: 38d7 9e3a aca5 4c3d 9a4e 3f3c 396f c1bd
000000e0: 775b 433d 5356 823d cbe2 413c 469c f73d
000000f0: 85d3 da3c 509a b93c 2640 373d fdaf 7bbc
00000100: 4048 7339 dcf5 04bc 5740 513d ea03 c23c
00000110: 5f8c d7bb b45d 38bd 8e6b 81bc 17dc c9bc
00000120: 26b0 153d 7c6b 453d 0c91 e83b 1641 6dbd
00000130: 21d4 c9bc 2bac 8b3d 2c21 d53c 32cf a23c
00000140: 8991 aa3d 9369 77bc ed57 833d aa7c 19be
00000150: 223b 81bd 354f d2bb 014c 23bc e02b 843d
00000160: dcc2 0dbd 7f7f 0c3c 28f1 5fbc 60e4 d23a
00000170: ca75 b0bc 9ad8 a7bd a559 ed3c c18c 0dbd
00000180: 964e efbd b3a1 89bd 0a82 97bd 2a5b 85ba
00000190: b85d ce3c da99 e8bc 518a 97bc 40e5 0ebd
000001a0: ace4 25bd 5887 553c d0f9 423d c246 203d
000001b0: 620f fcbd aa72 df3d da91 4b3c 912e 7dbc
000001c0: 9339 2abd 89f4 93bb 44d7 9e3b 60c9 77bd
000001d0: f1ff 56bd 5415 f43c 2bd3 ffbc b1c5 803d
000001e0: 600d 183d 3810 a9bd e0cf 663d b54e 74bb
000001f0: 67b3 82bd 65c2 77bd a821 4c3c 2932 b53c
00000200: e5be f63c 79b4 24be 4853 b43d 5f41 d7bd
00000210: e87b 9638 0f48 043d 6b9e 0e3d 7de5 fe3d
00000220: 2623 85bd f9b5 e7bb aa5d cabd 8d84 253b
00000230: cd73 4fbd 3a1c cc3c dc52 c5bd 510a f2bc
00000240: bd97 813d 4fdc cfbc 8570 8d3a 85bb 6c3c
00000250: 2d27 903c 6dc8 f83c c2a6 413d 1620 463d
00000260: 05ef bfbc 3d4c 6ebd a402 7fbd af41 20bc
00000270: ce29 b53c 6462 973c 0964 423d 1cf7 7cbb
00000280: db1d 1fbc 7da0 24bd bcba 94bd 3c51 1bbd
00000290: 28f9 2e3d 240d aabc 777d f93c 18ca acbc
000002a0: a494 f6ba 6847 89bd acf9 7439 cd68 cfbb
000002b0: d0a9 87bc 37ad a7bd f06f f33c 960d 5d3c
000002c0: f18f babd 85ca 3d3e e50b 0ebe ffcc a73d
000002d0: c6d4 aa3c f925 563d 9e03 dd3c f1a0 1e3d
000002e0: f8d9 78bd 3b40 4ebd aea6 af3d 7974 363d
000002f0: f658 d33d 87e8 1d3d ecc8 963d 8c06 0bbd
00000300: ba83 223d dd1b 843d cdd8 23bd c611 773d
00000310: 5ede 68bd 8829 bb3c 3029 fe3b ad79 4d3d
00000320: 3671 2dbd 4028 c7bd 5269 0cbd 9d16 6c3c
00000330: 82a7 11bd a720 9dbd eb57 a1bd fcb9 87bc
00000340: 8e38 8dbd de94 97bd 1da3 94bc 66ae 65bd
00000350: aa83 4bbe e798 113d 433d 2e3c 28bf cd3d
00000360: c369 49be bfc2 e0bd b486 cfbd 8a56 093d
00000370: a642 dcbc 6f79 dd3c 8f41 a8bc 77ea a4bc
00000380: f606 d73b a244 ed3d d7a7 a8bc 1ebf c43c
00000390: d79a 593d a99c 4a3d 2d7d f8bd be55 4bbd
000003a0: 7862 7fb9 af0c f7bb 1323 a53d 4bcc ee37
000003b0: 14a5 c0bc 82c9 53bd ea98 7abd 377d 433d
000003c0: f2d2 0c3d 3112 bf3c 2a0b 1a3d ad2c da3c
000003d0: 54a6 21bd 5f67 acbb 28c6 9cbd 2d57 533c
000003e0: 8012 abbd b09f 553d 3947 7ebd 2ea9 f73c
000003f0: df80 9abd 3d49 073d a32f cc3d 35bf fabc

network_body._body_endoder.seq_layers.2.bias f4 [256]
0.0027792612 0.0011875435 0.0040717106 0.001920798 0.0024982297 -0.0022146653 0.0025451812 0.0030952513
-0.0020269824 0.0006292403 -0.0016900852 0.0019835636 0.00064011686 -0.0017708233 -0.0011119596 0.0020913724
-0.0033230232 -0.0016401416 0.0052834153 0.002294381 0.00015561368 -0.0033437354 0.0027023235 0.0051739854
-0.0017201328 0.0012386508 0.0010889469 -0.0040044407 0.0045348317 -6.763665e-05 -0.00015397208 0.003487194
0.00085717195 0.001919325 -9.5922514e-05 0.004658833 -0.0025713113 0.0030098562 0.0011095282 -0.0016526431
0.0033736876 0.0027494791 0.0025459714 -0.0013087171 0.00010072565 8.718661e-05 0.0017766273 -0.001874574
0.0030956864 0.0015507347 0.0025100429 -0.0014223581 0.0022975346 0.0026396618 -0.0008605809 0.0024258576
0.0022082224 -0.002767914 -0.0013896929 -0.0022232912 -0.0031267954 0.00036100438 -0.0041638557 -0.004239366
0.003533741 -4.8199432e-05 -0.0037861336 -0.0015041637 -0.0026125018 -0.002354516 0.00091157755 0.0031676334
0.00020509634 0.00090214086 0.002780144 0.003217886 0.0027287987 0.001466242 0.00070638664 9.70712e-05
-0.0018758916 -0.0042505404 -0.0019759187 -0.0020675117 -0.0022412303 -0.0011992279 0.0041052513 -0.0019488133
-0.00024779807 0.0010924304 0.003554245 -0.000500261 0.0016020755 -0.0011252097 0.0026029514 0.0025745877
0.0037417903 0.0031027028 0.0041635167 -0.0012158543 0.0021555442 -0.001863887 2.10278e-05 -0.0029377043
0.0012733361 0.0002849932 0.0009499709 0.001572608 -0.0016210739 -0.00081690925 0.0025873205 0.0014449888
-0.0036827396 -0.003804588 -0.0028881042 -0.001118292 -0.0006703028 -0.000638787 -0.00055912323 -0.0009108542
-0.0028698037 0.0011346864 0.0004946962 -0.00090679596 -0.0031426945 0.0011350224 -0.002119736 -0.0020451373
-0.0022152627 0.0038590026 -0.0021359439 -9.474119e-05 -0.0012145273 0.0013719703 -0.003142568 -0.0004970219
0.0020953976 0.0022710618 -0.0025511282 -0.0029846744 0.002321568 0.0010430266 0.0038544773 -0.0022072662
0.0027494195 -9.819706e-05 -0.002119981 -0.0022624235 -0.002149204 0.0027482957 -0.0006474869 -0.003579589
0.0018531143 0.0049491683 0.0014049892 -0.0014760057 -0.0022331933 -0.0026824863 0.00093395123 0.002796313
0.0018471989 0.0008412155 -0.002470773 -0.00053189584 0.0031551395 -0.0038707273 0.0006691758 0.0038054865
0.00036544475 0.0004283199 0.002641572 0.0030107365 -0.0019067939 0.003420783 -0.00024714545 0.0030098143
-6.4932436e-05 0.0047834143 0.0022583036 0.0010358893 -0.0035898525 0.0017123673 0.0028814652 -0.0019513607
-0.0024583985 -0.0015372399 0.0033129442 -0.0025251342 -0.0029450422 -0.00018759385 0.002053571 -0.0027184226
0.0032172285 0.00023794024 -0.0014272575 0.0033076212 0.0033636007 0.0016128952 -0.00032038963 0.0031516643
-0.0025435598 -0.002993513 0.0025358347 0.0035891065 0.004098435 -0.0023075074 0.002861289 0.003529586
3.0800828e-05 0.0044526476 -0.0004692835 0.0050340053 -0.0007178634 0.00028137284 -0.00037497765 -0.0021392966
-0.0018259619 -0.003200057 0.0021699378 -0.0045705386 0.0021784767 -0.0026908375 0.0012715196 -0.0015930145
-0.0009260135 0.0028332935 -0.0023964252 -0.0021132415 0.0033355667 0.002117799 -0.00049619627 -0.0006135084
0.0033261855 0.0012945873 -7.260198e-05 -0.00022086494 -0.0019209809 -0.0022450914 0.0037969172 -0.000591698
0.003417615 0.0029483153 -0.0005587566 -0.0026473897 0.0029063236 -0.0009525597 -0.0037393724 0.0023711342
0.0018090032 0.0018929155 0.0041081985 -0.0025939315 0.001507972 -0.00031771074 -7.781126e-05 -0.0044674473
00000000: 4424 363b 59a7 9b3a fc6b 853b 49c3 fb3a
00000010: 57b9 233b eb23 11bb 0ecd 263b b3d9 4a3b
00000020: 1fd7 04bb 9af3 243a d985 ddba adfe 013b
00000030: 84cd 273a f81a e8ba 2cbf 91ba 680f 093b
00000040: 14c7 59bb 05fa d6ba 8020 ad3b 535d 163b
00000050: 3b2c 2339 9222 5bbb 7719 313b 898a a93b
00000060: 1476 e1ba 395a a23a ffba 8e3a af37 83bb
00000070: ed98 943b 26d8 8db8 9173 21b9 6889 643b
00000080: d6b3 603a dc91 fb3a 022a c9b8 20a9 983b
00000090: 7283 28bb 0241 453b 976d 913a 809d d8ba
000000a0: 1619 5d3b 9b30 343b 50da 263b 4289 abba
000000b0: ac3c d338 f4d7 b638 b8dd e83a 44b4 f5ba
000000c0: 00e1 4a3b 0642 cb3a 887f 243b 6b6e baba
000000d0: 3c92 163b 2dfe 2c3b 9b98 61ba 23fb 1e3b
000000e0: d3b7 103b e465 35bb 5b26 b6ba a3b4 11bb
000000f0: ecea 4cbb 3045 bd39 f470 88bb 61ea 8abb
00000100: 5696 673b bf29 4ab8 c820 78bb 5c27 c5ba
00000110: 8236 2bbb 394e 1abb eff6 6e3a 1298 4f3b
00000120: 210f 5739 a67d 6c3a 1433 363b 2be3 523b
00000130: a5d5 323b eb2e c03a ce2c 393a b492 cb38
00000140: 7ae0 f5ba 1e48 8bbb 6a7e 01bb 177f 07bb
00000150: 9be1 12bb 692f 9dba 5885 863b 536f ffba
00000160: e5ea 81b9 e22f 8f3a 56ee 683b f323 03ba
00000170: bcfc d13a c67b 93ba 4796 2a3b 6aba 283b
00000180: d338 753b b756 4b3b 1c6e 883b 4d5d 9fba
00000190: 0844 0d3b ab4d f4ba db64 b037 8086 40bb
000001a0: 12e6 a63a 246b 9539 7807 793a f81f ce3a
000001b0: 377a d4ba da25 56ba 0990 293b c765 bd3a
000001c0: 1e5a 71bb 6556 79bb 5946 3dbb a793 92ba
000001d0: 42b7 2fba 4574 27ba 2092 12ba 64c6 6eba
000001e0: 5113 3cbb c2b9 943a 80ae 013a 0cb6 6dba
000001f0: aaf5 4dbb 08c5 943a 45eb 0abb b607 06bb
00000200: f12d 11bb 52e7 7c3b 31fb 0bbb caaf c6b8
00000210: c630 9fba afd3 b33a 8bf3 4dbb 934a 02ba
00000220: f052 093b 18d6 143b d430 27bb 879a 43bb
00000230: 7325 183b 2ab6 883a 669b 7c3b c8a7 10bb
00000240: 9b2f 343b 25ef cdb8 61ef 0abb 2b45 14bb
00000250: a9d9 0cbb c01c 343b 1cbc 29ba 8a97 6abb
00000260: 33e4 f23a a22c a23b 9d27 b83a 8876 c1ba
00000270: c45a 12bb a7cc 2fbb 68d4 743a 5942 373b
00000280: b61d f23a 0485 5c3a b1ec 21bb ed6e 0bba
00000290: 75c6 4e3b 07ac 7dbb a16b 2f3a 7865 793b
000002a0: 2a99 bf39 2090 e039 391e 2d3b c74f 453b
000002b0: 63ed f9ba 372f 603b 4d93 81b9 4e40 453b
000002c0: 562c 88b8 30be 9c3b 0c00 143b adc6 873a
000002d0: bb43 6bbb 8371 e03a f7d6 3c3b cdc4 ffba
000002e0: 151d 21bb 367d c9ba fb1d 593b b97c 25bb
000002f0: 9c01 41bb d7b4 44b9 3495 063b 9027 32bb
00000300: 23d8 523b 997f 7939 d112 bbba adc4 583b
00000310: db6f 5c3b c867 d33a f8f9 a7b9 278c 4e3b
00000320: dab1 26bb d02e 44bb 3f30 263b 3737 6b3b
00000330: 2a4c 863b 8d39 17bb 7784 3b3b a050 673b
00000340: 2330 0138 84e7 913b 2a0a f6b9 4cf4 a43b
00000350: ff2e 3cba 3985 9339 a698 c4b9 7133 0cbb
00000360: 1d55 efba 0cb8 51bb 8435 0e3b 75c4 95bb
00000370: c6c4 0e3b c358 30bb 1ea9 a63a b2cc d0ba
00000380: b7bf 72ba c7ae 393b 580d 1dbb 4f7e 0abb
00000390: 8699 5a3b c5ca 0a3b 2b13 02ba dad3 20ba
000003a0: 22fc 593b 24af a93a e441 98b8 fb97 67b9
000003b0: 6cc9 fbba 6222 13bb b3d5 783b 2e1c 1bba
000003c0: 11fa 5f3b 8638 413b 8579 12ba d47f 2dbb
000003d0: 0578 3e3b 33b5 79ba 4210 75bb 0865 1b3b
000003e0: 131c ed3a b41b f83a 119e 863b f3fe 29bb
000003f0: 25a7 c53a 6a92 a6b9 9a2e a3b8 aa63 92bb

action_model._discrete_distribution.branches.0.weight f4 [3, 256]
-0.004247429 0.011039613 -0.011967224 -0.0063254554 -0.0022380908 0.009099079 -0.00024687202 0.00092904194
0.00282315 -0.0046747443 -0.006324847 -0.0004448574 0.003622232 -0.0061013033 -0.002295741 0.00972098
0.010467116 0.005573133 0.003602599 -0.003208569 0.008610239 -0.00533299 -0.012722781 -0.0053539993
0.0068282546 -0.009599612 -0.0051750736 0.0087384125 -0.004289689 -0.012402267 0.00019084831 -0.0046840683
0.0010782786 -0.0030503676 0.004689483 -0.007826279 0.0014084589 -0.0071199224 0.0017590745 -0.008129344
-0.009598421 0.010755163 0.001555148 0.009939291 -0.006416661 0.0005231601 -0.011351009 0.010717017
-0.0019198983 -0.007146801 -0.0134110525 0.008724805 -0.01328528 0.006092482 -0.011882421 -0.009795104
0.00023375897 0.009313524 0.0047395183 -0.0020148442 0.0019055502 -0.0039845877 8.724518e-05 0.008077847
-0.007838473 0.0039680474 0.00556574 -0.006758268 0.000784408 -0.0036646486 0.0003164862 0.011043204
-0.003849687 0.007980396 -0.0021732473 0.0025206306 0.0034057954 -0.0023533246 0.0014420981 0.012785105
0.0019257787 0.0034428618 0.0067889146 0.0037103808 -0.0016313767 0.012398684 0.0008024746 -0.0007687479
-0.002947617 0.0010220434 -0.012515924 -0.001672607 -0.0053094574 -0.0016550687 -0.004690914 -0.012204521
-0.012950621 -0.008233474 -0.010495833 0.0009992645 0.0096805785 -0.012459414 0.0036066894 -0.00810321
3.0099247e-05 0.0076039964 -0.0045103934 0.016193125 -0.0014147642 -0.0049422216 -0.010788193 -0.0147745265
0.008158947 -0.0009033888 0.0103020435 0.005737228 0.0043636323 0.007215155 0.006698235 0.0057087354
-0.00084866746 -0.0040942123 -0.001835874 0.0050034053 0.006680683 0.010020453 0.002580927 -0.0010993083
-0.0030077186 -0.008455211 0.00067195646 0.0098418435 0.0058791805 -0.008034672 -0.0007148618 -0.008593086
-0.0042644674 -0.007754621 0.005123983 -0.0027532128 -0.0024413958 -0.0052592633 -0.003114942 0.0046824724
0.0050058276 0.008892971 0.0013977545 0.0042701997 0.0055155056 -0.0075217783 -0.0073795347 -0.001131503
0.009565481 -0.006292458 -0.000565863 0.009590469 0.0011803805 5.2027914e-05 -0.002406965 -0.010200397
-0.008151387 0.0008307 -0.0026611707 0.0030470926 -0.0017360551 0.008073242 -0.003343435 0.0010822851
0.011713526 0.012598172 -0.0057749944 0.0032820334 -0.0008203841 0.0038638334 0.00797179 0.0038941905
-0.0031044 0.0030609835 -0.003107581 -0.00010599576 0.001464361 -0.0028210764 -0.007165126 0.00045879802
-0.0002760805 0.010538615 -0.015318091 0.0058127004 -0.00371264 0.010180795 -0.0020491306 -0.004078559
-0.005051793 -0.0040160287 0.0023106802 0.009275289 -9.408659e-05 0.0066893706 0.011390539 0.0032114584
0.008582685 0.0029016144 -0.0026102248 -0.0059304233 -0.011130339 -0.0044171736 -0.011992856 0.015403226
-0.011756075 0.0016105338 -0.005545908 -0.008708451 -0.0014218675 0.002853866 0.010121748 0.012699603
0.0031036986 0.0039518997 -0.009495641 0.00776997 -0.0004895234 0.0007638939 -6.723791e-05 0.013267451
0.006954258 0.008241255 0.007636017 -0.002153631 -0.011362918 -0.0035450673 -0.015653685 -0.0032949508
0.0031031691 0.0032540492 -0.004548885 0.0074174083 0.00092918385 -0.0031920339 -0.01154944 0.0025323115
-0.0033236986 0.0038513362 -0.0029217778 0.0055568814 0.00532628 -0.0053238976 -0.0026668126 -0.006734751
-0.00040950137 0.0045770644 -0.021461083 -0.00090898655 -0.0024090577 0.0015368803 0.0022053355 0.0031844145
00000000: 042e 8bbb 7edf 343c 2d12 44bc c445 cfbb
00000010: efac 12bb 4e14 153c 9a6e 81b9 f38a 733a
00000020: 9904 393b 992e 99bb aa40 cfbb c03b e9b9
00000030: f862 6d3b 71ed c7bb 2574 16bb bf44 1f3c
00000040: 447e 2b3c d49e b63b 9519 6c3b db46 52bb
00000050: f611 0d3c 5dc0 aebb 3673 50bc 9a70 afbb
00000060: 8dbf df3b b147 1dbc aa93 a9bb 8f2b 0f3c
00000070: 8590 8cbb e132 4bbc 741e 4839 d07c 99bb
00000080: 0755 8d3a ade8 47bb 3caa 993b cb39 00bc
00000090: 0a9c b83a 3d4e e9bb bf90 e63a f130 05bc
000000a0: b242 1dbc 6c36 303c 1cd6 cb3a 68d8 223c
000000b0: db42 d2bb ae24 093a 95f9 39bc 6d96 2f3c
000000c0: 19a5 fbba b62f eabb 08ba 5bbc 7cf2 0e3c
000000d0: 81aa 59bc 71a3 c73b 7cae 42bc a57b 20bc
000000e0: 321d 7539 c097 183c f64d 9b3b 7a0b 04bb
000000f0: a8c3 f93a 2591 82bb 66f7 b638 f258 043c
00000100: f06c 00bc 6506 823b d060 b63b 7674 ddbb
00000110: bba0 4d3a 9a2a 70bb 0fee a539 8eee 343c
00000120: 084b 7cbb 35c0 023c 0a6d 0ebb 2a31 253b
00000130: c433 5f3b 3c3a 1abb c804 bd3a 9e78 513c
00000140: 696a fc3a a3a1 613b 8b75 de3b dc29 733b
00000150: ebd3 d5ba da23 4b3c 295d 523a cc85 49ba
00000160: cf2c 41bb 16f6 853a 970f 4dbc 613b dbba
00000170: f5fa adbb e4ee d8ba 3db6 99bb 79f5 47bc
00000180: d72e 54bc b1e5 06bc b7f6 2bbc c1f9 823a
00000190: 4a9b 1e3c 9222 4cbc 355e 6c3b 53c3 04bc
000001a0: a47d fc37 f22a f93b eccb 93bb 72a7 843c
000001b0: 9c6f b9ba 5cf2 a1bb f6c0 30bc db10 72bc
000001c0: 1bad 053c 65d1 6cba e7c9 283c 5bff bb3b
000001d0: cdfc 8e3b 1b6d ec3b de7c db3b 5810 bb3b
000001e0: 1c79 5eba be28 86bb b6a1 f0ba 9bf3 a33b
000001f0: a1e9 da3b d32c 243c c524 293b aa16 90ba
00000200: 251d 45bb ba87 0abc 3c26 303a af3f 213c
00000210: 24a6 c03b dba3 03bc 9065 3bba 04ca 0cbc
00000220: f2bc 8bbb 7a1a febb 16e7 a73b 3f6f 34bb
00000230: d3ff 1fbb e655 acbb 0e24 4cbb 6d6f 993b
00000240: ed07 a43b d3b3 113c dc34 b73a 08ed 8b3b
00000250: 6abb b43b 4079 f6bb 06d0 f1bb f14e 94ba
00000260: 89b8 1c3c f730 cebb 6c56 14ba 5821 1d3c
00000270: ffb6 9a3a 8c38 5a38 2cbe 1dbb 911f 27bc
00000280: 658d 05bc 55c3 593a 0967 2ebb bbb1 473b
00000290: 588c e3ba a245 043c 881d 5bbb 76db 8d3a
000002a0: 17ea 3f3c 9068 4e3c 2a3c bdbb 6217 573b
000002b0: 0c0f 57ba 5e38 7d3b 1c9c 023c ad35 7f3b
000002c0: 3073 4bbb c89a 483b 8fa8 4bbb 0a4a deb8
000002d0: cdef bf3a cfe1 38bb 6fc9 eabb d48a f039
000002e0: e6be 90b9 28aa 2c3c bbf8 7abc 7778 be3b
000002f0: c34f 73bb 59cd 263c b54a 06bb 6fa5 85bb
00000300: 8389 a5bb e498 83bb c86e 173b 62f7 173c
00000310: 5a50 c5b8 8232 db3b 629f 3a3c 5577 523b
00000320: 649e 0c3c 0329 3e3b 4e10 2bbb ff53 c2bb
00000330: 065c 36bc f0bd 90bb af7d 44bc d05d 7c3c
00000340: 8d9c 40bc 8c18 d33a 73ba b5bb e4ad 0ebc
00000350: f55d baba ed07 3b3b b0d5 253c ff11 503c
00000360: 6c67 4b3b f07e 813b 9b93 1bbc 3c9b fe3b
00000370: 5c53 00ba 0d40 483a 1402 8db8 b95f 593c
00000380: 8be0 e33b 5406 073c 8e37 fa3b ef23 0dbb
00000390: 882b 3abc 5c54 68bb 283c 80bc 1af0 57bb
000003a0: 8a5e 4b3b e341 553b d00e 95bb bb0d f33b
000003b0: 7994 733a 7131 51bb dd39 3dbc 23f5 253b
000003c0: 69d2 59bb b366 7c3b 4c7b 3fbb 8016 b63b
000003d0: 1388 ae3b 1774 aebb b1c5 2ebb 30af dcbb
000003e0: 58b2 d6b9 33fb 953b 27cf afbc 0e49 6eba
000003f0: 48e1 1dbb 2571 c93a 6487 103b 9cb1 503b

action_model._discrete_distribution.branches.0.bias f4 [3]
-0.0030933935 0.0029073546 0.0005352644
00000000: 88ba 4abb 5189 3e3b fc50 0c3a

action_model._discrete_distribution.branches.1.weight f4 [3, 256]
-0.0020276362 0.0046207914 -0.007704686 0.005780253 -0.009168919 0.0016034868 -0.004815986 -0.011245192
0.014638503 0.008980495 0.011447468 -0.0044930587 0.007836961 0.008030273 -0.0016071736 -0.0005029027
0.014916234 -0.008520493 2.0010651e-05 -0.00344945 0.0038669107 0.0064661414 -0.0047593634 -0.004557836
0.0054989005 -0.007236524 0.0044487636 0.0060267337 -0.0064378707 0.008962808 -0.010886085 -0.00859105
-0.0059338333 -0.00801989 -0.0066588847 -0.0032730962 0.005448417 0.006901758 -0.0031316218 0.010357181
-0.00558326 0.0044100513 -0.009142419 -0.0017811564 0.00037984762 -0.0015958132 -0.0024748067 0.014988762
0.0011446517 0.0076157823 -0.008300176 0.015542756 0.009989192 -0.009965359 -0.0033894093 -0.0021805642
0.004059912 0.0015439001 0.0068707685 -0.0047274013 0.0032714098 -0.0063648494 0.0027832566 0.0072799954
-0.011994116 -0.0011775801 0.005793353 -0.0041424846 0.003598708 0.010519583 -0.0077338703 0.0033618778
0.00097585865 -0.0027440474 0.0007778257 0.0070181447 -0.01817177 -0.0011888044 -0.0036491891 0.0015858947
0.009005778 0.0032773009 0.0053769797 0.0016894473 0.0026224072 0.009949836 -0.0059642857 -0.0028567861
-0.005091312 0.008577393 -0.009525074 0.002735604 0.006832657 0.004085828 -0.011037086 -0.0016766238
0.0012963811 -0.0015963581 -0.010733855 0.006045853 -0.007136882 0.011644789 -0.0024842268 0.010545736
-0.006371462 -0.006277969 -0.0006593412 -0.007202444 -0.0037884712 0.014200919 -0.0022972696 -0.0070289886
0.008663389 0.0027578147 0.007184429 0.009925044 0.008102986 0.0020737883 0.0006437414 0.009730819
0.0016330032 -0.0015392579 0.0058428207 0.0057975804 -0.00609857 0.002713584 0.01384502 0.012718019
0.014593313 -0.0066540227 0.0014525967 0.0055514104 0.0057135704 -0.0050534094 0.007835537 0.0021382521
-0.00408596 -0.0048398837 -0.0033371965 0.010693143 -0.002126962 -0.005362679 -0.007164104 -0.0027225725
-0.00078957295 0.0032116673 0.004977933 -0.0019303309 0.0037867087 -0.0042851907 -0.003061341 0.009027937
-0.0076757874 -0.0008848737 -0.009852769 0.0033547867 0.010976142 -0.0011868327 -0.008655449 -0.007920545
-0.0036538262 0.01049062 -0.003811637 -0.0075452384 -0.0006823789 -0.0043633194 -0.0079564 -0.019963605
0.0056425184 -0.0061322995 3.133659e-05 -7.454473e-05 0.010396818 -0.0065913675 0.0053401245 -0.007092954
-0.0013031343 -0.0034256296 -0.00013860346 -0.009887312 0.0013734641 -0.009396752 -0.004581 0.0049468568
0.0025582386 0.004299384 -0.0032311198 -0.0071518784 0.008297961 -0.003493915 -0.009004184 0.0012088703
-0.011218911 -0.009423941 0.0033671188 -0.004765146 -0.00083191256 -0.009825769 -0.0031455758 -0.012810809
-0.0021731453 0.0030499564 -0.007179041 -0.008854005 -0.0042258655 0.0051643546 -0.0044107214 0.0053592925
-0.0065027997 -0.000983345 0.0017330834 -0.008223051 -0.000115584575 0.005994583 -0.0044233254 -0.00089789677
-0.002328607 -0.007020446 0.002352132 0.00777613 -0.0065445513 0.0064511374 -0.0049970993 -0.003085972
-0.008375651 -0.00660887 -0.0030611698 -0.004263977 -0.0036944675 -0.007161665 0.003661189 0.0061087995
-0.008142 -0.003934949 0.010862284 0.0046779276 0.0021888502 0.008236283 -0.00078803115 -0.0027507257
-0.011086686 -0.009762304 0.001896674 0.0013434603 -0.00514133 0.011337427 0.010831354 0.0012652536
-0.01156737 -0.004428088 -0.0038062748 0.0024110246 -0.0050654146 0.0071458635 0.0055270144 0.0007411304
00000000: 17e2 04bb 026a 973b 9777 fcbb 4768 bd3b
00000010: 3c39 16bc 172c d23a 6bcf 9dbb c13d 38bc
00000020: 55d6 6f3c ed22 133c 298e 3b3c 823a 93bb
00000030: 9966 003c 6891 033c cca7 d2ba 3bd5 03ba
00000040: 3863 743c 8a99 0bbc 8cdc a737 2b10 62bb
00000050: ff6b 7d3b ede1 d33b 6ff4 9bbb e659 95bb
00000060: 1f30 b43b 5d20 edbb efc6 913b e87b c53b
00000070: c6f4 d2bb bed8 123c 8d5b 32bc 7ac1 0cbc
00000080: 9a70 c2bb db65 03bc c632 dabb 7181 56bb
00000090: a288 b23b 2428 e23b e53b 4dbb 2ab1 293c
000000a0: c8f3 b6bb 3182 903b 16ca 15bc b175 e9ba
000000b0: 4926 c739 9b2a d1ba 5e30 22bb 6d93 753c
000000c0: 2308 963a d08d f93b 76fd 07bc 0ba7 7e3c
000000d0: b5a9 233c bf45 23bc da20 5ebb cce7 0ebb
000000e0: 0309 853b b15c ca3a 2f24 e13b 51e8 9abb
000000f0: 2665 563b 3a90 d0bb 4c67 363b 078d ee3b
00000100: f882 44bc 0859 9aba 2bd6 bd3b aebd 87bb
00000110: 4dd8 6b3b 545a 2c3c 686c fdbb f352 5c3b
00000120: c4d0 7f3a 7ad5 33bb 00e7 4b3a 77f8 e53b
00000130: f7dc 94bc a8d1 9bba 3c27 6fbb ccdd cf3a
00000140: f88c 133c fcc7 563b 6031 b03b 7270 dd3a
00000150: b1dc 2b3b a304 233c 0e70 c3bb eb38 3bbb
00000160: 05d5 a6bb 3288 0c3c 0e0f 1cbc d247 333b
00000170: 7be4 df3b 69e2 853b e5d4 34bc 29c2 dbba
00000180: 55eb a93a e43c d1ba 0ddd 2fbc 4a1c c63b
00000190: 81dc e9bb c9c9 3e3c 69ce 22bb 06c8 2c3c
000001a0: b2c7 d0bb 6cb7 cdbb a4d7 2cba 7b02 ecbb
000001b0: 0048 78bb f9aa 683c ca8d 16bb 6e53 e6bb
000001c0: e3f0 0d3c 74bc 343b 5c6b eb3b a79c 223c
000001d0: 63c2 043c 65e8 073b c1c0 283a 036e 1f3c
000001e0: 7f0a d63a edc0 c9ba 2275 bf3b a1f9 bd3b
000001f0: 83d6 c7bb 63d6 313b 39d6 623c 3d5f 503c
00000200: cb18 6f3c fd09 dabb 0f65 be3a 9be8 b53b
00000210: e738 bb3b 1297 a5bb a060 003c eb21 0c3b
00000220: 84e3 85bb e397 9ebb deb4 5abb 4b32 2f3c
00000230: 8064 0bbb 69b9 afbb dcc0 eabb 306d 32bb
00000240: 58fb 4eba d67a 523b ee1d a33b 2803 fdba
00000250: 6e2a 783b c96a 8cbb c7a0 48bb eae9 133c
00000260: 2c85 fbbb def6 67ba 826d 21bc fbdb 5b3b
00000270: 47d5 333c 7f8f 9bba 96cf 0dbc 2cc5 01bc
00000280: 0875 6fbb d9e0 2b3c a8cc 79bb 0c3e f7bb
00000290: ace1 32ba 2dfa 8ebb 8f5b 02bc b78a a3bc
000002a0: e0e4 b83b 75f1 c8bb 686f 0338 e654 9cb8
000002b0: 6a57 2a3c 66fc d7bb 36fc ae3b 036c e8bb
000002c0: eecd aaba 8780 60bb 1556 11b9 64fe 21bc
000002d0: cf05 b43a d6f4 19bc 371c 96bb 3e19 a23b
000002e0: 1fa8 273b d9e1 8c3b 32c1 53bb 4e5a eabb
000002f0: 2cf4 073c 2bfa 64bb 4986 13bc f572 9e3a
00000300: 86cf 37bc e066 1abc e1aa 5c3b f124 9cbb
00000310: b514 5aba 43fc 20bc 0126 4ebb 6de4 51bc
00000320: 546b 0ebb c7e1 473b 293e ebbb 6310 11bc
00000330: 2179 8abb bf39 a93b d087 90bb 019d af3b
00000340: 7015 d5bb 95e3 80ba a128 e33a fab9 06bc
00000350: ff65 f2b8 356e c43b 8bf1 90bb d560 6bba
00000360: 8b9b 18bb c50b e6bb 3a26 1a3b e8ce fe3b
00000370: ad73 d6bb 1064 d33b b5be a3bb 053e 4abb
00000380: 073a 09bc 388f d8bb e89d 48bb d5b8 8bbb
00000390: e11e 72bb 66ac eabb 8ff0 6f3b 532c c83b
000003a0: 0666 05bc bff0 80bb b9f7 313c 4d49 993b
000003b0: d072 0f3b 7af1 063c e093 4eba 8545 34bb
000003c0: eea4 35bc 12f2 1fbc d299 f83a 0c17 b03a
000003d0: 9a78 a8bb 9ec0 393c fe75 313c ded6 a53a
000003e0: 1185 3dbc 7f19 91bb b272 79bb 4802 1e3b
000003f0: c7fb a5bb d927 ea3b f51b b53b 6b48 423a

action_model._discrete_distribution.branches.1.bias f4 [3]
-0.0033627483 0.002638128 0.0020757623
00000000: 8e61 5cbb 71e4 2c3b 8309 083b

action_model._discrete_distribution.branches.2.weight f4 [2, 256]
-0.0020614907 -0.0075871483 -0.00096715573 0.004001143 0.005136693 0.0021450608 -0.005523355 -0.008167275
-0.0063303127 0.0031676763 0.012732005 0.003386254 -0.0007584075 0.0019164389 -0.005348437 0.008377711
-0.0064849365 0.0064573055 0.0036808474 0.00021432398 -0.00768797 0.0026901907 -0.003123205 0.0023260827
0.0042800405 -0.004304854 0.0048817447 -0.0026664159 0.0037561979 -0.012513178 -0.010466697 -0.014833979
-0.004482389 0.0030434395 0.004586545 -0.00457225 0.0018100569 -0.0041674213 0.0008136058 0.0012674266
-0.013955622 0.0030821513 -0.00920429 -0.004797688 0.010934827 -0.002586741 0.003597174 -0.003479999
-0.0077560944 -0.0014595768 0.011982022 -0.0003340902 0.0060535227 -0.0053568115 0.00093564484 -0.0046565454
0.0049482356 0.008819229 -0.0029734825 -0.00045717967 -0.0030927106 0.01721623 0.0113993 0.0038241183
-0.0046869405 -0.010153073 -0.0053746477 -0.010064028 0.010771739 0.0090148 0.0049973847 -0.006416862
0.0010082606 -0.00027517887 -0.003945393 0.0026156397 0.007309967 0.0004402903 0.00319225 0.0054556187
0.008037496 0.0042902036 -0.0059000584 -0.0051759826 0.0045649805 -0.009892158 -0.004196139 -0.0005588505
-0.0010791896 0.00093837135 -0.0042564473 -0.0008666655 -0.008489115 -0.0009877336 -0.001466505 -0.003501345
0.0015574193 -0.0073390324 -0.005265705 -0.009452332 0.0043395595 0.0026919744 0.007052866 -0.008097887
0.010252905 -0.002162362 -0.01730783 -0.012328298 0.017029665 0.0006521753 -0.00084530294 0.012891723
0.006502532 0.002092155 0.008034804 9.269738e-05 0.0045144954 0.010177331 0.0017567899 0.015966453
0.0016660906 0.014291492 -0.0008570565 0.014327377 0.008536191 0.0037704885 0.007740405 0.009645242
-0.0018539368 0.006580261 0.00033017882 -0.0092847105 0.002034222 0.007304741 0.008887172 0.0020917747
0.00018845183 0.003980511 0.00082820165 0.0023572617 -0.01773913 -0.0032667706 0.0063848565 -0.003631697
-0.014514513 -0.0030293283 0.005032848 0.008782184 0.0054992125 -0.001182199 0.0037958396 -0.0117076365
0.0069816518 -0.011113552 -0.0013546896 -0.011288472 0.0017169045 0.0040104045 0.005494036 0.0073740045
-0.0073399846 0.0014714826 -0.0011105157 0.014232296 0.008970456 0.008968286 0.0048507745 -0.014790644
0.009937571 -0.001451358 0.0012436773 0.0040239817 -0.0011734758 0.0047788816 0.005415744 -0.0067600305
-0.003783948 0.0007305745 -0.011162397 0.0029963 -0.0025627767 0.0017469476 -0.009444315 0.007270113
0.011013145 0.0074881273 -0.007504347 -0.010166371 -0.0027589563 -0.0072468338 0.010099478 -0.00089113606
0.008308609 0.0007848067 0.005329276 -0.0067495434 0.0012215365 0.001019691 0.001341717 -0.0068838284
-0.0012124236 0.0027203136 -0.0047831624 0.0015990175 -0.0021851042 0.008189947 -0.00016501636 0.0015750688
-0.0003224086 0.002668302 -0.009779185 -0.0014211895 -0.008579208 0.005716687 0.00089617225 0.007755616
-0.0011559577 0.006871012 -0.0013071942 0.0041776476 -0.00785451 -0.0014002043 -0.008989145 -0.0030742756
-0.010915635 -0.00031432635 0.0014322826 -0.00045891496 0.012180575 0.005695353 -0.01091557 0.0064154244
-0.00046949586 -0.007814302 -0.008621412 -0.008145376 -0.0022858167 0.007297282 0.0063507305 4.6361143e-05
-0.008417959 0.0014389912 -0.006489253 0.00404169 0.0026398401 0.0020903077 -0.013293026 -0.0063752024
0.017627688 -0.0017428363 -0.0042409976 0.004784713 0.0041989116 0.0030520514 -0.0029912181 0.008899981
00000000: 131a 07bb 9d9d f8bb b988 7dba 051c 833b
00000010: b451 a83b 2694 0c3b 43fd b4bb 09d0 05bc
00000020: 836e cfbb ca98 4f3b e699 503c eaeb 5d3b
00000030: decf 46ba 0531 fb3a f141 afbb ab42 093c
00000040: 977f d4bb ce97 d33b 5f3a 713b 28bc 6039
00000050: 5eeb fbbb e94d 303b afae 4cbb 3171 183b
00000060: 953f 8c3b bc0f 8dbb 0bf7 9f3b 09bf 2ebb
00000070: 8b2a 763b 1304 4dbc 827c 2bbc 380a 73bc
00000080: 01e1 92bb 7174 473b ba4a 963b d0d2 95bb
00000090: 6e3f ed3a dd8e 88bb 2948 553a c81f a63a
000000a0: 1fa6 64bc ebfd 493b 97cd 16bc ed35 9dbb
000000b0: fd27 333c 5086 29bb 91be 6b3b b210 64bb
000000c0: d626 febb 454f bfba 3e50 443c d428 afb9
000000d0: a15c c63b 3188 afbb 1046 753a ef95 98bb
000000e0: cf24 a23b 877e 103c c2de 42bb 9eb1 efb9
000000f0: 13af 4abb 0d09 8d3c 21c4 3a3c 0f9e 7a3b
00000100: e894 99bb 1359 26bc d01d b0bb 98e3 24bc
00000110: f37b 303c d0b2 133c 1ac1 a33b 8a44 d2bb
00000120: 9d27 843a e245 90b9 5b48 81bb 276b 2b3b
00000130: 7388 ef3b c4d6 e639 1135 513b 0cc5 b23b
00000140: b4af 033c d694 8c3b 4755 c1bb 4a9b a9bb
00000150: d595 953b b812 22bc c47f 89bb d27f 12ba
00000160: 9873 8dba 09fd 753a ab79 8bbb f030 63ba
00000170: ee15 0bbc d776 81ba be37 c0ba d276 65bb
00000180: 5222 cc3a 447c f0bb ef8b acbb f4dd 1abc
00000190: dd32 8e3b d66b 303b ba1b e73b 00ad 04bc
000001a0: cdfb 273c 6ab6 0dbb 26c9 8dbc a1fc 49bc
000001b0: cc81 8b3c bef6 2a3a 5297 5dba ce37 533c
000001c0: 3113 d53b 891c 093b 69a4 033c 8766 c238
000001d0: 55ee 933b d2be 263c 1644 e63a 14cc 823c
000001e0: b960 da3a dd26 6a3c 17ac 60ba 60bd 6a3c
000001f0: 61db 0b3c 4d1a 773b 39a3 fd3b 1407 1e3c
00000200: ccff f2ba 3b9f d73b da1b ad39 e61e 18bc
00000210: 9550 053b 9c5c ef3b 809b 113c 2816 093b
00000220: 279b 4539 f26e 823b ac1b 593a 4a7c 1a3b
00000230: a751 91bc 5117 56bb 0f38 d13b c401 6ebb
00000240: 48ce 6dbc b287 46bb 97ea a43b 26e3 0f3c
00000250: bd32 b43b 04f4 9aba 9fc3 783b 63d1 3fbc
00000260: 57c6 e43b 9e15 36bc d78f b1ba 49f3 38bc
00000270: c109 e13a b669 833b 5007 b43b a2a1 f13b
00000280: 4184 f0bb c3de c03a b98e 91ba 932e 693c
00000290: d2f8 123c b8ef 123c 3ff3 9e3b 7554 72bc
000002a0: 32d1 223c 7e3b beba e302 a33a 9bdb 833b
000002b0: 50cf 99ba 2a98 9c3b 8e76 b13b 3f83 ddbb
000002c0: 1dfc 77bb 0684 3f3a 7de2 36bc 935d 443b
000002d0: 42f4 27bb d6f9 e43a 54bc 1abc 213a ee3b
000002e0: 7a70 343c f75e f53b 06e7 f5bb da90 26bc
000002f0: 9bcf 34bb d976 edbb 4878 253c 219b 69ba
00000300: d520 083c 7cbb 4d3a 35a1 ae3b 462b ddbb
00000310: f71b a03a 27a7 853a 8ddc af3a bd91 e1bb
00000320: 2fea 9eba 4a47 323b 13bc 9cbb 2096 d13a
00000330: f733 0fbb 212f 063c 3e08 2db9 8a72 ce3a
00000340: f308 a9b9 aede 2e3b e038 20bc 3547 baba
00000350: ce8f 0cbc 0c53 bb3b 1aed 6a3a d322 fe3b
00000360: 8183 97ba 3a26 e13b 2956 abba a6e4 883b
00000370: 34b0 00bc 0f87 b7ba 3547 13bc c979 49bb
00000380: 7ed7 32bc 2bcc a4b9 6ebb bb3a 869a f0b9
00000390: 0991 473c 15a0 ba3b 38d7 32bc 7b38 d23b
000003a0: ab26 f6b9 8f07 00bc d340 0dbc 2f74 05bc
000003b0: a4cd 15bb 0a1e ef3b ca19 d03b e673 4238
000003c0: 7beb 09bc 889c bc3a cda3 d4bb 2770 843b
000003d0: 2b01 2d3b 8bfd 083b feca 59bc 13e7 d0bb
000003e0: f167 903c e26f e4ba 11f8 8abb 15c9 9c3b
000003f0: 0697 893b ed04 483b 5008 44bb 3ad1 113c

action_model._discrete_distribution.branches.2.bias f4 [2]
-0.0014640412 0.0014640414
00000000: 12e5 bfba 14e5 bf3a
