ML_stuff/results/cw_03/FindCubeWife/FindCubeWife-3999984.onnx (onnx, 356907 bytes, 13 tensors)

discrete_act_size_vector f4 [1, 4]
3.0 3.0 2.0 2.0
00000000: 0000 4040 0000 4040 0000 0040 0000 0040

network_body._body_endoder.seq_layers.0.weight f4 [256, 69]
0.029837098 -0.1846945 -0.00664048 0.15993628 0.33858702 0.1822696 -0.23060486 -0.14387183
-0.06933694 0.028271804 0.060755547 0.11022924 -0.058625713 -0.16775164 0.19593073 0.101650715
-0.3767643 0.023458647 -0.2792571 -0.0034492598 -0.029262375 0.14278354 -0.05419583 -0.04992498
0.18484268 -0.2103054 -0.22280468 0.17695025 -0.007532757 0.25194383 -0.2974915 0.10332382
0.019766275 -0.11617733 -0.040872343 0.034429368 0.01515015 0.19529076 -0.1253183 0.082902394
0.24659993 -0.006580845 0.079977006 -0.00032427174 -0.17391808 0.24746594 -0.04157366 0.19051766
-0.047869626 0.04899843 -0.22325146 -0.08241223 0.10225898 0.139635 -0.07557501 0.08789451
-0.05212753 0.3166212 0.13900939 -0.057992164 -0.21984054 0.047492027 0.03465533 0.30387703
0.0654101 0.44044104 0.017159548 -0.14540637 0.18451892 -0.062221747 -0.061492763 -0.09852681
0.18848781 -0.06703141 -0.10349773 0.11753887 0.07822962 0.29815486 -0.088225275 0.06341062
0.052945584 0.13657798 -0.17753342 -0.03701945 0.12168143 0.026522726 0.03463072 0.02631311
-0.17465375 0.0954139 -0.101166666 0.11693666 -0.07076664 0.0572929 0.20229924 0.04145771
-0.054928698 0.023230307 -0.075093105 0.066362515 -0.009471252 0.08097577 0.1112363 0.2164503
-0.22721444 0.34287626 0.20786756 0.19024408 -0.008107258 -0.100256644 0.005271636 0.22643201
-0.03208004 0.06674973 0.059293803 -0.20653102 -0.03190993 -0.06585986 0.035686623 0.07668239
0.011057385 0.038504113 0.18899883 -0.042992566 0.03730852 -0.1549246 -0.073838085 -0.035870776
-0.18071732 -0.20569752 -0.19767919 -0.053396802 0.12684904 0.11084233 0.40933198 0.11286309
0.21975622 -0.10061672 -0.007840717 -0.13123061 0.060579963 0.22173625 0.09252909 -0.09609036
-0.24465509 -0.13426486 -0.09716673 -0.084954835 -0.01590424 -0.10114393 0.024597477 0.15086557
0.055109363 -0.3401388 -0.034970153 -0.06958471 -0.012923858 -0.012218104 0.1125395 -0.080867626
0.0691542 0.115093246 0.034260016 -0.023173694 0.11463892 0.032920815 0.11621294 0.2860437
-0.11629084 0.023412092 0.13625483 -0.12606885 0.1716718 -0.0055825165 0.2807665 -0.047824163
-0.11609582 0.20705944 -0.10602191 0.18165721 -0.025129594 -0.05247723 -0.41495836 0.12927166
0.15732701 0.13656686 0.06961701 -0.020040289 0.026945665 -0.1790108 0.1257741 -0.041747265
0.13123587 0.09038879 0.009675349 0.24815643 -0.18086438 0.3549061 -0.007806213 0.1645694
-0.16532004 0.14363387 -0.24892646 0.5331391 0.1468034 -0.18169823 0.3897187 0.0005713923
-0.02695621 0.029508581 0.115152396 0.020224705 -0.009006917 0.1225318 0.09733177 0.12941553
0.18775907 0.014813562 -0.00451638 -0.012911348 0.05699686 0.0064974474 0.09630149 -0.15416282
0.113519825 0.20279509 0.019462442 0.14198694 -0.036294498 0.09281628 0.24527062 -0.022256806
-0.079753965 0.01793423 -0.019188369 -0.10795301 -0.25736067 0.10894876 0.060761765 -0.10186028
-0.087984495 0.23038891 0.08095346 0.23627512 0.22080985 -0.029212113 -0.04078113 0.069838755
0.0074001853 0.14152595 -0.01893192 -0.14279403 0.22002386 0.07636626 -0.032687414 0.09970934
00000000: ee6c f43c 8e20 3dbe 6298 d9bb 56c6 233e
00000010: 475b ad3e e2a4 3a3e ae23 6cbe 2353 13be
00000020: 8700 8ebd 459a e73c cfda 783d debf e13d
00000030: 8421 70bd 16c7 2bbe 11a2 483e 402e d03d
00000040: 40e7 c0be 592c c03c c9fa 8ebe fa0c 62bb
00000050: a6b7 efbc d935 123e 72fc 5dbd 237e 4cbd
00000060: 6647 3d3e 4c5a 57be e926 64be 7232 353e
00000070: 58d5 f6bb c8fe 803e ce50 98be 709b d33d
00000080: e2ec a13c 61ee edbd c269 27bd cf05 0d3d
00000090: 5638 783c 4dfa 473e 7153 00be bbc8 a93d
000000a0: b184 7c3e 21a4 d7bb fcca a33d 0403 aab9
000000b0: 9517 32be b667 7d3e 2449 2abd 1017 433e
000000c0: f112 44bd 94b2 483d 089c 64be bec7 a8bd
000000d0: 286d d13d 7afc 0e3e 12c7 9abd 0902 b43d
000000e0: ad83 55bd 2d1c a23e 7a58 0e3e 3189 6dbd
000000f0: e11d 61be 0087 423d bff2 0d3d c595 9b3e
00000100: bbf5 853d 7d81 e13e 2e92 8c3c 68e5 14be
00000110: 87f2 3c3e 3bdc 7ebd d6df 7bbd 6dc8 c9bd
00000120: f302 413e c447 89bd 9ef6 d3bd 38b8 f03d
00000130: da36 a03d c1a7 983e 74af b4bd 6ddd 813d
00000140: 78dd 583d 19db 0b3e 52cb 35be b5a1 17bd
00000150: 1d34 f93d 3046 d93c f1d8 0d3d 978e d73c
00000160: 6fd8 32be 5d68 c33d 7830 cfbd 7d7c ef3d
00000170: 1aee 90bd f6ab 6a3d 8827 4f3e 8fcf 293d
00000180: eafc 60bd 7c4d be3c 6aca 99bd 12e9 873d
00000190: 4f2d 1bbc a0d6 a53d dbcf e33d 26a5 5d3e
000001a0: e7aa 68be 7a8d af3e 3cdb 543e 58cf 423e
000001b0: 4ed4 04bc 5b53 cdbd b0bd ac3b cbdd 673e
000001c0: 5c66 03bd 15b4 883d 0fde 723d de7c 53be
000001d0: fdb3 02bd 89e1 86bd 232c 123d a80b 9d3d
000001e0: 092a 353c 7db6 1d3d e988 413e f918 30bd
000001f0: d2d0 183d 8ea4 1ebe 6c38 97bd 3ced 12bd
00000200: f60d 39be 5fa2 52be 6a6c 4abe 9bb6 5abd
00000210: b7e4 013e 4e01 e33d f693 d13e c424 e73d
00000220: c607 613e 2410 cebd 5a76 00bc 5161 06be
00000230: b222 783d d40e 633e e47f bd3d 06cb c4bd
00000240: dd86 7abe ba7c 09be 5aff c6bd cdfc adbd
00000250: 9c49 82bc 8c24 cfbd a680 c93c 817c 1a3e
00000260: 5bba 613d ac26 aebe dd3c 0fbd 6e82 8ebd
00000270: 97be 53bc 712e 48bc 1c7b e63d ed9d a5bd
00000280: b8a0 8d3d 02b6 eb3d 3b54 0c3d c2d6 bdbc
00000290: cfc7 ea3d fad7 063d 0d01 ee3d 5274 923e
000002a0: e429 eebd b7ca bf3c 6386 0b3e 3118 01be
000002b0: bbca 2f3e 8bed b6bb a0c0 8f3e 45e3 43bd
000002c0: a5c3 edbd 6407 543e 0422 d9bd 5904 3a3e
000002d0: 94dc cdbc 5df2 56bd 6c75 d4be ca5f 043e
000002e0: 551a 213e 2fd8 0b3e 5d93 8e3d 882b a4bc
000002f0: 28bd dc3c 9b4e 37be edca 003e 2eff 2abd
00000300: b262 063e c21d b93d 5b85 1e3c b81c 7e3e
00000310: 8334 39be 41b6 b53e 43cb ffbb e184 283e
00000320: a849 29be c214 133e 94e6 7ebe ce7b 083f
00000330: a153 163e 1a0f 3abe 3689 c73e 7dc9 153a
00000340: 45d3 dcbc fbbb f13c 05d5 eb3d 48ae a53c
00000350: bf91 13bc f4f1 fa3d e155 c73d 8185 043e
00000360: ea43 403e 95b4 723c 24fe 93bb 1e8a 53bc
00000370: 8a75 693d 8ae8 d43b b739 c53d dcdc 1dbe
00000380: 157d e83d 84a9 4f3e b36f 9f3c 0665 113e
00000390: 8aa9 14bd 7616 be3d 3928 7b3e e853 b6bc
000003a0: 0c56 a3bd ceea 923c ed30 9dbc 7816 ddbd
000003b0: c7c4 83be 8720 df3d 54e1 783d 1f9c d0bd
000003c0: 3731 b4bd 12eb 6b3e edca a53d 1bf2 713e
000003d0: fa1b 623e 3e4e efbc 1d0a 27bd 9f07 8f3d
000003e0: 417d f23b 2eec 103e 1d17 9bbc 9938 12be
000003f0: ef4d 613e ea65 9c3d 3de3 05bd 6934 cc3d

network_body._body_endoder.seq_layers.0.bias f4 [256]
0.023076802 0.05051952 0.0010221197 0.06014896 -0.03529792 0.049825404 0.07201499 -0.004536898
0.054207496 -0.017606307 0.003579988 0.042495675 0.03031795 -0.06370356 -0.0037848675 -0.0051053623
0.13392597 0.027823675 -0.10504437 -0.0059201517 0.015928114 0.017977817 0.07544444 -0.03677625
0.023745373 -0.04608128 0.012363092 0.025658777 0.02140223 0.12504806 0.06990327 0.043398198
0.04223127 -0.010892507 -0.037095126 0.0026125966 0.012666536 -0.015146317 -0.013593081 0.041463654
0.04362674 0.03652999 0.03410053 0.036344957 0.08574765 -0.06133631 -0.040452253 -0.009268278
-0.01608925 0.0008721646 0.014150104 -0.069801435 0.011235012 0.036344573 -0.027266394 0.046490386
-0.009237195 -0.01695813 -0.062816516 -0.049156815 0.044147257 0.038844015 0.009463659 0.103084765
-0.087201424 0.0679412 -0.0026994033 0.04411053 0.10800456 0.062503815 0.058969606 -0.08101723
0.033113305 0.0045341547 -0.10365523 -0.010983264 0.052866574 -0.006632131 0.04581845 -0.022637438
-0.022030018 -0.025802365 0.02021272 0.08059824 -0.04205713 -0.046727028 0.059898 -0.032273196
-0.0702912 -0.03425491 0.02397474 0.011306282 -0.061426144 0.00010577531 0.05355125 -0.06544805
0.058686353 -0.026861023 0.009619818 0.04327769 0.015989231 0.0051491666 -0.06765588 -0.023482984
-0.03575103 0.027713234 0.013072653 0.07530047 0.025750412 -0.078480475 0.024781018 0.014684834
-0.023310754 -0.049895894 -0.041801307 0.04170746 0.022262745 -0.005707557 0.02261722 0.10630952
-0.055872824 0.033474963 -0.032133367 0.012730323 -0.053985525 -0.03326869 -0.12571147 0.012202874
-0.03221597 0.015981197 -0.012183958 0.030338565 -0.03723719 -0.042151753 0.08524686 0.033942867
-0.01085091 -0.070503235 -0.028385183 -0.025583671 0.044420112 0.0099739395 -0.079293445 0.060967963
-0.02091523 -0.03026847 -0.021608295 0.009333418 0.076370336 0.039022516 -0.07778443 0.09659006
-0.045966532 -0.045783665 0.11134406 0.1079086 -0.033724822 0.05970358 -0.019821223 0.061549634
-0.07435461 -0.08510743 0.028774004 0.016505249 0.007877497 0.029754348 0.0064074453 0.057791155
-0.08693417 0.051721983 0.058641195 0.005170017 -0.012769377 0.0675091 0.009887716 -0.12591355
0.09754924 -0.0011146781 -0.0062066964 -0.026203098 -0.026307145 0.029814621 -0.02290336 -0.017790465
0.0036221882 0.036425535 -0.01796636 0.013406681 -0.021555362 -0.0055866456 0.04104656 -0.034630395
0.052703526 0.06718329 -0.013353729 -0.022112088 -0.039884306 -0.01022128 -0.022527559 -0.030013
0.005612209 0.0055834255 0.009987599 0.028734138 0.08317412 -0.07784733 0.04670905 0.008903597
-0.030923963 0.04782026 -0.020321636 0.025421822 -0.016914679 0.049859833 0.023753192 0.0764178
-0.016269177 0.07453559 -0.043784644 0.112092145 -0.069166765 -0.013920272 0.117346816 -0.005554804
0.14307405 -0.045478653 -0.031515863 0.050858177 -0.03521087 0.081273444 0.050182838 0.0022479796
-0.02229064 0.09277097 0.043146405 -0.048563033 -0.03392244 -0.023493018 0.0027519506 0.048105877
-0.012549527 0.047099013 -0.06597086 -0.02232483 -0.049091056 0.026288552 0.09627387 0.051221456
0.024893932 -0.10329751 0.050933123 -0.05487585 0.06615708 -0.02184151 -0.011393107 0.019625565
00000000: 900b bd3c 8eed 4e3d a5f8 853a c25e 763d
00000010: 8d94 10bd b915 4c3d 987c 933d 42aa 94bb
00000020: ae08 5e3d 1a3b 90bc 3b9e 6a3b f20f 2e3d
00000030: 595d f83c 0377 82bd 8a0b 78bb e24a a7bb
00000040: e423 093e 7aee e33c 8121 d7bd d5fd c1bb
00000050: ad7b 823c 3746 933c 9d82 9a3d b1a2 16bd
00000060: a885 c23c b9bf 3cbd 918e 4a3c 5b32 d23c
00000070: bb53 af3c 990c 003e 7229 8f3d 4fc2 313d
00000080: b2fa 2c3d 7c76 32bc 0ff1 17bd 1938 2b3b
00000090: 4d87 4f3c 4228 78bc 84b5 5ebc cbd5 293d
000000a0: f4b1 323d 79a0 153d ffac 0b3d 73de 143d
000000b0: 779c af3d c83b 7bbd 43b1 25bd fad9 17bc
000000c0: 9acd 83bc faa1 643a d6d5 673c 0ef4 8ebd
000000d0: 0e13 383c 0cde 143d c65d dfbc b46c 3e3d
000000e0: 9b57 17bc c7eb 8abc f2a5 80bd a858 49bd
000000f0: c1d3 343d e71a 1f3d 760d 1b3c 1b1e d33d
00000100: a996 b2bd c224 8b3d 79e8 30bb 3ead 343d
00000110: 7f31 dd3d 0002 803d 1d8a 713d 5dec a5bd
00000120: d1a1 073d 3f93 943b 3149 d4bd 26f3 33bc
00000130: 9f8a 583d 5952 d9bb 21ac 3b3d 2672 b9bc
00000140: 4c78 b4bc 7b5f d3bc 2595 a53c b110 a53d
00000150: 1944 2cbd d764 3fbd 9b57 753d e630 04bd
00000160: d5f4 8fbd e04e 0cbd ad66 c43c fc3d 393c
00000170: fb99 7bbd b0d3 dd38 8e58 5b3d a109 86bd
00000180: 1a61 703d a60b dcbc 719c 1d3c f243 313d
00000190: d9fb 823c 57ba a83b 2a8f 8abd 635f c0bc
000001a0: ac6f 12bd dd06 e33c ae2e 563c 2237 9a3d
000001b0: 87f2 d23c 5fba a0bd 9001 cb3c a898 703c
000001c0: 32f6 bebc a35f 4cbd d937 2bbd 71d5 2a3d
000001d0: 5c60 b63c 7506 bbbb c047 b93c ceb8 d93d
000001e0: e7da 64bd 0b1d 093d 479e 03bd d892 503c
000001f0: ed1f 5dbd c044 08bd 82ba 00be 90ee 473c
00000200: e5f4 03bd 00eb 823c 399f 47bc 9588 f83c
00000210: 0686 18bd 51a7 2cbd e895 ae3d ad07 0b3d
00000220: 04c8 31bc 0064 90bd 0b88 e8bc d994 d1bc
00000230: ddf1 353d bc69 233c 9a64 a2bd 8bb9 793d
00000240: 6b56 abbc 95f5 f7bc e103 b1bc 31eb 183c
00000250: 0d68 9c3d 13d6 1f3d 714d 9fbd 02d1 c53d
00000260: 6747 3cbd a787 3bbd 5b08 e43d 2fff dc3d
00000270: 0a23 0abd be8b 743d 1e60 a2bc 781b 7c3d
00000280: 3b47 98bd ce4c aebd 76b7 eb3c 0436 873c
00000290: 9e10 013c 64bf f33c 8cf5 d13b 6bb6 6c3d
000002a0: 8b0a b2bd 6eda 533d c031 703d 3f69 a93b
000002b0: a636 51bc 3642 8a3d 1600 223c 7bef 00be
000002c0: e5c7 c73d 641a 92ba 8b61 cbbb e1a7 d6bc
000002d0: 1582 d7bc cb3d f43c d49f bbbc 4fbd 91bc
000002e0: 3c62 6d3b f132 153d 302e 93bc b2a7 5b3c
000002f0: df94 b0bc 2e10 b7bb 7020 283d 9ad8 0dbd
00000300: a7df 573d 6597 893d 99c9 5abc 6924 b5bc
00000310: ba5d 23bd 2877 27bc b78b b8bc d3dd f5bc
00000320: 9fe6 b73b 2bf5 b63b 07a3 233c db63 eb3c
00000330: 3157 aa3d 6c6e 9fbd fd51 3f3d 64e0 113c
00000340: 4054 fdbc 2ddf 433d 8f79 a6bc 6d41 d03c
00000350: a790 8abc d339 4c3d 0e96 c23c ef80 9c3d
00000360: f046 85bc 1ea6 983d 8757 33bd 9190 e53d
00000370: 4ea7 8dbd da11 64bc 8753 f03d 1305 b6bb
00000380: 0182 123e d347 3abd c716 01bd aa50 503d
00000390: 4639 10bd b172 a63d 858c 4d3d d752 133b
000003a0: dc9a b6bc b5fe bd3d 49ba 303d 08ea 46bd
000003b0: 42f2 0abd 6e74 c0bc 125a 343b ab0a 453d
000003c0: 889c 4dbc e5ea 403d bb1b 87bd 90e2 b6bc
000003d0: b413 49bd 175b d73c 3c2b c53d 97cd 513d
000003e0: 5cee cb3c a58d d3bd 409f 503d 80c5 60bd
000003f0: 5d7d 873d f7ec b2bc 27aa 3abc cbc5 a03c

network_body._body_endoder.seq_layers.2.weight f4 [256, 256]
0.19312835 -0.20613979 0.15627566 -0.05678422 -0.027395412 0.07863348 -0.01639092 0.0753554
0.011495767 0.25132713 0.102208935 -0.27154657 -0.105559185 -0.030549753 0.048463404 0.09555212
-0.085982375 0.18206155 0.11316221 0.14015199 -0.15797529 -0.0028781802 -0.01708298 0.020674698
0.23179108 -0.01191066 0.14588535 0.17205995 -0.24899729 0.15581049 -0.11480154 -0.13465211
-0.12070283 0.02925491 0.16649035 0.17620349 -0.040622257 0.15527941 -0.06176902 0.016593784
-0.1614547 0.08026893 -0.08672253 0.2426361 0.10019228 -0.028612418 0.092119634 -0.04344712
0.00610481 -0.013541077 0.07213167 0.2829508 0.02577149 -0.009158694 0.10376262 -0.09135867
-0.038768675 -0.16115412 0.09844757 0.0827774 -0.17704563 -0.306347 0.0162844 -0.15067096
0.06825154 0.05194718 0.022365613 -0.00077590183 0.0015265966 -0.2531742 -0.2896033 -0.12992899
-0.048050165 0.114743374 0.07888577 0.12402305 -0.1424649 0.12565488 0.07535843 -0.026348751
0.09597667 0.30813256 0.20814036 0.081344 0.13764594 0.3141327 -0.021787772 0.23795144
-0.07381188 0.14516595 -0.09719772 0.018417897 -0.05592527 -0.03627769 0.04242168 0.14241172
0.10122508 0.046909887 -0.25962052 0.08338128 0.14621185 -0.24179107 -0.015819699 0.104260854
0.103143625 0.012910884 0.0818246 0.055519156 -0.088543095 0.16650815 -0.10488921 -0.13537025
0.16549286 0.08152732 -0.20250261 0.06603288 0.07332112 0.31727085 -0.2467646 -0.069161914
0.018566513 -0.08211737 -0.0063064033 0.018136717 -0.047502864 0.08902158 0.06697542 0.07854687
-0.1083297 0.079219714 -0.053183913 0.016007038 0.05147485 0.18769902 0.13208273 -0.01615163
0.12180246 -0.13341671 -0.082344644 0.31796363 -0.10338595 -0.32239097 0.05338269 -0.02760679
0.21047254 0.0980365 -0.1616122 0.10917736 -0.078039765 -0.09726403 0.15404043 -0.048079137
0.2780816 0.028056266 -0.062575944 -0.13323908 0.066192836 0.24811688 0.049567096 0.16171172
-0.019050587 -0.12430258 0.0051562125 0.17855655 0.082916945 0.04662278 0.053062573 -0.2239087
0.2630761 -0.3828724 0.089631796 0.026871936 -0.07679069 -0.120621055 0.028257657 0.15597482
-0.07679168 -0.1031864 -0.072293356 0.057214618 0.013797984 -0.053961713 -0.16309617 0.050162222
0.14324886 -0.1571619 0.08643709 -0.07177628 -0.15367675 -0.21645121 0.04387156 -0.064831175
-0.11774245 0.1405457 0.07490081 0.06868651 0.22712368 -0.12815762 0.049600333 -0.036400218
0.005946359 -0.14895426 -0.12369705 0.25822595 -0.12071697 0.08276181 0.02735233 -0.05498135
0.057645548 -0.073354304 0.07091547 -0.039117847 -0.12461423 0.119555555 0.08287846 0.080648735
0.072453976 -0.027831603 -0.011329083 0.010879268 0.27688035 0.08937884 0.08067805 -0.021710183
-0.010857279 -0.22704281 0.17057204 0.03230261 0.18996136 -0.07269767 -0.06112974 -0.09385093
-0.19886732 -0.10123701 -0.0027335102 -0.030581554 0.09435161 -0.19330968 0.07146487 -0.03196104
0.04324456 0.1213328 0.096835285 0.4236388 0.0951518 -0.0031035515 0.14674534 -0.014217015
-0.12835088 0.17770566 -0.15960461 0.02144909 0.06864037 -0.043742593 -0.008593642 -0.170838
00000000: 70c3 453e 4f16 53be ba06 203e 9296 68bd
00000010: 586c e0bc 970a a13d 4046 86bc ef53 9a3d
00000020: be58 3c3c f3ad 803e eb52 d13d 2708 8bbe
00000030: 6a2f d8bd 7a43 fabc 9081 463d d4b0 c33d
00000040: 8717 b0bd 586e 3a3e 97c1 e73d 0184 0f3e
00000050: 46c4 21be da9f 3cbb 9bf1 8bbc fc5d a93c
00000060: a45a 6d3e ee24 43bc f862 153e 7c30 303e
00000070: 25f9 7ebe c98c 1f3e 121d ebbd 3ee2 09be
00000080: 0c33 f7bd fea7 ef3c 727c 2a3e b06e 343e
00000090: 8663 26bd 9101 1f3e 8301 7dbd b0ef 873c
000000a0: 6254 25be 0964 a43d 959b b1bd 9975 783e
000000b0: 9c31 cd3d 9764 eabc 38a9 bc3d 9bf5 31bd
000000c0: dc0a c83b 65db 5dbc c5b9 933d edde 903e
000000d0: bb1e d33c 590e 16bc 7f81 d43d 411a bbbd
000000e0: e7cb 1ebd 9605 25be e19e c93d 3387 a93d
000000f0: 734b 35be 84d9 9cbe dd66 853c 7d49 1abe
00000100: 77c7 8b3d 91c6 543d 1738 b73c e465 4bba
00000110: 1518 c83a 0ca0 81be e246 94be 1b0c 05be
00000120: 40d0 44bd 93fe ea3d dd8e a13d ccff fd3d
00000130: 52e2 11be acab 003e 8555 9a3d 56d9 d7bc
00000140: 6b8f c43d 8dc3 9d3e bf22 553e af97 a63d
00000150: 0ff3 0c3e 00d6 a03e 457c b2bc 8ba9 733e
00000160: af2a 97bd 62a6 143e 990f c7bd 21e1 963c
00000170: e511 65bd ea97 14bd 5bc2 2d3d 61d4 113e
00000180: 184f cf3d 9524 403d fbec 84be cec3 aa3d
00000190: 8fb8 153e 1498 77be 5098 81bc b786 d53d
000001a0: f73c d33d 2c88 533c a893 a73d 0e68 633d
000001b0: 1556 b5bd 1d81 2a3e 27d0 d6bd 809e 0abe
000001c0: f676 293e ccf7 a63d d85c 4fbe 3f3c 873d
000001d0: 6229 963d 5371 a23e dcaf 7cbe c3a4 8dbd
000001e0: cd18 983c 272d a8bd f2a5 cebb 7493 943c
000001f0: 5d92 42bd f250 b63d 692a 893d 2edd a03d
00000200: f6db ddbd f23d a23d 60d7 59bd 3121 833c
00000210: 4bd7 523d 2c34 403e b240 073e 6c50 84bc
00000220: 9173 f93d 649e 08be 4fa4 a8bd 21cc a23e
00000230: 03bc d3bd 6e10 a5be cfa7 5a3d a327 e2bc
00000240: 1d86 573e 5cc7 c83d ab7d 25be 6198 df3d
00000250: 50d3 9fbd 5d32 c7bd c6bc 1d3e a1ee 44bd
00000260: b660 8e3e 41d6 e53c d127 80bd d36f 08be
00000270: 1c90 873d 5a12 7e3e de06 4b3d c297 253e
00000280: fa0f 9cbc 5a92 febd 72f5 a83b 87d7 363e
00000290: 5cd0 a93d 87f7 3e3d 2458 593d 5248 65be
000002a0: e9b1 863e da07 c4be e090 b73d 8922 dc3c
000002b0: 7044 9dbd 2c08 f7bd 9a7c e73c ddb7 1f3e
000002c0: f544 9dbd 6453 d3bd 8a0e 94bd e059 6a3d
000002d0: f110 623c f506 5dbd af02 27be e776 4d3d
000002e0: d4af 123e 0def 20be ee05 b13d 71ff 92bd
000002f0: 705d 1dbe 63a5 5dbe aab2 333d 35c6 84bd
00000300: f422 f1bd 36eb 0f3e 9965 993d 83ab 8c3d
00000310: 1c93 683e c03b 03be b829 4b3d 6518 15bd
00000320: add9 c23b 7787 18be e154 fdbd 3136 843e
00000330: 753a f7bd 067f a93d fe11 e03c 2034 61bd
00000340: bd1d 6c3d c83a 96bd 213c 913d 093a 20bd
00000350: bf35 ffbd 8bd9 f43d 2fbc a93d 2a2b a53d
00000360: c062 943d 1aff e3bc 9e9d 39bc f53e 323c
00000370: 43c3 8d3e 410c b73d 893a a53d 8ed9 b1bc
00000380: bbe2 31bc e97d 68be 70aa 2e3e be4f 043d
00000390: 3b85 423e 84e2 94bd 2e63 7abd eb34 c0bd
000003a0: e0a3 4bbe 5955 cfbd b124 33bb 2b86 fabc
000003b0: 6b3b c13d f9f2 45be 2c5c 923d 94e9 02bd
000003c0: 3521 313d 557d f83d 9451 c63d 2fe7 d83e
000003d0: f2de c23d f464 4bbb 6944 163e 7cee 68bc
000003e0: 6a6e 03be 79f8 353e 646f 23be 01b6 af3c
000003f0: 5393 8c3d 6f2b 33bd 59cc 0cbc 28f0 2ebe

network_body._body_endoder.seq_layers.2.bias f4 [256]
-0.041447777 -0.006442613 -0.05858527 -0.046201594 -0.069735 0.0094367 -0.10974271 0.008211841
-0.12963514 -0.01662952 -0.05439941 0.047616344 -0.04020961 -0.06667799 -0.012371987 -0.061259788
0.026271796 -0.11111004 -0.16610482 -0.060255524 -0.09999133 -0.07084538 0.0017056718 -0.024915619
-0.03187744 -0.016279047 -0.04815543 0.012099451 -0.041211605 0.038428925 -0.035864487 -0.028666286
0.004315337 -0.06830916 -0.08350949 -0.11722499 -0.05345857 0.036620144 -0.0141736455 -0.050793737
-0.1254107 -0.027103655 0.030424256 -0.07038667 -0.0984948 -0.002416605 -0.08049127 0.028701065
-0.014295141 -0.026075523 -0.012171655 -0.044455115 0.015878925 0.053006448 -0.11682666 0.028002769
-0.03644443 -0.1852812 -0.0646683 -0.016494904 -0.21263245 -0.06569148 0.013880866 -0.040701643
-0.08353072 -0.15418202 -0.032481994 0.0019418116 -0.03683346 -0.0042407974 -0.02873661 -0.013223225
-0.05498543 0.016904907 -0.008157783 -0.040142797 -0.029474108 -0.02139017 -0.023163905 -0.08599528
-0.105159186 -0.047514785 -0.068674244 0.022547627 -0.033551633 0.039073184 -0.053203497 -0.022550117
-0.04705274 -0.09555629 -0.0038409259 0.0021985937 -0.022062367 -0.007701248 -0.16042444 -0.0066269794
-0.08096941 -0.018664593 -0.015541385 -0.01682296 -0.036966044 -0.05176553 -0.02206412 0.025005966
-0.056292575 0.010218223 -0.16618101 0.002445499 -0.08206969 -0.03289859 -0.07112538 -0.059015814
-0.011555581 0.039592832 -0.08388998 -0.10746722 0.024278626 0.09194683 -0.029905366 -0.08415002
-0.044469785 -0.17571664 0.020779766 -0.031364493 -0.11872747 -0.01072008 0.023018315 -0.034215286
-0.07759556 0.0071625565 -0.09620382 -0.039187152 -0.061417993 -0.10614932 -0.06694246 0.012247547
-0.07471834 -0.032122917 -0.081631236 0.026949126 0.009833362 -0.021413872 -0.2238834 -0.06088792
-0.120609745 -0.013506033 -0.019784752 -0.048910476 -0.08967771 -0.17984007 -0.04866291 0.034279726
-0.023661667 -0.08006188 -0.15200001 -0.1468896 -0.025848266 -0.15789719 0.02047513 -0.03563661
0.0013339584 -0.009111788 -0.05309755 0.037664495 -0.06758825 -0.023078572 -0.04680302 -0.21092947
-0.044530015 -0.03697169 -0.10576916 0.034009606 0.020358663 0.013336896 -0.06274132 -0.08631876
-0.0913399 -0.052417956 -0.10284248 -0.07829844 -0.052522283 -0.05098017 -0.1132527 -0.0056533352
-0.19541205 0.0106265135 -0.03209125 -0.022560263 -0.100205995 -0.12495063 -0.050329443 -0.06675974
-0.036225818 -0.07227422 -0.06016586 -0.060653467 -0.022593029 -0.04778818 -0.02420973 -0.11925839
-0.22326545 -0.022281481 -0.00705846 -0.02235103 0.04618005 -0.03940507 0.057345398 0.0058134035
-0.04287032 -0.026916476 0.035368625 -0.030176226 -0.020353705 -0.043881193 -0.19898543 -0.06898249
0.005473157 -0.07695121 0.012635512 -0.04486703 -0.08290863 -0.04851535 0.0042354576 0.0004827478
0.0020590245 -0.027093755 -0.10745336 -0.0663177 0.0205791 -0.017972391 -0.016318908 -0.009042086
-0.07013231 -0.016042748 -0.094499044 -0.1648709 -0.02757109 -0.15706557 0.02134818 -0.058830567
-0.06737501 0.04048997 -0.037044335 0.032023396 -0.029988077 0.01781233 -0.022466777 -0.108944364
-0.17637223 -0.0735388 -0.051291548 -0.075033754 -0.025370765 -0.18194215 0.0052515343 -0.08806681
00000000: 25c5 29bd 8e1c d3bb 1cf7 6fbd e23d 3dbd
00000010: 39d1 8ebd 639c 1a3c c9c0 e0bd f58a 063c
00000020: 13bf 04be a23a 88bc ead1 5ebd 5b09 433d
00000030: d5b2 24bd 788e 88bd e0b3 4abc 8beb 7abd
00000040: f337 d73c a98d e3bd 6217 2abe 7fce 76bd
00000050: 41c8 ccbd 6217 91bd d990 df3a d71b ccbc
00000060: eb91 02bd a35b 85bc a13e 45bd c73c 463c
00000070: 80cd 28bd a667 1d3d a4e6 12bd 8fd5 eabc
00000080: ac67 8d3b ace5 8bbd 0607 abbd a813 f0bd
00000090: 60f7 5abd 01ff 153d 9438 68bc 180d 50bd
000000a0: aa6b 00be 7c08 debc 4a3c f93c e326 90bd
000000b0: a4b7 c9bd e75f 1ebb 9bd8 a4bd 7f1e eb3c
000000c0: 2b36 6abc 569c d5bc 9f6b 47bc 9116 36bd
000000d0: 8514 823c 4a1d 593d d142 efbd 1066 e53c
000000e0: c146 15bd 5bba 3dbe d070 84bd 5220 87bc
000000f0: 52bc 59be 4189 86bd 926c 633c c4b6 26bd
00000100: 2712 abbd e4e1 1dbe d70b 05bd 6384 fe3a
00000110: afde 16bd 63f6 8abb 0a69 ebbc 3aa6 58bc
00000120: 6738 61bd 297c 8a3c 39a8 05bc c66c 24bd
00000130: af73 f1bc 703a afbc 3bc2 bdbc 4b1e b0bd
00000140: b35d d7bd dd9e 42bd 15a5 8cbd cdb5 b83c
00000150: 706d 09bd 340b 203d e9eb 59bd 06bb b8bc
00000160: 60ba 40bd 04b3 c3bd 0bb8 7bbb 4816 103b
00000170: 23bc b4bc c05a fcbb 4e46 24be 2227 d9bb
00000180: 4ad3 a5bd 7de6 98bc 4ba1 7ebc 4ed0 89bc
00000190: b569 17bd 1808 54bd d0bf b4bc 50d9 cc3c
000001a0: 0b93 66bd 556a 273c 5b2b 2abe aa44 203b
000001b0: 2714 a8bd acc0 06bd 2faa 91bd 91ba 71bd
000001c0: 9f53 3dbc 182c 223d 83ce abbd c617 dcbd
000001d0: f8e3 c63c 9f4e bc3d 19fc f4bc d856 acbd
000001e0: f325 36bd 10ef 33be 543a aa3c 0e78 00bd
000001f0: 6327 f3bd 46a3 2fbc e890 bc3c 5425 0cbd
00000200: 6cea 9ebd e1b3 ea3b 8206 c5bd b582 20bd
00000210: 6f91 7bbd d164 d9bd 2119 89bd efa9 483c
00000220: ee05 99bd 5293 03bd 472e a7bd 6ac4 dc3c
00000230: 1c1c 213c 256c afbc b141 65be 9d65 79bd
00000240: 3e02 f7bd 6948 5dbc a213 a2bc 5a56 48bd
00000250: f2a8 b7bd ff27 38be c252 47bd e668 0c3d
00000260: 1dd6 c1bc 7cf7 a3bd e4a5 1bbe 3a6a 16be
00000270: bebf d3bc cdaf 21be 76bb a73c b2f7 11bd
00000280: 37d8 ae3a 9c49 15bc d17c 59bd 1646 1a3d
00000290: b56b 8abd 460f bdbc 86b4 3fbd e5fd 57be
000002a0: 1b65 36bd a06f 17bd 809d d8bd a84d 0b3d
000002b0: 36c7 a63c ff82 5a3c 857e 80bd e4c7 b0bd
000002c0: 6a10 bbbd 36b4 56bd 149f d2bd ef5a a0bd
000002d0: 9b21 57bd 95d0 50bd 08f1 e7bd 9d3f b9bb
000002e0: 191a 48be d41a 2e3c 1d72 03bd 4dd0 b8bc
000002f0: cd38 cdbd 1ee6 ffbd 3f26 4ebd 55b9 88bd
00000300: 8661 14bd 8204 94bd 7a70 76bd c56f 78bd
00000310: 0415 b9bc 8abd 43bd 7c53 c6bc be3d f4bd
00000320: b39f 64be a787 b6bc a74a e7bb 8219 b7bc
00000330: 4b27 3d3d 3667 21bd 02e3 6a3d 5d7e be3b
00000340: ca98 2fbd f17f dcbc b1de 103d 2234 f7bc
00000350: d0bc a6bc c4bc 33bd d6c2 4bbe b146 8dbd
00000360: 2b58 b33b 9998 9dbd 2e05 4f3c 7ec6 37bd
00000370: 00cc a9bd 08b8 46bd 98c9 8a3b 5019 fd39
00000380: b3f0 063b b9f3 ddbc 8210 dcbd 93d1 87bd
00000390: 8095 a83c d63a 93bc 3baf 85bc 4225 14bc
000003a0: 87a1 8fbd 156c 83bc b788 c1bd ebd3 28be
000003b0: c4dc e1bc ccd5 20be 61e2 ae3c 52f8 70bd
000003c0: e9fb 89bd d0d8 253d cdbb 17bd f72a 033d
000003d0: 8ea9 f5bc 2aeb 913c 3f0c b8bc 391e dfbd
000003e0: ec9a 34be 839b 96bd 1617 52bd 4cab 99bd
000003f0: 5ad6 cfbc 0b4f 3abe 1015 ac3b 5f5c b4bd

action_model._discrete_distribution.branches.0.weight f4 [3, 256]
0.14768156 0.007829562 -0.03164356 -0.06592988 -0.049811345 0.092958756 -0.014500917 0.064753495
-0.07547932 0.071193144 0.043159585 -0.022371242 -0.021313582 -0.120311394 -0.0021346484 -0.035565212
-0.06937393 -0.062410753 -0.036339313 -0.07489113 -0.06552209 -0.020432824 -0.13534863 0.00394011
-0.004638598 0.054214343 0.03936192 -0.044530407 0.096296966 -0.065137245 0.07719282 -0.0186037
-0.010362087 -0.014394129 0.010039056 0.02638166 -0.059922878 0.009882712 -0.020278187 0.09590892
-0.02029229 -0.013030391 -0.17490041 -0.01652209 -0.011496032 -0.008027809 0.06717505 0.015047123
-0.025146956 0.0025278542 -0.029689131 -0.07456309 -0.030327821 -0.06310231 -0.0619938 0.062575445
-0.0062273797 -0.06943119 0.055979125 0.017664423 -0.024669489 0.00050357543 0.083334185 -0.011914356
0.029203048 -0.018160285 0.012957499 0.06838364 -0.081988454 -0.0994962 -0.030181805 -0.052704588
0.0329858 0.011305727 0.06217673 -0.036175773 -0.0016149165 -0.089495994 -0.075678766 0.02587809
0.034700256 0.0073972163 -0.01760447 -0.023853345 -0.11248122 -0.10945082 0.0037673248 -0.07290024
-0.0751352 -0.037152316 -0.061455872 0.03744021 -0.0779427 0.027676554 -0.0026370573 -0.03203478
-0.030330274 -0.034457926 -0.12767391 -0.010077967 -0.05443044 -0.021613246 0.05480485 0.025416104
0.0033423842 -0.016609058 -0.040556893 -0.0027347992 -0.053808868 0.021962222 0.067581154 -0.02646065
0.024767391 0.04117833 -0.070367195 0.040413436 -0.007821458 0.04779094 0.013735987 0.0115345875
0.019137248 -0.034408446 0.053467408 -0.059693564 0.0010883368 0.034856435 0.13380069 0.032057762
0.08015908 -0.047999468 -0.0031239984 -0.03955775 -0.037583873 0.110761695 -0.04216087 0.014749082
0.05056013 -0.06799622 0.010220025 -0.12867457 -0.01804682 -0.014527703 -0.034684334 -0.05738186
-0.051428553 -0.006875712 0.078083456 -0.1088637 -0.041308776 -0.0012551838 0.0381217 0.04800398
0.020499116 -0.06862422 -0.056873646 0.010109626 0.024354428 0.04885714 -0.054739747 0.030701749
-0.047991116 0.03370668 0.055859644 -0.016993826 -0.04181662 0.014774543 -0.062498223 0.024617681
-0.0106793055 0.008821107 -0.051348243 -0.0034539388 -0.0141007025 -0.07975335 0.049235914 -0.08986797
-0.03564343 -0.048243705 -0.0012394969 -0.042071965 0.040422507 0.15880631 0.07603124 -0.013118605
-0.0629444 -0.12206656 0.004983089 0.04327492 -0.09179736 -0.08051716 0.05161118 0.032626897
-0.061752792 -0.03236661 -0.053509492 0.017742222 -0.14965464 0.01883281 0.018872343 0.017648607
-0.005333177 -0.10146971 0.13905512 -0.071270145 -0.048736714 -0.00044730733 0.01334855 -0.024083842
-0.049646918 0.019907838 0.05761511 -0.061705027 -0.05385491 -0.109313756 -0.016702797 0.046940643
0.051323704 0.04244547 0.13297574 0.04297216 0.058368396 0.11870371 0.040282678 0.02174601
0.09007018 0.035521436 0.015231633 -0.15699701 -0.021501496 -0.01684447 -0.003304573 0.121980205
0.036448456 -0.106014 -0.020133864 -0.048210092 -0.046849366 0.03946834 -0.09127095 -0.00017967985
0.019104337 -0.0891645 -0.0407833 -0.034548253 -0.14079747 0.018332936 0.07843092 -0.063080415
-0.026985904 0.043997034 0.059513234 -0.05250507 -0.043686166 -0.059500977 -0.09057046 -0.080708496
00000000: d639 173e 9047 003c ad9c 01bd 3f06 87bd
00000010: fb06 4cbd 2961 be3d 4195 6dbc 7b9d 843d
00000020: e794 9abd b6cd 913d 1bc8 303d e543 b7bc
00000030: d299 aebc d265 f6bd 75e5 0bbb d4ac 11bd
00000040: eb13 8ebd 6ba2 7fbd 88d8 14bd 8560 99bd
00000050: 7230 86bd bd62 a7bc d598 0abe 0a1c 813b
00000060: 61ff 97bb dc0f 5e3d f739 213d 8465 36bd
00000070: 5837 c53d ad66 85bd 4517 9e3d c966 98bc
00000080: bec5 29bc 5ad5 6bbc da7a 243c 5a1e d83c
00000090: b171 75bd 19eb 213c 711e a6bc e56b c43d
000000a0: 043c a6bc 6c7d 55bc 1819 33be 5659 87bc
000000b0: da59 3cbc 1287 03bc 1393 893d 3588 763c
000000c0: fd00 cebc 5baa 253b 9f36 f3bc 89b4 98bd
000000d0: 0d72 f8bc c93b 81bd 36ed 7dbd 8e27 803d
000000e0: 0c0f ccbb f131 8ebd 5e4a 653d fbb4 903c
000000f0: ab17 cabc 6002 043a 1dab aa3d 6e34 43bc
00000100: 3b3b ef3c e1c4 94bc b14b 543c b90c 8c3d
00000110: 90e9 a7bd aac4 cbbd d53f f7bc c4e0 57bd
00000120: 1e1c 073d a83b 393c 07ad 7e3d 0c2d 14bd
00000130: 9bab d3ba ad49 b7bd 78fd 9abd 4afe d33c
00000140: db21 0e3d 5964 f23b 4037 90bc 1768 c3bc
00000150: 8e5c e6bd c027 e0bd 39e5 763b b94c 95bd
00000160: 7ce0 99bd 072d 18bd 27b9 7bbd e85a 193d
00000170: 6ca0 9fbd f1b9 e23c 7bd2 2cbb e736 03bd
00000180: 3277 f8bc c123 0dbd f3bc 02be 0f1e 25bc
00000190: 74f2 5ebd 430e b1bc 0d7b 603d 6f35 d03c
000001a0: e70b 5b3b b80f 88bc fc1e 26bd 513a 33bb
000001b0: b066 5cbd 1eea b33c fd67 8a3d 01c4 d8bc
000001c0: fce4 ca3c 9caa 283d ad1c 90bd 8f88 253d
000001d0: 9325 00bc 6fc0 433d e80c 613c 91fb 3c3c
000001e0: b8c5 9c3c dfef 0cbd a400 5b3d 3d81 74bd
000001f0: 86a6 8e3a 9fc5 0e3d 0c03 093e 004f 033d
00000200: 722a a43d 179b 44bd ffbb 4cbb 4f07 22bd
00000210: 8cf1 19bd 07d7 e23d e0b0 2cbd 22a6 713c
00000220: 2418 4f3d 9a41 8bbd e471 273c 44c3 03be
00000230: edd6 93bc 9a05 6ebc 2911 0ebd 3e09 6bbd
00000240: bfa6 52bd a74d e1bb 38ea 9f3d eef3 debd
00000250: 6433 29bd fb84 a4ba 8025 1c3d d29f 443d
00000260: c3ed a73c db8a 8cbd 57f4 68bd d8a2 253c
00000270: f082 c73c 6d1e 483d c936 60bd 3c82 fb3c
00000280: 5592 44bd 0410 0a3d 15cd 643d a336 8bbc
00000290: e747 2bbd ed10 723c 23fe 7fbd 05ab c93c
000002a0: 41f8 2ebc 6886 103c 8952 52bd 7a5b 62bb
000002b0: a206 67bc b955 a3bd 99ab 493d b30c b8bd
000002c0: d8fe 11bd 319b 45bd 9d76 a2ba a753 2cbd
000002d0: 1292 253d 1f9e 223e 44b6 9b3d 6bef 56bc
000002e0: fee8 80bd 08fe f9bd 2e49 a33b 0b41 313d
000002f0: 4100 bcbd 2ee6 a4bd 3f66 533d c8a3 053d
00000300: 7ff0 7cbd da92 04bd c52c 5bbd 2358 913c
00000310: 113f 19be 4447 9a3c 2c9a 9a3c d093 903c
00000320: eec1 aebb 5acf cfbd 7764 0e3e 15f6 91bd
00000330: 26a0 47bd 9384 eab9 e0b3 5a3c 7a4b c5bc
00000340: 915a 4bbd c315 a33c d2fd 6b3d 69be 7cbd
00000350: f796 5cbd e4df dfbd 4ed4 88bc d544 403d
00000360: ce38 523d 4ddb 2d3d cb2a 083e 9303 303d
00000370: b313 6f3d ee1a f33d 73ff 243d b024 b23c
00000380: b776 b83d ed7e 113d 198e 793c d3c3 20be
00000390: e823 b0bc 6afd 89bc 8991 58bb c2d0 f93d
000003a0: fa4a 153d de1d d9bd c6ef a4bc f277 45bd
000003b0: 1fe5 3fbd 8ea9 213d 44ec babd 7168 3cb9
000003c0: b380 9c3c e19b b6bd 640c 27bd 7882 0dbd
000003d0: 362d 10be f42e 963c 64a0 a03d 4e30 81bd
000003e0: 8b11 ddbc 3c36 343d 26c4 733d 8e0f 57bd
000003f0: 44f0 32bd 4cb7 73bd 017d b9bd 7f4a a5bd

action_model._discrete_distribution.branches.0.bias f4 [3]
0.006800368 0.032997277 -0.02687385
00000000: 9fd5 de3b 2728 073d 8c26 dcbc

action_model._discrete_distribution.branches.1.weight f4 [3, 256]
0.10258163 -0.0052642813 -0.02217761 -0.0644434 -0.024300812 -0.05074155 0.014823748 0.017910317
0.0075713834 0.029583853 -0.05350177 -0.01029301 0.057299275 -0.16055925 -0.08486988 -0.010847822
-0.201363 -0.10139048 -0.03657584 -0.1358084 -0.06792232 -0.027106132 -0.21037112 -0.021956801
-0.010610469 0.015806967 -0.06057589 -0.06324122 -0.02459821 -0.23628931 0.11182057 -0.15687045
0.016676437 -0.03826442 -0.004496392 0.021608979 0.00999246 -0.00996985 0.016758306 -0.038322516
0.0628952 -0.060027786 -0.08949663 -0.035861537 -0.1032577 0.04299012 0.03700709 -0.058203362
-0.0042900024 0.045182988 0.015908549 -0.15546618 -0.21391264 -0.19002235 -0.09375399 -0.0517941
-0.013199222 0.022795243 -0.006371755 -0.09489108 0.0017113405 -0.038261384 0.03498442 0.07651961
-0.044443298 0.0045725973 -0.01186783 0.071154036 0.04980695 -0.0033413153 0.002546287 -0.058949504
0.010782693 -0.0639603 -0.04748658 -0.008048898 -0.07631797 -0.01869483 -0.021372715 -0.028503472
0.026514545 -0.086306036 -0.07624898 0.05459316 -0.13076988 0.021841483 0.0012338927 -0.08693731
-0.06384077 -0.006867897 0.014707104 0.066514514 -0.024559598 0.004227123 -0.0058520436 -0.10406019
-0.10899761 0.043846983 -0.14715259 -0.008764402 0.033473995 0.006172197 0.025358688 -0.06595912
-0.13162833 -0.040606983 -0.0149086295 0.007972687 -0.12391658 0.0227489 -0.034509216 -0.009995943
0.041763622 0.052127227 0.10920192 -0.017454369 -0.048531145 -0.05363454 -0.0002811795 0.0026173415
0.078677155 -0.068639174 0.09246339 0.0056819953 0.044290345 -0.06945856 0.0022030305 0.0031399003
-0.0012839291 -0.011142273 0.037986994 0.03444347 0.05832634 0.028587705 -0.0746805 -0.14079332
0.025637953 0.046966754 0.03357361 -0.18475041 0.0008529478 0.05056617 0.061277732 -0.07203129
0.01672559 -0.054685164 0.007975712 -0.08405098 0.09524528 -0.049899757 0.022289053 -0.067940705
-0.052455373 -0.1357477 0.0005614483 0.028806541 0.07146108 -0.061692845 0.08568758 -0.11556427
-0.046651203 -0.010428859 0.007268608 0.0063627474 0.013711357 -0.0033458828 -0.03341331 -0.025533944
-0.047823388 -0.018417729 -0.0846396 0.03206688 -0.07342941 -0.14671455 0.008644273 -0.023052564
-0.021585783 -0.090355225 -0.0743921 0.02675428 0.032911953 0.037529342 -0.0639818 -0.0135053685
0.021899153 -0.13957223 -0.062623754 -0.08588977 -0.027504962 0.037002794 0.04663471 -0.026556334
0.03987759 0.010066366 -0.011481536 0.05089165 0.013599462 -0.028041508 0.076117836 -0.009315853
0.010102196 0.101705134 0.045751862 0.013221963 0.04284619 0.103400685 -0.031457562 -0.13135655
-0.019460259 -0.027773956 -0.0401199 -0.012425071 -0.036303625 0.023151346 0.018754728 0.04165019
0.033421617 0.032857202 -0.09851121 0.026427265 -0.05044459 -0.054084234 -0.055632547 -0.03048316
-0.057253797 -0.085136205 0.04230456 0.028333358 -0.10422746 -0.025378913 -0.08604991 -0.018028298
0.06336603 -0.1562769 -0.06553256 -0.049731884 0.014368149 0.009216299 -0.08654108 -0.06442013
0.08541616 0.059792966 -0.12233321 0.021475744 -0.17268011 0.040246993 0.05487663 -0.0024153714
0.0116573945 -0.043107033 0.00038268114 -0.005484332 -0.10186027 0.0156662 -0.05016308 0.06943095
00000000: 5116 d23d fe7f acbb d2ad b5bc e7fa 83bd
00000010: 7f12 c7bc 5fd6 4fbd 4edf 723c a8b8 923c
00000020: 5e19 f83b d659 f23c ac24 5bbd 03a4 28bc
00000030: a5b2 6a3d a569 24be 42d0 adbd 10bb 31bc
00000040: 1a32 4ebe d0a5 cfbd 8cd0 15bd 5b11 0bbe
00000050: db1a 8bbd ae0d debc 876b 57be c0de b3bc
00000060: 88d7 2dbc 9d7d 813c 6d1e 78bd 9d84 81bd
00000070: 2f82 c9bc d3f5 71be 2f02 e53d a6a2 20be
00000080: 069d 883c 27bb 1cbd 7856 93bb 5005 b13c
00000090: 6ab7 233c 9558 23bc b748 893c 12f8 1cbd
000000a0: 33cf 803d b2df 75bd 024a b7bd 8ce3 12bd
000000b0: c678 d3bd 6816 303d bf94 173d a666 6ebd
000000c0: 2693 8cbb cc11 393d a552 823c 8732 1fbe
000000d0: ea0b 5bbe 3895 42be 1802 c0bd 0d26 54bd
000000e0: 8d41 58bc 17bd ba3c 28ca d0bb 4156 c2bd
000000f0: 0f4f e03a f8b7 1cbd d34b 0f3d 50b6 9c3d
00000100: 2d0a 36bd bad5 953b 4971 42bc 35b9 913d
00000110: 5f02 4c3d f8f9 5abb 9bdf 263b 0975 71bd
00000120: e4a9 303c 9efd 82bd 4a81 42bd 86df 03bc
00000130: 994c 9cbd e625 99bc d515 afbc 1d80 e9bc
00000140: 0835 d93c 38c1 b0bd 6d28 9cbd 149d 5f3d
00000150: 8ae8 05be e9ec b23c 92ba a13a 300c b2bd
00000160: f3be 82bd 190c e1bb 11f6 703c c338 883d
00000170: 3631 c9bc ae83 8a3b 80c2 bfbb 821d d5bd
00000180: 243a dfbd e598 333d 2baf 16be 9198 0fbc
00000190: 071c 093d 2440 ca3b 06bd cf3c 9315 87bd
000001a0: 94c9 06be 8253 26bd 5343 74bc df9f 023c
000001b0: fac7 fdbd e75b ba3c 8959 0dbd 06c6 23bc
000001c0: 5510 2b3d 5c83 553d 42a5 df3d 77fc 8ebc
000001d0: 98c8 46bd e4af 5bbd 466b 93b9 b487 2b3b
000001e0: 7d21 a13d b292 8cbd 725d bd3d 0830 ba3b
000001f0: cb69 353d 4a40 8ebd b860 103b c9c6 4d3b
00000200: 8349 a8ba 158e 36bc 4098 1b3d 9914 0d3d
00000210: 9ae7 6e3d c330 ea3c 17f2 98bd 202c 10be
00000220: af06 d23c 3660 403d 7b84 093d 362f 3dbe
00000230: 5c98 5f3a 791e 4f3d 5cfe 7a3d 2485 93bd
00000240: 1b04 893c 8dfd 5fbd 90ac 023c ec22 acbd
00000250: f50f c33d b063 4cbd 8897 b63c 7f24 8bbd
00000260: 72db 56bd 7201 0bbe 282e 133a b2fb eb3c
00000270: 305a 923d a3b1 7cbd f87c af3d f6ac ecbd
00000280: 5515 3fbd cedd 2abc 812d ee3b 987e d03b
00000290: 99a5 603c 9946 5bbb 65dc 08bd 902c d1bc
000002a0: 75e2 43bd c7e0 96bc 8757 adbd 9058 033d
000002b0: 2962 96bd 573c 16be b5a0 0d3c bbd8 bcbc
000002c0: abd4 b0bc 290c b9bd e35a 98bd cb2b db3c
000002d0: afce 063d 5eb8 193d e408 83bd 9f45 5dbc
000002e0: da65 b33c 06ec 0ebe e240 80bd fae6 afbd
000002f0: 1652 e1bc 3e90 173d 0a04 3f3d ab8c d9bc
00000300: af56 233d 66ed 243c 0d1d 3cbc c373 503d
00000310: 47d0 5e3c 4eb7 e5bc abe3 9b3d 85a1 18bc
00000320: ae83 253c c84a d03d 4e66 3b3d efa0 583c
00000330: 7d7f 2f3d bdc3 d33d a5d9 00bd 5582 06be
00000340: 1f6b 9fbc 3586 e3bc c454 24bd 8692 4bbc
00000350: 1cb3 14bd e4a7 bd3c 84a3 993c 6499 2a3d
00000360: 1be5 083d 4695 063d 3fc0 c9bd fe7d d83c
00000370: fd9e 4ebd 6e87 5dbd f4de 63bd d2b7 f9bc
00000380: f582 6abd e45b aebd 8c47 2d3d 5c1b e83c
00000390: 3575 d5bd 70e7 cfbc ef3a b0bd 15b0 93bc
000003a0: 0dc6 813d 0d07 20be ef35 86bd a9b3 4bbd
000003b0: 6368 6b3c f6ff 163c 733c b1bd b3ee 83bd
000003c0: abee ae3d 78e9 743d d689 fabd e6ed af3c
000003d0: 0ed3 30be 08da 243d 51c6 603d 354b 1ebb
000003e0: a8fe 3e3c 0091 30bd 98a2 c839 e9b5 b3bb
000003f0: 1e9c d0bd 6756 803c cd77 4dbd d031 8e3d

action_model._discrete_distribution.branches.1.bias f4 [3]
0.030317808 0.01282338 -0.03484076
00000000: 0d5d f83c 2719 523c 2fb5 0ebd

action_model._discrete_distribution.branches.2.weight f4 [2, 256]
-0.024943236 0.022372147 -0.026610268 -0.022402331 -0.045094635 -0.00015015226 0.011758675 0.055558916
0.05030582 0.021865355 -0.02849632 -0.04454215 -0.0064800372 -0.056740236 -0.0362933 -0.055031806
-0.03465534 0.024754265 0.060233075 0.037713435 0.04168723 0.027481541 -0.05298178 -0.051785417
-0.005569402 -0.0052233613 0.06316628 -0.037053563 -0.11059429 -0.08398319 -0.04812616 -0.05353476
0.016430879 -0.090554476 0.099287316 -0.0025876444 -0.016881732 -0.0026116725 -0.0019123146 0.14298204
-0.023732953 0.022177383 -0.14686577 0.0281371 0.017776132 -0.026034659 0.09023567 -0.11867497
0.01677503 0.041641086 0.049253836 -0.057498984 -0.052240085 -0.0766607 0.035726517 -0.026640909
0.013412254 0.031396754 0.018905956 0.019800568 0.0040675458 -0.03052269 -0.06201611 -0.03860602
-0.015411803 0.038137775 -0.0039634607 0.04987859 0.057028532 -0.051403057 -0.047470495 -0.099497326
0.07750662 -0.031732008 -0.019168483 0.011124632 -0.09018936 -0.002840068 -0.0499999 0.06395725
0.061041143 0.04876082 -0.014854574 -0.08767406 0.052938446 -0.030852988 0.1421543 -0.06573824
0.039454944 0.10733366 -0.041145913 0.01776898 0.0038907179 0.0044574128 0.0010523463 -0.034476995
-0.050668813 -0.038984887 -0.05780823 0.0008277539 -0.08908116 -0.0199566 0.024562813 -0.055562932
0.032400623 -0.052350823 0.03024586 0.033251207 0.07191755 0.0026721281 -0.04359452 0.01039483
0.007877547 -0.030366164 0.0064552133 0.05102491 -0.030026985 -0.0024940365 -0.005066973 0.0014360794
0.059469078 0.008736557 -0.014665191 -0.03414671 0.028424675 -0.028380767 -0.020590216 0.04775538
0.059618957 -0.025564007 0.007765916 -0.01608226 -0.032250416 0.047055297 -0.0316074 -0.004118212
-0.005864793 -0.03328795 0.036927737 -0.071603715 0.019422099 -0.048150852 0.027682401 -0.0052931802
0.008040439 0.0042051105 0.0481191 -0.05082962 0.0088221915 0.052764054 0.033848263 -0.027102238
-0.017742198 0.018721228 0.0017145087 0.0086917 0.05109108 0.043834463 -0.018977052 0.014497367
-0.031635746 0.018326957 0.0011579376 -0.046847794 0.010537726 -0.07869245 0.021632764 0.032386996
-0.012875658 -0.056539577 0.01956389 -0.04838317 -0.058201857 -0.12327329 0.042616937 -0.0020944874
0.04659819 0.024654226 -0.014569239 0.039033 0.09399854 0.09317062 0.09130443 0.007569812
0.03284217 -0.20329534 -0.08116312 0.03469126 0.0030292426 -0.015909422 0.117137745 -0.051885925
-0.03310359 0.005176715 -0.06781428 0.061998174 -0.08061493 0.046337944 0.0031207479 -0.0026133698
0.06393254 -0.013685204 -0.026650632 -0.05393245 -0.072971396 -0.0047593536 -0.063899204 -0.036672402
0.012005126 0.011295982 -0.016114237 0.0020646206 -0.034934763 0.013092918 0.011698523 0.031883948
0.027002366 0.042858507 -0.0155956885 0.029021068 -0.07840722 -0.04154372 -0.052168943 -0.04305756
-0.04382996 -0.024612654 0.060869172 0.03709707 -0.07089828 0.01407051 -0.0050871666 0.051952984
0.018186228 -0.041072067 -0.018805573 0.071156904 -0.078523375 0.012534444 -0.02606498 0.12478055
0.028484738 -0.03558937 0.0047712573 -0.06348727 -0.052503996 -0.052940387 -0.045754123 0.06166679
-0.0140681015 -0.017331813 -0.017712412 0.040416494 0.021373004 0.026615838 -0.017644042 -0.003040048
00000000: c255 ccbc cb45 b73c c7fd d9bc 1885 b7bc
00000010: 27b5 38bd 3172 1db9 75a7 403c bf91 633d
00000020: 7a0d 4e3d f91e b33c 1d71 e9bc d471 36bd
00000030: 7e56 d4bb 7368 68bd 49a8 14bd 0869 61bd
00000040: c2f2 0dbd 75c9 ca3c f5b6 763d 6779 1a3d
00000050: 3bc0 2a3d f820 e13c 6c03 59bd f21c 54bd
00000060: 887f b6bb bb28 abbb 535d 813d 7ac5 17bd
00000070: 427f e2bd 61ff abbd f01f 45bd 4447 5bbd
00000080: 0d9a 863c a074 b9bd 2657 cb3d 7895 29bb
00000090: 8f4b 8abc 9828 2bbb a1a6 faba e269 123e
000000a0: 9c6b c2bc 58ad b53c fb63 16be c77f e63c
000000b0: 409f 913c a346 d5bc 7bcd b83d dd0b f3bd
000000c0: ca6b 893c d88f 2a3d 64be 493d 0e84 6bbd
000000d0: b3f9 55bd 4900 9dbd f855 123d 093e dabc
000000e0: 12bf 5b3c e299 003d aae0 9a3c cd34 a23c
000000f0: 0c49 853b b80a fabc 9b04 7ebd 5921 1ebd
00000100: c981 7cbc 5b36 1c3d ebdf 81bb 7e4d 4c3d
00000110: c096 693d 038c 52bd 6c70 42bd 41c5 cbbd
00000120: cabb 9e3d 6cf9 01bd 3907 9dbc 1744 363c
00000130: 33b5 b8bd 6f20 3abb b2cc 4cbd 05fc 823d
00000140: 4706 7a3d 6db9 473d 9960 73bc 758e b3bd
00000150: fcd5 583d 68bf fcbc e690 113e c5a1 86bd
00000160: 829b 213d c0d1 db3d 9e88 28bd 4090 913c
00000170: 6afb 7e3b 7d0f 923b e2ee 893a c037 0dbd
00000180: 1a8a 4fbd 9eae 1fbd 53c8 6cbd a0fd 583a
00000190: 2f70 b6bd 067c a3bc f437 c93c f595 63bd
000001a0: 84b6 043d d16d 56bd 2ac6 f73c 6b32 083d
000001b0: 8249 933d df1e 2f3b 2b90 32bd 144f 2a3c
000001c0: d410 013c 76c2 f8bc 4186 d33b 7fff 503d
000001d0: 27fb f5bc fd72 23bb da08 a6bb d43a bc3a
000001e0: d995 733d c723 0f3c 4546 70bc 6cdd 0bbd
000001f0: ddda e83c c87e e8bc d0ac a8bc 259b 433d
00000200: 0233 743d 9c6b d1bc 3a79 fe3b f2be 83bc
00000210: 0319 04bd 0ebd 403d c376 01bd 11f2 86bb
00000220: 732d c0bb f258 08bd 8a41 173d f8a4 92bd
00000230: 181b 9f3c d439 45bd 34c6 e23c 6a72 adbb
00000240: 0cbc 033c 06cb 893b 8918 453d b832 50bd
00000250: f48a 103c 1f1f 583d 7aa4 0a3d 8305 debc
00000260: 1658 91bc 435d 993c 5eb9 e03a a267 0e3c
00000270: e144 513d c48b 333d c375 9bbc 5d86 6d3c
00000280: 7c94 01bd 6a22 963c f0c5 973a 79e3 3fbd
00000290: 6da6 2c3c 8229 a1bd 3237 b13c 3aa8 043d
000002a0: 6df4 52bc 0b96 67bd 7344 a03c 6e2d 46bd
000002b0: 1265 6ebd b576 fcbd 198f 2e3d ab43 09bb
000002c0: bedd 3e3d a9f7 c93c d1b3 6ebc 11e1 1f3d
000002d0: 4e82 c03d 3dd0 be3d d1fd ba3d 2f0c f83b
000002e0: 8385 063d a72c 50be da38 a6bd 6c18 0e3d
000002f0: 4286 463b 7a54 82bc eae5 ef3d 5686 54bd
00000300: a197 07bd 6fa1 a93b 37e2 8abd ccf1 7d3d
00000310: 7119 a5bd dbcc 3d3d 7685 4c3b 1245 2bbb
00000320: 10ef 823d e837 60bc 6d52 dabc 46e8 5cbd
00000330: 0772 95bd 5af4 9bbb 96dd 82bd cd35 16bd
00000340: 26b1 443c c812 393c 0102 84bc 964e 073b
00000350: c117 0fbd ae83 563c 29ab 3f3c be98 023d
00000360: 1134 dd3c 678c 2f3d 0f85 7fbc 97bd ed3c
00000370: f793 a0bd bf29 2abd 1aaf 55bd 205d 30bd
00000380: 0b87 33bd 7aa0 c9bc f451 793d 19f3 173d
00000390: 1e33 91bd ff87 663c 3fb2 a6bb a7cc 543d
000003a0: 49fb 943c 2f3b 28bd 250e 9abc b6ba 913d
000003b0: ddd0 a0bd 455d 4d3c 3a86 d5bc f28c ff3d
000003c0: d358 e93c 29c6 11bd 3558 9c3b 9d05 82bd
000003d0: 6e0e 57bd 05d8 58bd ad68 3bbd 5196 7c3d
000003e0: e57d 66bc 72fb 8dbc 9f19 91bc c48b 253d
000003f0: 7016 af3c 7509 da3c 3d8a 90bc 8b3b 47bb

action_model._discrete_distribution.branches.2.bias f4 [2]
-0.07481384 0.07481375
00000000: 0038 99bd f437 993d
