ML_stuff/results/cw_03/FindCubeWife/FindCubeWife-2499875.onnx (onnx, 356907 bytes, 13 tensors)

discrete_act_size_vector f4 [1, 4]
0	0x40400000	3.0
1	0x40400000	3.0
2	0x40000000	2.0
3	0x40000000	2.0

network_body._body_endoder.seq_layers.0.weight f4 [256, 69]
0	0x3c957ec4	0.018248923
1	0xbe246bf5	-0.16056807
2	0xbbd99862	-0.00664048
3	0x3e02a232	0.12757185
4	0x3ea1729b	0.3153275
5	0x3e1da5a9	0.15395226
6	0xbe64e6d5	-0.2235368
7	0xbe135323	-0.14387183
8	0xbbe45431	-0.006968044
9	0x3d465adb	0.04842649
10	0x3d640c73	0.055675935
11	0x3dead0a7	0.114655785
12	0xbd702184	-0.058625713
13	0xbe521cfc	-0.20518869
14	0x3e3259f7	0.17417131
15	0x3da22bd2	0.07918514
16	0xbe9be43e	-0.30447572
17	0x3cc02c59	0.023458647
18	0xbe692d02	-0.22771075
19	0x3c9a2498	0.018816277
20	0xbd1d8d05	-0.038464565
21	0x3dd05588	0.10172564
22	0xbd5dfc72	-0.05419583
23	0xbd9d670e	-0.07685672
24	0x3e1f9726	0.15585002
25	0xbe62343f	-0.22090243
26	0xbe5bfd65	-0.21483381
27	0x3e353272	0.17695025
28	0xbd38b8ec	-0.04509823
29	0x3e3a8ece	0.18218538
30	0xbe6ce797	-0.2313522
31	0xbd14bfd9	-0.036315773
32	0x3ca1ece2	0.019766275
33	0xbe0c972f	-0.13729547
34	0xbd45b8ef	-0.04827207
35	0x3c8e029f	0.017335234
36	0xbd1f855c	-0.03894554
37	0x3e0d8075	0.13818534
38	0xbdcc263a	-0.09968229
39	0xbc142312	-0.009041565
40	0x3e3a854a	0.18214908
41	0x3d9a15e8	0.075237095
42	0x3ddf449f	0.1090176
43	0xbd06a271	-0.03286976
44	0xbe2521e7	-0.16126214
45	0x3e34f360	0.17670965
46	0xbdda2dd9	-0.10653276
47	0x3e72afdf	0.23699902
48	0xbb445c52	-0.0029962254
49	0x3d03cfdd	0.032180656
50	0xbe86dcc7	-0.26340315
51	0xbda7286b	-0.08162006
52	0x3d2c1c7a	0.042019345
53	0x3db67e18	0.08910769
54	0xbc7188d7	-0.014742098
55	0x3db17c8c	0.086663336
56	0xbd8a7cf3	-0.067621134
57	0x3e74fee7	0.23925363
58	0x3d6c478c	0.05768542
59	0xbd79c102	-0.060975082
60	0xbdf4c29a	-0.1195118
61	0x3d95c2ff	0.07312583
62	0x3d0df2bf	0.03465533
63	0x3e966d93	0.29380473
64	0xbd325366	-0.043536566
65	0x3e83be29	0.25731018
66	0xbc28a5ce	-0.010293437
67	0x3b96560e	0.0045878952
68	0x3e4e4fdb	0.2014765
69	0xbdd50a30	-0.10402334
70	0xbd67badb	-0.056574684
71	0xbdc9c86d	-0.09852681
72	0x3e351fe3	0.17687945
73	0xbcd98a60	-0.02655524
74	0xbdc730f5	-0.09726135
75	0x3c9a13a5	0.018808195
76	0x3da036da	0.07822962
77	0x3e9e8efa	0.30968457
78	0x3c864bf5	0.016393641
79	0x3cd03ca4	0.02541954
80	0x3d2adedb	0.041716438
81	0x3e0bdb19	0.13657798
82	0xbe458b79	-0.19291486
83	0xbc8ed146	-0.017433774
84	0x3dd1cdd7	0.10244339
85	0x3b8bd5aa	0.004267414
86	0x3d0dd8f1	0.03463072
87	0x3d0f1354	0.034930542
88	0xbd794441	-0.060856108
89	0x3df4142b	0.11917909
90	0xbe2c333f	-0.16816424
91	0x3def7c7d	0.11693666
92	0xbe09c6ae	-0.13454697
93	0x3d245676	0.040121518
94	0x3e454b13	0.1926692
95	0xbb482bbe	-0.003054365
96	0xbd60fcea	-0.054928698
97	0xbcf30977	-0.0296676
98	0xbd2d1705	-0.04225828
99	0x3d25e083	0.040497314
100	0xbcc9ebb3	-0.024648523
101	0x3da5d6a0	0.08097577
102	0x3da4def1	0.08050335
103	0x3e60fa72	0.21970537
104	0xbe5b18c2	-0.21396163
105	0x3e85eb9d	0.2615632
106	0x3e285b29	0.16441025
107	0x3e6731c1	0.22577573
108	0xbde8ab09	-0.11360747
109	0xbde95dea	-0.11394866
110	0x3deb2dc8	0.114833415
111	0x3e6624dc	0.22474998
112	0xbd7b7e80	-0.061399937
113	0xbbc61f45	-0.006046208
114	0x3d09b76d	0.033622194
115	0xbe60bfe5	-0.21948202
116	0x3d12145e	0.035663955
117	0xbd8f0ff1	-0.069854625
118	0x3b1bed8b	0.002379271
119	0x3cd3edb3	0.02587018
120	0xbc7b673a	-0.015344435
121	0x3c806a61	0.015675725
122	0x3e8f070f	0.27935073
123	0xbd8d3afa	-0.068960145
124	0x3c384fba	0.011249477
125	0xbdef2d80	-0.116786
126	0xbd1dbfa5	-0.038512845
127	0xbd9c36f2	-0.076276675
128	0xbe246a36	-0.16056141
129	0xbe167711	-0.14693858
130	0xbe2cc85a	-0.16873303
131	0xbd5ab69b	-0.053396802
132	0x3dd3f27b	0.10348984
133	0xbc85863d	-0.016299361
134	0x3e94bfab	0.2905248
135	0x3da7c720	0.08192277
136	0x3e880c1d	0.26571742
137	0xbd941a44	-0.07231572
138	0x3c169fcf	0.009193375
139	0xbdd3137b	-0.1030645
140	0x3d7822b2	0.060579963
141	0x3e4d3214	0.20038635
142	0x3df5bc0e	0.11998759
143	0xbda83d09	-0.082147665
144	0xbe892e9f	-0.26793382
145	0xbe097cba	-0.13426486
146	0xbd0ada80	-0.033899784
147	0x3b039a4b	0.002008098
148	0xbb58d045	-0.0033083123
149	0xbdd4c890	-0.10389817
150	0x3cc980a6	0.024597477
151	0x3e319793	0.17342977
152	0x3dbe9132	0.093050376
153	0xbead4083	-0.3383828
154	0x3cff3b13	0.031156098
155	0xbd8e826e	-0.06958471
156	0x3b4f9437	0.0031674036
157	0x3d0cef01	0.03440762
158	0x3dd88891	0.10572923
159	0xbdbac5de	-0.091197714
160	0x3d8da0b8	0.0691542
161	0x3dfe33b8	0.12412208
162	0x3d482490	0.048862994
163	0x3c3b803c	0.011444148
164	0x3d9fee10	0.07809079
165	0x3d06d7fa	0.032920815
166	0x3d9ca442	0.07648517
167	0x3e89f7fe	0.26947016
168	0xbdd10a88	-0.10207087
169	0xbbf88576	-0.007584269
170	0x3e0b8663	0.13625483
171	0xbe08d280	-0.1336155
172	0x3e32bd40	0.17455006
173	0xbbe2e578	-0.0069243275
174	0x3e74d95e	0.23911044
175	0xbd87544a	-0.06607874
176	0xbe309fec	-0.17248505
177	0x3dea3844	0.11436513
178	0xbdf827eb	-0.12116989
179	0x3e671196	0.22565302
180	0xbd3fb518	-0.046803564
181	0xbd83ecc2	-0.06441642
182	0xbea60413	-0.32424983
183	0x3dce8683	0.1008425
184	0x3e108ceb	0.14116256
185	0x3e60ac9b	0.21940844
186	0x3dec7a18	0.11546725
187	0xbbe15ddd	-0.0068776445
188	0x3cf1a862	0.029499236
189	0xbe4cb334	-0.19990236
190	0x3dcb7297	0.09933966
191	0x3cbfca18	0.023411795
192	0x3e2be1be	0.16785333
193	0x3dd2f497	0.10300558
194	0x3cc3572f	0.023845283
195	0x3e8329dd	0.25617877
196	0xbe5edf60	-0.21764898
197	0x3ec817a1	0.39080527
198	0x3d2b2abd	0.041788805
199	0x3e3ff507	0.18745814
200	0xbe2949a8	-0.16532004
201	0x3e26e2ce	0.16297457
202	0xbe9f72ee	-0.31142372
203	0x3ea978c4	0.3309995
204	0x3e0e8a04	0.13919836
205	0xbdb34b09	-0.08754546
206	0x3ee65cb2	0.44992596
207	0xbd151aa5	-0.036402363
208	0xbd6906b8	-0.056891173
209	0x3cf1bbfb	0.029508581
210	0x3df5bd1f	0.119989626
211	0xbcdb52b7	-0.02677284
212	0x3b67da70	0.0035378002
213	0x3cb96524	0.022631235
214	0x3dc755e1	0.09733177
215	0x3d9b9248	0.0759626
216	0x3e1ab7cf	0.1510918
217	0xbc488dac	-0.012240808
218	0xbcfb2209	-0.030655878
219	0xbc538a1e	-0.012911348
220	0x3c67b38d	0.014141929
221	0x3ba63d9c	0.0050732624
222	0x3dab8690	0.08375275
223	0xbe2a8d29	-0.16655411
224	0x3de87d15	0.113519825
225	0x3e5eb617	0.2174915
226	0x3cfec81e	0.031101283
227	0x3dd4b9d9	0.1038701
228	0xbcc1b381	-0.023645164
229	0x3dbe1676	0.09281628
230	0x3e59b8b2	0.21261862
231	0xbd4a71bf	-0.049424883
232	0xbdc9ce60	-0.09853816
233	0x3d6cccec	0.057812616
234	0xbc9d30ed	-0.019188369
235	0xbde89627	-0.11356764
236	0xbe7abd45	-0.24486263
237	0x3db00456	0.08594577
238	0x3e002813	0.12515287
239	0xbdd09c1f	-0.10186028
240	0xbdec3e8c	-0.11535367
241	0x3e5d69f5	0.2162245
242	0x3c46f392	0.012143033
243	0x3e83a7ff	0.25714108
244	0x3e5dda77	0.21665369
245	0xbdddd75c	-0.10832092
246	0xbd3efc7f	-0.046627518
247	0x3d7b9b5b	0.061427455
248	0x3c9a5cfa	0.018843163
249	0x3e2b14c9	0.16707148
250	0xbbb727f6	-0.0055894805
251	0xbdce06b4	-0.10059872
252	0x3e875d76	0.26438493
253	0x3d647b2f	0.05578154
254	0x3b57c17e	0.0032921727
255	0x3e236711	0.15957285

network_body._body_endoder.seq_layers.0.bias f4 [256]
0	0x393bce4a	0.00017910558
1	0x3cc4441a	0.023958255
2	0xbb8fce68	-0.004388619
3	0x3d238213	0.03991897
4	0xbcce70fc	-0.02520036
5	0x3d59aadb	0.053141456
6	0x3d876cec	0.06612572
7	0x3bc4919d	0.005998804
8	0xba8990d6	-0.0010495435
9	0xbd281281	-0.04103327
10	0xbc8bcccb	-0.017065426
11	0x3d24c021	0.04022229
12	0x3ad2a473	0.0016070738
13	0xbd0d58e6	-0.03450861
14	0xbc411c22	-0.011786493
15	0x3babb9b6	0.0052406443
16	0x3ded035d	0.11572907
17	0x3cd80840	0.026371121
18	0xbd9ffa2d	-0.07811389
19	0xbcce3ead	-0.02517637
20	0x3d03009a	0.031982996
21	0xbbc81c35	-0.006106878
22	0x3d798b09	0.06092361
23	0xbcacc536	-0.021090131
24	0xbba156cc	-0.004923677
25	0xbce36635	-0.027758697
26	0x3d15193a	0.03640101
27	0xbcc3c7bc	-0.023898952
28	0x3c9e2e75	0.019309262
29	0x3da3d925	0.080004014
30	0x3d110342	0.035403498
31	0x3cf24af7	0.029576762
32	0x3cc2808e	0.02374294
33	0xbcfa7d35	-0.030577281
34	0xbc50dc2c	-0.012747806
35	0xbbb29a35	-0.005450512
36	0x3c497b73	0.012297499
37	0x3c20d354	0.00981601
38	0xbc2a1f7d	-0.010383484
39	0x3c82355f	0.01589459
40	0x3c151ad4	0.009100635
41	0x3d4e6997	0.050393667
42	0x3d6757c1	0.056480173
43	0x3d8a58ca	0.067552164
44	0x3d5adb5a	0.053431846
45	0xbd636f65	-0.055526156
46	0xbc887110	-0.016655475
47	0xbcb72fb6	-0.022361618
48	0x3d06c8b8	0.032906264
49	0x3c812d55	0.015768686
50	0x3d4aaf85	0.049483795
51	0xbd276234	-0.04086514
52	0x3c998ad4	0.018742956
53	0x3d0f1c47	0.034939077
54	0xbc2793e9	-0.010228136
55	0x3d40c728	0.04706493
56	0xbcc4ef94	-0.024040021
57	0x3b355750	0.002767045
58	0xbcff043e	-0.031129953
59	0xbcd3936f	-0.025827138
60	0x3d5b1fc1	0.05349708
61	0x3d06fc10	0.03295523
62	0x3d114d6d	0.03547423
63	0x3dc079da	0.09398241
64	0xbdabcb4e	-0.08388387
65	0x3d84e808	0.06489569
66	0xbcfd68b2	-0.030933712
67	0x3cee4558	0.0290858
68	0x3dd67675	0.10471813
69	0x3d72b37b	0.059253197
70	0x3cca4140	0.024689317
71	0xbd921c68	-0.07134324
72	0x3cef9718	0.029246852
73	0x3c5bf879	0.01342594
74	0xbda5094b	-0.08058413
75	0xbd3485ce	-0.04407292
76	0x3d2d0519	0.04224119
77	0xbaf4b099	-0.0018668353
78	0x3d69a1dd	0.05703913
79	0xbcb3072c	-0.021854006
80	0xbbb7d655	-0.005610267
81	0x3bbebff6	0.0058212234
82	0x3d1ff656	0.039053284
83	0x3d740c08	0.059581786
84	0x3c5a2d0f	0.013316407
85	0xbd0b3c95	-0.033993322
86	0x3d81b93e	0.0633416
87	0xbc6cd5cc	-0.01445527
88	0xbc69bb0e	-0.014265789
89	0xbc689058	-0.0141945705
90	0x3cc6198a	0.0241821
91	0x3c4a7550	0.012357071
92	0xbd5eb8e0	-0.05437553
93	0xbd8ab740	-0.067732334
94	0x3d1a87d2	0.037727185
95	0xbd2a4c73	-0.041576814
96	0x3d241f06	0.04006865
97	0xbcbe43af	-0.023225633
98	0x3cddf391	0.02709368
99	0x3d4a289c	0.049355134
100	0x3d3d93e2	0.04628361
101	0xbbcc75ff	-0.006239652
102	0xbd433045	-0.047653455
103	0x3bc4f873	0.006011063
104	0xbc653c1c	-0.013991382
105	0x3b7bb9c6	0.003841029
106	0x3c8ecf67	0.017432882
107	0x3d9e2240	0.077213764
108	0x3c1dcd5f	0.009631484
109	0xbd5c28ea	-0.053749956
110	0x3b80bc0a	0.003928666
111	0x3d2101ea	0.039308466
112	0xbcaafd41	-0.020872714
113	0xbd77cc45	-0.06049754
114	0xbd837d4e	-0.06420384
115	0x3d6854e1	0.05672157
116	0x3c9b9984	0.0189941
117	0x3cd3a995	0.025837699
118	0xba2378e6	-0.0006235972
119	0x3dec2d52	0.11532082
120	0xbcb1e64f	-0.021716265
121	0x3d26e10d	0.04074197
122	0xbd1ebc04	-0.038753524
123	0x3ca7d38b	0.020486614
124	0xbd4a7580	-0.049428463
125	0xbcda32cb	-0.026635548
126	0xbdb1d413	-0.08683028
127	0xbc995f7a	-0.018722285
128	0xbc9a4ec9	-0.018836396
129	0x3c99e4e6	0.018785905
130	0xbb534fb9	-0.0032243563
131	0x3d0fa488	0.03506902
132	0xbd6af088	-0.057358295
133	0xbd104c61	-0.03522909
134	0x3d3bd732	0.045859523
135	0x3d538a3c	0.051645502
136	0x3ca34d2a	0.019934256
137	0xbcf9828a	-0.030457754
138	0x3bcdd335	0.0062812814
139	0x3b02b657	0.0019945109
140	0x3d1a3a1f	0.037653085
141	0x3ae3ac54	0.0017370083
142	0xbd61138d	-0.054950286
143	0x3d137564	0.036000624
144	0xbce97e86	-0.028502714
145	0xbbf661cc	-0.0075189825
146	0xbd0f520a	-0.034990348
147	0x3c824c48	0.015905514
148	0x3d5db008	0.054122955
149	0x3cec661f	0.028857289
150	0xbc09ad7a	-0.008403176
151	0x3d301089	0.04298452
152	0xbcc12fe1	-0.0235824
153	0xbce92971	-0.028462144
154	0x3dcf6e13	0.10128417
155	0x3db0a723	0.08625629
156	0xbc8066c6	-0.015674006
157	0x3c992aa0	0.018697083
158	0xbd176642	-0.036962755
159	0x3d739d29	0.05947605
160	0xbdab7f79	-0.08373923
161	0xbd6b6043	-0.05746485
162	0x3ae27b00	0.0017279088
163	0x3bc591c0	0.0060293376
164	0x3d072e78	0.0330033
165	0x3c54225c	0.012947645
166	0x3c91bacf	0.017789273
167	0x3d0af943	0.03392912
168	0xbda77f88	-0.081786215
169	0x3d18b882	0.037285335
170	0x3d31affe	0.04338073
171	0x3b7c82a7	0.0038530023
172	0x3ced3276	0.028954726
173	0x3d6aa340	0.057284594
174	0xbbb9e0bd	-0.005672543
175	0xbd88b126	-0.066744134
176	0x3d68fe9d	0.056883443
177	0xbce12aff	-0.027486322
178	0xbcd09b69	-0.02546473
179	0xbd4b65c0	-0.049657583
180	0x3c863d3b	0.016386619
181	0x3d2428da	0.04007802
182	0x3c6832e9	0.014172294
183	0x3c50a6cd	0.012735081
184	0x3cd75052	0.026283417
185	0x3c324562	0.0108808
186	0x3c467168	0.012111999
187	0xbce507c1	-0.027957799
188	0xbc31970c	-0.010839235
189	0x3aff8399	0.0019494175
190	0x3d771c1b	0.060329538
191	0xbc055e0a	-0.008140096
192	0x3d78fdd5	0.060788948
193	0x3d562ff5	0.05229183
194	0xbcac199a	-0.021008302
195	0xbcb86b30	-0.022512048
196	0xbcf4b446	-0.029871117
197	0xbb88b76e	-0.004172257
198	0xbc741c26	-0.014899289
199	0xbd06d56c	-0.03291838
200	0x3c44453d	0.011979398
201	0x3cf62b31	0.030049892
202	0x3b5049c2	0.0031782244
203	0x3d12743f	0.035755392
204	0x3dd45a87	0.10368829
205	0xbd60895e	-0.054818504
206	0x3d5127d0	0.05106336
207	0xbc32703b	-0.010891016
208	0x3c79e92f	0.015253349
209	0x3d03c42c	0.032169506
210	0x3b4cc66d	0.00312462
211	0xbbf6af12	-0.007528194
212	0xbd163160	-0.03666818
213	0x3d063ceb	0.03277294
214	0xbcc9773a	-0.024592984
215	0x3dd2b0a1	0.102875955
216	0xbb73c083	-0.0037193603
217	0x3cf8a3d6	0.03035156
218	0xbca37ddc	-0.019957475
219	0x3db0c929	0.08632118
220	0xbd17b000	-0.03703308
221	0xbcedf214	-0.029046096
222	0x3e01dd1b	0.12682001
223	0x3c1593f2	0.009129511
224	0x3dfc8311	0.123296864
225	0xbcf1596d	-0.029461587
226	0xbc136c84	-0.00899804
227	0x3d39a2bd	0.045321215
228	0xbca780a1	-0.020447077
229	0x3d846a37	0.064655714
230	0x3d47dd96	0.048795305
231	0xbcc0ba8f	-0.023526458
232	0xbd1d3599	-0.038381193
233	0x3d905432	0.07047309
234	0x3cd67b4b	0.026181838
235	0xbccc4958	-0.024937317
236	0xbd0f7b42	-0.035029657
237	0x3c011c66	0.007880306
238	0x3c263576	0.010144582
239	0x3d52ebcd	0.05149441
240	0xbcdc77b9	-0.026912557
241	0x3d3ac707	0.045599964
242	0xbd49f831	-0.04930896
243	0x3be95f70	0.0071219727
244	0xbce99d1d	-0.0285173
245	0x3c82ee8b	0.015982887
246	0x3dedf7f4	0.11619559
247	0xbcf95cb7	-0.030439718
248	0xbc322683	-0.01087344
249	0xbd79f799	-0.061027143
250	0x3ccf8baf	0.025335161
251	0xbd034f3e	-0.032057993
252	0x3d69148a	0.056904353
253	0xbd070169	-0.03296033
254	0xbcb8c016	-0.022552531
255	0xbc48c905	-0.012254958

network_body._body_endoder.seq_layers.2.weight f4 [256, 256]
0	0x3dd6b3e2	0.10483529
1	0xbe2a2a7c	-0.16617769
2	0x3d8c6979	0.06856055
3	0xbe0146b7	-0.12624632
4	0xbc93c198	-0.018036649
5	0x3cfca15f	0.030838666
6	0xbcbfcb5a	-0.023412395
7	0x3d02ccbd	0.031933535
8	0x3d1199fe	0.03554725
9	0x3e2538d9	0.16134967
10	0x3d8c9c5b	0.0686576
11	0xbe4d17cb	-0.20028608
12	0xbd53b1fd	-0.051683415
13	0x3d45eef3	0.048323583
14	0xbc10f95b	-0.0088485135
15	0x3d8945b5	0.06702749
16	0xbd83c2a7	-0.06433611
17	0x3dff9cd0	0.124810815
18	0x3d146238	0.03622648
19	0x3d0c480a	0.03424839
20	0xbdfc85ac	-0.123301834
21	0x3d66a44d	0.056309033
22	0xbce13843	-0.027492648
23	0x3ddf5b6f	0.109061114
24	0x3e146256	0.14490637
25	0x3d204dbe	0.03913664
26	0x3db031a5	0.08603219
27	0x3d7fcc44	0.062450662
28	0xbe7ef65a	-0.24898663
29	0x3e3287ec	0.17434663
30	0xbdfa86cd	-0.122327425
31	0xbe20fd3a	-0.15721598
32	0xbe098b35	-0.1343201
33	0x3ca2ce06	0.01987363
34	0x3e3ae5e5	0.1825176
35	0x3e2f7abd	0.17136665
36	0xbdcc6031	-0.099792846
37	0x3dbff87c	0.093735665
38	0x3d363359	0.044482563
39	0xbd3ee647	-0.04660633
40	0xbc144ece	-0.009051992
41	0x3d04fbf5	0.032466847
42	0xbd769f4c	-0.06021051
43	0x3e6b415b	0.2297415
44	0x3d814730	0.06312406
45	0xbd3f53ea	-0.046710886
46	0x3da83edf	0.08215117
47	0x3d47cba0	0.048778176
48	0xbc367737	-0.0111368215
49	0x3cb23ea7	0.02175839
50	0xbbe025f4	-0.006840462
51	0x3e90b158	0.28260303
52	0x3cac863d	0.021060104
53	0x3e082471	0.13295151
54	0x3deaba7e	0.11461352
55	0xbd7f1cc0	-0.062283278
56	0xbac25cdf	-0.0014828703
57	0xbe2d7283	-0.16938214
58	0x3de3958c	0.11112508
59	0x3d9ac8b0	0.07557809
60	0xbdf3441c	-0.11878225
61	0xbe950eef	-0.29112956
62	0xbac6a464	-0.0015155193
63	0xbe282ff5	-0.16424544
64	0x3de17706	0.1100903
65	0x3d42f23b	0.04759429
66	0xbdad585a	-0.08464117
67	0x3d021a1b	0.031763177
68	0xbd01346d	-0.031544138
69	0xbe88c595	-0.26713243
70	0xbe6805b6	-0.22658429
71	0xbd46bedc	-0.04852186
72	0xbd2c0e0f	-0.042005595
73	0xbb4c127b	-0.0031138945
74	0x3cead88b	0.028667709
75	0x3cbfd947	0.023419036
76	0xbe19790c	-0.14987582
77	0x3e000e21	0.1250539
78	0x3d5b4742	0.053534754
79	0x3db30f0c	0.08743104
80	0x3e4331a3	0.19061904
81	0x3e862455	0.26199594
82	0x3e465184	0.19367033
83	0x3db5d4a6	0.0887845
84	0x3da10aac	0.078633636
85	0x3e41c220	0.18921709
86	0xbc3d5adb	-0.011557306
87	0x3e551c67	0.20811616
88	0xbe17adde	-0.14812419
89	0x3e4b07dc	0.19827217
90	0xbd8249a3	-0.06361701
91	0x3d26516d	0.040604997
92	0xbdd3f20a	-0.103489
93	0xbcda0c79	-0.026617276
94	0xbb8664ba	-0.004101363
95	0x3e0128ee	0.1261327
96	0x3dc588ac	0.09645209
97	0x3b9ba53b	0.0047499216
98	0xbe8790e9	-0.26477745
99	0x3ddc908d	0.107697584
100	0x3dc86fe4	0.097869664
101	0xbe212940	-0.15738392
102	0xbba53afc	-0.005042432
103	0x3e18ef9b	0.14935152
104	0x3dc9d1c8	0.09854466
105	0x3cd8a1c6	0.026444327
106	0x3cae3e7d	0.021270031
107	0xbc69410c	-0.0142367
108	0xbde994a5	-0.11405305
109	0x3d169f1a	0.036772825
110	0xbd9dee42	-0.0771146
111	0xbe209f13	-0.15685682
112	0x3deaeb76	0.11470692
113	0xbc5bfe8c	-0.013427388
114	0xbe54a9aa	-0.20767847
115	0x3bc37c13	0.0059657185
116	0x3d9ff89e	0.07811092
117	0x3e6f15d9	0.23348178
118	0xbe356850	-0.17715573
119	0xbd43da97	-0.047815885
120	0x3d084d1b	0.03327666
121	0xbdfbf0b3	-0.12301769
122	0xbb797f9a	-0.0038070441
123	0x3db5245f	0.08844828
124	0xbd551288	-0.052019626
125	0x3ddca8ff	0.10774421
126	0x3d49590e	0.049157195
127	0x3e03495e	0.12820956
128	0xbd23ea24	-0.040018216
129	0x3d4b8fa8	0.04969755
130	0xbe0e6aac	-0.1390788
131	0xbcffc1be	-0.031220313
132	0x3d9c154b	0.07621249
133	0x3d9c48a5	0.07631043
134	0x3e3bee39	0.18352593
135	0xbd1d3427	-0.038379814
136	0x3d8be108	0.06830031
137	0xbe34050e	-0.17580053
138	0xbd3fe10c	-0.04684548
139	0x3eacb54d	0.33732072
140	0xbe044339	-0.12916268
141	0xbe608a30	-0.21927714
142	0x3cd346eb	0.025790652
143	0x3c0b57c0	0.008504808
144	0x3e36e423	0.17860465
145	0x3d318717	0.043341722
146	0xbdd1d60a	-0.10245903
147	0x3cd399bf	0.025830148
148	0xbd44a0d4	-0.04800494
149	0xbdf27309	-0.118383475
150	0x3e097205	0.13422401
151	0xbd9f8f37	-0.07790988
152	0x3e517f09	0.20458616
153	0x3d207773	0.039176416
154	0xbd9d829b	-0.07690927
155	0xbe0b0895	-0.13577493
156	0x3dd2175e	0.10258363
157	0x3e6c9b32	0.23106077
158	0x3cfc8da5	0.03082926
159	0x3e0aee02	0.13567355
160	0xbc1b48cb	-0.009477804
161	0xbe16bbe5	-0.14720114
162	0xbc9db20f	-0.019249944
163	0x3dde3148	0.108492434
164	0x3d8ae767	0.06782418
165	0x3d42200b	0.04739384
166	0x3d78bdbc	0.06072782
167	0xbe4b89ae	-0.1987674
168	0x3e5b22ec	0.2140004
169	0xbeb7e067	-0.35913393
170	0x3cefd55a	0.029276539
171	0x3ca73612	0.020411525
172	0xbdb4a7d5	-0.08821074
173	0xbd8d2634	-0.06892052
174	0xbd0e5c11	-0.03475577
175	0x3dbe435e	0.09290193
176	0xbdfa0954	-0.122088104
177	0xbcf7c9dd	-0.030247623
178	0xbd2962a4	-0.041353837
179	0xb9f5bb7a	-0.00046869722
180	0x3cfe9156	0.031075161
181	0x3ccdad9d	0.0251072
182	0xbe3944df	-0.18092678
183	0x3c5a1dcc	0.013312768
184	0x3d80f4ff	0.06296729
185	0x3cd143bd	0.025544995
186	0x3cab6a4e	0.020924713
187	0xbd6e3852	-0.05815918
188	0xbe148a1f	-0.14505814
189	0xbe6b912f	-0.23004602
190	0xbc813fda	-0.015777517
191	0xbc920f3b	-0.017829528
192	0xbda83580	-0.08213329
193	0x3d72fd26	0.059323452
194	0x3d828e0e	0.06374751
195	0x3d014f4b	0.03156976
196	0x3e218959	0.1577505
197	0x3c72182d	0.014776272
198	0xbd55b550	-0.052174866
199	0xbcfc1a3f	-0.030774234
200	0x3c938bd6	0.018011015
201	0xbe54d8a7	-0.20785771
202	0xbce5164a	-0.02796473
203	0x3e746cce	0.2386963
204	0xbe0916bf	-0.13387583
205	0x3cf24fb6	0.029579025
206	0xbd007d90	-0.031369746
207	0x3a68429d	0.0008860024
208	0xbb9d3d30	-0.004798554
209	0xbdb8cb25	-0.09023122
210	0x3db39c9f	0.087701075
211	0xbd618a1e	-0.05506336
212	0xbe17052f	-0.14748071
213	0x3c9a4e75	0.01883624
214	0x3dabc772	0.083876505
215	0x3d79ee1f	0.061018106
216	0x3d2cc39e	0.042178743
217	0xbc8ff291	-0.01757172
218	0x3d949fe2	0.07257058
219	0x3d26a680	0.04068613
220	0x3e48a93a	0.19595805
221	0x3db573a7	0.088599496
222	0x3d0af463	0.03392447
223	0x3c02243b	0.007943208
224	0xbc36b366	-0.01115117
225	0xbe307cc6	-0.17235097
226	0x3dfc9d06	0.12334637
227	0x3b5e1e1b	0.0033892456
228	0x3e124ffa	0.14288321
229	0xbcd41505	-0.02588893
230	0xbd3b08e2	-0.04566277
231	0x3b9669ce	0.0045902496
232	0xbdee2927	-0.11628943
233	0xbd7be8cd	-0.061501313
234	0xbd92a91f	-0.071611635
235	0xbca2ceb9	-0.019873964
236	0x3dcea823	0.10090663
237	0xbe3b7bd0	-0.1830895
238	0xbbe89d3c	-0.007098822
239	0x3c37e6c7	0.011224455
240	0x3cd43f45	0.025909076
241	0x3e068082	0.1313496
242	0x3e3fdb44	0.18735987
243	0x3e9af52d	0.3026518
244	0x3e344947	0.17606078
245	0xbcb3d448	-0.02195181
246	0x3dd83fd0	0.10559046
247	0xbe0bf95a	-0.13669339
248	0xbe09814e	-0.13428232
249	0x3dc02066	0.093811795
250	0xbe397c5d	-0.18113847
251	0xbba25058	-0.0049534254
252	0x3d58c31d	0.05292045
253	0xbda30b91	-0.079611905
254	0xb9d242b3	-0.00040104016
255	0xbda77410	-0.08176434

network_body._body_endoder.seq_layers.2.bias f4 [256]
0	0xbd02669d	-0.03183614
1	0xbc38e53d	-0.011285123
2	0x3b5a84a6	0.0033343225
3	0x3bf6ed7b	0.007535634
4	0xbd25f826	-0.040519856
5	0xbc34c18b	-0.011032472
6	0xbd8ab8bc	-0.067735165
7	0xbc49179b	-0.012273694
8	0xbde1ba5e	-0.11021875
9	0xbc042cfd	-0.008067367
10	0xbd18552e	-0.03719061
11	0x3cd9a9ba	0.02657019
12	0xbd054505	-0.032536525
13	0xbbd7b2cd	-0.006582594
14	0x3a850a16	0.00101501
15	0xbd8053f0	-0.0626601
16	0x3c44b759	0.012006604
17	0xbd8ce25e	-0.068791136
18	0xbdf60b63	-0.120138906
19	0xbbd89958	-0.006610077
20	0xbd4d349f	-0.05009901
21	0xbd9e25a2	-0.07722022
22	0xbc9135da	-0.017725874
23	0x3ad0d130	0.0015931483
24	0xbbe5e68d	-0.007016009
25	0xbd059b74	-0.032618955
26	0xba1ad995	-0.0005907056
27	0x3c6d4675	0.01448213
28	0xbcd472ab	-0.025933584
29	0x3c98d8d5	0.018658081
30	0xbd447e5b	-0.047972064
31	0xbc8c09f7	-0.017094595
32	0x3ab22557	0.001359145
33	0xbd28ddc8	-0.041227132
34	0xbda067db	-0.07832309
35	0xbda499f5	-0.080371775
36	0xbc3755f8	-0.01118993
37	0x3cb14612	0.021639857
38	0xbd98b1ce	-0.074557886
39	0xbd897de5	-0.067134656
40	0xbdbb4b09	-0.09145171
41	0xbd829401	-0.06375886
42	0x3b7a1ce0	0.0038164183
43	0xbd9d9ecc	-0.07696304
44	0xbd29dcfd	-0.041470516
45	0xbd13226e	-0.035921507
46	0xbdcf7834	-0.10130349
47	0x3c421ec2	0.011848154
48	0x3c23e912	0.010004299
49	0xbdcf376d	-0.101179935
50	0xbd7126a2	-0.058874734
51	0xbc627344	-0.013821427
52	0xbc54a287	-0.012978203
53	0xbcc3ed8c	-0.023916982
54	0xbde0927a	-0.10965438
55	0x3c06e575	0.008233418
56	0xbd105f8a	-0.035247363
57	0xbd4e933c	-0.050433382
58	0xbd9c9d36	-0.07647173
59	0x3c128b27	0.008944309
60	0xbdb96a86	-0.09053521
61	0xbb8099cd	-0.0039245845
62	0x3ba13932	0.0049201483
63	0xbdcafadd	-0.099111296
64	0xbdc5f065	-0.09664992
65	0xbdd81ce1	-0.10552383
66	0xbcaedf76	-0.021346789
67	0x3affdceb	0.0019520795
68	0xbc559929	-0.0130370045
69	0x3bfc34d8	0.007696729
70	0x3bf59e34	0.007495666
71	0x3b2ba307	0.0026189701
72	0xbddc7384	-0.1076422
73	0x3cede714	0.02904085
74	0xbc7acf9f	-0.01530829
75	0xbc91ee55	-0.01781384
76	0xbbe18119	-0.0068818447
77	0xbd7fe688	-0.06247571
78	0x3af07202	0.0018344524
79	0xbdb80fc1	-0.0898738
80	0xbd7e3ba6	-0.062068604
81	0xbd58fac9	-0.052973542
82	0xbdd1b6ef	-0.1023997
83	0x3cecdb92	0.028913293
84	0xbca93176	-0.020653468
85	0x3ccdb342	0.02510989
86	0xbc0e450c	-0.008683454
87	0x3bcac213	0.006187686
88	0xbd2fe99c	-0.042947397
89	0xbdd1c1a8	-0.10242015
90	0xbcde0557	-0.027102156
91	0xbd00618b	-0.031343024
92	0xbbdf8a10	-0.0068218783
93	0x3cacf086	0.021110784
94	0xbe0b771e	-0.13619658
95	0xbce92931	-0.028462024
96	0xbda9d137	-0.08291858
97	0xbd859080	-0.06521702
98	0x3cf1a505	0.029497633
99	0xbae5a121	-0.0017519334
100	0xba643002	-0.00087046635
101	0xbd3309d1	-0.043710534
102	0xbc84056b	-0.016115865
103	0x3cc861b2	0.024460647
104	0xbc9e6def	-0.01933953
105	0x3cbc3f24	0.022979327
106	0xbdf6d02d	-0.12051425
107	0xbd881c61	-0.06646038
108	0x3bee3a45	0.00727013
109	0xbc5a3bd6	-0.01331993
110	0xbd715032	-0.05891437
111	0xbd0b6cbc	-0.034039244
112	0x3d3a1653	0.045431446
113	0x3bb9d805	0.0056715035
114	0xbd5ad3d2	-0.053424664
115	0xbdc2de3a	-0.095150426
116	0x3ccedafc	0.025250904
117	0x3d7d8b70	0.061900556
118	0xbcb7c2ae	-0.022431698
119	0xbd016109	-0.03158668
120	0xbd6acd46	-0.05732467
121	0xbe01bdea	-0.12670103
122	0x3c8ea144	0.017410882
123	0xbd93ff84	-0.0722647
124	0xbe0083b3	-0.1255024
125	0xbd5a353c	-0.053273425
126	0xbc8494fb	-0.01618432
127	0xbc9b2c22	-0.018941943
128	0xbd84bc2b	-0.06481203
129	0x3b514663	0.0031932823
130	0xbd9bb4cf	-0.07602846
131	0x3b7b2089	0.0038318953
132	0xbd1b4158	-0.037904114
133	0xbd9137a2	-0.07090689
134	0x3bcca7b6	0.0062455786
135	0xbd905e77	-0.07049268
136	0xbd1aa3e6	-0.037753962
137	0x3caae278	0.020859942
138	0xbd9110a8	-0.07083255
139	0xbd17dbdb	-0.037074905
140	0xbcc9ce0f	-0.02463439
141	0xbc8ea5bc	-0.017413013
142	0xbe1649f3	-0.14676647
143	0xbcd3b4d5	-0.025843063
144	0xbcf367d6	-0.029712599
145	0x3ab8dcfd	0.0014103946
146	0xbccaccee	-0.024755921
147	0xbc46d131	-0.012134836
148	0xbd25eada	-0.040507175
149	0xbe06a48c	-0.13148707
150	0x3c64c03a	0.013961846
151	0xbd6ded84	-0.05808784
152	0xbafa03e9	-0.0019074652
153	0xbe091800	-0.13388062
154	0xbd7fbac3	-0.06243397
155	0xbdcd2a1f	-0.100177996
156	0x3c9218cf	0.017834095
157	0xbe128c7e	-0.14311406
158	0x3c4f5480	0.012654424
159	0xbdac37b9	-0.08409066
160	0xbd5988b2	-0.05310888
161	0xbd866fb0	-0.065642715
162	0xbc199562	-0.009373995
163	0x3ce996b4	0.028514244
164	0xbd5aaa4b	-0.05338506
165	0x3cab5c21	0.020917954
166	0x3bceaa33	0.0063069104
167	0xbe1087a0	-0.14114237
168	0xbd131356	-0.035907112
169	0xbcd34b0d	-0.025792623
170	0xbd1d684e	-0.03842955
171	0x3ca554cc	0.020182036
172	0xbd828ad6	-0.06374137
173	0xbca2c789	-0.019870536
174	0xbd7c1c2e	-0.06155031
175	0x3bde8944	0.0067912657
176	0xbdab5ba0	-0.083670855
177	0xbc7a6898	-0.015283726
178	0xbd8109b1	-0.063006766
179	0xbd91c8a3	-0.071183465
180	0xbd89211e	-0.0669577
181	0xbdbae95e	-0.091265425
182	0xbd974a83	-0.07387259
183	0xbb9acf4a	-0.004724418
184	0xbdb6d9a0	-0.089282274
185	0x3cc799df	0.024365364
186	0xbc98fb45	-0.018674502
187	0x3c454fea	0.012042979
188	0xbd18ef07	-0.03733733
189	0xbcb7fcaa	-0.022459347
190	0xbd5a1d43	-0.053250562
191	0xbd3e77c4	-0.046500936
192	0x3c458428	0.012055434
193	0xbbd22354	-0.006412903
194	0xbb90470f	-0.004403002
195	0xbdb4555d	-0.08805344
196	0xbd491885	-0.04909565
197	0xbdac3d46	-0.084101245
198	0x3c86c1c7	0.016449822
199	0xbd9315ad	-0.07181869
200	0xbe2757df	-0.16342114
201	0x3d2eb8be	0.042656653
202	0xbc52536e	-0.012837274
203	0xbb355b20	-0.0027672723
204	0x3cad143b	0.02112781
205	0xbcf1c37c	-0.02951216
206	0x3d65a73c	0.05606769
207	0xbc4cd887	-0.012502796
208	0xbd83da46	-0.06438117
209	0xbd4414d8	-0.04787144
210	0x3c9db5ea	0.019251782
211	0xbcac706b	-0.021049699
212	0xbd14eb0a	-0.036356963
213	0xbc7fc94e	-0.01561196
214	0xbdcca231	-0.09991873
215	0xbd955321	-0.07291246
216	0x3cc9fb65	0.024656007
217	0xbce7946c	-0.028269015
218	0xbca8c5a5	-0.020602057
219	0xbd9e28e9	-0.07722647
220	0xbd664365	-0.056216616
221	0xbd1e168f	-0.038595732
222	0x3c2eae02	0.010661604
223	0xba923acd	-0.001115644
224	0x3c7773c6	0.015103286
225	0xbd39945b	-0.0453075
226	0xbdcad935	-0.0990471
227	0xbc667ea8	-0.014068283
228	0xbc93a675	-0.018023709
229	0xbd168c74	-0.03675504
230	0x3c7cea2b	0.015436689
231	0xbbf0edbb	-0.0073525584
232	0xbda494b3	-0.080361746
233	0xbd960f0b	-0.07327088
234	0xbd2f6973	-0.042825174
235	0xbe0dfa44	-0.13865
236	0xbb85103c	-0.004060773
237	0xbcf91b3d	-0.030408496
238	0xbd601c48	-0.05471447
239	0xbcc18d75	-0.023627022
240	0xbc945ff0	-0.018112153
241	0x3c8ff828	0.017574385
242	0xbdd35006	-0.10317998
243	0x3baa4fc4	0.005197497
244	0xbc8580b7	-0.016296728
245	0x3d260266	0.04052963
246	0xbc8e1075	-0.017341832
247	0xbdf71cd8	-0.120660484
248	0xbda52e0c	-0.08065423
249	0xbe028b12	-0.12748364
250	0x3c50201c	0.012702968
251	0xbda15bc1	-0.07878829
252	0xbd2f1ca2	-0.042751916
253	0xbddfbd3f	-0.10924768
254	0x3c59ef12	0.013301628
255	0xb81909fc	-3.648734e-05

action_model._discrete_distribution.branches.0.weight f4 [3, 256]
0	0x3cddb626	0.027064394
1	0xbce7352e	-0.0282236
2	0xbd0a5f65	-0.03378238
3	0xbd016e50	-0.031599343
4	0xbc58fce4	-0.013243888
5	0xbbf4c177	-0.007469352
6	0xbd269be8	-0.040676028
7	0xbc5a059a	-0.013307
8	0x3aea1527	0.0017859087
9	0x3bcbaddb	0.0062157935
10	0xbc1fb574	-0.009747852
11	0xbd0de9c3	-0.03464676
12	0xbc42483b	-0.011858041
13	0xbd2b103f	-0.04176354
14	0x39fca539	0.00048188286
15	0xbc2e7f8e	-0.010650529
16	0xbd53ef9b	-0.051742177
17	0xbad1d50b	-0.0016008926
18	0xba7fb7dd	-0.0009754876
19	0xbd85172b	-0.064985596
20	0xbd08fd92	-0.03344495
21	0xbce77ee9	-0.028258758
22	0xbdad8c7a	-0.084740594
23	0x3bba29f6	0.0056812717
24	0xbca0efdc	-0.019645624
25	0xbc984f12	-0.018592391
26	0x3bc13da8	0.0058972426
27	0x3c0d5f8e	0.008628739
28	0x3d3b5c69	0.045742426
29	0xbcae58b8	-0.021282539
30	0xbd245d58	-0.040128082
31	0x3c961dd5	0.018324772
32	0xbd0dd741	-0.03462911
33	0xbd5679d0	-0.052362263
34	0xbd3302fd	-0.04370402
35	0x3d1055e4	0.03523816
36	0xbd06afde	-0.032882564
37	0xbd1ec80d	-0.038765002
38	0x3c6ddd2c	0.0145180635
39	0x3d5b8839	0.05359671
40	0xbcafb4fa	-0.021448601
41	0xbce87a19	-0.028378533
42	0xbdbf3548	-0.093363345
43	0xbc33d2d8	-0.010975562
44	0xbca09b5b	-0.01960533
45	0xbd174110	-0.036927283
46	0x3ced9ced	0.029005492
47	0xbc325c9c	-0.010886338
48	0xbd664a84	-0.056223407
49	0xbcb40390	-0.021974355
50	0xbcfec233	-0.03109846
51	0xbcb849ff	-0.022496222
52	0xbcaf5c64	-0.02140636
53	0xbdcd1e8c	-0.10015592
54	0x3c11b712	0.008893745
55	0x3cc4ec97	0.024038596
56	0xbce3fcaa	-0.02783044
57	0xbd5ceaba	-0.05393479
58	0x3d20b92f	0.039239105
59	0xbb3b3f4b	-0.002857166
60	0x3b43edea	0.0029896447
61	0xbd1e061f	-0.038580056
62	0xbb031b83	-0.0020005412
63	0x3be23c72	0.0069041783
64	0x3d6a5d00	0.057217598
65	0xbc90a1b6	-0.017655235
66	0x3dc6efdd	0.09713719
67	0xbcf17113	-0.029472863
68	0xbd9edabe	-0.077565655
69	0xbd3d1fac	-0.046172783
70	0xbcd8e520	-0.026476443
71	0x3d375fe4	0.044769183
72	0x3c9843b8	0.018586978
73	0x3c570e03	0.013125899
74	0x3ce54887	0.027988685
75	0xbce26466	-0.027635764
76	0x3c1480cd	0.009063912
77	0xbcaef245	-0.021355757
78	0xbd337038	-0.043808192
79	0x3d15a115	0.036530573
80	0xbc3cae10	-0.011516109
81	0xbc65f5d0	-0.014035657
82	0xbcb01153	-0.021492636
83	0xbd643996	-0.05571898
84	0xbdb89509	-0.09012801
85	0xbdcfe8f1	-0.10151852
86	0x3ae1280c	0.0017178073
87	0xbd73ccc7	-0.059521463
88	0xbd2aa7de	-0.041663997
89	0xbc1aab0b	-0.009440194
90	0xbd097741	-0.033560995
91	0xbd044141	-0.032288793
92	0x3b08ff99	0.0020904301
93	0xbbfd53aa	-0.007730921
94	0x3c03db42	0.008047881
95	0xbdcd309b	-0.100190364
96	0xbbe3181f	-0.0069303657
97	0xbcc5cc87	-0.024145378
98	0xbda96c01	-0.08272553
99	0xbcaca63a	-0.021075357
100	0x3c787b15	0.015166064
101	0x3ccc01c2	0.024903182
102	0x3b82780a	0.003981595
103	0x3c7dc3fc	0.015488621
104	0xbb283d72	-0.002567139
105	0x39d8f3f1	0.0004138048
106	0x3c8c87de	0.01715463
107	0xbd38b22e	-0.0450918
108	0x3cecafe2	0.028892461
109	0xbcdfceb9	-0.027320253
110	0x3cf5d79d	0.030010039
111	0x3c3ce5a7	0.011529363
112	0x3d00097b	0.03125904
113	0xbc776d8e	-0.0151018035
114	0xbe008268	-0.12549746
115	0x3d814e86	0.06313805
116	0xbcba918e	-0.022774484
117	0xbc893d65	-0.016752908
118	0xbc19d86b	-0.009389977
119	0xbcb0afa8	-0.021568134
120	0xbbd53ea6	-0.0065077124
121	0xbc34c370	-0.011032924
122	0xbc04bf7e	-0.008102296
123	0xbcee53e9	-0.029092746
124	0x3cc742a7	0.024323775
125	0xbbb26db4	-0.0054452065
126	0x3d5c8303	0.05383588
127	0xbc981370	-0.018563956
128	0x3ad9932f	0.001659965
129	0xbc8d1b7a	-0.017225016
130	0xbceb1636	-0.028697114
131	0xbcd15e52	-0.02555767
132	0xbd41b175	-0.047288377
133	0x3c0896c8	0.00833673
134	0xbce620bf	-0.028091786
135	0xbd0ccb09	-0.034373317
136	0x3cd8a5ba	0.026446212
137	0xbd54df06	-0.051970504
138	0xbc0bf88c	-0.008543145
139	0xbdbea4dc	-0.09308788
140	0xbb3229e6	-0.0027185618
141	0xbd278696	-0.040899836
142	0xbc36bb9b	-0.011153127
143	0xbcabd0a4	-0.020973511
144	0xbd881d71	-0.066462405
145	0xbb3704e8	-0.0027926508
146	0x3ccdf4a8	0.025141075
147	0xbd47e88c	-0.04880576
148	0xbcbf389f	-0.023342429
149	0x3cbc72fb	0.023004046
150	0xbcba3419	-0.02272992
151	0x3d84e1d0	0.06488383
152	0x3b12640e	0.002233747
153	0x3c0ec863	0.008714768
154	0xbd367d9b	-0.04455338
155	0x3c9e06e1	0.01929039
156	0xbcb31e99	-0.021865176
157	0x3d99b3b9	0.075049825
158	0xbd614e3d	-0.055006254
159	0x3cee4fda	0.02909081
160	0xbcd894f7	-0.02643822
161	0x3af7b279	0.0018897793
162	0xbb19a3fb	-0.0023443687
163	0xbbb6beed	-0.0055769593
164	0xbd7809a1	-0.060556058
165	0xbd15c23e	-0.036562197
166	0xbcdb2a1c	-0.026753478
167	0x3d30d289	0.043169532
168	0x3c0f72ca	0.008755395
169	0xbc278e9a	-0.01022687
170	0xbd43853d	-0.047734488
171	0xbcfec2f1	-0.031098815
172	0xbd2251f6	-0.039628945
173	0xbd801acf	-0.06255113
174	0xbcaefb44	-0.021360047
175	0xbd928f03	-0.071561836
176	0xbc59cea7	-0.013293899
177	0xbd37f8bf	-0.044914957
178	0x3d10caac	0.035349533
179	0xbd3728a4	-0.044716492
180	0x3ca5cf96	0.020240586
181	0x3d41db7e	0.047328465
182	0x3cfc1d97	0.030775828
183	0xbd0bf767	-0.034171488
184	0xbd3857d5	-0.04500564
185	0xbd9195ee	-0.07108675
186	0xbcfcbe55	-0.030852476
187	0x3c834774	0.016025282
188	0xbdbd6e3b	-0.092495404
189	0xbdf2e0fc	-0.118593186
190	0xbcdc41eb	-0.0268869
191	0xbd0d2b30	-0.034465015
192	0xbde3c678	-0.11121839
193	0xbccb23f9	-0.024797427
194	0xbcd5a141	-0.026077868
195	0x3babca8a	0.0052426504
196	0xbdd671e6	-0.10470943
197	0xbc20e458	-0.009820066
198	0x3d1ceb3b	0.03831027
199	0x3c14aa15	0.009073754
200	0x3c6c0c18	0.01440718
201	0xbe0f3063	-0.13983302
202	0x3c90dc24	0.017683096
203	0xbc208f5f	-0.009799807
204	0xbd96f27a	-0.073704675
205	0xbd02b792	-0.031913348
206	0xbd2c3e2b	-0.042051475
207	0xbbc9a4e9	-0.006153692
208	0xbcb9af11	-0.022666486
209	0xbd070ebd	-0.03297304
210	0xbccc3968	-0.024929717
211	0xbcc0abdd	-0.02351945
212	0xbd6bdedf	-0.057585593
213	0xbd7cd72d	-0.061728645
214	0x3c5595f5	0.013036241
215	0xbd16b3e5	-0.036792655
216	0xbcdf734e	-0.027276661
217	0xbcc03821	-0.023464264
218	0x3d8c477b	0.06849571
219	0x3be7f11a	0.007078302
220	0x3cdfd505	0.027323255
221	0x3d8b7587	0.06809526
222	0x3cb9fb09	0.02270271
223	0xbcc96a45	-0.024586806
224	0x3c093d66	0.008376455
225	0x3c2756da	0.010213578
226	0x3cd8199f	0.026379405
227	0xbcb5ee83	-0.022208458
228	0xbd853519	-0.06504268
229	0xbd193201	-0.037401203
230	0xbc6ef234	-0.014584113
231	0x3d921bb2	0.07134189
232	0xbca4764f	-0.020075945
233	0xbd898b7f	-0.0671606
234	0xbd15f2e4	-0.03660859
235	0x3cb18e6e	0.021674361
236	0xbd12442a	-0.035709538
237	0x3d4bcb8a	0.049754657
238	0xbd4af1cf	-0.049547013
239	0x3c64e30b	0.013970147
240	0xbd17ae67	-0.037031557
241	0xbdc42443	-0.09577229
242	0xbd1beb37	-0.038066115
243	0xbd0699c8	-0.0328615
244	0xbd48184c	-0.048851296
245	0x3ac504f9	0.0015031389
246	0x3bd98f70	0.0066394135
247	0xbb94db2b	-0.0045427284
248	0x39aadf87	0.00032591468
249	0x3c46bebd	0.0121304365
250	0xbc1b47d7	-0.009477577
251	0xbc9a69f1	-0.018849345
252	0xbcfa2ee1	-0.030539932
253	0xbcee30e0	-0.02907604
254	0xbd061770	-0.032737195
255	0xbdbb8339	-0.09155888

action_model._discrete_distribution.branches.0.bias f4 [3]
0	0x3b08cddb	0.0020874653
1	0x3d1faa50	0.038980782
2	0xbd0620b9	-0.03274605

action_model._discrete_distribution.branches.1.weight f4 [3, 256]
0	0x3d839bea	0.064262226
1	0xbb9686da	-0.0045937123
2	0x3ca633b0	0.020288318
3	0xbcd18d1d	-0.025579983
4	0x3d5d68f0	0.054055154
5	0xbdec628c	-0.11542234
6	0x3d44f18e	0.048081927
7	0x3d092828	0.03348556
8	0x3d8a493a	0.06752248
9	0x3d29424b	0.041322988
10	0xbba6b7dd	-0.005087836
11	0x3b0ef91e	0.0021815966
12	0x3da3f4bf	0.08005666
13	0xbdb9aa1a	-0.090656474
14	0xbd6d126d	-0.0578789
15	0xbd2535bd	-0.040334452
16	0xbe0449b5	-0.12918742
17	0xbd90f08f	-0.07077133
18	0xbc799b93	-0.015234846
19	0xbdeccaa8	-0.11562091
20	0xbd894ea7	-0.06704455
21	0x3bd90661	0.006623075
22	0xbdcec418	-0.10095996
23	0x3cdbac50	0.026815563
24	0x3d032082	0.032013424
25	0xbb7ef2d6	-0.0038902066
26	0xbd18fec5	-0.037352342
27	0xbc8bf4a8	-0.017084435
28	0xbc4ad2b3	-0.012379336
29	0xbe0cb431	-0.13740613
30	0x3d94e3c2	0.07270004
31	0xbdb6a717	-0.089185886
32	0x3c72f674	0.014829267
33	0x3bbf08e5	0.0058299177
34	0x3cdf65a5	0.027270148
35	0x3d6a9c92	0.057278223
36	0xbc771140	-0.015079796
37	0xba6f2406	-0.00091224944
38	0x3c84bc18	0.016202971
39	0xbd7fe274	-0.062471822
40	0x3dc1e66b	0.09467777
41	0xbd0a9687	-0.03383496
42	0xbd1af5e7	-0.037832167
43	0xbbfde327	-0.007748026
44	0xbdca2789	-0.09870822
45	0x3cb5aeb0	0.022178024
46	0xbca70346	-0.020387303
47	0xbd5c1788	-0.05373338
48	0x3cf85df7	0.030318243
49	0x3d299288	0.04139951
50	0x3ca17aa2	0.019711796
51	0xbdc55541	-0.096354015
52	0xbe20dda8	-0.15709555
53	0xbe05a977	-0.13052927
54	0xbd62c243	-0.055361044
55	0xbd5a8b41	-0.05335546
56	0x3ca20da9	0.019781904
57	0x3d87e9e7	0.0663641
58	0xbc9e2331	-0.01930389
59	0xbd9f14f9	-0.07767672
60	0x3d07f703	0.033194553
61	0xbd2e650a	-0.042576827
62	0x3d0e029b	0.034670454
63	0x3d3e26bd	0.046423662
64	0xbc842890	-0.016132623
65	0x3dcbc3b9	0.099494405
66	0x3d3e479c	0.04645501
67	0x3d8eb014	0.06967178
68	0x3d184159	0.037171695
69	0xbb8fdc2c	-0.00439026
70	0x3d0ab765	0.033866305
71	0x3d05051b	0.032475572
72	0x3a829b00	0.0009964406
73	0xbc7af501	-0.015317203
74	0xbcd33d84	-0.025786169
75	0x3cf0350b	0.029322168
76	0xbd78cf96	-0.060744844
77	0xbca4e571	-0.020128937
78	0x3cc95d57	0.02458064
79	0xbc820bb0	-0.015874714
80	0x3b1c420d	0.002384308
81	0xbc8dd850	-0.01731506
82	0xbcd506dc	-0.026004247
83	0x3d0f963c	0.035055384
84	0xbdb31b5b	-0.08745452
85	0x3d11307b	0.035446625
86	0x3a2f23d2	0.0006681058
87	0xbdcb8cbb	-0.099389516
88	0xbce38844	-0.027774937
89	0x3d0dff44	0.03466727
90	0x3d0c4370	0.034244
91	0x3d0bfe6d	0.034178186
92	0x3d542050	0.051788628
93	0xbca99d9d	-0.020705039
94	0x3cef904d	0.029243613
95	0xbd919d69	-0.07110102
96	0xbd9dbc10	-0.07701886
97	0x3c694064	0.014236543
98	0xbdfcf0e8	-0.12350637
99	0x3b3d9a7f	0.0028931198
100	0x3dbf5ac0	0.09343481
101	0x3d0e9622	0.034811147
102	0xbc2d059d	-0.01056042
103	0xbd6d0705	-0.057868022
104	0xbdfe3f78	-0.124144495
105	0xbd172e97	-0.036909666
106	0x3d73d735	0.05953141
107	0x3c8b4532	0.017000768
108	0xbdad65f8	-0.084667146
109	0x3c7fa77f	0.015603899
110	0xbc113ab9	-0.008864098
111	0xbd4b33f4	-0.049610093
112	0x3d198f88	0.037490398
113	0xbc98f042	-0.018669251
114	0x3dbec3ca	0.093146876
115	0xbd3b06db	-0.045660835
116	0xbca14f63	-0.019691175
117	0xbd683fd4	-0.056701496
118	0x3cf10de1	0.029425563
119	0x3bc052e7	0.0058692577
120	0x3d6bc10c	0.05755715
121	0xbb76bab7	-0.0037647912
122	0x3d431cfd	0.047635067
123	0x3cff4bd1	0.031164082
124	0x3dc94977	0.098284654
125	0xbca55757	-0.020183248
126	0xbb673476	-0.0035279072
127	0x3b41fbda	0.0029599578
128	0xbda7cc2e	-0.08193241
129	0x3aff0168	0.0019455375
130	0x3dbdc575	0.092661776
131	0x3d25d820	0.040489316
132	0x3d240dd1	0.04005224
133	0x3bb8cad8	0.0056394152
134	0xbd651eca	-0.055937566
135	0xbdab3cf7	-0.083612375
136	0xbb633bcc	-0.0034673093
137	0x3d298b19	0.04139242
138	0x3d2da2ec	0.042391703
139	0xbd8cb13c	-0.06869742
140	0xbce99bcd	-0.028516674
141	0x3d44de03	0.04806329
142	0x3dd3236f	0.10309493
143	0xbd786beb	-0.060649794
144	0x3d33507a	0.04377792
145	0x3ce4d6b3	0.027934408
146	0xbd439574	-0.04774995
147	0x3b6e0a50	0.0036322065
148	0x3df38e63	0.118923925
149	0xbc49f552	-0.012326555
150	0x3c940c99	0.018072413
151	0xbd94d15c	-0.07266495
152	0xbd3298c5	-0.043602724
153	0xbdb2559f	-0.08707737
154	0x3d943017	0.07235735
155	0x3d56bbf1	0.05242533
156	0x3dcc230b	0.099676214
157	0xbc376ef8	-0.011195891
158	0x3ceea3ba	0.029130805
159	0xbe116af0	-0.1420095
160	0xbb903588	-0.0044009127
161	0x3c86d7e7	0.016460372
162	0xbccd1e38	-0.025038823
163	0x3be429df	0.0069629992
164	0x3cf4a1ce	0.02986231
165	0x3cc0dda6	0.02354319
166	0x3cbff4b5	0.023432115
167	0xbb8c7a3f	-0.004287034
168	0xbd5958ed	-0.05306332
169	0xbd738e8b	-0.05946211
170	0xbd4cd695	-0.05000933
171	0x3c6e5706	0.014547115
172	0xbc5b9259	-0.013401591
173	0xbda0d196	-0.07852475
174	0xbc0b1b00	-0.008490324
175	0x3d68c926	0.056832455
176	0xbce9508f	-0.028480796
177	0xbdcbfae2	-0.099599615
178	0xbcf380aa	-0.029724438
179	0x3d973e73	0.07384958
180	0xbd1adca8	-0.03780809
181	0xbc8d641e	-0.017259654
182	0x3b853d0f	0.0040661166
183	0xbce6e57e	-0.028185602
184	0x3dcce5ad	0.10004745
185	0xbdc06fec	-0.093963474
186	0xbd42134f	-0.047381695
187	0xbddcae32	-0.107754126
188	0x3cbfc7b6	0.02341066
189	0x3d924eac	0.07143912
190	0x3d043857	0.032280292
191	0xbd360d68	-0.04444638
192	0x3c5f04d7	0.013611994
193	0x3d4bac1d	0.049724687
194	0x3bb95626	0.0056560216
195	0x3d93bb35	0.07213441
196	0x3cd7e486	0.026354086
197	0xbc9bce5d	-0.0190193
198	0x3d27f8b1	0.041008655
199	0x3ba46a94	0.005017588
200	0x3dae3ba6	0.08507471
201	0x3da823fc	0.082099885
202	0x3d71b951	0.059014622
203	0x3c17a75b	0.009256209
204	0x3c8800f5	0.016602019
205	0x3d45048e	0.048100047
206	0x3a0fa4a2	0.0005479549
207	0xbe1a0c78	-0.15043819
208	0xbba850a3	-0.005136566
209	0xbd6cf944	-0.057854906
210	0xbd4b3dea	-0.049619593
211	0x3cae8fc1	0.021308782
212	0xbd01fd94	-0.03173597
213	0x3d6c63cc	0.05771236
214	0x3d4bf820	0.049797177
215	0xbca28849	-0.019840376
216	0xb93f559b	-0.0001824707
217	0xbd977745	-0.07395796
218	0xbd97b2e4	-0.074071676
219	0x3d06224c	0.03274755
220	0xbd97ca8c	-0.074116796
221	0x3cb7eada	0.022450853
222	0x3cd7bf3d	0.026336307
223	0xbce879a5	-0.028378317
224	0xbd959b1a	-0.07304974
225	0xbd991677	-0.07474988
226	0x3d81a644	0.06330541
227	0x3d6d5553	0.0579427
228	0xbd67cb3a	-0.056590296
229	0xbbc5e573	-0.0060393154
230	0x3cd84ebe	0.026404735
231	0xbc00b81c	-0.007856395
232	0x3cc76560	0.024340332
233	0xbd27ab5d	-0.04093491
234	0xbd526358	-0.051364273
235	0xbd222ab0	-0.03959149
236	0x3cd5a3cb	0.02607908
237	0x3db18263	0.086674474
238	0xbd0614a9	-0.032734547
239	0x3cc10fb5	0.02356706
240	0x3dc3c1b8	0.09558433
241	0x3d036974	0.03208299
242	0xbcfd8468	-0.030946925
243	0x3cf82d86	0.030295145
244	0xbd3b141b	-0.04567347
245	0x3d560cd3	0.052258324
246	0x3c9b8fbe	0.01898944
247	0x3c938e44	0.018012173
248	0x3d36dde8	0.04464522
249	0xbd405272	-0.046953626
250	0xbba974c8	-0.005171392
251	0x3d55c91f	0.052193757
252	0xbd5d048e	-0.05395942
253	0x3d96932f	0.07352292
254	0xbd1b3137	-0.03788873
255	0x3dabc1a0	0.083865404

action_model._discrete_distribution.branches.1.bias f4 [3]
0	0x3d08533c	0.033282503
1	0x3c0b610e	0.008507026
2	0xbd18fee0	-0.037352443

action_model._discrete_distribution.branches.2.weight f4 [2, 256]
0	0xbd24836b	-0.040164392
1	0xbbece0bc	-0.007228939
2	0xbd62bfbe	-0.05535864
3	0xbd3298c5	-0.043602724
4	0xbd438184	-0.047730938
5	0x3a49a68c	0.0007692359
6	0xbd20c914	-0.039254263
7	0xbcb06cce	-0.021536257
8	0x3dae76c8	0.085187495
9	0xbd14e1e4	-0.03634824
10	0xbd5a55c7	-0.05330446
11	0xbc468c09	-0.012118348
12	0xbbb1b645	-0.0054233395
13	0xbdfaa5d3	-0.1223866
14	0x3c2e4fea	0.01063917
15	0xbda440d3	-0.08020177
16	0xbd7b7774	-0.061393216
17	0x3bb820ba	0.0056191357
18	0x3d295cc9	0.041348252
19	0x3b3eb03d	0.0029096745
20	0x3d4aaaf2	0.049479432
21	0x3cc7d07d	0.024391407
22	0xbdc29b09	-0.09502227
23	0xbd34f1f3	-0.044176053
24	0xbd6d5cc5	-0.0579498
25	0xbc914a27	-0.017735554
26	0x3d0de465	0.034641642
27	0xbc9fc014	-0.01950077
28	0xbd6cd8c2	-0.057823904
29	0xbd9fe2cb	-0.07806929
30	0xbcd1f772	-0.025630686
31	0xbd43dec9	-0.047819886
32	0x3b90b47b	0.004416046
33	0xbdc12048	-0.09429985
34	0x3c43417c	0.011917468
35	0xbc5add35	-0.013358404
36	0xbc8abd33	-0.01693592
37	0x3cd06fd0	0.025443941
38	0xbd3607d5	-0.044441063
39	0x3d8f8a2e	0.070087776
40	0xbc6d48d3	-0.014482695
41	0xbb9ca2a3	-0.00478013
42	0xbe09324a	-0.1339809
43	0xbc665c3d	-0.014060077
44	0xbcb6181a	-0.02222829
45	0xbcbf7a2f	-0.023373691
46	0x3cd07268	0.025445178
47	0xbdb3b850	-0.08775389
48	0x3bd766cd	0.006573534
49	0x3d395f05	0.045256633
50	0x3d3686e4	0.044562235
51	0xbd8f1ff3	-0.06988516
52	0xbd9e9a35	-0.077442564
53	0xbd4b8087	-0.04968312
54	0x3d6b1b45	0.057399053
55	0xbd32d4f3	-0.043660115
56	0x3b8abf6e	0.004234246
57	0x3c9b198f	0.018933086
58	0xbc98053a	-0.01855718
59	0x3d0c250f	0.03421503
60	0xbd4cdac8	-0.050013334
61	0xbd9024f5	-0.07038299
62	0xbd4f8956	-0.050668083
63	0x3cf69e3a	0.030104745
64	0xbce4611a	-0.027878333
65	0xbc78d274	-0.015186895
66	0xbb9070b1	-0.004407965
67	0x3ca4c865	0.020115087
68	0x3bda2d55	0.006658236
69	0xbd43efc5	-0.047836084
70	0xbd816565	-0.063181676
71	0xbd50f439	-0.05101416
72	0x3d64b66a	0.055838026
73	0xbc2659a8	-0.010153212
74	0xbd7c4568	-0.06158963
75	0xbc2d1a80	-0.0105654
76	0xbd58ac1c	-0.05289851
77	0xbcd5f1d9	-0.026116299
78	0xbd8325df	-0.06403708
79	0x3d28a405	0.041172046
80	0x3c8b2532	0.01698551
81	0xbc7a076a	-0.015260557
82	0x3c404a88	0.01173652
83	0xbdae9c43	-0.08525898
84	0xbc5ce611	-0.0134825865
85	0xbd5bf58b	-0.053700965
86	0x3d90eba9	0.070761986
87	0xbdc1cd1f	-0.09462952
88	0xbca82e0e	-0.020529773
89	0x3d47a4f7	0.048741307
90	0xbbec7f03	-0.0072172894
91	0x3c470e06	0.01214934
92	0x3c611590	0.013738051
93	0x3ad6feca	0.0016402837
94	0xbbab5e9b	-0.0052297837
95	0xbd56a8d3	-0.052407097
96	0xbc49d5ff	-0.012319087
97	0x3d68ab3f	0.056803938
98	0xbd8e7e53	-0.06957688
99	0xbcbfa3d3	-0.023393547
100	0xbd2ca11b	-0.04214583
101	0xbcf46780	-0.029834509
102	0x3c5e5b0b	0.013571511
103	0xbd1d69ce	-0.03843098
104	0x3d261b9a	0.040553667
105	0xbc973c99	-0.018461512
106	0x3d140c73	0.036144685
107	0x3c5630c6	0.013073152
108	0xbbce1396	-0.006288956
109	0x3b91b237	0.0044462937
110	0xbd0451f5	-0.032304723
111	0x3bc7ebb2	0.006101095
112	0x3c805bc0	0.01566875
113	0xbd7bf311	-0.061511103
114	0x3b64b743	0.0034899272
115	0x3d025712	0.031821318
116	0xbabf126b	-0.0014577633
117	0x3b769b6e	0.0037629264
118	0xbd859395	-0.0652229
119	0xbd6ce5c5	-0.057836313
120	0x3ccae63e	0.024767991
121	0x3beeba4b	0.0072853914
122	0x3c1843eb	0.009293537
123	0xbb5227c9	-0.003206717
124	0x3d1e2893	0.038612913
125	0xbd93e564	-0.07221487
126	0xbc2213c2	-0.009892406
127	0x3cdbe2b6	0.026841503
128	0xbba3fc34	-0.00500443
129	0xbc78ec4d	-0.015193057
130	0xbbd86ab9	-0.006604519
131	0xbcf19932	-0.029491995
132	0xbccf1c12	-0.02528194
133	0x3ca2d7fe	0.019878384
134	0xbdaf4db4	-0.085597426
135	0x3c97e354	0.018541016
136	0xbd16fb31	-0.03686065
137	0xbd1c5175	-0.03816362
138	0x3cd41a1a	0.025891352
139	0xbdc3601c	-0.09539816
140	0x3d3daedd	0.04630934
141	0xbd32a919	-0.043618295
142	0xba98cd73	-0.0011657908
143	0xbd6b24a3	-0.057407986
144	0x3c038e69	0.008029559
145	0xbccf669f	-0.025317488
146	0x3c1a33a3	0.009411725
147	0xbdb37e50	-0.087643266
148	0x3cd9834b	0.026551863
149	0xbaa59b51	-0.0012634789
150	0x3d3d8927	0.046273377
151	0xbd3babc9	-0.045818124
152	0xbc83c8ca	-0.016086955
153	0x3cfc7e7b	0.03082203
154	0xbcab8df3	-0.02094171
155	0x3c29d445	0.01036555
156	0x3b1cb554	0.002391179
157	0xbc3b2d23	-0.011424336
158	0xbba8c347	-0.005150232
159	0x3d31a5cc	0.043371007
160	0xbc4758d1	-0.012167172
161	0x3a19a199	0.0005860567
162	0xbd03c368	-0.032168776
163	0xbd288e9e	-0.041151635
164	0x3b36650c	0.0027831225
165	0xbdcec00d	-0.100952245
166	0xbcfcc633	-0.030856228
167	0x3b019c8b	0.0019777145
168	0xbc547100	-0.012966394
169	0xbdbcca69	-0.09218294
170	0x3c6ffc9b	0.014647628
171	0xbcb54bdd	-0.022130901
172	0xbd0c75c2	-0.03429199
173	0xbdef9d6b	-0.11699947
174	0xbb1fdc64	-0.0024392838
175	0xbc4812c3	-0.012211504
176	0x3d0ab879	0.033867333
177	0x3d18d597	0.03731307
178	0xbcb14417	-0.021638913
179	0x3d2240b1	0.039612476
180	0x3d2ca575	0.04214998
181	0x3d126159	0.03573737
182	0x3cf29850	0.029613644
183	0xbd588211	-0.052858416
184	0x3c3c1b6a	0.011481145
185	0xbe45de5a	-0.19323102
186	0xbddb4633	-0.10706749
187	0x3d7b5edf	0.061369773
188	0xbc3d1292	-0.011540072
189	0x3c84a74f	0.01619306
190	0x3cb02bc7	0.02150525
191	0xbd74744c	-0.05968122
192	0xbcf47800	-0.029842377
193	0xbcc11bab	-0.023572763
194	0xbd08f6f2	-0.03343863
195	0x3d1ce6a8	0.03830591
196	0xbd3bd815	-0.04586037
197	0x3abe5d18	0.0014523594
198	0x3c070289	0.0082403505
199	0xbd26696e	-0.04062789
200	0x3b700271	0.003662255
201	0xbd0a4993	-0.033761572
202	0xbd38b5e2	-0.045095332
203	0xbccd64fb	-0.025072565
204	0xbd797660	-0.060903907
205	0x3cbad05a	0.022804428
206	0xbd821acb	-0.063527666
207	0xbd6093dc	-0.05482851
208	0xbc84f152	-0.016228352
209	0xbc5dce24	-0.013537917
210	0xbbe91043	-0.0071125343
211	0x3c964528	0.018343523
212	0xbc4eb205	-0.012615685
213	0x3c843a3f	0.016141055
214	0xba90c364	-0.0011044559
215	0x3cb738df	0.022365985
216	0x3c8d3d7e	0.017241236
217	0x3d5609ff	0.052255627
218	0x3c6a5fcb	0.014305065
219	0x3c69d3cd	0.014271689
220	0xbdba6b3f	-0.09102487
221	0xbdae425d	-0.085087515
222	0x3bbd10f9	0.0057698456
223	0xbc1dc26a	-0.009628871
224	0xbd9f810a	-0.07788284
225	0xbd99a189	-0.075015135
226	0x3d77b039	0.060470793
227	0x3c3bfc11	0.0114736715
228	0xbd54f859	-0.051994655
229	0x3c5d1c05	0.01349545
230	0xbc960fd6	-0.018318098
231	0xbcad1694	-0.02112893
232	0x3d19f7ab	0.03758971
233	0xbd657821	-0.056022767
234	0xbce2c345	-0.027681002
235	0x3d26fbdb	0.04076753
236	0xbd9e3959	-0.07725782
237	0xbd4a9a65	-0.04946365
238	0x3c0fc95b	0.008776034
239	0x3d7ee369	0.062228594
240	0x3c0097ed	0.007848722
241	0xbb427338	-0.0029670727
242	0xbcb5f57d	-0.022211784
243	0xbd0dedb8	-0.034650534
244	0xbda684c2	-0.0813079
245	0xbcdd2cd0	-0.026998907
246	0xbd55984d	-0.0521472
247	0x3d3e8459	0.046512935
248	0xbc53a6da	-0.0129181985
249	0x3a1e6559	0.00060423237
250	0xbd8177b3	-0.06321659
251	0x3be734db	0.0070558614
252	0xbd261afe	-0.040553086
253	0xbc84c0d8	-0.016205236
254	0xbca34f46	-0.019935261
255	0x3cd00ed3	0.025397694

action_model._discrete_distribution.branches.2.bias f4 [2]
0	0xbd0b2332	-0.03396911
1	0x3d0b2325	0.033969063
