ML_stuff/results/cw_03/FindCubeWife/FindCubeWife-2999999.onnx (onnx, 356907 bytes, 13 tensors)

discrete_act_size_vector f4 [1, 4]
0	0x40400000	3.0
1	0x40400000	3.0
2	0x40000000	2.0
3	0x40000000	2.0

network_body._body_endoder.seq_layers.0.weight f4 [256, 69]
0	0x3cb58b88	0.02216126
1	0xbe3cbd53	-0.18431596
2	0xbbd99862	-0.00664048
3	0x3e061e10	0.13097405
4	0x3ea0135b	0.31264767
5	0x3e25470d	0.16140385
6	0xbe6bea5f	-0.23038624
7	0xbe135323	-0.14387183
8	0xbd94660e	-0.07246028
9	0x3ca95276	0.020669203
10	0x3d6e7de3	0.058225524
11	0x3dab9bf9	0.08379359
12	0xbd702184	-0.058625713
13	0xbe43b47c	-0.19111818
14	0x3e4491b7	0.19196211
15	0x3d9e1ab2	0.077199355
16	0xbeac9f5d	-0.33715335
17	0x3cc02c59	0.023458647
18	0xbe6e4a75	-0.2327059
19	0x3c8a1748	0.016856804
20	0xbcb8dbf2	-0.022565816
21	0x3dbe9415	0.09305588
22	0xbd5dfc72	-0.05419583
23	0xbda3672b	-0.07978662
24	0x3e2e289c	0.17007679
25	0xbe7a43d5	-0.24439938
26	0xbe3b6605	-0.18300636
27	0x3e353272	0.17695025
28	0x3ce261e9	0.027634578
29	0x3e6b1175	0.22955878
30	0xbe8790b6	-0.26477593
31	0xbca1ff5f	-0.01977509
32	0x3ca1ece2	0.019766275
33	0xbdef45ac	-0.11683211
34	0xbd1e81b4	-0.038697913
35	0xbca3da30	-0.0200015
36	0xbce000bb	-0.027344098
37	0x3e112105	0.14172752
38	0xbe198017	-0.14990269
39	0x3d3e8975	0.046517808
40	0x3e4feddb	0.20305578
41	0x3d1393dc	0.03602968
42	0x3e04b090	0.12957978
43	0xbcdf33b3	-0.027246332
44	0xbe3f5085	-0.1868306
45	0x3e4e64cf	0.20155643
46	0xbdb7eddf	-0.08980917
47	0x3e60fc07	0.21971141
48	0xbc860ce4	-0.016363569
49	0x3cd194f6	0.025583725
50	0xbe990afe	-0.298912
51	0xbddb5c0e	-0.107109174
52	0x3d754792	0.059882708
53	0x3d8ddc99	0.06926841
54	0xbc4da428	-0.012551345
55	0x3dbc09c2	0.09181549
56	0xbd98dd17	-0.074640445
57	0x3e9c84b4	0.30569994
58	0x3d9b23cd	0.07575188
59	0xbdf67ddd	-0.12035725
60	0xbe0e6eee	-0.13909504
61	0x3d8df60d	0.06931696
62	0x3d0df2bf	0.03465533
63	0x3e9a8a2f	0.3018355
64	0xbcce757a	-0.025202502
65	0x3ea32503	0.31864175
66	0xbba3d63c	-0.004999904
67	0xbd2ef066	-0.04270973
68	0x3e4e1fb3	0.2012928
69	0xbda5a9c4	-0.08089021
70	0xbd55edcf	-0.052228745
71	0xbdc9c86d	-0.09852681
72	0x3e269ae8	0.1627003
73	0xbd211675	-0.039328057
74	0xbdcef4d3	-0.1010529
75	0x3d8604a7	0.06543856
76	0x3da036da	0.07822962
77	0x3e8e5d66	0.27805632
78	0xbc90a33f	-0.017655967
79	0x3d3227a4	0.043494835
80	0x3ceb9668	0.028758243
81	0x3e0bdb19	0.13657798
82	0xbe30520e	-0.17218801
83	0x3a8c0255	0.0010681847
84	0x3dcaedf6	0.09908669
85	0x3d0c715e	0.034287803
86	0x3d0dd8f1	0.03463072
87	0x3ce2e6f7	0.027698023
88	0xbdc08f2c	-0.09402308
89	0x3dcac8a4	0.099015504
90	0xbe2519ea	-0.16123167
91	0x3def7c7d	0.11693666
92	0xbdbfebcc	-0.093711466
93	0x3d854441	0.06507159
94	0x3e264812	0.1623843
95	0x3d068fa8	0.032851845
96	0xbd60fcea	-0.054928698
97	0x3cebde73	0.028792595
98	0xbd4f13d1	-0.050556008
99	0x3d1b8ee5	0.03797807
100	0xbd631628	-0.05544105
101	0x3da5d6a0	0.08097577
102	0x3dc07cd1	0.09398807
103	0x3e59dd73	0.21275882
104	0xbe71343a	-0.23555079
105	0x3e8d4729	0.27593353
106	0x3e41fff2	0.18945292
107	0x3e78c12c	0.24292439
108	0xbda0a1b9	-0.07843346
109	0xbdbe3748	-0.09287888
110	0x3d884c36	0.06655161
111	0x3e80fb68	0.25191808
112	0xbcc9231f	-0.02455288
113	0xbcaf01ad	-0.021363104
114	0x3bbd1ef3	0.0057715117
115	0xbe52b127	-0.20575391
116	0xbccf2e04	-0.025290497
117	0xbd8269ae	-0.06367813
118	0x3cd3943a	0.025827516
119	0x3d3e6ed8	0.046492428
120	0xbd0f0073	-0.034912538
121	0x3ced98bc	0.029003493
122	0x3e71467c	0.23562044
123	0xbd00cad1	-0.03144342
124	0x3d1625b6	0.036657058
125	0xbdd0aeff	-0.10189628
126	0xbd3b58db	-0.045739036
127	0xbd90f5b9	-0.07078118
128	0xbe3a96bc	-0.18221563
129	0xbe1dd709	-0.1541406
130	0xbe37624b	-0.1790859
131	0xbd5ab69b	-0.053396802
132	0x3e030f95	0.12798913
133	0x3c3460ed	0.011009437
134	0x3e9f7fa2	0.31152064
135	0x3dadda45	0.08488897
136	0x3e8fd7ff	0.2809448
137	0xbd940e4c	-0.072292894
138	0x3baa61e0	0.005199656
139	0xbdae9fb0	-0.08526552
140	0x3d7822b2	0.060579963
141	0x3e4b9367	0.19880448
142	0x3dc75f21	0.09734941
143	0xbdc47f1e	-0.09594558
144	0xbe762fb7	-0.2404164
145	0xbe097cba	-0.13426486
146	0xbd671695	-0.05641802
147	0xbd00e7eb	-0.031471174
148	0xb9e25622	-0.00043170253
149	0xbdf69cce	-0.12041627
150	0x3cc980a6	0.024597477
151	0x3e27350b	0.16328828
152	0x3da978ee	0.08275019
153	0xbeb05067	-0.34436342
154	0x3d178285	0.036989707
155	0xbd8e826e	-0.06958471
156	0x3c00f54c	0.007870983
157	0x3c598126	0.01327542
158	0x3de8eef7	0.11373704
159	0xbde61090	-0.11233628
160	0x3d8da0b8	0.0691542
161	0x3df4df1f	0.119566195
162	0x3d65f4a7	0.05614152
163	0xbcd09253	-0.025460398
164	0x3e1e1c45	0.15440471
165	0x3d06d7fa	0.032920815
166	0x3e0e6f85	0.13909729
167	0x3e8d25ad	0.27567807
168	0xbe0b15dc	-0.13582557
169	0xbcea7268	-0.028619006
170	0x3e0b8663	0.13625483
171	0xbddaf4ff	-0.106912605
172	0x3e3a46cf	0.18191074
173	0xbcf657ad	-0.030071104
174	0x3e6def33	0.23235779
175	0xbda06ce2	-0.07833268
176	0xbe006464	-0.12538296
177	0x3e18929a	0.14899674
178	0xbde6d047	-0.112701945
179	0x3e534476	0.20631585
180	0xbc925889	-0.017864482
181	0xbd8b54a2	-0.06803252
182	0xbeb5ce0b	-0.3550876
183	0x3da9fa4f	0.08299696
184	0x3e178660	0.14797354
185	0x3e5cb560	0.21553564
186	0x3dbc29d2	0.09187664
187	0xbccbcbdc	-0.024877481
188	0xbc77804a	-0.01510627
189	0xbe6817b5	-0.22665294
190	0x3de06aaf	0.10957848
191	0xbc381da2	-0.011237534
192	0x3e427392	0.18989399
193	0x3df1e9b6	0.11812155
194	0x3c792bef	0.0152082285
195	0x3e70a034	0.23498613
196	0xbe582a31	-0.21109845
197	0x3eaa3a09	0.33247402
198	0x3d289007	0.04115298
199	0x3e4126c9	0.18862452
200	0xbe2949a8	-0.16532004
201	0x3e2f7cdd	0.17137475
202	0xbe9305f2	-0.28715473
203	0x3ed1ad87	0.40952703
204	0x3e17360b	0.1476671
205	0xbe0f1a3c	-0.13974851
206	0x3ee37c93	0.4443098
207	0xbcd7f687	-0.02636267
208	0xbcae257f	-0.021258114
209	0x3cf1bbfb	0.029508581
210	0x3dc52d32	0.09627761
211	0xbbe29a72	-0.006915384
212	0xbc4c806d	-0.012481791
213	0x3d9dc4b1	0.077035315
214	0x3dc755e1	0.09733177
215	0x3dbc0870	0.09181297
216	0x3e2e7c1c	0.17039531
217	0x392a5902	0.00016245621
218	0xbc042713	-0.008065957
219	0xbc538a1e	-0.012911348
220	0x3c5feb14	0.013666887
221	0x3c62ca7a	0.0138422195
222	0x3d9771c1	0.07394744
223	0xbe29f4ae	-0.16597244
224	0x3de87d15	0.113519825
225	0x3e4986b9	0.19680299
226	0x3cfd7eda	0.030944277
227	0x3de9f18a	0.11423023
228	0xbc901cae	-0.0175918
229	0x3dbe1676	0.09281628
230	0x3e6c3dd9	0.23070468
231	0xbcc30b5f	-0.023809133
232	0xbdeae578	-0.11469549
233	0x3cffc2fe	0.03122091
234	0xbc9d30ed	-0.019188369
235	0xbdd3bbb5	-0.10338537
236	0xbe72b93c	-0.23703474
237	0x3da716d1	0.08158649
238	0x3dd9fe96	0.106442615
239	0xbdd09c1f	-0.10186028
240	0xbdece3d2	-0.11566891
241	0x3e4fdab0	0.20298266
242	0x3d5de0ef	0.05416959
243	0x3e683ce6	0.22679481
244	0x3e73565f	0.23763417
245	0xbde844d7	-0.11341255
246	0xbd517504	-0.051136985
247	0x3daf7e16	0.08568971
248	0x3c75b2d4	0.014996249
249	0x3e22c14d	0.15894051
250	0x3c91b82d	0.017788017
251	0xbe2ce667	-0.16884767
252	0x3e635fd5	0.22204526
253	0x3d9ac8ec	0.07557854
254	0xbc7257b0	-0.014791414
255	0x3e19fbb3	0.15037422

network_body._body_endoder.seq_layers.0.bias f4 [256]
0	0x3b960fbb	0.004579512
1	0x3cc47e51	0.023986014
2	0x3b2ac76d	0.0026058808
3	0x3d2210ee	0.039566927
4	0xbd17585a	-0.036949493
5	0x3d414f01	0.047194485
6	0x3d88c034	0.06677285
7	0xbbbd1b57	-0.0057710814
8	0x3cbcb944	0.02303756
9	0xbd326da3	-0.04356159
10	0xbc5682d5	-0.013092716
11	0x3d2ca41d	0.042148698
12	0x3c015bfc	0.007895466
13	0xbd243658	-0.04009089
14	0xbc94d151	-0.018166216
15	0xbb61937e	-0.0034420188
16	0x3e07a645	0.1324702
17	0x3cf8ba5f	0.030362306
18	0xbdc04541	-0.09388209
19	0xbc48a0c8	-0.0122453645
20	0x3c88cbe7	0.01669879
21	0x3bd57abb	0.0065148748
22	0x3d9efeb4	0.077634245
23	0xbcc04980	-0.023472548
24	0x3b87f12e	0.004148624
25	0xbd36bb7f	-0.044612404
26	0x3d0824a6	0.033238076
27	0x3c27a47b	0.010232086
28	0x3c4ff890	0.012693539
29	0x3dd57b80	0.104239464
30	0x3d435fb8	0.047698706
31	0x3d27b9e3	0.04094876
32	0x3d0f69a2	0.03501285
33	0xbd15c95f	-0.036568996
34	0xbcda08fc	-0.026615612
35	0xbc0f372d	-0.008741182
36	0x3c91be65	0.017790982
37	0xbc18189b	-0.00928321
38	0xbcf615a1	-0.03003961
39	0x3c8cf1ca	0.017205138
40	0x3c175dfe	0.009238718
41	0x3d3cf591	0.046132628
42	0x3cf3c300	0.02975607
43	0x3d8df05d	0.06930611
44	0x3d93e466	0.07221298
45	0xbd51d156	-0.05122503
46	0xbcb320dc	-0.021866255
47	0xbc52743b	-0.012845094
48	0x3c2cfe54	0.010558683
49	0xbc5669bb	-0.013086732
50	0x3d36d350	0.044635117
51	0xbd6e02a6	-0.058107994
52	0x3c14c373	0.009079802
53	0x3cb437ba	0.021999229
54	0xbc99491e	-0.018711623
55	0x3d2452ca	0.040118016
56	0xbc871fa0	-0.016494572
57	0xbc8e3caa	-0.017362911
58	0xbd12900d	-0.03578191
59	0xbcdb2bb6	-0.026754241
60	0x3d23edb7	0.040021624
61	0x3d4264bd	0.047459353
62	0x3c9dc927	0.019260956
63	0x3dcad4ce	0.099038705
64	0xbda79d05	-0.08184246
65	0x3d843edc	0.06457302
66	0xbc5f2748	-0.013620205
67	0x3cd1370e	0.025538947
68	0x3dcbd6bc	0.09953067
69	0x3d77d68e	0.06050735
70	0x3d019e11	0.031644884
71	0xbdb5209c	-0.0884411
72	0x3d3c3670	0.045950353
73	0x3c61ae17	0.013774416
74	0xbdc6b430	-0.09702337
75	0xbcd83472	-0.026392195
76	0x3d7184ed	0.05896466
77	0xbc36fc41	-0.01116854
78	0x3d576b05	0.052592296
79	0xbd02dba5	-0.03194775
80	0xbcebb4d7	-0.028772755
81	0xbb3726b5	-0.0027946655
82	0x3cf164c4	0.029466994
83	0x3d9880d5	0.07446448
84	0xbc42b566	-0.011884069
85	0xbd13d951	-0.03609592
86	0x3d5dfd03	0.05419637
87	0xbcb0482b	-0.021518787
88	0xbd05b214	-0.03264053
89	0xbca1083c	-0.019657247
90	0x3d04153b	0.03224681
91	0x3c01dc4f	0.007926061
92	0xbd6a7a5d	-0.0572456
93	0xbd25493c	-0.040353045
94	0x3d4da6ae	0.050207786
95	0xbd65ebd3	-0.056133103
96	0x3d432486	0.047642253
97	0xbd1428df	-0.03617179
98	0x3c9b63ec	0.018968545
99	0x3d03ac59	0.032146785
100	0x3d65b67f	0.056082245
101	0xbc08896e	-0.008333547
102	0xbd58761d	-0.052847017
103	0xbc90912e	-0.017647352
104	0xbca725bd	-0.020403737
105	0xb9ef0532	-0.00045589503
106	0x3c799e79	0.015235537
107	0x3dc53d3e	0.09630822
108	0x3c26a812	0.010171907
109	0xbd6ffe6a	-0.058592238
110	0x3c5ef067	0.013607121
111	0x3d24bb85	0.040217895
112	0xbd22af11	-0.039717738
113	0xbd2fccfa	-0.04292009
114	0xbd94806c	-0.07251057
115	0x3d239e5c	0.039945945
116	0x3b589b83	0.0033051677
117	0x3c7f5664	0.015584562
118	0xba33a4b8	-0.0006852853
119	0x3e026081	0.12732126
120	0xbd2ea59e	-0.042638414
121	0x3d20c430	0.0392496
122	0xbd0fb66d	-0.035086084
123	0x3aed3bc2	0.0018099474
124	0xbd8bae43	-0.06820347
125	0xbd1627dd	-0.03665911
126	0xbdd1c940	-0.102434635
127	0xbca4a7c9	-0.020099537
128	0xbcf7df70	-0.03025791
129	0x3cd53030	0.026023954
130	0xbc86ad2f	-0.016440002
131	0x3d15fd53	0.036618542
132	0xbd61d49b	-0.055134397
133	0xbcbd7b78	-0.023130164
134	0x3d3de192	0.0463577
135	0x3d6bdff2	0.057586618
136	0x3c3ae7ab	0.011407773
137	0xbd5afb0b	-0.05346207
138	0xbcb657e9	-0.022258716
139	0xbc1fc80a	-0.009752283
140	0x3d33fb1e	0.043940656
141	0x3bbac964	0.005700277
142	0xbd858191	-0.065188535
143	0x3d26906b	0.04066507
144	0xbd0de094	-0.034638003
145	0xbcc17ee2	-0.023620073
146	0xbc52e5c3	-0.012872162
147	0x3cb0a94a	0.021565098
148	0x3d629cdf	0.055325385
149	0x3d1e056c	0.03857939
150	0xbc3c03e4	-0.011475537
151	0x3d0f49f1	0.034982625
152	0xbce16f75	-0.027518967
153	0xbd096744	-0.033545747
154	0x3dec742e	0.11545597
155	0x3db17b26	0.08666067
156	0xbd27e2be	-0.040987723
157	0x3ce1da52	0.027569924
158	0xbd0dfcad	-0.0346648
159	0x3d630000	0.055419922
160	0xbdce9177	-0.10086339
161	0xbd96351a	-0.07334347
162	0xbb384f5c	-0.0028123474
163	0x3c8c909e	0.017158803
164	0x3cdd2e61	0.026999654
165	0x3cab0534	0.020876504
166	0x3c624746	0.013810938
167	0x3d72aae9	0.059245024
168	0xbd995bd6	-0.074882194
169	0x3d47f591	0.048818175
170	0x3d5a26fb	0.05325983
171	0xbc3cddca	-0.011527488
172	0x3c9fe081	0.019516231
173	0x3d7819d1	0.060571495
174	0xbb1545b0	-0.0022777133
175	0xbdb1e705	-0.086866416
176	0x3d6cfef9	0.05786035
177	0xbcec9386	-0.028878938
178	0xbd06b603	-0.032888424
179	0xbce90910	-0.028446704
180	0xbb8ea4bf	-0.0043531354
181	0x3cf1826d	0.029481137
182	0xbc57051b	-0.013123776
183	0x3ae2b21e	0.0017295515
184	0x3bfc7947	0.007704887
185	0x3cf5c893	0.030002868
186	0xbb41eadc	-0.002958945
187	0xbc06ddb9	-0.008231574
188	0xbbd3e4a4	-0.006466465
189	0xb953f7f7	-0.00020214902
190	0x3d43ed16	0.047833525
191	0xbce4ba96	-0.027921002
192	0x3d6a9c7b	0.057278138
193	0x3d87662d	0.06611285
194	0xbd255b3e	-0.04037022
195	0xbce23f9b	-0.02761822
196	0xbd0e1041	-0.03468347
197	0xbb1ca802	-0.0023903851
198	0xbceacd4e	-0.02866235
199	0xbc5aeebf	-0.013362586
200	0x3baf9f4e	0.005359567
201	0x3cbff9fb	0.02343463
202	0xbc37ddb1	-0.011222289
203	0x3cee814f	0.029114394
204	0x3dc0a5e1	0.09406639
205	0xbd4eec7f	-0.05051851
206	0x3d34d2a0	0.04414618
207	0xbc855bc9	-0.016279118
208	0x3c1b2950	0.009470299
209	0x3d3350a1	0.043778066
210	0xbbfb9b42	-0.0076784203
211	0xbc600e67	-0.013675309
212	0xbc2d4bda	-0.010577166
213	0x3d1ad443	0.037800085
214	0xbbd358dd	-0.0064498023
215	0x3dc15a06	0.09440999
216	0x39d82814	0.0004122859
217	0x3d1d0d0f	0.03834253
218	0xbd064953	-0.03278477
219	0x3dceae70	0.10091865
220	0xbd15f4f5	-0.036610562
221	0xbd14d8eb	-0.03633968
222	0x3e079f44	0.13244349
223	0x3c8ba224	0.017045088
224	0x3e085b09	0.13315977
225	0xbd1f259a	-0.03885422
226	0xbcb98f9d	-0.022651488
227	0x3d4b16ba	0.04958222
228	0xbc98f59b	-0.018671801
229	0x3d4405fb	0.047857266
230	0x3d46f524	0.048573628
231	0xbc4aec07	-0.012385375
232	0xbcec0341	-0.028810145
233	0x3da9d67b	0.08292862
234	0x3d126a9f	0.035746213
235	0xbd15386f	-0.036430772
236	0xbccef952	-0.02526537
237	0xba46a640	-0.0007577874
238	0x3a857c0d	0.0010184065
239	0x3d1f4faa	0.038894333
240	0xbca5c382	-0.020234827
241	0x3d619f61	0.055083636
242	0xbd688f75	-0.056777436
243	0xbc25c5b2	-0.010117935
244	0xbd3e1f35	-0.04641648
245	0x3c9ae95c	0.018910103
246	0x3df84dd9	0.12124223
247	0xb8c52d6c	-9.4021525e-05
248	0x3b059a8f	0.0020386314
249	0xbdaf303b	-0.08554121
250	0x3c49834f	0.012299373
251	0xbcde02db	-0.027100971
252	0x3d618623	0.055059563
253	0xbd0473f5	-0.032337148
254	0xbc69f6f3	-0.014280069
255	0xbc69b27d	-0.014263746

network_body._body_endoder.seq_layers.2.weight f4 [256, 256]
0	0x3e07f92e	0.13278648
1	0xbe3346ce	-0.17507479
2	0x3d8ad724	0.06779316
3	0xbe02951c	-0.12752193
4	0xbc8ed6a7	-0.017436339
5	0x3cb80bbd	0.022466535
6	0xbd4b6c85	-0.04966404
7	0x3d300f5e	0.042983405
8	0xbbc00341	-0.005859763
9	0x3e48dcc4	0.19615465
10	0x3db14b1e	0.086569056
11	0xbe486804	-0.19570929
12	0xbdeb87ef	-0.11500537
13	0x3cb8ea97	0.022572799
14	0x3c41b2ee	0.011822445
15	0x3dd0b4d7	0.101907425
16	0xbd8e55c1	-0.0694995
17	0x3e07c603	0.13259129
18	0x3d30f439	0.04320166
19	0x3cfa4cb2	0.03055415
20	0xbe059eba	-0.1304883
21	0x3cb0c303	0.021577364
22	0xbd218c86	-0.039440654
23	0x3da0ac1c	0.07845327
24	0x3e1a2060	0.15051413
25	0x3cb97349	0.02263798
26	0x3d9f5515	0.077799
27	0x3dd1008f	0.10205185
28	0xbe82dd65	-0.25559536
29	0x3e27e397	0.16395412
30	0xbdff7e9d	-0.124753214
31	0xbe3400c3	-0.17578416
32	0xbe10c766	-0.14138564
33	0x3b7d0eef	0.0038613637
34	0x3e1d49fc	0.15360254
35	0x3e36d463	0.17854457
36	0xbe00869b	-0.12551348
37	0x3df80462	0.12110211
38	0x3d15e4ad	0.036595035
39	0xbd5f4c8f	-0.05451637
40	0xbd432937	-0.047646727
41	0x3cc84f06	0.024451744
42	0xbd57051a	-0.0524951
43	0x3e5bd9ea	0.21469846
44	0x3d996ac0	0.07491064
45	0xbda81ed2	-0.082090035
46	0x3da25fb4	0.0792841
47	0x3cd07925	0.025448391
48	0xbac2570c	-0.0014826967
49	0x3cfeab48	0.031087533
50	0xbbf9e4ba	-0.0076261433
51	0x3e8f963c	0.28044307
52	0x3c08c2eb	0.008347253
53	0x3ddfe779	0.10932822
54	0x3df19574	0.11796084
55	0xbd945806	-0.07243352
56	0xbcaa7f9b	-0.0208128
57	0xbe1a9097	-0.15094219
58	0x3d9f3712	0.07774176
59	0x3da85ad9	0.08220453
60	0xbe034829	-0.12820496
61	0xbe9d9c5b	-0.30783352
62	0xbcacc962	-0.02109212
63	0xbe2f3c86	-0.17112932
64	0x3db3b8e3	0.08775499
65	0x3d55e276	0.052217923
66	0xbdb1d67c	-0.08683488
67	0x3d4a5a9b	0.049402814
68	0xbd0dcdb6	-0.03462001
69	0xbe8220e2	-0.25415713
70	0xbe6f23c9	-0.23353495
71	0xbd1a0313	-0.037600588
72	0xbda03448	-0.07822472
73	0x3d1e4498	0.038639635
74	0x3bb6b83c	0.0055761617
75	0x3d5c8238	0.053835124
76	0xbe1b8bbb	-0.15190022
77	0x3df40336	0.11914675
78	0x3d758a86	0.05994656
79	0x3d7aaa3f	0.061197516
80	0x3e44b328	0.19208968
81	0x3e884ef4	0.26622736
82	0x3e50b31c	0.20380825
83	0x3df55f6e	0.119810924
84	0x3ddf3d30	0.109003425
85	0x3e613c89	0.21995749
86	0xbcfa5c86	-0.030561697
87	0x3e6e608a	0.23279014
88	0xbdecde81	-0.11565877
89	0x3e414f19	0.1887783
90	0xbd90e015	-0.0707399
91	0x3cf5ef9c	0.030021481
92	0xbdc84957	-0.097796135
93	0xbd4429e4	-0.047891513
94	0xbb37d394	-0.0028049694
95	0x3e0c0219	0.13672675
96	0x3db8e6ea	0.09028418
97	0xbbd0f9c1	-0.0063774292
98	0xbe791971	-0.24326111
99	0x3dda6515	0.10663811
100	0x3dd3e5fd	0.10346601
101	0xbe39a8e6	-0.18130836
102	0xbd12f64b	-0.035879415
103	0x3e11e4b4	0.142474
104	0x3de36573	0.11103334
105	0x3c6e3f8e	0.01454152
106	0x3c7407d0	0.014894441
107	0xbccb3a4a	-0.024808068
108	0xbdb5bd80	-0.08874035
109	0x3d8dcf68	0.06924325
110	0xbd88f5ff	-0.06687545
111	0xbe071ec8	-0.13195336
112	0x3dfcd44f	0.12345182
113	0x3bc94629	0.006142397
114	0xbe46248f	-0.19349883
115	0x3caf04d3	0.021364605
116	0x3db32789	0.08747775
117	0x3e7a19f4	0.24423963
118	0xbe507894	-0.20358497
119	0xbd937f09	-0.072019644
120	0x3d42e17c	0.04757832
121	0xbe0be5d2	-0.13661888
122	0xbc072ff7	-0.008251182
123	0x3da2aad9	0.07942743
124	0xbccee598	-0.025255963
125	0x3dd67404	0.10471347
126	0x3d2f50cb	0.04280166
127	0x3dd4cb47	0.103903346
128	0xbd5b312b	-0.053513687
129	0x3d5dc747	0.054145124
130	0xbdbc799c	-0.09202883
131	0xbcb52455	-0.022112051
132	0x3d787ab8	0.06066391
133	0x3de04f18	0.10952586
134	0x3e326a64	0.17423397
135	0xbcfbf926	-0.030758452
136	0x3da60386	0.08106141
137	0xbe3ce0b6	-0.18445095
138	0xbd866324	-0.06561878
139	0x3e9d619e	0.30738539
140	0xbdce8506	-0.10083966
141	0xbe8ce613	-0.27519283
142	0x3d3f0444	0.046634927
143	0xbd0372e3	-0.032091986
144	0x3e491960	0.19638586
145	0x3d851619	0.064983554
146	0xbe0696c2	-0.13143447
147	0x3d0d700a	0.034530677
148	0xbd1d6dee	-0.038434915
149	0xbddef08e	-0.10885726
150	0x3e150bf6	0.14555344
151	0xbd41c3ac	-0.047305748
152	0x3e711a22	0.23545125
153	0x3c28db08	0.010306127
154	0xbdac8326	-0.08423452
155	0xbe034ff6	-0.12823471
156	0x3ddc3b38	0.107534826
157	0x3e5c6165	0.21521528
158	0x3d5cc415	0.053897936
159	0x3e1463fe	0.14491269
160	0xba54f416	-0.000812353
161	0xbe068e10	-0.1314013
162	0x3a1ea7fe	0.00060522545
163	0x3e00888b	0.12552087
164	0x3d9e7d2e	0.0773872
165	0x3d193be7	0.037410643
166	0x3da59af4	0.080861956
167	0xbe4e76c6	-0.20162496
168	0x3e707296	0.23481211
169	0xbec1fe7d	-0.37889472
170	0x3d7a9a6c	0.061182424
171	0x3c1859fa	0.009298796
172	0xbde07838	-0.1096043
173	0xbdacb328	-0.08432609
174	0xbd387a18	-0.045038313
175	0x3dbe964f	0.09306013
176	0xbdeca7f3	-0.11555471
177	0x3b9d205f	0.0047951187
178	0xbd0dd04e	-0.034622483
179	0x3c55cd23	0.013049397
180	0x3ce7a139	0.02827512
181	0x3c15e1f2	0.009148108
182	0xbe15d527	-0.14632092
183	0x3c86f6a0	0.016475022
184	0x3d9e4c5f	0.077294104
185	0xbd35bc91	-0.044369284
186	0x3ced3e10	0.028960258
187	0xbdb2b2c3	-0.08725502
188	0xbe16428b	-0.14673822
189	0xbe799330	-0.24372554
190	0x3cb2ba82	0.02181745
191	0xbc7ac516	-0.015305778
192	0xbda859bd	-0.08220241
193	0x3d7f3e07	0.062315013
194	0x3d9f5cfc	0.07781407
195	0x3d93955e	0.07206224
196	0x3e3e0a99	0.1855873
197	0xbcbb7363	-0.02288217
198	0xba13f1e6	-0.00056436507
199	0xbd4eddc5	-0.050504465
200	0x3cc807a1	0.0244177
201	0xbe6a84b7	-0.22902189
202	0xbd6d3e98	-0.057921022
203	0x3e71ed73	0.23625736
204	0xbe077acf	-0.13230442
205	0x3cf2ff70	0.029662818
206	0xbcf1f7d7	-0.029537125
207	0xbc1ac9be	-0.009447513
208	0x3c2d58b0	0.010580227
209	0xbdb95e67	-0.09051209
210	0x3daff984	0.08592513
211	0xb9bd5f9b	-0.0003612012
212	0xbe137a38	-0.14402092
213	0x3ccb582a	0.024822313
214	0x3d90ea71	0.07075966
215	0x3d5d447f	0.0540204
216	0x3d467ba0	0.04845774
217	0xbcfc5179	-0.030800568
218	0x3d33ab44	0.043864504
219	0x3d3c6dba	0.04600308
220	0x3e4a94e7	0.19783364
221	0x3dadccd6	0.08486335
222	0x3d3689cf	0.04456502
223	0xbc468eb3	-0.012118983
224	0xbbd7d62c	-0.0065868106
225	0xbe45b58e	-0.19307539
226	0x3deaabb7	0.11458533
227	0xbbe2e4cb	-0.006924247
228	0x3e1cffd3	0.15331964
229	0xbd0f1d07	-0.034939792
230	0xbcba7a24	-0.02276332
231	0x3bde2bfd	0.006780146
232	0xbdff44d4	-0.124643
233	0xbd9989e5	-0.074970044
234	0xbd503bce	-0.050838284
235	0xbcaa2c13	-0.02077297
236	0x3dc7d62c	0.09757647
237	0xbe400c2f	-0.18754648
238	0x3d0128c3	0.031533014
239	0x3c1639c7	0.009169049
240	0x3d08146d	0.033222605
241	0x3e05ffef	0.13085912
242	0x3e343f1c	0.176022
243	0x3eab28c3	0.33429536
244	0x3e20e907	0.15713893
245	0xbbe5bd33	-0.0070110797
246	0x3dee7ac6	0.11644511
247	0xbdd06d7c	-0.101771325
248	0xbe1404e9	-0.14454998
249	0x3df0042e	0.11719547
250	0xbe1103cc	-0.14161605
251	0xbd0a8478	-0.03381774
252	0x3d1b33fe	0.03789138
253	0xbdbb873d	-0.09156654
254	0xbd42e18f	-0.04757839
255	0xbdb8d48a	-0.090249136

network_body._body_endoder.seq_layers.2.bias f4 [256]
0	0xbd068b2b	-0.032847565
1	0x3b36368e	0.0027803513
2	0xbc15548f	-0.009114399
3	0x3c8a88df	0.016910968
4	0xbd698a3f	-0.057016607
5	0xbc85ef2e	-0.016349401
6	0xbdac8edc	-0.08425686
7	0xbcd0d441	-0.025491836
8	0xbdbdcdac	-0.092677444
9	0xbca9211f	-0.020645676
10	0xbd2e492f	-0.042550262
11	0x3c771968	0.015081741
12	0xbd3260eb	-0.04354946
13	0xbbf5ec42	-0.0075049708
14	0x3bc26c7d	0.005933343
15	0xbd92847d	-0.071541764
16	0x3c70fcd8	0.01470872
17	0xbd5fbf86	-0.05462601
18	0xbdd82b8f	-0.10555183
19	0xbc6074b0	-0.0136996955
20	0xbd29cb63	-0.04145373
21	0xbda56736	-0.080763265
22	0xbbccd74c	-0.0062512513
23	0xbc03f45d	-0.008053866
24	0xbc4650db	-0.012104238
25	0xbd26d24a	-0.04072789
26	0xbaec6e98	-0.0018038331
27	0x3cbbdef8	0.022933468
28	0xbd1f44a5	-0.038883824
29	0x3d590b98	0.052989572
30	0xbd0cc210	-0.03436476
31	0x3c245bd7	0.010031662
32	0x3972221a	0.00023091622
33	0xbd716e41	-0.058943037
34	0xbd8b822a	-0.06811936
35	0xbde5500b	-0.111969076
36	0xbc7b2fa4	-0.015331183
37	0x3cc85bcd	0.024457837
38	0xbdca8e69	-0.09890444
39	0xbd5a3786	-0.053275608
40	0xbdcef9b3	-0.1010622
41	0xbd3b5313	-0.045733523
42	0x3c1b37c3	0.009473744
43	0xbdafda76	-0.0858659
44	0xbd2d5086	-0.04231312
45	0xbd4a62eb	-0.04941074
46	0xbd9ff557	-0.07810467
47	0x3c80780d	0.015682245
48	0x3aee58b8	0.0018184399
49	0xbd8ed70b	-0.0697461
50	0xbc910783	-0.017703777
51	0xbcbcf969	-0.023068147
52	0xbbd874f2	-0.006605738
53	0xbbe534ea	-0.0069948332
54	0xbdb01d4a	-0.085993364
55	0x3d14dce1	0.03634346
56	0xbd35c543	-0.044377577
57	0xbdec3046	-0.11532645
58	0xbd5a75b1	-0.053334896
59	0xbc16a407	-0.009194381
60	0xbe0117ec	-0.12606782
61	0xbcb3d697	-0.02195291
62	0x3c7f1f80	0.015571475
63	0xbdab80b9	-0.08374161
64	0xbd80a517	-0.062814884
65	0xbdd5ccfe	-0.1043949
66	0xbca68d14	-0.020330943
67	0xbc30eaef	-0.0107982
68	0xbcf057b9	-0.029338704
69	0x3ba5a406	0.0050549535
70	0x3c0144cd	0.007889939
71	0xbc19f4a7	-0.009396709
72	0xbd58f364	-0.05296649
73	0x3d06c9d0	0.032907307
74	0x3c02df03	0.00798774
75	0xbcd236a7	-0.025660826
76	0x3cd392cd	0.025826836
77	0xbd4ab561	-0.049489383
78	0xbc38a154	-0.011268932
79	0xbd851b1d	-0.06499312
80	0xbd61cd05	-0.055127162
81	0xbcebab99	-0.028768348
82	0xbd6edc53	-0.058315586
83	0x3cc82faa	0.02443679
84	0xbd115e9f	-0.03549063
85	0xbbe95ed6	-0.007121901
86	0xbc8f139b	-0.017465403
87	0xbc86b721	-0.016444745
88	0xbd531d53	-0.051541638
89	0xbd7f0aae	-0.062266044
90	0xbcbb5804	-0.022869118
91	0xbcf19f19	-0.029494809
92	0xbc7beb6f	-0.015375956
93	0x3cdea4c0	0.027178168
94	0xbe0b370d	-0.13595219
95	0xbd1f8ebd	-0.038954485
96	0xbd7094c1	-0.058735613
97	0xbcc63d13	-0.024199044
98	0x3c935812	0.017986331
99	0xbc5ae734	-0.013360787
100	0xbc90d20c	-0.017678283
101	0xbd548c47	-0.05189159
102	0xbcae330f	-0.021264581
103	0x3c96397f	0.018337963
104	0xbc903a34	-0.017605878
105	0x3c39d2b6	0.011341741
106	0xbdf3c043	-0.119019054
107	0xbd6ab960	-0.057305694
108	0xbca9a12a	-0.020706732
109	0xbc7cb045	-0.015422885
110	0xbd92d0ea	-0.071687534
111	0xbd62a522	-0.055333264
112	0x3ce20e67	0.027594758
113	0xbad160bd	-0.0015974265
114	0xbda6e523	-0.08149173
115	0xbdba34c9	-0.09092099
116	0x3c415c00	0.01180172
117	0x3d69b1d7	0.057054367
118	0xbcb1746a	-0.021661956
119	0xbcd6329a	-0.026147176
120	0xbda3cefd	-0.07998464
121	0xbe07df37	-0.13268743
122	0xbb55879c	-0.003258205
123	0xbd84f01e	-0.06491111
124	0xbdd9cac6	-0.10634379
125	0xbd2c7491	-0.042103354
126	0xbc133f22	-0.00898722
127	0xbbf77174	-0.0075513665
128	0xbd736f9d	-0.059432615
129	0xbc334c91	-0.010943548
130	0xbd630ea0	-0.05543387
131	0xbc58ca90	-0.013231888
132	0xbd627c96	-0.055294596
133	0xbd98cdde	-0.07461141
134	0xbc04ac1e	-0.008097677
135	0xbd45711a	-0.048203565
136	0xbd407ffa	-0.046997048
137	0xbb449982	-0.0029998724
138	0xbdc54827	-0.096329026
139	0xbc7e5658	-0.015523516
140	0x3cc993ca	0.024606604
141	0xbc5a1225	-0.01330999
142	0xbe36442a	-0.1779944
143	0xbce0f347	-0.027459754
144	0xbda629bc	-0.08113429
145	0xbbd25e5b	-0.0064199395
146	0xbce4ca45	-0.02792848
147	0xbc4873fc	-0.012234684
148	0xbdbe91e1	-0.09305168
149	0xbe0b66b2	-0.13613394
150	0x3c1b61ba	0.009483749
151	0xbc38eab4	-0.011286426
152	0xbc7c62c1	-0.015404404
153	0xbdb8c08d	-0.09021101
154	0xbde24169	-0.11047632
155	0xbe10bf77	-0.14135538
156	0xbbd60109	-0.006530885
157	0xbddedf60	-0.10882449
158	0x3cf0b416	0.029382747
159	0xbc896036	-0.01676951
160	0xbccc89e7	-0.0249681
161	0xbd41902d	-0.047256637
162	0xbce204ad	-0.02759012
163	0x3d05db70	0.032679975
164	0xbd97ce86	-0.07412438
165	0x3a7ad7d5	0.00095689046
166	0xbc972b96	-0.0184534
167	0xbe2ce202	-0.1688309
168	0xbc6fa035	-0.014625599
169	0xbc78ff29	-0.015197554
170	0xbd3c59d8	-0.04598412
171	0x3c473c2e	0.012160344
172	0xbd2ef37f	-0.042712685
173	0xbc7b1134	-0.015323926
174	0xbd34ac6f	-0.044109758
175	0xbced969a	-0.029002476
176	0xbd8cb9b5	-0.06871358
177	0xbc5b5e98	-0.013389252
178	0xbd43d665	-0.047811884
179	0xbdd048bd	-0.10170124
180	0xbcdbab76	-0.026815157
181	0xbd86f365	-0.065893926
182	0xbd8fcf72	-0.07021989
183	0x39205d87	0.0001529363
184	0xbe0cea9e	-0.13761374
185	0x3cbd6f70	0.023124427
186	0xbccc40bf	-0.024933217
187	0xbb989ae8	-0.004657138
188	0xbd341c20	-0.043972135
189	0xbda548f2	-0.08070554
190	0xbd51289f	-0.05106413
191	0xbd6f282c	-0.05838792
192	0x3c9e962b	0.019358715
193	0xbbed05bd	-0.00723335
194	0xbca4fdf8	-0.020140633
195	0xbdd652b6	-0.104649946
196	0xbd7e66b8	-0.06210968
197	0xbda6bc1c	-0.08141348
198	0x3bf70036	0.007537867
199	0xbdc9b65a	-0.09849234
200	0xbe344b45	-0.17606838
201	0x3c04d726	0.008107936
202	0xbc668388	-0.014069445
203	0xbc81b0dc	-0.015831403
204	0x3ce8e363	0.028428739
205	0xbcf3390f	-0.029690294
206	0x3d65b108	0.056077033
207	0xbd30c00f	-0.04315191
208	0xbd873c98	-0.06603354
209	0xbcce4d4b	-0.02518334
210	0x3c25af6f	0.010112627
211	0xbc8c3045	-0.01711286
212	0xbc80f85a	-0.015743423
213	0xbd6f8ae2	-0.05848206
214	0xbe077109	-0.13226713
215	0xbdb1781c	-0.08665487
216	0x37a9e1bd	2.0251488e-05
217	0xbd36dab9	-0.044642184
218	0xbcd56a18	-0.026051566
219	0xbd9277b1	-0.071517356
220	0xbd8c2f39	-0.068449445
221	0xbd2af772	-0.04173989
222	0x3a57f805	0.0008238557
223	0xbc917043	-0.017753726
224	0x3ce508cc	0.027958296
225	0xbd1c9217	-0.03822526
226	0xbdd363d8	-0.10321778
227	0xbd5b9a9c	-0.053614244
228	0xbcd6dad2	-0.026227389
229	0xbce1ad9a	-0.0275486
230	0xbaecd45b	-0.0018068658
231	0x3cc12769	0.023578363
232	0xbd7fa9dc	-0.06241785
233	0xbd4441e1	-0.04791439
234	0xbccf4da2	-0.025305573
235	0xbe019ec2	-0.12658218
236	0x3ba5e0fe	0.0050622215
237	0xbd92322b	-0.07138475
238	0xbd3f0925	-0.04663958
239	0xbd20228c	-0.039095446
240	0xbd374f3c	-0.0447533
241	0x3b8f53e9	0.0043740165
242	0xbdb49cbc	-0.08818957
243	0x3bcc4bf9	0.0062346426
244	0xbbb0663a	-0.00538328
245	0x3cef5d64	0.029219337
246	0xbc16166f	-0.009160622
247	0xbdcbbd0c	-0.09948167
248	0xbe02a5ca	-0.12758556
249	0xbd81d83c	-0.063400716
250	0x3c0bbb27	0.008528507
251	0xbd607b12	-0.05480487
252	0xbd8577c7	-0.06516986
253	0xbe13b0d1	-0.14422919
254	0x3c82ecfd	0.015982145
255	0xbd7165b2	-0.058934875

action_model._discrete_distribution.branches.0.weight f4 [3, 256]
0	0x3d94ade5	0.0725973
1	0xbae9943f	-0.001782067
2	0x3c7612f9	0.015019172
3	0xbceb5554	-0.028727211
4	0x3bc4ca21	0.006005541
5	0x3d1b15ea	0.037862696
6	0xbca2e6cd	-0.019885445
7	0x3d157176	0.036485158
8	0xbd0cbb85	-0.03435852
9	0x3d468361	0.048465136
10	0x3ca177e4	0.019710489
11	0xbce95c39	-0.028486358
12	0x3c5e6da2	0.013575943
13	0xbd87ff30	-0.0664047
14	0x3d3264f3	0.043553304
15	0xbbccc5fd	-0.006249188
16	0xbd9a2367	-0.07526284
17	0xbca289b6	-0.019841056
18	0xbbbb8dae	-0.0057236766
19	0xbd5e14f3	-0.054219197
20	0xbd676ecb	-0.056502145
21	0xbc37139b	-0.011174108
22	0xbdb23040	-0.08700609
23	0x3c960da2	0.018317048
24	0xbbfa97d7	-0.0076474953
25	0x3bdc70df	0.0067273225
26	0x3d01285d	0.031532634
27	0x3d0206ef	0.031744894
28	0x3d95d3d6	0.07315795
29	0xbcc01a5d	-0.023450071
30	0x3c769b26	0.015051639
31	0x3b8976e2	0.00419508
32	0xbcaf9db1	-0.021437498
33	0xbd207a92	-0.039179392
34	0xbc49f6c8	-0.012326904
35	0x3d1a5a97	0.03768405
36	0xbd3630ec	-0.04448025
37	0xbc74c558	-0.014939629
38	0x3ba559b8	0.0050460957
39	0x3d85d445	0.06534628
40	0x3c8ecdf2	0.017432187
41	0xbcb58af1	-0.022160979
42	0xbdf915f5	-0.12162391
43	0x3c4d64d6	0.012536248
44	0xbcfdccd6	-0.030981462
45	0xbbc8bba6	-0.006125885
46	0x3d19af55	0.037520725
47	0x3c550dfe	0.013003824
48	0xbca5d035	-0.020240882
49	0xbc1349c1	-0.008989752
50	0x39ef3a64	0.00045629137
51	0xbd576388	-0.052585155
52	0xbd066c5e	-0.03281819
53	0xbd86ae51	-0.06576217
54	0xbb62725f	-0.0034553034
55	0x3d6cf4fc	0.057850823
56	0xbba02a4e	-0.0048878556
57	0xbcb823e7	-0.022478057
58	0x3db0415b	0.086062156
59	0x3c4260d6	0.011863908
60	0xba111713	-0.00055347494
61	0xbd075aa2	-0.03304542
62	0x3d36ae8e	0.044600062
63	0x3c9816d5	0.018565575
64	0x3d5659b3	0.052331638
65	0x3c2b3685	0.01045001
66	0x3dc31ca9	0.09526951
67	0x3d250c23	0.040294778
68	0xbd473e59	-0.048643444
69	0xbd111186	-0.035417102
70	0xbc9eaa0b	-0.019368192
71	0x3d6b347d	0.057423104
72	0x3b976eac	0.0046213474
73	0x3be106a1	0.0068672453
74	0x3d321902	0.04348088
75	0xba1d668a	-0.0006004354
76	0x3c1690b3	0.009189772
77	0xbcd2d508	-0.025736347
78	0xbd2a572c	-0.04158704
79	0x3ce50c2f	0.027959911
80	0x3c38f9c0	0.011290014
81	0xba8dbfb4	-0.0010814578
82	0x3c1577ee	0.009122832
83	0xbcfcfc82	-0.030882124
84	0xbd829074	-0.063752085
85	0xbd91e491	-0.07123674
86	0xbc539f0c	-0.012916338
87	0xbda7a187	-0.08185106
88	0xbcd49b7a	-0.025953043
89	0xbb838622	-0.0040137926
90	0xbd432656	-0.047643982
91	0x3ce08a37	0.027409656
92	0x3cf1be46	0.029509675
93	0xbbafd60f	-0.005366094
94	0x3d00c91c	0.031441793
95	0xbd9a39cb	-0.075305544
96	0xbc2edda7	-0.010672963
97	0xbd598bd2	-0.05311186
98	0xbdd3b66a	-0.10337527
99	0xbbab346a	-0.005224754
100	0x3c26c231	0.010178135
101	0x3d022a55	0.031778652
102	0x3b9b2e33	0.004735732
103	0x3cb1a1f0	0.021683663
104	0xbb1f87e2	-0.0024342467
105	0x3d0f496e	0.034982137
106	0xbad85796	-0.0016505595
107	0xbcc63546	-0.024195325
108	0x3c99322e	0.018700685
109	0x3c093f20	0.008376867
110	0x3d64fdd6	0.05590614
111	0x3ced2df9	0.028952586
112	0x3b68efa1	0.003554322
113	0x3c56815e	0.013092367
114	0xbd9b49c5	-0.0758243
115	0x3d20e9f8	0.03928563
116	0xbc3730b1	-0.0111810425
117	0x3c777287	0.015102989
118	0x3bca757f	0.0061785574
119	0xbc23071c	-0.0099504255
120	0x3cba2d64	0.022726722
121	0x3cc01166	0.023445796
122	0x3c628ce8	0.01382754
123	0xbc5e6f8d	-0.0135764005
124	0x3c9bfd71	0.019041749
125	0x3ba62a1b	0.0050709373
126	0x3daa51f1	0.0831641
127	0x38e3ca32	0.00010861865
128	0x3c91869b	0.01776438
129	0xbaf46239	-0.0018644995
130	0x3c82d92d	0.015972698
131	0xba0159d0	-0.00049343426
132	0xbcded02b	-0.027198872
133	0x3d179eb3	0.03701658
134	0xbcc61b0c	-0.024182819
135	0x3b917c7f	0.00443989
136	0x3d0f92fd	0.03505229
137	0xbd11198f	-0.035424765
138	0x3b8dc159	0.0043260274
139	0xbdc2fee5	-0.095212735
140	0xbccd4a34	-0.025059797
141	0xbd273f40	-0.040831804
142	0x3bf92673	0.0076034605
143	0xbc88949f	-0.01667243
144	0xbd0ee096	-0.03488215
145	0x3bda4b6f	0.0066618244
146	0x3d70626f	0.058687624
147	0xbd565d36	-0.052334987
148	0xbca6fd53	-0.020384466
149	0x3c5a9b1d	0.013342646
150	0x3b54cf9a	0.0032472373
151	0x3d7ce7e1	0.061744574
152	0x3b37fc44	0.0028073946
153	0x3c11db64	0.008902404
154	0xbcdf05fc	-0.027224533
155	0x3d038a5a	0.032114364
156	0x3c9ffa22	0.019528452
157	0x3d931118	0.07180995
158	0xbd8d9b52	-0.069143906
159	0x3d199b77	0.03750178
160	0xbac7fe90	-0.0015258361
161	0x3c7c2af5	0.015391101
162	0x3d60d715	0.05489262
163	0xbccfa967	-0.025349332
164	0xbd222d16	-0.03959378
165	0xbcdf96e0	-0.027293622
166	0xbc3fde82	-0.011710765
167	0x3d56883b	0.052376013
168	0x3b7563cc	0.0037443517
169	0x3b8e5526	0.0043436466
170	0xbd0052a7	-0.031328823
171	0xbd0cf86d	-0.034416605
172	0xbc4f42a9	-0.01265017
173	0xbdbada06	-0.09123616
174	0xbc965d5e	-0.018355068
175	0xbd507c19	-0.0508996
176	0x3b406cfc	0.0029361835
177	0xbd846e13	-0.064663075
178	0x3cf99fed	0.030471766
179	0xbcf29f7d	-0.029617066
180	0x3ca66b27	0.020314766
181	0x3db060aa	0.08612187
182	0x3d53ab39	0.051676963
183	0xbcc12de7	-0.023581458
184	0xbd2aa904	-0.041665092
185	0xbdd066b0	-0.10175836
186	0xbcd3e501	-0.025866034
187	0x3c740abf	0.01489514
188	0xbd8a2841	-0.06745959
189	0xbd974acf	-0.073873155
190	0x3d085736	0.033286296
191	0xbc39343b	-0.011303957
192	0xbda0c217	-0.0784952
193	0xbcb58644	-0.02215875
194	0xbd1556c1	-0.036459688
195	0x3cd6832b	0.026185593
196	0xbdd077d0	-0.101791024
197	0x3bbddcf9	0.0057941643
198	0xbc5b0ddf	-0.013370006
199	0x3cb0a131	0.021561237
200	0x3d006208	0.03134349
201	0xbdb67bf8	-0.08910364
202	0x3db2ba6a	0.08726962
203	0xbc807384	-0.015680082
204	0xbd51e7ed	-0.051246572
205	0x3c8ef926	0.017452788
206	0xbb995528	-0.004679341
207	0xbc6e18fa	-0.014532322
208	0xbc245a37	-0.0100312745
209	0xbcf2e29f	-0.029649077
210	0x3be3b367	0.0069488767
211	0xbc1f102d	-0.009708446
212	0xbd17102d	-0.03688066
213	0xbd305619	-0.04305086
214	0x3d0336b6	0.0320346
215	0x3cad0f46	0.021125447
216	0x3c7bde3d	0.01537281
217	0xbc7aea62	-0.01531467
218	0x3d9f3ba0	0.077750444
219	0x3cd59539	0.026072131
220	0x3bceac76	0.00630718
221	0x3dc7228b	0.097233854
222	0x3d5accea	0.053418078
223	0xbb418ba6	-0.00295327
224	0x3d7e78c7	0.0621269
225	0x3ca74296	0.020417493
226	0x3d404542	0.04694105
227	0xbcfde473	-0.030992722
228	0xbd763e8d	-0.060118247
229	0x3c981038	0.018562421
230	0x3c8138c7	0.015774144
231	0x3dabaeaf	0.083829276
232	0xbbe400c5	-0.0069580995
233	0xbd62a3dc	-0.05533205
234	0xbd2fbc62	-0.042904265
235	0x3c72744f	0.014798238
236	0xbd085026	-0.03327956
237	0x3d492049	0.049103055
238	0xbcee3120	-0.029076159
239	0x3ccf2aa5	0.02528889
240	0x3bfdd36e	0.0077461516
241	0xbd61deca	-0.05514411
242	0xba5aad9d	-0.00083419104
243	0xbd368be2	-0.044566996
244	0xbd8ad416	-0.067787334
245	0xbc30fa03	-0.010801795
246	0x3d2241fa	0.0396137
247	0x3baecf22	0.0053347507
248	0x3c05740c	0.0081453435
249	0x3d1f8cf7	0.038952794
250	0x3d068c2d	0.032848526
251	0xbcffdc35	-0.031232933
252	0xbc14c98f	-0.009081258
253	0xbbff086a	-0.0077829855
254	0xbc4f3f94	-0.012649436
255	0xbd47f2bd	-0.048815478

action_model._discrete_distribution.branches.0.bias f4 [3]
0	0xbc84b439	-0.016199218
1	0x3d13baf9	0.036066983
2	0xbb965815	-0.004588137

action_model._discrete_distribution.branches.1.weight f4 [3, 256]
0	0x3dbe55f4	0.09293738
1	0x3aa75401	0.0012766124
2	0xbbb943f8	-0.0056538545
3	0xbd06953d	-0.03285717
4	0x3d4322fc	0.047640786
5	0xbdb284fe	-0.087167725
6	0x3d9d5582	0.07682325
7	0x3d941a07	0.07231527
8	0x3d941ba1	0.07231832
9	0x3d7624ed	0.06009381
10	0xbb711ab6	-0.0036789603
11	0xbbff58c9	-0.0077925664
12	0x3da61307	0.08109098
13	0xbdfe1890	-0.12407029
14	0xbd4a1e45	-0.049345274
15	0xbbfcc198	-0.007713508
16	0xbdedd92e	-0.11613689
17	0xbd8ca326	-0.068670556
18	0x3b21be89	0.0024680218
19	0xbdf7028d	-0.120610334
20	0xbda1d0da	-0.079011634
21	0xbbbda05a	-0.0057869377
22	0xbe101527	-0.14070569
23	0x3d0ae475	0.03390928
24	0x3d2d73a7	0.042346623
25	0xbc4cdcb6	-0.012503793
26	0xbd3eb463	-0.04655875
27	0xbd198e61	-0.0374893
28	0xbd02da9c	-0.031946763
29	0xbe3f28fc	-0.18667978
30	0x3d97dc46	0.07415061
31	0xbe01f2c4	-0.12690264
32	0x3c0eef39	0.008724027
33	0x3c9e895a	0.019352604
34	0xbc646fbd	-0.013942656
35	0x3d3c6417	0.04599389
36	0x3c1a604e	0.009422375
37	0xbcaa992e	-0.020824995
38	0x3d31702d	0.04331987
39	0xbd4ae0bc	-0.04953073
40	0x3db7e638	0.089794576
41	0xbd15850c	-0.036503837
42	0xbda0ff6f	-0.0786122
43	0xbb6892b1	-0.0035487826
44	0xbdc85c75	-0.0978326
45	0x3c014ead	0.007892293
46	0x3cb68979	0.022282349
47	0xbcafc3f7	-0.021455748
48	0x3c9c5067	0.019081308
49	0x3c79c3fa	0.015244478
50	0xbcf33333	-0.0296875
51	0xbdbee9ee	-0.09321962
52	0xbe371ad4	-0.17881328
53	0xbe2aa2eb	-0.16663711
54	0xbcca04ba	-0.024660457
55	0xbcefc4d6	-0.029268663
56	0x3c29dedf	0.010368078
57	0x3d9bb313	0.07602515
58	0xbc8e8532	-0.017397497
59	0xbdd031ae	-0.10165726
60	0x3d676beb	0.056499403
61	0xbc87159a	-0.016489793
62	0x3d619d6d	0.055081774
63	0x3d0704e0	0.032963634
64	0x39bfd0d4	0.00036585948
65	0x3df22e1c	0.11825201
66	0x3d22551f	0.03963196
67	0x3dcc1f0b	0.099668585
68	0x3d748957	0.05970129
69	0x3bc86ce7	0.006116498
70	0x3c056b19	0.00814321
71	0x3c1a0100	0.0093996525
72	0xbbb883f9	-0.0056309667
73	0xbc9343d5	-0.01797668
74	0xbc895006	-0.016761791
75	0x3cbac3e1	0.02279848
76	0xbddd7d2c	-0.1081489
77	0xbc59fe0f	-0.013305201
78	0x3b445d74	0.002996293
79	0xbd3bb1f2	-0.045824
80	0x3b4a9a49	0.0030914715
81	0xbd737e58	-0.059446663
82	0xbd3edfbe	-0.046600096
83	0x3d21a1fb	0.039461117
84	0xbda4ba36	-0.080433294
85	0x3d1fc90a	0.039010085
86	0xbd092965	-0.033486743
87	0xbd6a2826	-0.057167195
88	0xbcfd6893	-0.030933654
89	0xbba1e303	-0.004940392
90	0x3ca5d69f	0.02024394
91	0x3cad34ac	0.02114328
92	0x3d6c4014	0.057678297
93	0x3b94cbde	0.0045409044
94	0x3c609e01	0.013709546
95	0xbd80411d	-0.062624194
96	0xbdb2a7ea	-0.08723433
97	0x3d126c90	0.035748065
98	0xbde2609d	-0.11053584
99	0xbba5ea55	-0.005063335
100	0x3db0c70d	0.08631716
101	0x3d09d2de	0.033648364
102	0x3cd771e6	0.026299428
103	0xbd51cf5e	-0.05122315
104	0xbe0ed55a	-0.13948575
105	0x3aa7584d	0.0012767405
106	0x3d8a149a	0.06742211
107	0xba93a4e4	-0.0011264351
108	0xbdbbd51c	-0.09171507
109	0x3b80c74a	0.003930007
110	0x3ba253d1	0.0049538394
111	0xbd2192b3	-0.039446544
112	0x3d37ac6c	0.04484217
113	0x3bb8a228	0.005634565
114	0x3dbde650	0.09272444
115	0xbd15c6c5	-0.036566515
116	0xbd5a12ea	-0.053240694
117	0xbdb2531f	-0.0870726
118	0x3d3ff461	0.046863917
119	0x3caf5a93	0.021405494
120	0x3d33e8ec	0.043923303
121	0xbcd2d6e2	-0.02573723
122	0x3d6edabd	0.058314074
123	0x3bae11ea	0.005312194
124	0x3dc87426	0.097877786
125	0xbc73fe84	-0.014892224
126	0x3c3e5c57	0.011618695
127	0x3ce9eb66	0.02855463
128	0xbd9b4242	-0.07580997
129	0xbcd74f5f	-0.026282964
130	0x3ddbb174	0.10727206
131	0x3d428fee	0.047500543
132	0x3d59def2	0.053191133
133	0x3ad2d79b	0.0016085984
134	0xbcc2db91	-0.023786338
135	0xbdc3ae26	-0.095547006
136	0x3d27e353	0.040988278
137	0x3d45dad5	0.048304398
138	0x3d297895	0.04137476
139	0xbe0a56d3	-0.13509683
140	0xbd3ff68e	-0.046865992
141	0x3d144168	0.03619519
142	0x3dea3988	0.114367545
143	0xbd3a6a4c	-0.04551153
144	0x3d088c78	0.033337086
145	0x3cc71529	0.024302082
146	0xbccac438	-0.024751768
147	0xbd404937	-0.046944823
148	0x3dd74733	0.10511627
149	0xbcbb7eec	-0.02288767
150	0x3cab705a	0.020927597
151	0xbc8b50c7	-0.017006291
152	0xbd951ae1	-0.07280517
153	0xbda54d96	-0.08071439
154	0x3d9f9ac6	0.077931926
155	0x3d4e0c66	0.050304793
156	0x3dea67e3	0.11445596
157	0x3d0d2f65	0.034469027
158	0x3ce06c67	0.02739544
159	0xbdca4b9e	-0.09877704
160	0xbd49264f	-0.0491088
161	0x3bf78538	0.0075537227
162	0x3c60fa3b	0.013731535
163	0x3c15e6ac	0.009149235
164	0x3cfb76dd	0.030696327
165	0x3cd4c283	0.025971657
166	0x3bc7b706	0.006094816
167	0x3b99b6c9	0.004690979
168	0xbd60e0d7	-0.054901924
169	0xbc428cf8	-0.01187443
170	0xbd8a078e	-0.06739722
171	0xbb36f52c	-0.002791713
172	0xbd28e878	-0.041237324
173	0xbdd1dddb	-0.10247394
174	0xbc806435	-0.015672782
175	0x3d3556ef	0.04427236
176	0xbc218753	-0.009858924
177	0xbde54bbb	-0.11196085
178	0xbcf3cc31	-0.029760452
179	0x3d4fc3a3	0.050723683
180	0xbbae4d22	-0.0053192535
181	0x3c259acd	0.010107708
182	0xbcffa138	-0.031204805
183	0x3bc9ce69	0.006158639
184	0x3dc867ba	0.09785409
185	0xbe039f3d	-0.12853713
186	0xbd89f086	-0.06735329
187	0xbdfc3652	-0.12315048
188	0x3ce98d7e	0.028509852
189	0x3d5defc1	0.054183725
190	0x3d2a8394	0.04162939
191	0xbcb13ed3	-0.021636402
192	0x3ccf9f8e	0.025344636
193	0x3c9d7537	0.019220931
194	0x3c8b4a44	0.017003186
195	0x3d631ec1	0.05544925
196	0x3cb4a4ea	0.022051293
197	0xbc483bf0	-0.012221321
198	0x3d782d6b	0.06059019
199	0x3d142d8c	0.03617625
200	0x3dcdacff	0.10042762
201	0x3dc60be2	0.09670235
202	0x3d9d038e	0.07666694
203	0x3d229a6a	0.039698042
204	0xbb85d63e	-0.0040843775
205	0x3d399dfa	0.045316674
206	0x3cf04ea8	0.029334381
207	0xbdcd1c5f	-0.10015177
208	0xbc096fe5	-0.008388494
209	0xbd847c4a	-0.06469019
210	0xbd5c76d1	-0.05382425
211	0x3c69c4f2	0.014268147
212	0xbcd9cde7	-0.02658744
213	0x3d2430fa	0.04008577
214	0x3d27e82e	0.04099291
215	0xbd04684a	-0.03232602
216	0x3c976c05	0.018484125
217	0xbd91d086	-0.07119851
218	0xbdd502a3	-0.104008935
219	0x3ccf8f0f	0.02533677
220	0xbd2ad947	-0.041711118
221	0x3bd159b1	0.006388866
222	0x3cb28ff9	0.021797167
223	0xbd2d9404	-0.042377487
224	0xbd7f572d	-0.062338997
225	0xbdb829b1	-0.08992327
226	0x3d5a5e18	0.05331239
227	0x3d9d1d76	0.07671635
228	0xbd56d85a	-0.052452423
229	0x3bdd3672	0.006750875
230	0x3cb73f0d	0.022368932
231	0xbc6fcc59	-0.014636123
232	0xb8ec0251	-0.000112537884
233	0xbdcfd466	-0.10147934
234	0xbd950f96	-0.072783634
235	0x3c4c86d0	0.012483314
236	0xbca97010	-0.020683318
237	0x3dae6e1d	0.08517096
238	0xbd2839e0	-0.04107082
239	0xbbb281e1	-0.0054476117
240	0x3dc961e3	0.098331235
241	0x3d2d2518	0.042271703
242	0xbd532329	-0.051547203
243	0x3c871341	0.016488673
244	0xbe00b1a2	-0.12567762
245	0x3d532813	0.05155189
246	0x3c1f6c4d	0.009730411
247	0x3ce46216	0.027878802
248	0x3d130bff	0.035900112
249	0xbcfdff23	-0.031005448
250	0x3d0dfc00	0.034664154
251	0x3daeab55	0.08528773
252	0xbd82ce47	-0.063870005
253	0x3daa5963	0.083178304
254	0x3c8674a3	0.016413039
255	0x3d9b86f8	0.075941026

action_model._discrete_distribution.branches.1.bias f4 [3]
0	0x3caf635b	0.021409681
1	0x3c6062b2	0.013695406
2	0xbcf053f0	-0.0293369

action_model._discrete_distribution.branches.2.weight f4 [2, 256]
0	0xbd93b518	-0.07212275
1	0xbc02ae55	-0.007976134
2	0xbd753a5f	-0.05987012
3	0xbd06075c	-0.032721862
4	0xbd7e9620	-0.06215489
5	0x3d418955	0.04725011
6	0xbc6bab17	-0.014384053
7	0x3c636411	0.013878838
8	0x3d942baf	0.072348945
9	0xbc278bef	-0.010226234
10	0xbd21eb7e	-0.039531223
11	0xbcb46412	-0.022020373
12	0xbd464ff9	-0.04841611
13	0xbdd07d45	-0.10180143
14	0xbcc28899	-0.023746775
15	0xbd08a055	-0.03335603
16	0xbc9bed6b	-0.019034108
17	0x3c83a8d0	0.016071707
18	0x3d2ab807	0.04167941
19	0x3c93c6a0	0.018039048
20	0x3d1c35c4	0.038137212
21	0x3c1018ae	0.008794947
22	0xbdb52b8b	-0.08846196
23	0xbd596be8	-0.053081423
24	0xbd639c2b	-0.055568855
25	0x3c844baa	0.01614936
26	0x3cd55ef2	0.02604625
27	0xbc5ac988	-0.013353713
28	0xbd7d71dc	-0.061876163
29	0xbd94d7d3	-0.07267728
30	0xbd6c4d65	-0.057690997
31	0xbd6912ab	-0.05690257
32	0xbb658ec9	-0.0035027734
33	0xbd6de336	-0.058078013
34	0x3d2e68c6	0.04258039
35	0xbca3c8c9	-0.019993203
36	0xbcdd53c8	-0.02701749
37	0x3cc8a66a	0.024493415
38	0xbcb03f9e	-0.02151471
39	0x3dc68278	0.09692854
40	0xbc8d03d0	-0.017213732
41	0x3d0c733f	0.034289595
42	0xbe0100a8	-0.12597907
43	0x3c967556	0.018366497
44	0x3c078686	0.008271819
45	0x3b19cbff	0.0023467538
46	0x3d807cba	0.0627379
47	0xbdae13b6	-0.08499853
48	0x3c695b77	0.014242998
49	0x3d0fd1c8	0.035112172
50	0x3d23c546	0.039983056
51	0xbd739e30	-0.05947703
52	0xbd0c5740	-0.034262896
53	0xbcffb330	-0.031213373
54	0x3d1ab3ce	0.03776913
55	0xbd29989f	-0.041405316
56	0xbc189e7b	-0.009315128
57	0x3cd413ad	0.025888288
58	0xbbb19314	-0.0054191444
59	0x3d153202	0.036424644
60	0xbc1ca9f4	-0.009562004
61	0xbcb609c6	-0.022221457
62	0xbd735737	-0.059409346
63	0x3c1e57ab	0.009664456
64	0xbcf59a36	-0.02998076
65	0x3c55e47e	0.013054965
66	0xbc856416	-0.016283076
67	0x3d0a6b65	0.033793826
68	0x3c2ce08e	0.010551585
69	0xbda036a6	-0.07822923
70	0xbd8d0ad3	-0.0688683
71	0xbd49db05	-0.04928114
72	0x3d8f7f32	0.070066825
73	0xbc91e1a7	-0.017807795
74	0xbcf83f29	-0.030303555
75	0xbc834197	-0.016022487
76	0xbd83cbd1	-0.06435359
77	0xbc5f4f8a	-0.013629803
78	0xbd942ba5	-0.07234887
79	0x3d73c937	0.059518065
80	0x3d413f55	0.04717954
81	0x3d4a6243	0.049410116
82	0xbcb93d4b	-0.022612235
83	0xbdf75645	-0.120770015
84	0x3cd8e904	0.026478298
85	0xbbeb6bb1	-0.0071844687
86	0x3ddffc85	0.10936836
87	0xbd644d2d	-0.055737663
88	0x3cb0984f	0.021557001
89	0x3d9a3fa4	0.0753167
90	0xbc82c6f4	-0.015964009
91	0x3c6bfe62	0.014403911
92	0xbc336975	-0.010950436
93	0xbbe81ff9	-0.0070838896
94	0xbc12245b	-0.008919801
95	0xbc6d6cd7	-0.0144912815
96	0xbcbe9ac0	-0.02326715
97	0x3d2a7f65	0.0416254
98	0xbd3359c5	-0.043786783
99	0xbc8d4441	-0.01724446
100	0xbd92c652	-0.07166733
101	0xbd32e113	-0.04367168
102	0x3cf42a7b	0.029805413
103	0xbd527980	-0.051385403
104	0x3d7e949e	0.06215345
105	0xbc9250ab	-0.017860731
106	0x3d15a544	0.036534563
107	0x3b567238	0.0032721888
108	0x3c86b645	0.016444335
109	0xbcadba70	-0.021207064
110	0x3bc08530	0.005875252
111	0x3b432868	0.0029778723
112	0xbc095df7	-0.008384219
113	0xbd2173bd	-0.039417017
114	0xbcb01ce7	-0.021498157
115	0x3d6fd77c	0.05855511
116	0x3b9d500f	0.0048008035
117	0x3c75fc42	0.015013756
118	0xbd56f0f4	-0.052475885
119	0xbd3929ad	-0.04520576
120	0x3cbd6816	0.023120921
121	0xbbd39998	-0.006457519
122	0x3cbd4123	0.023102349
123	0x3ada8951	0.0016673004
124	0x3d1078fb	0.035271626
125	0xbd20de14	-0.03927429
126	0xbb0a9c00	-0.0021150112
127	0x3d0a20d2	0.033722706
128	0x3d0d5168	0.034501463
129	0xbca1231d	-0.019670064
130	0xbbb02755	-0.0053757825
131	0xbd5818dc	-0.052758083
132	0xbd7daeeb	-0.061934393
133	0x3cd1bb5f	0.02560204
134	0xbd4762c0	-0.04867816
135	0x3d2a8c13	0.04163749
136	0xbcaaa9dd	-0.02083295
137	0xbd80e90e	-0.06294452
138	0x3c1710ca	0.009220311
139	0xbdd525e2	-0.10407616
140	0x3d965752	0.07340874
141	0xbd71034e	-0.058841042
142	0x3c9e205c	0.01930254
143	0xbcb777d0	-0.022395998
144	0xbc97fd1d	-0.018553311
145	0xbd61a34b	-0.05508737
146	0x3d377980	0.044793606
147	0xbda9c826	-0.082901284
148	0xbbea4c5b	-0.0071502156
149	0x3c21e3f1	0.009881006
150	0x3cf83491	0.030298503
151	0xbca95b2d	-0.020673359
152	0xbb8256cd	-0.0039776326
153	0x3c5e0809	0.01355172
154	0xba1849fe	-0.00058093655
155	0x3c03fefa	0.008056397
156	0xbc2c7a3d	-0.010527191
157	0x3c37530b	0.011189233
158	0xbc938fc4	-0.018012889
159	0x3c4db53d	0.012555418
160	0xbd49233f	-0.04910588
161	0xbbf16c9c	-0.0073676836
162	0x39907ee2	0.00027560355
163	0xbd7f53ba	-0.062335707
164	0xbc76f283	-0.015072468
165	0xbd8ed934	-0.06975022
166	0xbc35cfc0	-0.011096895
167	0x3c8a4b69	0.016881661
168	0x3a958dc5	0.0011410048
169	0xbd99bf8a	-0.07507236
170	0x3cc7044b	0.02429404
171	0xbce37d05	-0.027769575
172	0xbc3ef058	-0.011653982
173	0xbddc071d	-0.10743544
174	0x3bd42711	0.0064743836
175	0xbcac03b3	-0.020997858
176	0x3d095ffb	0.0335388
177	0x3d078b80	0.033092022
178	0xbc9ed024	-0.019386359
179	0x3ca288fd	0.019840712
180	0x3d91ab95	0.07112805
181	0x3d6c4199	0.057679746
182	0x3d2866b4	0.04111357
183	0xbbbd2fd5	-0.0057735243
184	0x3cf71e11	0.030165704
185	0xbe3b0395	-0.18263085
186	0xbd8bd5cd	-0.06827889
187	0x3d5bcedb	0.05366407
188	0x3c4060d0	0.011741832
189	0xbd10cc03	-0.03535081
190	0x3d430581	0.04761267
191	0xbce92093	-0.028457915
192	0xbd46eaba	-0.048563696
193	0xbce1c8a9	-0.027561503
194	0xbd82af63	-0.063811086
195	0x3cd0a4b3	0.02546916
196	0xbd8bbeeb	-0.06823524
197	0x3cb91cec	0.022596799
198	0x3c312d82	0.010814073
199	0xbba6c2f1	-0.005089157
200	0x3cb55b94	0.022138394
201	0xbd6b9b08	-0.057520896
202	0xbd4bae3f	-0.04972672
203	0xbd29c7d6	-0.041450344
204	0xbd8a90a6	-0.06765871
205	0xbb665d35	-0.003515077
206	0xbd5e791a	-0.05431471
207	0xbccb881f	-0.024845181
208	0xbc4c0026	-0.012451207
209	0xbcfaba9c	-0.03060656
210	0xbabda7e4	-0.0014469591
211	0x3bd561bb	0.0065118945
212	0xbc4813df	-0.012211769
213	0xbce778f0	-0.02825591
214	0xbbba07e4	-0.00567721
215	0x3c99b32c	0.018762194
216	0x3c84a3b3	0.01619134
217	0x3d2bd711	0.04195315
218	0x3c839ac8	0.016065016
219	0x3c9e478d	0.019321227
220	0xbd7e8a33	-0.062143516
221	0xbd092c5d	-0.033489574
222	0xbcc1af06	-0.023643028
223	0xbc5c6f0d	-0.013454211
224	0xbd64fa0c	-0.055902526
225	0xbd0c6b9a	-0.034282304
226	0x3d782837	0.060585227
227	0x3a9b4afe	0.0011847911
228	0xbba99d6a	-0.005176236
229	0x3c8a0242	0.01684678
230	0xbd390fea	-0.045181192
231	0x3d152d2e	0.03642004
232	0x3d60c5c6	0.05487611
233	0xbd769f0b	-0.06021027
234	0xbcbb13f1	-0.022836657
235	0x3d59e00e	0.05319219
236	0xbdc8e901	-0.09810067
237	0xbd1e4370	-0.038638532
238	0xbc8a2c40	-0.016866803
239	0x3d97e1a4	0.074160844
240	0xbcfbc9a7	-0.030735804
241	0xbc47f1bb	-0.012203629
242	0xbb3ad773	-0.0028509765
243	0xbd2d8812	-0.042366095
244	0xbdba8cb0	-0.09108865
245	0xbd242dbe	-0.040082686
246	0xbd6bc740	-0.057563066
247	0x3d40e664	0.047094718
248	0xbc8e4081	-0.017364742
249	0xbc506826	-0.012720143
250	0xbcf6c5a6	-0.030123543
251	0x3c98f43e	0.018671151
252	0xbc0610f1	-0.00818275
253	0x3b92676f	0.0044678967
254	0xbbe7ee56	-0.0070779724
255	0xbcc9953f	-0.024607299

action_model._discrete_distribution.branches.2.bias f4 [2]
0	0xbd63c267	-0.05560532
1	0x3d63c253	0.055605244
