ML_stuff/results/cw_03/FindCubeWife/FindCubeWife-3499992.onnx (onnx, 356907 bytes, 13 tensors)

discrete_act_size_vector f4 [1, 4]
00000000: 0000 4040 0000 4040 0000 0040 0000 0040
3.0 3.0 2.0 2.0

network_body._body_endoder.seq_layers.0.weight f4 [256, 69]
00000000: f189 3f3c 3108 4cbe 6298 d9bb 8d6f 213e
00000010: 057b ab3e 3ed5 313e c517 5dbe 2353 13be
00000020: c31a d2bd 3b4e 383a 21e8 433d d7cf 993d
00000030: 8421 70bd d1af 24be 27ad 563e 45b7 b13d
00000040: 8132 b9be 592c c03c b114 81be 71cf d2bc
00000050: cec6 cdbc 51a5 e63d 72fc 5dbd d9ca 5fbd
00000060: e1d9 453e 1d7a 6bbe b294 4fbe 7232 353e
00000070: efa8 81bc 07b9 653e 2d25 91be 9525 3a3d
00000080: e2ec a13c 3e91 e5bd b9e1 08bd 2ccc 1b3d
00000090: 2d44 703b a3fc 363e 905e cfbd c4e2 cf3d
000000a0: 33d9 6c3e 6553 a7bc ab53 f33d f116 f8ba
000000b0: d6dc 3abe 078d 743e 491b 90bd 5387 533e
000000c0: 72be 91ba 8ee9 4c3d 3d74 88be c8a8 a5bd
000000d0: af41 8b3d 8d68 ea3d a261 49bc 0f61 df3d
000000e0: 6e4e edbd edc5 a83e f83b c33d daf3 93bd
000000f0: 6cf8 22be 33bd 883d bff2 0d3d a6ac a03e
00000100: 12aa b9bc f0ef c13e 7d4a 983a c753 dabd
00000110: 9821 5f3e 2e79 98bd 8749 6dbd 6dc8 c9bd
00000120: b892 453e e3ab 51bd 29f1 e0bd f058 f43d
00000130: da36 a03d 3db2 913e 1dd3 8dbd 465f 613d
00000140: b996 673d 19db 0b3e 89b7 2bbe 8b25 b3bc
00000150: 10a5 e03d b74c 023d f1d8 0d3d 9f3b 2b3d
00000160: bcb5 05be a311 ce3d a3a5 f3bd 7d7c ef3d
00000170: 6ce0 a3bd 73a2 573d 1d8a 413e e0c0 513d
00000180: eafc 60bd 26fc 4a3c 21ae 4dbd 168a 9d3d
00000190: b8ad a3bc a0d6 a53d 8bf3 c53d 4d01 533e
000001a0: 75f7 47be 7db2 a03e 93b8 543e c395 773e
000001b0: 2af3 05bd 3bd3 afbd 2872 d23c ceb0 7a3e
000001c0: af62 a1bc c513 053d 449e cf3c 1a44 4fbe
000001d0: 1acf b2bc 6154 90bd 849c c03c 6bbc 363d
000001e0: ab7d 5fba 4611 1d3d 2af4 463e 3388 33bd
000001f0: bf89 eb3c 237d 04be 7db0 64bd 2b8a 3dbd
00000200: a299 4dbe 6553 4fbe aebc 57be 9bb6 5abd
00000210: 4527 113e 632c bc3c 079b b33e 6568 d63d
00000220: 8486 8c3e 778e b9bd d3fd 0dbc 98cd e4bd
00000230: b222 783d fadb 633e 741b d53d 3d95 bdbd
00000240: 0be7 75be ba7c 09be 62e4 c0bd a91e 86bd
00000250: 6341 00bc 7eb2 1dbe a680 c93c 9154 333e
00000260: 85ef b03d 1e67 acbe 1cd3 6dbb 6e82 8ebd
00000270: 2ffc 553b 1d80 3dbc ff44 013e 4197 cabd
00000280: b8a0 8d3d 9ca8 023e 0ed4 813d a541 94bc
00000290: 5d3c 083e fad7 063d 362f f53d 430c 913e
000002a0: d439 ebbd 1735 823c 6386 0b3e 90bf eabd
000002b0: a00a 383e 509e c4bb 565f 803e 4ce0 53bd
000002c0: 65df 16be e2f1 353e 858c cbbd 5728 3a3e
000002d0: 097b c6bc 7156 41bd 36a9 d6be e2be f83d
000002e0: aa7c 213e 10ba 363e ec6e c63d 8d0a 26bb
000002f0: 0964 c53b 053f 40be d92f f63d 5df5 0fbd
00000300: 418c 383e 2a8e 003e 8c15 cdbc 743a 7c3e
00000310: de7e 47be 287f ac3e 8f7a 7f3c b368 373e
00000320: a849 29be 6881 2c3e 0caa 93be c00e f53e
00000330: 43ef 1d3e 858f 20be bccb da3e 96bd 39bd
00000340: 2dd3 6cbc fbbb f13c 8d34 0d3e bfcc d73b
00000350: 565a 30bd fd5b fd3d e155 c73d 108a 203e
00000360: 2631 353e 892e 46bc 3d8c 38bc 1e8a 53bc
00000370: 6689 6c3d 5fed 7a3c c5bb 853d 7bb4 18be
00000380: 157d e83d fb64 613e 9ae4 983c a2e1 043e
00000390: 489d c8bc 7616 be3d 7a8d 583e 5428 41bd
000003a0: 0006 e6bd 3313 493d ed30 9dbc 71fe f4bd
000003b0: 87e4 88be 1d5f a93d 377e c03d 1f9c d0bd
000003c0: bfbf ebbd da5b 4f3e 85c0 893d 9f49 513e
000003d0: 5885 533e ac33 93bd 4eb5 90bd ee35 603d
000003e0: 0910 273c 8e42 163e c673 55bc 579e 09be
000003f0: 13ed 683e 6408 813d 39ff 0bbd 616d b53d
0.011690603 -0.19925 -0.00664048 0.1576521 0.33492294 0.17366502 -0.21591099 -0.14387183
-0.10259011 0.00070307 0.047828797 0.075103454 -0.058625713 -0.16082694 0.2096449 0.08677534
-0.36171344 0.023458647 -0.252111 -0.025733681 -0.025119212 0.11262 -0.05419583 -0.05463681
0.19321395 -0.22995801 -0.20271567 0.17695025 -0.015827624 0.22433864 -0.28348675 0.045445997
0.019766275 -0.112093434 -0.03341839 0.03803651 0.003666173 0.17869811 -0.10125458 0.10150674
0.2312973 -0.020425508 0.11881193 -0.0018927736 -0.18248305 0.23881923 -0.07036454 0.20657091
-0.0011119379 0.050027423 -0.26651183 -0.08088833 0.067996375 0.11445723 -0.012291344 0.10907184
-0.11587225 0.32963505 0.095329225 -0.07224245 -0.15915078 0.06676712 0.03465533 0.3138172
-0.022664104 0.3787837 0.0011618879 -0.106605105 0.21790159 -0.07444988 -0.05793145 -0.09852681
0.1929425 -0.051189315 -0.10983498 0.11931026 0.07822962 0.28456298 -0.06925032 0.0550225
0.056540225 0.13657798 -0.16769232 -0.021868488 0.10968983 0.031811442 0.03463072 0.041804906
-0.13057607 0.10061958 -0.11896827 0.11693666 -0.080017895 0.052645158 0.18900342 0.05120933
-0.054928698 0.012389218 -0.05021489 0.076923534 -0.019980296 0.08097577 0.09665593 0.20605965
-0.19527991 0.31386176 0.20773534 0.24178223 -0.032702602 -0.08585211 0.0256892 0.24481508
-0.019700376 0.032489557 0.025344022 -0.20240822 -0.02182727 -0.07047344 0.023512132 0.044613283
-0.0008525501 0.03834655 0.19429079 -0.04383106 0.028752206 -0.12938361 -0.055832375 -0.046274345
-0.20078138 -0.20246656 -0.2106807 -0.053396802 0.14175136 0.022970384 0.35079214 0.104691304
0.27446377 -0.09060376 -0.008666473 -0.111720264 0.060579963 0.22251883 0.10405627 -0.092569806
-0.24013917 -0.13426486 -0.094185606 -0.06548817 -0.007828089 -0.1540012 0.024597477 0.17512728
0.08639435 -0.33672422 -0.003628916 -0.06958471 0.0032651534 -0.011566189 0.12623976 -0.09892131
0.0691542 0.12759632 0.06339274 -0.018097708 0.13304277 0.032920815 0.119718954 0.28329667
-0.11485639 0.015894456 0.13625483 -0.11462319 0.17972803 -0.0060003176 0.25072736 -0.051727578
-0.14733656 0.17768052 -0.09938911 0.18179451 -0.02422859 -0.047201578 -0.41925973 0.12145783
0.15770212 0.17844415 0.096891254 -0.0025335879 0.006023888 -0.1877404 0.12020845 -0.035146106
0.18022253 0.12554231 -0.025034688 0.24631673 -0.1948199 0.33690763 0.015593185 0.17911033
-0.16532004 0.1684624 -0.28840673 0.47862816 0.15423302 -0.15679748 0.42733562 -0.04534682
-0.014454645 0.029508581 0.13789578 0.006585687 -0.0430549 0.12371061 0.09733177 0.15677667
0.1769453 -0.012096056 -0.011263904 -0.012911348 0.05774822 0.015315383 0.06529955 -0.14912598
0.113519825 0.22011177 0.018663693 0.12976697 -0.02448906 0.09281628 0.21147719 -0.0471576
-0.11231613 0.049090575 -0.019188369 -0.11962593 -0.26736853 0.082700945 0.093990736 -0.10186028
-0.11511182 0.20249882 0.06726173 0.2043824 0.20656335 -0.0718759 -0.07065831 0.05473893
0.010196694 0.14673826 -0.013028091 -0.13439308 0.22746687 0.063004285 -0.034178946 0.08858753

network_body._body_endoder.seq_layers.0.bias f4 [256]
00000000: 4292 1d3c 00b5 323d 66e1 233c 1f42 293d
00000010: d1da 2bbd ec32 103d fe54 963d bb01 5f3b
00000020: e44e 1c3d 131b bbbc f693 c8bb 786a 0e3d
00000030: 44cf c93c b7b4 80bd 52c3 dabb 56de 70ba
00000040: b900 0a3e ab74 073d 3bd5 b4bd ec0f a4bc
00000050: a332 343c 65ee 7b3c d75b 993d 78e4 0dbd
00000060: 65f0 a03c 7727 72bd e1d6 e53c f51f dc3c
00000070: ca4a 953b a593 e53d 0d94 7b3d 49ae 4f3d
00000080: 30cb 253d 0402 a7bc 020d 01bd 862e 00bc
00000090: 783e 553c 6ab8 b1bb dea9 c1bc 80fb 083d
000000a0: 7158 ab3c 2246 153d eed2 1c3d 0dec 453d
000000b0: 1d30 873d 1397 46bd 20a0 0fbd b1c8 9cbc
000000c0: feac b83b 5926 7d3a a92d dd3c 4f31 54bd
000000d0: e1fa c73b eea7 143d f869 eebc 6b49 203d
000000e0: 8a02 c8bb 7c3b 39bc 6856 86bd 0f2e 0ebd
000000f0: 878f 313d 9d57 103d 0e1b 933c 54d2 cd3d
00000100: 9490 b7bd adef 863d 10fa 2abb 4c7f 3b3d
00000110: f688 dc3d 4848 5c3d 71a8 103d 6680 97bd
00000120: 0998 1a3d 2f70 1e3c 0b95 f3bd 51ab e9bc
00000130: 11b8 853d 9a4d 50bc 1228 363d f3a7 0fbd
00000140: 3539 99bc 6ec2 8cbc a05f c83c 6135 ab3d
00000150: fc9b cabc 988b 0dbd c23d 7c3d 0d05 efbc
00000160: f096 55bd 587b afbc 5be4 b53c b69c 783c
00000170: 4783 32bd 2ee1 28bc e672 573d ad19 6cbd
00000180: 63ea 203d 06bc 44bc 442d 913c f53e 3a3d
00000190: 1a63 043d 3009 01ba 6254 65bd 4081 b1bc
000001a0: 2364 ebbc 291c fe3c 6589 133d d837 913d
000001b0: 1d81 8c3c 2891 6dbd 2060 b53c e9d4 c73c
000001c0: 69fa 03bd 9d69 53bd 5289 83bd cd2c 2c3d
000001d0: 3e76 c23c 88a6 053c f88d 3a3c d330 ed3d
000001e0: 6752 40bd be00 213d 641f cebc 437e 72bb
000001f0: 6267 88bd 86d1 2dbd 2b4a d1bd be4b d439
00000200: 391b 00bd 7424 c83c ae70 55bc 5c36 dc3c
00000210: b9f3 57bd 7353 a3bc 42dd 743d 9363 433d
00000220: 4b7d ab3c e792 5ebd cf06 a4bc 66c9 87bc
00000230: e680 313d 2da3 99ba c282 a5bd 00ff 3b3d
00000240: ae9b 01bd 6d94 7cbc 1efc 64bc e9a1 f33c
00000250: 3728 733d d8a9 093d 12c5 37bd 8f0c 933d
00000260: cdb7 d7bc a88b 52bd d93a de3d 0dfe b53d
00000270: af74 1fbd 9194 273d a14d 7cbc 9a54 753d
00000280: 2854 94bd 7702 b1bd 9177 e53b ff0f ad3c
00000290: 366e 803c 52f1 363d e23f 763c 6261 3f3d
000002a0: e83f 90bd 451b 3a3d b465 6d3d 5bd0 96b9
000002b0: c8b5 b13b f7a0 6e3d 1601 793b 38a6 c1bd
000002c0: 9ec0 7b3d de4e 87bc 1736 7dbc 6521 4dbc
000002d0: 7623 aebc a13c f23c 6394 66bc 9e17 58bc
000002e0: d6c9 5d3c 6220 0d3d 75e7 bcbb 33dc 9e3c
000002f0: 5ac1 e6bb 0ee0 b4bb e2f9 1a3d 9fd3 37bd
00000300: 6e5a 533d 1641 913d c14d a7bc 6319 83bc
00000310: 6947 03bd 3a62 82bb 4f2f c8bc 5830 d9bc
00000320: 971e 023c 013f cf3c e512 c5bb 482d f73c
00000330: 8230 b03d b797 5fbd c27a 543d 4aaa ed3b
00000340: 45ea 773b e528 6f3d 7b56 1cbc 64ba 5f3c
00000350: 0155 0339 6220 493d e6ac 3aba b880 d33d
00000360: 2775 0ebc d9da 5a3d 67bb 28bd 87f8 c73d
00000370: e0f5 7fbd 984d 86bc faa6 063e 9542 693c
00000380: a240 083e 77b1 3ebd b339 a5bc a637 443d
00000390: cee7 eebc fa77 7f3d 913b 3c3d 375d a8bb
000003a0: 9c0a 21bd 3e9b a23d 4c99 353d 8c50 01bd
000003b0: fedb 08bd 1a18 3e3b 2d57 16ba fcc6 2e3d
000003c0: c470 e4bc ec90 273d 17ee 6ebd 584c 4cbc
000003d0: 345c 4abd 8e32 823c e3ba e13d 87fe 253d
000003e0: dc4d 383c b3ca b1bd a485 393d 6584 21bd
000003f0: b3fc 703d 191c a3bc b881 4fbc 106d 063c
0.00961739 0.043629646 0.01000247 0.041322824 -0.041956726 0.035204813 0.0734043 0.003402813
0.038161173 -0.022840058 -0.006121154 0.034769505 0.024634965 -0.062844686 -0.006676116 -0.0009188404
0.13476838 0.033070248 -0.08829733 -0.020027123 0.010998401 0.015376662 0.0748822 -0.034641713
0.019645879 -0.059119668 0.028056564 0.026870707 0.0045560347 0.112098016 0.06142049 0.05070332
0.040476978 -0.020386703 -0.031506546 -0.007823592 0.013015382 -0.005423595 -0.02364057 0.033442974
0.020916196 0.036443837 0.038287096 0.04832082 0.06600974 -0.04848392 -0.035064816 -0.019138666
0.0056358567 0.00096568983 0.026999312 -0.051804837 0.006102905 0.036292963 -0.029103264 0.039132517
-0.0061038183 -0.011305686 -0.065594494 -0.034711894 0.04334977 0.035239805 0.017957237 0.100498825
-0.08963123 0.06588683 -0.002608899 0.045775697 0.10768311 0.05377987 0.03531689 -0.07397537
0.03774265 0.009670301 -0.11893662 -0.028524073 0.065292485 -0.012713814 0.044471808 -0.03507228
-0.018704036 -0.017182555 0.02445966 0.083597906 -0.024732582 -0.034556955 0.061582334 -0.029177213
-0.0521459 -0.02142112 0.022203615 0.015174082 -0.043582227 -0.010307593 0.05259981 -0.057641674
0.03928603 -0.012007719 0.01772178 0.045470197 0.032321073 -0.00049223285 -0.055988677 -0.021668077
-0.028734272 0.031019287 0.0360197 0.070907295 0.01715141 -0.05799976 0.022140563 0.024393516
-0.03222123 -0.051614393 -0.06422676 0.042034913 0.023738023 0.00815738 0.011386387 0.11581578
-0.046953585 0.03930735 -0.025161453 -0.0037001527 -0.06660344 -0.042436145 -0.102192245 0.00040492223
-0.03127596 0.024431445 -0.013027353 0.02688139 -0.052722666 -0.019937253 0.05978132 0.047702383
0.020933768 -0.054339316 -0.020022778 -0.016575526 0.043335818 -0.0011721604 -0.08081581 0.045897484
-0.03164261 -0.015416247 -0.013976125 0.02974029 0.059364524 0.03360924 -0.044865675 0.0718013
-0.02633276 -0.051402718 0.10851068 0.08886347 -0.038929638 0.04091317 -0.015399368 0.059895135
-0.07242614 -0.08643048 0.007002779 0.021125792 0.015677553 0.044663735 0.015029879 0.04672373
-0.07043439 0.045436163 0.05795832 -0.00028765466 0.0054232813 0.058258977 0.0037995032 -0.09455532
0.06146299 -0.016517099 -0.015454791 -0.012520169 -0.021257143 0.029569926 -0.014073464 -0.0131892245
0.013536891 0.03445471 -0.0057648965 0.019392109 -0.0070420923 -0.0055198735 0.037835963 -0.044879552
0.051599912 0.07092492 -0.020422818 -0.016003316 -0.032050524 -0.0039789947 -0.024436621 -0.02651231
0.0079418635 0.025298597 -0.0060142153 0.030172959 0.08603002 -0.054588046 0.051874883 0.007252966
0.0037828845 0.05838861 -0.009542103 0.013655279 0.000125248 0.04910315 -0.0007121101 0.103272855
-0.0086949235 0.053431366 -0.041194346 0.097642 -0.062490344 -0.016394421 0.13149634 0.014237066
0.13305905 -0.046555962 -0.020169115 0.047904633 -0.029163267 0.062370278 0.045955244 -0.005138065
-0.03931676 0.07939766 0.04433565 -0.031570956 -0.033412926 0.0029006065 -0.0005735036 0.042670235
-0.027885802 0.040909693 -0.05833253 -0.012469374 -0.049404338 0.015893247 0.11021974 0.04052594
0.011249032 -0.0868124 0.045293465 -0.039432902 0.058834743 -0.019910859 -0.012665205 0.008204713

network_body._body_endoder.seq_layers.2.weight f4 [256, 256]
00000000: 06c2 2a3e 1659 41be 23a1 cd3d 1e94 71bd
00000010: c383 d5bc 4878 943d 3dca 1bbd c134 6d3d
00000020: f5c1 9abc 99f0 703e 7a71 ed3d 66c9 73be
00000030: 6d21 17be be62 b7bb de2e 263d 6585 8e3d
00000040: a011 a1bd edc1 2f3e 59e2 913d 9e72 793d
00000050: 2627 06be 7781 98bc fe63 c3bc 9e00 f83b
00000060: 6d94 393e 8dd2 043c 3b96 e23d e319 0e3e
00000070: ab28 70be ae99 193e 7ab0 e9bd 766a 1dbe
00000080: 3aa9 d6bd b993 0c3d 7ea4 133e 7c6d 363e
00000090: 5f27 9fbd 41b5 043e 5c5d d3bc 2614 6d3c
000000a0: f666 e3bd 6c67 0f3d efbf 68bd 5355 743e
000000b0: 1510 a33d 75a0 b8bd 412f 9b3d 48b2 09bd
000000c0: c68a 853b 00b8 af3b a8d0 a63c 77ee 7c3e
000000d0: 6368 0f3d 532b 5d3d 031c d53d 3a12 a3bd
000000e0: 5edd e6bc 3dc9 19be 482a a93d b853 bc3d
000000f0: 3b3c 38be 4905 99be 7173 763c 9677 14be
00000100: 438b 833d 0a99 6b3d d7a4 4bbd 7e00 483d
00000110: cb8d b13a e84a 64be 05fb 6abe 6429 9fbd
00000120: c2ce 85bd 947f cd3d 1dff fb3c acec ec3d
00000130: 3dd3 14be 8d2c f83d 14ee 893d 605d 8fbb
00000140: b696 e73d a19f 983e aa5c 563e 04cb e23d
00000150: fc6a fd3d f4ab 973e fd43 3bbd 2965 693e
00000160: fdb3 a2bd 9208 183e afc9 a9bd 51e3 aa3c
00000170: 9491 8bbd bce0 40bd 127a 443d 9cbe 003e
00000180: 5f45 f13d de0a 663b ed0e 42be b973 c43d
00000190: afbe 003e 4b7c 51be 9299 dbbb 05d0 bf3d
000001a0: de5a 903d 5c4f 8fba bafb 713d 1f4f 0c3d
000001b0: 2843 c2bd 7f95 ee3d 5333 10be 8ca6 6cbd
000001c0: b2b9 063e 427d a63d b5bc 2cbe 8f69 143d
000001d0: 482d c83d fe81 8d3e b5cc 80be 275d b1bd
000001e0: 33dd 513d 585a e9bd 8cf3 0bbd 4f0c 0d3d
000001f0: 923a 0abd a63d d13d fa5e 353d 32af d33d
00000200: 3a4b c7bd 3bb7 993d f041 51bd bb93 41bc
00000210: 9d70 943d c5bb 173e d5c8 193e 5b64 45bc
00000220: d8cf e13d 03af 44be 0b56 94bd e85a 953e
00000230: 359e c7bd 650e b1be b63f e33c 7823 11bd
00000240: b439 563e 2e62 ed3d 4b6c 37be ca8a 9a3d
00000250: 3c8e 44bd 3930 c1bd c47a 0d3e b89c d6bc
00000260: 76cf 833e fa5a 473d e69f 99bd 8ee4 08be
00000270: 3cc9 9d3d ae86 723e d005 8e3d 1838 243e
00000280: 927a e1bc 7e97 cebd 5621 803c 0d4f 0b3e
00000290: a449 b23d 7850 e33c c4fa c33d 429e 52be
000002a0: 6f59 833e 78bf c6be 6c45 cb3d de9e ad3c
000002b0: acf3 cdbd 5141 d6bd a9d7 82bc 3267 fc3d
000002c0: 90cf 98bd 4032 21bd 8358 bfbd ef70 633d
000002d0: 2736 843c 3a65 25bd dcb1 29be 30c3 0b3d
000002e0: adc2 0e3e e2c1 0fbe 4ea2 753d 0c4d c7bd
000002f0: 7d0c 31be 3061 6ebe 7f67 9b3c caef 69bd
00000300: 8819 bfbd 492f ec3d f7d9 983d cd46 cf3d
00000310: be12 4c3e 1b16 cabd c78b a73b 3786 7fbd
00000320: b9ae a63c 99c6 3cbe c8a4 adbd 924d 733e
00000330: 321c f1bd 4198 7a3d 3acd bd3c 9643 96bd
00000340: 1d42 3f3d 2a1e 81bd 82f0 be3d 787c 993c
00000350: 3927 1abe 0738 6f3d 351b db3d 537d 9a3d
00000360: 6d34 843d ccbb d8bc c35e 48bd 4e7e a7bb
00000370: a73b 863e 6c31 8d3d fced b33d b6d2 2cbd
00000380: 149d bd39 ad17 46be 3932 013e 87e3 ef3c
00000390: 8277 4e3e 3a74 50bd 2b7c b3bc d581 79bd
000003a0: 8019 3cbe 718a 83bd a4c6 c9bb 7b2c f6bc
000003b0: 8132 b43d e48e 51be 3ff6 3f3d 6daf a9bc
000003c0: 9fbb ec3c 7e98 083e eb02 023e d7c4 b63e
000003d0: 2bbe e93d 5568 2a3d 76c2 0d3e de81 b7bc
000003e0: 2902 21be 0639 203e 6a52 15be 5d4f abbb
000003f0: 30a0 763d 5e42 a9bd 1984 04bd fbf6 00be
0.16675577 -0.1888164 0.100405 -0.058979146 -0.026063805 0.07249504 -0.038034666 0.05791164
-0.018891314 0.2352928 0.115939096 -0.23807296 -0.14758845 -0.005596488 0.04057204 0.06959037
-0.0786469 0.1716382 0.071232505 0.060900323 -0.13100871 -0.018616421 -0.02385139 0.007568433
0.18123026 0.00810684 0.110638104 0.13877062 -0.23453014 0.1500003 -0.11410613 -0.15372643
-0.10481496 0.034320567 0.14418218 0.17815202 -0.07771181 0.12959768 -0.025801353 0.014470136
-0.111036226 0.03501074 -0.056823667 0.23860674 0.07962052 -0.0901498 0.07577372 -0.033617288
0.004075381 0.0053625107 0.020363167 0.24700342 0.03501166 0.053996395 0.104057334 -0.07962461
-0.028181728 -0.15018173 0.08260018 0.091956556 -0.17991726 -0.29886845 0.015042172 -0.14498743
0.064230464 0.057518996 -0.04971775 0.048828594 0.0013546286 -0.222942 -0.22947319 -0.077715665
-0.065335765 0.10034099 0.030761296 0.11568579 -0.14533706 0.121178724 0.06734863 -0.004375145
0.11308043 0.29809287 0.20933786 0.110738784 0.12373921 0.29623377 -0.045719136 0.22792496
-0.07944486 0.1484702 -0.08290421 0.020860346 -0.06814876 -0.047089323 0.047967978 0.12572712
0.117808096 0.0035101692 -0.18951006 0.09592385 0.1257274 -0.2045757 -0.0067016566 0.093658485
0.070485815 -0.0010933685 0.059077956 0.034255143 -0.09485465 0.11649608 -0.14082079 -0.05777602
0.13156775 0.0812936 -0.16868861 0.03623348 0.09774262 0.2763824 -0.2515618 -0.086603455
0.051236343 -0.11394185 -0.03416781 0.034435567 -0.033747263 0.10216837 0.04428003 0.1033615
-0.09731145 0.075056516 -0.051088274 -0.011815007 0.07248042 0.14817722 0.15018018 -0.012047852
0.11025971 -0.19207387 -0.07242974 0.29170918 -0.097469725 -0.34581295 0.02774034 -0.035434216
0.2092045 0.11590992 -0.17912404 0.07546003 -0.047987208 -0.09433026 0.13816363 -0.026197776
0.25744218 0.048670746 -0.07501201 -0.13368437 0.07704398 0.23684189 0.069347024 0.16037023
-0.027524266 -0.100874886 0.015640896 0.13604374 0.08705452 0.027748331 0.09569314 -0.20568183
0.2565417 -0.38817954 0.099253505 0.021193918 -0.10056242 -0.10461677 -0.015971975 0.123243704
-0.074614644 -0.039354563 -0.09343054 0.055527624 0.016139103 -0.04037974 -0.16571754 0.034121692
0.1394145 -0.14038804 0.05996924 -0.097314924 -0.1728992 -0.23279262 0.01897025 -0.057113446
-0.093310416 0.115324564 0.074634485 0.10120926 0.19929025 -0.098674975 0.0051130983 -0.062383857
0.020346986 -0.18435134 -0.08478695 0.2376006 -0.11772956 0.061180357 0.023169149 -0.0733711
0.04669391 -0.063045815 0.09323217 0.01873611 -0.15054025 0.05840304 0.10698549 0.07543435
0.06455312 -0.026456736 -0.048918497 -0.0051114922 0.26217386 0.06894192 0.08785626 -0.042193137
0.00036165921 -0.19344969 0.12616815 0.029283298 0.20162776 -0.050892092 -0.021909794 -0.060914833
-0.18369102 -0.0642289 -0.006157713 -0.030050507 0.08798695 -0.20464665 0.046865698 -0.020713532
0.028898058 0.13339421 0.12696426 0.35697052 0.11413225 0.041603405 0.13843712 -0.022400793
-0.1572348 0.15646753 -0.1458222 -0.0052279667 0.06021136 -0.08264612 -0.03235254 -0.12594216

network_body._body_endoder.seq_layers.2.bias f4 [256]
00000000: fb30 ecbc cf0d ab39 f6cd 82bc 2e80 013a
00000010: 5e83 87bd cf76 5cbc cc7e c1bd 13aa 8cbb
00000020: 3920 97bd a475 62bc 2f85 64bd 7ec5 db3c
00000030: b5cd 4cbd 8758 5bbd 05d4 0fbb b3af 25bd
00000040: 5833 dd3c 8d55 93bd c16e 14be d5ef 37bd
00000050: acab 8fbd e475 9fbd 34cf 1aba d082 8fbc
00000060: f6da adbc 819c 8abc b1aa f2bc 63a6 8c3c
00000070: 5f20 33bd c8ed 413d 4efa e2bc eb8a 893b
00000080: 660f 593b d59a a0bd 6d9a 58bd e5c8 ecbd
00000090: cffb 70bd 70ad 163d 02fa 5bbd 0059 02bd
000000a0: 297c b9bd b117 43bd f487 ee38 f4af 9dbd
000000b0: edec 6abd ea5e 9fbc 0bfb aabd 6f44 303d
000000c0: 309d 333c 2a45 87bd fcaa a2bc e53b ffbc
000000d0: 00d9 453c 35d4 433d 4c4c 00be 1588 3a3d
000000e0: 0151 1cbd 1d84 2bbe d3cc 65bd e41d 45bc
000000f0: 5aaa 3abe 6b25 24bd 74ec 493c 5146 53bd
00000100: e12e 9abd 653e e7bd 47a1 0bbd 9d5a cbbb
00000110: 6601 4cbd 5eda 81bb 3b93 123b a4ed 1ebd
00000120: 33e6 41bd 1035 c93c 39a4 b1bc 2ab2 66bc
00000130: b9d3 ab3c ea0b 6bbd 6bf0 1abc 02e1 65bd
00000140: 3fae 8cbd 90b2 1cbd 6305 0cbd afbc f33c
00000150: dbca 36bd 5dd7 1d3b a22f 00bd 6cb2 d3bc
00000160: 8794 66bd 4cc8 74bd 6090 7bbc 5be2 af3a
00000170: cd98 ddbc da50 183c a5f4 28be 8919 9dbc
00000180: 5abf 70bd 1dce 5cbc 27ed 14bb e63a 13bc
00000190: 64f6 13bd d265 57bd 75d8 a6bc 9829 643c
000001a0: 37d0 d1bc 8a45 963c 3259 00be b792 92bc
000001b0: 9d92 6ebd ba7d 73bc ab12 9bbd 56ba 4ebd
000001c0: ce1d 9f3c 828c e93c 6040 e6bd e98c e4bd
000001d0: 6a23 f63c 6231 903d 4f68 d8bc 3a1d c5bc
000001e0: eaaf d3bd 0443 3fbe 27d8 f43c 6324 88bd
000001f0: 03c2 b5bd 3b55 c3bc a86f 17bc 5d19 67bc
00000200: fe16 79bd 4f2e 0c3c c42c 3abd 5787 0abd
00000210: 5367 8ebd 06a5 cabd cccd 54bd e900 623b
00000220: bca4 a7bd 4552 5fbc d289 f0bd 10b0 70ba
00000230: 5df8 413c f6c6 3fbc fb74 43be 10bf 59bd
00000240: 2192 e3bd 8f2b ffba 82df 42bc 8455 f9bc
00000250: 2a2d b3bd 7002 17be 4069 c9bc 804a 913c
00000260: 55e5 bcbc d888 91bd 73a5 11be 428f 24be
00000270: 2695 b5bc 517f fdbd b0af 2b3c 34e6 84bc
00000280: 1f60 c5bc 8e8a 13bd 7658 39bd faf5 993c
00000290: 1d75 b4bd 0257 7f3b 6fc5 aebc bb7e 2bbe
000002a0: 3fcb 99bc 5cf3 00bd 8dd1 89bd 9963 c93c
000002b0: eb43 053c 0a7b 2dbc 0bbc eebc 8fb6 90bd
000002c0: f22a 84bd 1f95 1abd 63a8 8fbd fe11 ddbd
000002d0: cbdd 16bd dc83 6fbd 1e54 acbd 98af 623b
000002e0: 5d7e 46be a48c 513c 707d d3bc b95f 8dbc
000002f0: cf1a b3bd 8e0f ddbd 43da 40bd 6340 89bd
00000300: e8db 92bb 5394 83bc ba0f 6bbd 9ec8 ccbd
00000310: 54cd 3abd 83db 5ebd 991f ffb9 8a73 c8bd
00000320: 1443 39be 77c5 7339 fbc7 22bc e45f 00bd
00000330: 76cc b33c ff78 11bd b461 963d 2b30 f1bb
00000340: 5ea0 9dbd b5b8 2dbc 5038 683c ca3b 1fbc
00000350: ec87 afbc e65b 73bd 012c 2ebe 83ed 98bd
00000360: 88c6 213c abf2 66bd b2d8 a53b b37a afbd
00000370: 5091 90bd c07e 4ebd a79e a4bb dc3e 2ebc
00000380: 15b7 d03c 2bd1 d3bc 988d bbbd f55a 56bd
00000390: dd68 543c 4568 d03a afbc 9e3b a3aa be3c
000003a0: b8ac 96bd 7ee7 0abd 6484 41bd ab13 1cbe
000003b0: ba03 1cbc 49ea c4bd 894f 9939 e13d 45bd
000003c0: a42f 8abd 3ee2 be3b 4ac5 22bd f212 cb3c
000003d0: e2c5 c4bc cd96 843c eeed 15bc ad68 adbd
000003e0: 9fce 20be f872 3bbd 15cf 03bd 02f1 3abd
000003f0: e6ee a8bc 82d9 14be ab69 0f3c 6465 90bd
-0.02883195 0.0003262595 -0.01596735 0.000494006 -0.06616853 -0.013456061 -0.09448013 -0.0042927354
-0.07379193 -0.013821993 -0.055791076 0.02682757 -0.050000865 -0.053551223 -0.0021946442 -0.040450763
0.027002022 -0.07194052 -0.14495374 -0.044906456 -0.07015166 -0.07786158 -0.00059055095 -0.017518431
-0.021222573 -0.01692033 -0.029622408 0.017169183 -0.043732043 0.047345906 -0.027707245 0.0041974685
0.003312075 -0.07842032 -0.052881647 -0.11561755 -0.058833893 0.036786497 -0.053705223 -0.03182316
-0.09056885 -0.047630016 0.000113740476 -0.07699576 -0.057354856 -0.019454438 -0.08348664 0.043034013
0.010962769 -0.06604989 -0.019856922 -0.03115649 0.012075663 0.0478098 -0.12529105 0.045539934
-0.03816319 -0.16749616 -0.05610354 -0.012031052 -0.18229046 -0.040074747 0.012324441 -0.05158073
-0.07528473 -0.11291198 -0.034089353 -0.0062058703 -0.04980602 -0.003962799 0.0022365588 -0.03880085
-0.047338676 0.024561435 -0.021684753 -0.014080564 0.02097498 -0.05738441 -0.009456734 -0.056122787
-0.06869172 -0.038256228 -0.034184825 0.029753057 -0.04462705 0.0024084665 -0.031295426 -0.025841914
-0.05629399 -0.05976133 -0.015354246 0.00134189 -0.0270504 0.00929662 -0.16499574 -0.019177215
-0.058776237 -0.013476876 -0.0022724362 -0.00898621 -0.03612365 -0.052587338 -0.020366887 0.013925932
-0.02561198 0.018343706 -0.12534025 -0.017892225 -0.05824529 -0.0148615185 -0.0757192 -0.050470673
0.019423392 0.028509382 -0.11242747 -0.11159689 0.030046184 0.07040669 -0.026416926 -0.024061788
-0.10336287 -0.18677908 0.029888226 -0.06647565 -0.088748954 -0.023844352 -0.0092429295 -0.014105168
-0.060812943 0.008555963 -0.045452848 -0.033820476 -0.06953301 -0.09894757 -0.051954076 0.0034485406
-0.081857175 -0.013630454 -0.11745037 -0.0009181509 0.011839 -0.011705151 -0.19087593 -0.053160727
-0.11111856 -0.0019467938 -0.011894109 -0.030436285 -0.08748849 -0.14747024 -0.02458632 0.01773572
-0.023058573 -0.07106179 -0.1422327 -0.16070274 -0.022165846 -0.12377799 0.010478899 -0.01622305
-0.024093686 -0.036020808 -0.04525038 0.018794049 -0.088114 0.0038961773 -0.021334378 -0.16747563
-0.018773673 -0.031482086 -0.06729422 0.024583625 0.008133869 -0.010588417 -0.0291424 -0.0706607
-0.06453504 -0.03773987 -0.07014539 -0.10794447 -0.036832612 -0.05847536 -0.084144816 0.0034589525
-0.19384141 0.012789879 -0.02581665 -0.017257558 -0.08745348 -0.107939824 -0.04708315 -0.06701734
-0.0044817813 -0.016061937 -0.057388045 -0.09999202 -0.045605972 -0.05440856 -0.00048660932 -0.09787662
-0.18091995 0.00023247847 -0.009935374 -0.03134145 0.02194808 -0.03551578 0.07342854 -0.0073604784
-0.07696603 -0.01060312 0.014173582 -0.009718845 -0.021427117 -0.059413813 -0.17008974 -0.07467177
0.009873994 -0.05638377 0.0050612325 -0.08568325 -0.07058966 -0.050413847 -0.0050237956 -0.010635104
0.025477925 -0.025856575 -0.09157866 -0.052332837 0.0129644545 0.0015900215 0.00484427 0.023274725
-0.07357162 -0.033912174 -0.0472454 -0.15241878 -0.009522373 -0.09614999 0.00029241692 -0.048154715
-0.06747368 0.00582531 -0.03973893 0.024789307 -0.02402014 0.016185189 -0.009150965 -0.08467231
-0.1570382 -0.04576394 -0.03217991 -0.04564 -0.020621728 -0.14536098 0.008753221 -0.07050589

action_model._discrete_distribution.branches.0.weight f4 [3, 256]
00000000: 5872 073e 856e b83c 3df9 053d a19a ecbc
00000010: 3380 833b cf82 033d 3b7a d83a b8fa 523d
00000020: 070a 42bd a76a 8b3d 33f4 653d 9eb4 0cbd
00000030: 6c8c a73c f44c c9bd 263d 553d 2ed1 e63a
00000040: f40e 90bd 6106 babc e613 95bc 47a3 53bd
00000050: 347f 52bd b166 aebc e40e e8bd 50be 6b3c
00000060: b9b4 ac3c 8dd7 8f3d bf08 883d 9c42 4a3c
00000070: 6cb4 6f3d 9115 2fbd ec39 963d 0d71 c43a
00000080: ba24 b4bb 782c 26bb 11e2 d83c 3c80 3a3c
00000090: 4518 18bd ef8a 2e3c 16d4 7fbc 93c1 953d
000000a0: 722e 223d e79d d3bc f725 28be f934 86bb
000000b0: b241 ecbb e54b c7bb 1351 663d 4f89 633c
000000c0: 26e3 4bba 8a0a c33a 93a5 a9bc 9940 97bd
000000d0: 44cd 54bd ab7b 7fbd 610b 24bd 9fe4 833d
000000e0: b838 7c3a c2f7 42bd 9e5e a93d f575 853c
000000f0: e060 92bc 8f8c d5b9 48b4 b03d 8bfd 88bc
00000100: 23f4 283d 0fba b13b 9cef a53d a193 813d
00000110: 1ee5 7dbd 470c 7abd 3d2c 00bb 7ddd be3a
00000120: 300c 063b a648 c83c abf5 7b3d 2627 99bc
00000130: 1cfb df3c c1c5 45bd aed6 40bd d9f7 023c
00000140: 1709 743d 87fc c43c 6491 12bc 8dea 2cbc
00000150: 4c58 89bd c06a 8fbd 09db 9c3c 4c61 c1bd
00000160: 657c 37bd da41 1ebd a647 87bd 568b 2a3d
00000170: 08b4 3c3c 6227 273d 2586 7e3a 020d 59bd
00000180: 5c29 dabb ae2d 22bd dd7c f3bd 41a0 2cbc
00000190: e044 40bb 0e83 1f3b 5821 c83c d88e c33c
000001a0: 02d9 ca3c 2980 71bb f3cd 66bb a494 13bc
000001b0: aa2b b6bc 1c10 173d 3952 943d aa02 90bb
000001c0: f408 0f3d 9f79 3f3d 0c05 75bd d823 aa3c
000001d0: 98a2 763b 7e68 023d 311f fc3c b9d2 413c
000001e0: 2f8e 9ebb 4e41 a6bb e439 6d3d 0787 29bd
000001f0: eac6 9a3c 4abd dc3c 5473 cf3d f3e3 653d
00000200: 14ce 903d 69fa 20bd f976 1a3d 093d 5cbc
00000210: b44a 9ebc 2d05 bf3d 4ea7 13bd 9486 b03c
00000220: d86c 613d d6f9 62bd 695f 96bb 60af 03be
00000230: aa39 8fbc cd14 a1bb ee94 13bc c303 08bd
00000240: 967e 74bd 9ddd c43c c768 863d 2b30 96bd
00000250: 221f 6cbd 1f3d 413c 2661 643d 23eb 593d
00000260: 6318 323c b20f 05bd 88d7 35bd 2077 f73b
00000270: f0a6 013d 404c 973d 47f8 54bd 98ac 4c3d
00000280: d95d ddbb 62b7 a73c 91ec 2d3d 98fe c4bc
00000290: 4d42 64bd b809 a03c d909 0dbd 1040 023d
000002a0: 81b6 dcbb 656f 673c d8f8 8abc 7e3a edbc
000002b0: 83ec 85ba 988e d7bd 5648 213d a7b9 98bd
000002c0: 491c 5fbc 5b07 45bd 949c 8e3c 5b8c 4fbd
000002d0: 9f10 473d 5c72 0e3e ace4 c43d 9fae 023c
000002e0: 93f7 63bd b606 febd dc6c fa3b 00cf 9d3c
000002f0: 718e b4bd 894c a9bd 8c20 9f3d fb59 cc3c
00000300: 9bd9 67bd 246a 7c3a bb5e ffbc b03f 90bb
00000310: e72a f1bd 7e10 2d3c bfa5 a23c 46a0 e33c
00000320: 2796 a53c c350 d0bd 3670 f33d 5e6b 25bd
00000330: 01bd 1abd 6e97 1c3d b9ef 283c a432 01bd
00000340: bb58 09bd d4e4 d9bb 5969 333d c437 2cbd
00000350: 505e 3ebd 85a3 92bd f8b1 323b 07c2 443d
00000360: 635c 2b3d 7edd 8e3c 410b 043e 196a 483c
00000370: 8255 033d 9c5d e93d 2c78 8b3d d251 f93b
00000380: b0d1 bd3d e38d 293d ec08 943c 91f2 ccbd
00000390: 7ab2 38bd 0030 0a3c 4e09 4c3d e21e d33d
000003a0: 1b2f 143c c71f a0bd 6f73 d93a 1e0b fdbb
000003b0: 9e03 91bc 7e00 953d d878 65bd ba61 533d
000003c0: 2e1d b53c 4152 06bd 5084 53bb 697e 3ebd
000003d0: fd7d d0bd 9e65 a33c 3eb9 a53d f6f6 16bd
000003e0: d0b5 a3bc 5a2e 653d c265 4c3d 2fbf 0dbc
000003f0: f66c 37bc b952 e9bc 5f7b f6bc 9e3f a4bd
0.13227212 0.022513637 0.032708395 -0.028882327 0.0040130853 0.03210717 0.001651592 0.051508635
-0.047372844 0.06807452 0.05614109 -0.034351937 0.0204527 -0.09829131 0.05206027 0.0017609948
-0.07034102 -0.02270812 -0.018197965 -0.051669385 -0.05139084 -0.021289201 -0.11330965 0.014388636
0.021082269 0.07023535 0.06642293 0.0123449825 0.058521673 -0.042745177 0.073352665 0.0014987305
-0.005497542 -0.0025356095 0.026474984 0.0113831125 -0.03713252 0.010653242 -0.01561453 0.07312312
0.039595075 -0.02583213 -0.16420732 -0.0040956703 -0.00720998 -0.0060820454 0.056229662 0.013887717
-0.0007777683 0.001488046 -0.020708835 -0.07385368 -0.05195357 -0.0623738 -0.040049914 0.064400904
0.0009621489 -0.04759956 0.0827 0.016291598 -0.01786846 -0.0004073125 0.08628136 -0.016722461
0.041248452 0.0054237912 0.081023425 0.06326986 -0.06198608 -0.061046865 -0.0019557618 0.0014561858
0.0020454042 0.024448704 0.061513584 -0.018695425 0.027341418 -0.048284296 -0.047079735 0.007993662
0.05957898 0.024046196 -0.008945797 -0.010553968 -0.067062944 -0.07002783 0.019147413 -0.09442386
-0.044796366 -0.03863702 -0.06605463 0.041636787 0.011517532 0.040809043 0.000970932 -0.05299092
-0.0066577625 -0.039594345 -0.1188905 -0.010536254 -0.0029337928 0.002433959 0.024429962 0.023871824
0.02476168 -0.003685007 -0.003521797 -0.009007607 -0.022237618 0.036880597 0.07242245 -0.004394849
0.034920648 0.046746846 -0.059819266 0.020769045 0.0037633535 0.031837933 0.030776592 0.011830025
-0.004838727 -0.005073703 0.057916537 -0.041388538 0.018893678 0.026945729 0.10129419 0.056125592
0.07070556 -0.03930131 0.037711117 -0.013442286 -0.01932273 0.09327159 -0.036048226 0.021548547
0.055035442 -0.055414043 -0.0045890105 -0.12859869 -0.017483551 -0.0049158097 -0.009007676 -0.033206712
-0.059691034 0.024031455 0.065629534 -0.07333406 -0.057646878 0.011794358 0.05575671 0.05320276
0.010870072 -0.03248567 -0.044395 0.0075520426 0.031653345 0.073875904 -0.05199459 0.049969286
-0.0067555723 0.020473186 0.042461935 -0.024047181 -0.05572729 0.019535884 -0.03443322 0.031799376
-0.0067356233 0.01412568 -0.016964361 -0.028958555 -0.0010217581 -0.105252445 0.039375626 -0.074572854
-0.013617584 -0.048102718 0.017408647 -0.050670963 0.048599835 0.13910812 0.09613928 0.007976203
-0.055656027 -0.12403624 0.0076423716 0.019263744 -0.08816231 -0.08266551 0.0776988 0.02494525
-0.05660401 0.00096288533 -0.0311731 -0.0044021234 -0.11775761 0.010563014 0.019854425 0.027786385
0.0202132 -0.10171654 0.11886637 -0.040385596 -0.037777904 0.038230352 0.010311061 -0.031542435
-0.033531886 -0.006649593 0.04380164 -0.04204537 -0.046476662 -0.07160095 0.0027266722 0.0480366
0.041836154 0.0174396 0.12894918 0.012232327 0.03206397 0.11394808 0.0681003 0.0076086307
0.0926851 0.04139508 0.01807066 -0.10007203 -0.045092084 0.008434296 0.04981356 0.10308625
0.009044434 -0.07818561 0.0016590188 -0.0077222725 -0.01770192 0.072754845 -0.05602345 0.05160687
0.02210864 -0.032793287 -0.003227491 -0.046507273 -0.1018028 0.019945916 0.08091973 -0.036856614
-0.019984156 0.055952407 0.04990173 -0.008651539 -0.011195412 -0.028481828 -0.030088125 -0.080199465

action_model._discrete_distribution.branches.0.bias f4 [3]
00000000: 988c cc3b 32a3 cc3c 3648 95bc
0.006242346 0.024980161 -0.01822291

action_model._discrete_distribution.branches.1.weight f4 [3, 256]
00000000: c7b2 c63d e0c3 0abd 95a9 c03c 4163 c0bc
00000010: 67d6 d43c 4128 afbd 2df2 4a3d e789 353b
00000020: a89f 213d 2611 b43c c8e8 5abd 7f32 a0bc
00000030: 5e50 9d3d db80 eabd 30ea 72bd 8593 fabc
00000040: da88 2fbe dc80 82bd 2aa0 cc3a 3de4 c5bd
00000050: 3874 12bd 9767 52bc baf0 19be 469f 063c
00000060: 3cdd 443c dc26 f9bb a225 5abd 43ff edbc
00000070: a1cd cebc dd23 4ebe ca7b b43d 7a05 f8bd
00000080: 3fa0 d1bc e6f3 c5bc 37ec 8a3c b520 553d
00000090: b791 0a3d da58 8fbc bb2a bb3c f908 74bd
000000a0: 478c d63d 0ec4 70bd b1b1 78bd ae3f debb
000000b0: 301b b3bd f6c9 ec3b f550 8a3c 9bd3 a5bd
000000c0: 6fdf 193d 2589 84ba d709 85bc 51e2 cfbd
000000d0: 251e 39be 72d9 3ebe 2f55 91bd 52ba 36bd
000000e0: b83c 2ebb cb19 513d d14e eebc 34f4 92bd
000000f0: d996 0a3d b51c 37bd 92b5 d43c aa68 9d3d
00000100: 2c01 ecbc b35b 593d 23b5 c23c 8fca 603d
00000110: b324 593d d959 a83b ef5c 033d 5cd5 0abc
00000120: 05b6 82bc 6e99 e4bc bb71 11bd 3b47 893b
00000130: 58db 93bd 2497 aabc 83b9 a93c c64b 3ebd
00000140: d334 3c3d 255c 86bd 0025 85bd 0678 523d
00000150: bc85 b1bd 1b5c 553c b740 a63c ba09 87bd
00000160: dc29 cdbc e34d 933c 3002 d23c 9572 813c
00000170: bdd6 c53c 2217 e8b9 ddb6 cf3c d4f8 d4bd
00000180: 710b b1bd 56c1 683d e381 dabd 9e07 90bc
00000190: 9a70 a13d c3c7 c63c 3184 8f3a 379a 7ebd
000001a0: 5206 03be 6548 06bd 7432 be3c e110 dbbc
000001b0: 1368 abbd 5eb6 a93b b456 f9bc 87b6 afbc
000001c0: 2d63 183d 1ffe ad3b c071 c03d 36d6 5ebc
000001d0: b487 2fbd 295a 8ebd 8d9b c83c dfb2 fa3c
000001e0: cde9 863d 2fe7 02bd a2c8 b63d 6fa4 663c
000001f0: c525 8a3d 0c5d a3bd cde5 c9bb 19f9 a43b
00000200: f4c4 96b9 0fe1 c5bb 1f2c b33d 9b40 5d3d
00000210: 7d94 573d 4121 773c 4aac e1bc c01a 04be
00000220: 0f80 f33c ebf5 7c3d 429e e73c dba6 09be
00000230: 6063 d7bc 0b03 323d b339 cf3d dbb8 8abd
00000240: bf1a ea3c 3089 9bbc e3bd 69bb e881 47bd
00000250: eaf0 e13d c9c5 99bc 1586 d63c 076c 76bd
00000260: 2d55 69bd 89ca 13be 8a48 373d 54b6 353d
00000270: 93f7 c43d 1862 31bc dfd4 863d f495 eabd
00000280: 0ffe 59bd 09dd 41bc 50bc 443c 7038 063c
00000290: eab2 6f3c 3ec2 033b fe4d cb3b 39b5 a0ba
000002a0: 33bf 8cbd 2395 e6bb 7d78 3ebd 9abc 5f3c
000002b0: 1fce 77bd 2006 d7bd 59b2 e8bc 02b7 df3c
000002c0: b41e 913c b79f 81bd c0d5 1ebd 2519 383d
000002d0: d774 cb3c 5f01 86bc aac1 27bd 1628 9bbc
000002e0: 2374 503d 81e4 debd ae23 98bd a8a1 9abd
000002f0: b8e5 c43b b578 553d 0329 2b3d f496 42bd
00000300: c873 413d bb9f 303d 7494 2c3d f92c 683d
00000310: 7438 003c 91b5 24bd 602a a33d 9baf d93b
00000320: 3365 3d3d 69d8 e13d be46 0b3d f3f5 913d
00000330: 7b39 be3c f326 a53d 0067 43bd 150d e5bd
00000340: b212 bdbc 92af 83bd 3430 8bbd 59d7 f43b
00000350: 79f4 3cbd e95a 143d 09fd 3d3d e96e ee3a
00000360: ac6b 0f3c bc58 b63c d56e d1bd bf85 683c
00000370: 6879 53bd 6f79 04bd 4e37 1ebd 3122 8ebd
00000380: 4dcb a0bd b9b5 c3bd 89a4 a33d 2fbc bd3d
00000390: 2d8f d1bd 11f8 fe3b ec85 63bd 84df e6bc
000003a0: f238 6b3d e1f4 f1bd 6500 18bd 07b2 f2bc
000003b0: 83b8 5e3c 502e 2b3d 888a a3bd 48c8 9ebc
000003c0: 91d8 d53d 3ac2 853d 74ba c5bd e420 a63c
000003d0: 0579 fbbd ab2c 7d3d e41b 0d3d a7c2 f23c
000003e0: 2787 153d a155 cabc e2be 993c b1b7 563d
000003f0: 8cfa 9cbd f7e5 943d 56d0 f1bc 5e41 a93d
0.09702068 -0.033878207 0.023518363 -0.023484828 0.025981141 -0.085526 0.049547363 0.0027700604
0.0394589 0.021980833 -0.053444654 -0.019555328 0.076813444 -0.114503585 -0.05930537 -0.03058792
-0.17142048 -0.06372234 0.0015611697 -0.096626736 -0.035755366 -0.012842081 -0.15033236 0.008216685
0.012015637 -0.0076035094 -0.053258546 -0.029052382 -0.025244536 -0.20130868 0.088126734 -0.121104196
-0.025589107 -0.024164151 0.01695834 0.052033145 0.03383037 -0.017498422 0.022847524 -0.05957887
0.104759745 -0.058780722 -0.060716335 -0.0067824936 -0.0874542 0.007226224 0.016884306 -0.08097001
0.0375666 -0.0010111673 -0.016240044 -0.10150588 -0.18077905 -0.18637636 -0.070963256 -0.044611283
-0.0026586484 0.05104999 -0.029090317 -0.07175484 0.033835266 -0.04470511 0.025965486 0.07685979
-0.028809153 0.053065967 0.023768013 0.054880675 0.053013515 0.005137664 0.03207105 -0.00847372
-0.015955934 -0.027905192 -0.035508852 0.0041893995 -0.07219571 -0.020824023 0.020718342 -0.046458982
0.045948815 -0.06560544 -0.06501198 0.051383995 -0.08668086 0.013022448 0.02029453 -0.06593652
-0.025044374 0.017981475 0.025635809 0.015801707 0.024150247 -0.00044267724 0.02535575 -0.10399023
-0.086447604 0.056825005 -0.10669305 -0.017581757 0.07882805 0.024265176 0.001094943 -0.06215879
-0.1279538 -0.032783885 0.023217417 -0.026741447 -0.0836946 0.0051792106 -0.030436851 -0.02144934
0.037203956 0.0053098346 0.09396696 -0.013600877 -0.042854026 -0.069507904 0.024488235 0.03060287
0.06587563 -0.031958755 0.089249864 0.01407729 0.06745485 -0.07976732 -0.0061614276 0.0050345776
-0.0002875697 -0.006038792 0.0874865 0.05401669 0.052631844 0.015083612 -0.027547974 -0.1290083
0.029724149 0.061757963 0.028273705 -0.13442557 -0.026292503 0.043459933 0.10118427 -0.0677354
0.028577207 -0.018986315 -0.003566616 -0.048707873 0.11032279 -0.01877107 0.026186982 -0.060161617
-0.056965996 -0.1443273 0.044746913 0.044363335 0.096175335 -0.01082661 0.06583571 -0.114543825
-0.053220805 -0.011832484 0.012007788 0.008192167 0.014630059 0.002010479 0.0062043658 -0.001226104
-0.06872406 -0.0070368215 -0.046501625 0.013655806 -0.060499307 -0.10499215 -0.028405355 0.027308945
0.017714836 -0.06329291 -0.038778067 0.044945855 0.024835987 -0.016358076 -0.040956177 -0.018940013
0.050892007 -0.108834274 -0.0742868 -0.07550365 0.00600883 0.05211707 0.04178716 -0.04750724
0.04722956 0.04312108 0.042133763 0.056683514 0.0078259595 -0.040212218 0.07967067 0.0066432483
0.04623909 0.11027605 0.034003012 0.07126989 0.023220768 0.080640696 -0.04770565 -0.11184136
-0.023080204 -0.06429972 -0.067963034 0.0074719605 -0.046131585 0.03621951 0.04638389 0.0018191013
0.008753698 0.022259109 -0.10226218 0.014192044 -0.051629454 -0.03234237 -0.03862696 -0.06940115
-0.078512765 -0.09556145 0.07990367 0.09264409 -0.10232387 0.0077810367 -0.05554764 -0.028182752
0.057427354 -0.11814285 -0.03710975 -0.029625906 0.013593796 0.041792214 -0.07985407 -0.01938261
0.104416974 0.065311864 -0.09654704 0.020279355 -0.12278942 0.061810177 0.034450427 0.029633833
0.036505844 -0.024699034 0.018767778 0.052421276 -0.076649755 0.07270425 -0.029518288 0.08264421

action_model._discrete_distribution.branches.1.bias f4 [3]
00000000: 81d3 dd3c 357b ec3b 3526 debc
0.027078392 0.007216836 -0.027117828

action_model._discrete_distribution.branches.2.weight f4 [2, 256]
00000000: 9046 47bd f4fa c63b ec5d 09bd bc33 edbc
00000010: 9173 d3bc 14ad f53c 6ee2 743c 26db 8c3d
00000020: ee08 863d e572 b33c fa75 7dbc 9a45 27bd
00000030: 3daa 8dbc 2074 65bd 7100 31bd 0875 49bd
00000040: b81f 4dbd 965e 8c3c 885f 613d c753 f13c
00000050: 4e31 4c3d 5a6a eb3b a4de 6bbd ca62 3dbd
00000060: c54f 4fbb d038 d53c 518d 363d e3d7 32bc
00000070: 55a9 94bd 57d9 7ebd 07d5 4fbd 375e 60bd
00000080: 832a 483c f3ed 91bd 4042 c03d c8e4 09bc
00000090: 7cc6 53bc bbed 283c 9787 1ebc dc45 0f3e
000000a0: 6979 86bc 42fd e23b 1671 10be 3b8f c53c
000000b0: 520e 3fba 3dd0 95bc cdd4 c03d c56d f5bd
000000c0: 9947 e03c 694f f13c 5196 273d 7ee9 2fbd
000000d0: fb12 25bd 5ca5 80bd e8ba 163d e2cb 22bd
000000e0: ba0e 9fbc 7a78 b83c a1d7 a53b d190 fb3c
000000f0: b253 96bb b625 12bd b264 92bd 74bb 7cbc
00000100: 4525 83bc 79e6 3c3d fc17 37bc f927 833d
00000110: f0dc 773b a7e6 94bd df46 35bd 48c3 3bbd
00000120: a5f1 8b3d fcd0 88bc 8270 ebbb 159b 3fbb
00000130: a8a3 c0bd 621f 8bbc a4a0 77bd 3eb0 a23d
00000140: 8cda 573d 5824 963d 50c6 11bd 3645 f1bd
00000150: 7a6c 3e3d e849 0abc af78 103e 292c 80bd
00000160: a4aa 213d 80f9 db3d 66b3 16bd 5eaf 993c
00000170: 2712 6cbb 411f f93b 926a 13b8 5bf3 26bd
00000180: 3eeb d4bc 9ba3 8dbc 2c80 32bd c669 7ebc
00000190: fbd9 82bd 78e9 16bd 63cf 3e3d 52e9 84bd
000001a0: 6f59 443d e01d 21bd c8e5 113d ca29 f73c
000001b0: b5ff 533d bb5c a0bb 9378 e9bc 70f3 4c3c
000001c0: c9ca ca3b 160c fdbc 0341 90bb 8ffc 513d
000001d0: 4f4f 11bc 34e6 103c 6c25 99b8 0504 3fbc
000001e0: bb3f bd3c 1411 e43b 6b36 973c f6dd 01bd
000001f0: 069c 393d 1392 96bc 472d 4f3c c5fa 4e3d
00000200: ea07 833d a75d bfbc a47a 883c 6305 89bc
00000210: 095e 86bd 019e 013d 495e 06bd 83f1 a93c
00000220: b703 cbbb a549 11bd ff65 973c fed2 c3bd
00000230: f34a 303d b78c 13bd 85c4 693c 7440 89bc
00000240: 300f ab3b 42c4 6a3b 63b8 783d 9cac 52bd
00000250: 3fcb 7a3a 4524 1b3d 46ed 013d 834e 13bb
00000260: 013d 84bb 6094 aa3c 7330 07bb 3e88 533c
00000270: 5983 dd3c 683c 053d 3282 f2bc 3c40 203a
00000280: 49aa 5abd 8b2e 34bc e80d 743c e1f5 66bd
00000290: 5ce1 efbb 7f5a 8dbd e144 713c 43ec fa3c
000002a0: 7d16 95bc a5a6 82bd 8680 bd3c 70f2 f1bc
000002b0: 3748 38bd 087b e2bd f6d9 303d 992b c9bb
000002c0: 2800 5b3d 3d4d 2d3d 81a4 0bbc 4fcc 8f3c
000002d0: 8b31 b43d 464c b83d 4166 be3d 3ea4 883c
000002e0: 783f dc3c f2af 3cbe 4d6f 80bd 9551 363d
000002f0: 251e 1b3a 3fd1 adbc fb74 cb3d 462b 08bd
00000300: 9403 2bbd 4022 11ba 0370 5ebd 111b 443d
00000310: dede b2bd 31a6 0c3d 20a8 ef3c 7c22 00bc
00000320: 979d 8c3d a561 b9bc d8b8 e7bc c2d7 3abd
00000330: 26b3 9abd 77a4 ebba 60a0 94bd 0af8 19bd
00000340: 50b9 94bb 9ec5 04bc 83b9 10bc 045f 83bb
00000350: 0856 28bd 19f3 a73b bcea 433c 4dbb f63c
00000360: f47f 063d 9a88 3f3d 5043 babb d25a ab3c
00000370: 7303 97bd e369 803b c211 dcbc 4352 f8bc
00000380: 0f67 4cbd a52d d3ba 1e43 823d 3864 1b3d
00000390: 85cd 58bd 6d34 913c b162 8fbc f38e 703d
000003a0: 9668 093d 32ae 47bd 3383 debc c90e 6f3d
000003b0: 74b7 afbd 1bdf 913b 25ad 6ebc c5e7 e83d
000003c0: f5fd 583c 1cd0 ebbc eb82 633b 5dc7 7abd
000003d0: ba07 5abd 68ff 0fbd 7d4f 8bbd 41f7 973d
000003e0: 16ad 3fbc dc96 d7bc 91b9 48bc c379 2b3d
000003f0: fff2 593c 7073 0c3c f53d 96bc 543f dfbb
-0.048651278 0.0060723964 -0.033536837 -0.028955333 -0.025811942 0.029989757 0.014946563 0.06877737
0.06544672 0.021905372 -0.015470022 -0.04083786 -0.01729309 -0.05601895 -0.04321331 -0.049183875
-0.050079077 0.017134946 0.055022746 0.029458893 0.049851708 0.007184309 -0.057585374 -0.04623679
-0.003163324 0.026028067 0.044568364 -0.010915729 -0.0725886 -0.06221899 -0.050740268 -0.05477735
0.012217167 -0.07125463 0.09387636 -0.008416362 -0.01292574 0.010310586 -0.009675882 0.13991493
-0.016415315 0.0069271633 -0.14105639 0.02411615 -0.00072882057 -0.018287772 0.094155885 -0.119838275
0.02737789 0.029456811 0.040914837 -0.042947285 -0.040301304 -0.0628154 0.03679934 -0.03974522
-0.019416202 0.022518385 0.0050611054 0.030708702 -0.004587614 -0.035680495 -0.07148112 -0.015425552
-0.016008982 0.046118233 -0.011175152 0.064041086 0.0037820898 -0.07270556 -0.04425704 -0.04584053
0.068331994 -0.016701214 -0.007185043 -0.0029236723 -0.09406215 -0.016982738 -0.060455933 0.07943772
0.052698657 0.07331151 -0.035589516 -0.11780779 0.04649017 -0.008440472 0.14108537 -0.06258423
0.039469376 0.10740948 -0.03679218 0.01876038 -0.0036021562 0.0076026027 -3.5146782e-05 -0.040759426
-0.025991078 -0.017289927 -0.043579265 -0.015528148 -0.06389233 -0.036843747 0.046584498 -0.06489815
0.047936853 -0.03933513 0.035619527 0.030171294 0.051757533 -0.004893867 -0.028499877 0.012509212
0.0061887247 -0.030889552 -0.0044022813 0.05126625 -0.008869006 0.008843947 -7.302579e-05 -0.011658673
0.023101678 0.0069600437 0.018458566 -0.03170582 0.04531481 -0.0183802 0.012645072 0.05053212
0.06397994 -0.023360087 0.016660042 -0.016726201 -0.065609045 0.031644825 -0.03280476 0.020745045
-0.006195511 -0.035470624 0.018481253 -0.09561728 0.043040227 -0.036022868 0.014268045 -0.016754366
0.0052203164 0.0035822545 0.06072272 -0.051434144 0.0009567029 0.037876386 0.031720422 -0.0022477217
-0.0040355925 0.020822704 -0.0020628243 0.012910901 0.02704017 0.03252831 -0.029603098 0.00061130873
-0.053385053 -0.010997425 0.014895894 -0.056386832 -0.007320566 -0.069020264 0.014725895 0.030630236
-0.0181992 -0.06379441 0.023132574 -0.029534549 -0.044990744 -0.110586226 0.043176614 -0.0061392304
0.053466946 0.04230999 -0.0085231075 0.017553477 0.08798512 0.08998923 0.09296847 0.01667988
0.026885733 -0.18426493 -0.06271229 0.044511396 0.00059172726 -0.02121794 0.09934422 -0.033244394
-0.04175146 -0.00055364147 -0.05430604 0.047877375 -0.08733915 0.03433818 0.029254973 -0.007820722
0.068659954 -0.022629568 -0.028286383 -0.04561592 -0.07553701 -0.0017978091 -0.072571516 -0.037590064
-0.0045386925 -0.008103756 -0.008833292 -0.0040091295 -0.04109767 0.005125415 0.0119578205 0.030118609
0.03283687 0.046761133 -0.005684294 0.02091733 -0.07373705 0.0039188727 -0.026863936 -0.030312663
-0.04990297 -0.0016111626 0.06360458 0.037937373 -0.052930374 0.017725194 -0.017503114 0.058730077
0.033547007 -0.04875011 -0.02716217 0.05836371 -0.08579913 0.004451645 -0.014567648 0.113723315
0.013244142 -0.028785758 0.0034715484 -0.061225284 -0.053230025 -0.035155684 -0.068022706 0.07420207
-0.011698982 -0.026317053 -0.012251274 0.041864168 0.013302564 0.008572444 -0.01834009 -0.006812969

action_model._discrete_distribution.branches.2.bias f4 [2]
00000000: 5a92 7abd 4292 7a3d
-0.061174728 0.06117464
