ML_stuff/results/cw_08/FindCubeWife/FindCubeWife-499872.onnx (onnx, 352586 bytes, 11 tensors)

discrete_act_size_vector f4 [1, 3]
3.0 3.0 2.0
00000000: 0000 4040 0000 4040 0000 0040

network_body._body_endoder.seq_layers.0.weight f4 [256, 69]
-0.17440918 0.017114332 0.15243971 -0.05355862 -0.088721626 0.12103821 0.008960174 0.07287275
0.19374125 -0.035502434 0.23799822 0.037118737 0.20472758 -0.03453121 -0.15585552 0.13076994
-0.097482085 0.20259081 0.305546 -0.1027849 0.082677685 -0.12393076 0.07153677 -0.16883571
0.048471697 -0.17464001 0.2126946 0.01612743 -0.065328166 -0.11715639 0.083852135 -0.059735563
0.026222005 -0.09324339 -0.019428195 -0.13346814 -0.16414851 0.11077445 -0.18486041 -0.062487684
0.07026383 0.08369104 0.14961416 -0.084658094 0.06322217 -0.14620325 -0.03462054 -0.021564806
-0.07682621 -0.009257258 0.0007925243 0.03894279 -0.16871338 0.09891566 -0.20807037 -0.09290727
-0.07611523 0.10611331 0.055468015 -0.15963443 0.24459767 -0.024132246 0.117717996 -0.089836
0.049895216 -0.1837686 0.123014286 0.075625464 -0.023257181 0.17812614 -0.03988884 -0.08083021
-0.18878631 -0.16350122 0.16486168 0.008043167 -0.11413819 -0.07167158 -0.13001698 0.094429836
0.09968501 0.039258838 0.01943414 0.15461594 0.08963412 0.20335115 -0.017429784 -0.023240844
-0.20351039 0.047014974 0.03214026 -0.18572138 0.1537926 0.13568848 -0.10304359 0.018135764
-0.121782735 0.037780747 -0.07682608 -0.08130889 -0.2024636 0.07430007 0.0438654 0.16913365
0.013108701 -0.15116034 0.24429886 0.18325408 0.06501676 0.06532626 -0.28672543 0.033598132
-0.11536604 0.041971628 0.1439411 0.015717585 0.022130014 -0.21615988 -0.20486645 0.07276755
-0.12643674 0.08298069 -0.19427335 0.15289168 0.034356374 0.19153407 -0.023613919 0.18126224
-0.158922 -0.053331885 -0.08303352 -0.10388277 0.15418568 -0.03663025 -0.06679562 -0.03840346
-0.17925622 -0.072949186 0.04517501 0.29455686 0.074489 0.008802499 0.044781398 0.26793274
0.14732046 0.27814743 0.01694329 -0.06085842 0.18327649 -0.02628059 0.07469779 0.100074194
-0.050932005 0.14607091 0.017699305 0.08653174 0.043382574 -0.00802715 0.08456143 -0.08776776
0.05212915 -0.03501616 -0.12875338 0.114401765 -0.13826534 -0.25235987 -0.057691988 0.06504569
0.0710085 -0.15844263 0.08816201 0.09727752 -0.25542682 -0.09247995 -0.08916741 0.19786584
0.105674475 0.050126787 -0.058745123 0.18993993 -0.035956256 -0.08713868 -0.029336667 -0.11479847
-0.1712796 0.103470154 -0.046821132 0.05762286 0.07717627 -0.0684144 -0.15477635 0.014191396
-0.33191833 -0.12460301 -0.012320052 0.002218008 -0.027581608 -0.18703885 -0.0051084715 -0.1082235
-0.201018 -0.122691825 0.07153459 -0.03606672 0.18979308 -0.110244855 -0.13714574 0.18796554
0.004324344 -0.1723163 0.111673295 -0.02649349 -0.17799959 -0.062418386 -0.033850618 0.012529486
-0.14500523 -0.14977011 0.11493105 0.15864426 -0.18769263 -0.013002483 0.24795401 -0.10252977
-0.06073575 -0.012823696 -0.013536597 -0.1725249 0.17129707 -0.008424213 0.11003933 0.0005215386
-0.059724573 0.11503463 -0.2300044 -0.13411394 0.15387605 0.058775563 0.05972701 -0.28250617
-0.09291134 -0.14375557 0.039107695 0.095365115 0.0596913 0.23503259 -0.0055393022 -0.070567295
-0.016790204 0.1485317 0.0017815543 0.031396754 -0.2881524 -0.15666586 0.06196477 0.21580319
00000000: 5298 32be 5b33 8c3c 2819 1c3e 4960 5bbd
00000010: afb3 b5bd e2e2 f73d b2cd 123c 4f3e 953d
00000020: 1b64 463e 006b 11bd ceb5 733e d109 183d
00000030: 1ba4 513e 9970 0dbd 9798 1fbe 8ee8 053e
00000040: b0a4 c7bd f773 4f3e 8670 9c3e e480 d2bd
00000050: eb52 a93d 69cf fdbd df81 923d 45e3 2cbe
00000060: 428a 463d d5d4 32be 9dcc 593e ac1d 843c
00000070: c6ca 85bd b0ef efbd abba ab3d 47ad 74bd
00000080: 88cf d63c 64f6 bebd e127 9fbc dfab 08be
00000090: 8c16 28be b7dd e23d 0c4c 3dbe 16f3 7fbd
000000a0: 7ce6 8f3d 3566 ab3d 7434 193e 3961 adbd
000000b0: a07a 813d 4eb6 15be 44ce 0dbd ada8 b0bc
000000c0: 0f57 9dbd c1ab 17bc 68c1 4f3a 7a82 1f3d
000000d0: 33c3 2cbe 4b94 ca3d 6610 55be 2b46 bebd
000000e0: 4de2 9bbd ef51 d93d 6e32 633d 3577 23be
000000f0: d077 7a3e fdb0 c5bc 2216 f13d f0fb b7bd
00000100: ed5e 4c3d d62d 3cbe eaee fb3d 86e1 9a3d
00000110: d885 bebc b366 363e 7b62 23bd 4f8a a5bd
00000120: 3351 41be dd6c 27be 80d1 283e 7dc7 033c
00000130: 49c1 e9bd 8dc8 92bd 2c23 05be 6e64 c13d
00000140: a827 cc3d e0cd 203d 5834 9f3c a453 1e3e
00000150: 1892 b73d 493b 503e e8c8 8ebc 9563 bebc
00000160: 0765 50be c692 403d 81a5 033d bf2d 3ebe
00000170: cf7b 1d3e ecf1 0a3e 8508 d3bd 7491 943c
00000180: 3a69 f9bd fcbf 1a3d fe56 9dbd 4685 a6bd
00000190: 9e52 4fbe a32a 983d 35ac 333d 5f31 2d3e
000001a0: e1c5 563c c7c9 1abe 7b29 7a3e f5a6 3b3e
000001b0: 8227 853d c6c9 853d adcd 92be 329e 093d
000001c0: 0845 ecbd 71ea 2b3d 4c65 133e 2ac2 803c
000001d0: 014a b53c 0459 5dbe 83c8 51be 2707 953d
000001e0: a278 01be c8f1 a93d 98ef 46be a38f 1c3e
000001f0: 45b9 0c3d 8221 443e fa71 c1bc cf9c 393e
00000200: 73bc 22be 8972 5abd 7a0d aabd 7dc0 d4bd
00000210: dae2 1d3e 9a09 16bd 24cc 88bd f24c 1dbd
00000220: f18e 37be 6266 95bd 6e09 393d 28d0 963e
00000230: b08d 983d 5b38 103c b36c 373d 7b2e 893e
00000240: 2ddb 163e 5769 8e3e a8cc 8a3c ae46 79bd
00000250: d5ac 3b3e 644a d7bc 28fb 983d b3f3 cc3d
00000260: 149e 50bd 9d93 153e 22fe 903c 8e37 b13d
00000270: edb1 313d 4f84 03bc 8b2e ad3d 95bf b3bd
00000280: 6085 553d 1b6d 0fbd edd7 03be 794b ea3d
00000290: 6e95 0dbe 5035 81be 6f4e 6cbd ad36 853d
000002a0: e86c 913d c93e 22be 498e b43d 7039 c73d
000002b0: 4ec7 82be 2166 bdbd 679d b6bd 589d 4a3e
000002c0: dc6b d83d bf51 4d3d ba9e 70bd 9d7f 423e
000002d0: de46 13bd c475 b2bd 7353 f0bc 761b ebbd
000002e0: eb63 2fbe 29e8 d33d 84c7 3fbd f305 6c3d
000002f0: 980e 9e3d d91c 8cbd b17d 1ebe 0783 683c
00000300: 33f1 a9be dd2f ffbd 0bda 49bc 005c 113b
00000310: d3f2 e1bc 1d87 3fbe f764 a7bb 48a4 ddbd
00000320: aad7 4dbe da45 fbbd ba80 923d b2ba 13bd
00000330: 1e59 423e 0ec8 e1bd ef6f 0cbe 0a7a 403e
00000340: 3ab3 8d3b af73 30be f8b4 e43d e008 d9bc
00000350: 8645 36be 6caa 7fbd f2a6 0abd 7948 4d3c
00000360: 407c 14be 565d 19be f860 eb3d a473 223e
00000370: 7f32 40be 5e08 55bc a8e7 7d3e 21fb d1bd
00000380: 0dc6 78bd 7b1a 52bc 9ac8 5dbc 5eaa 30be
00000390: 8068 2f3e b605 0abc 4d5c e13d ddb7 083a
000003a0: c1a1 74bd 4797 eb3d 4686 6bbe 2a55 09be
000003b0: af91 1d3e a5be 703d 4fa4 743d a6a4 90be
000003c0: 4d48 bebd a934 13be 642f 203d c94e c33d
000003d0: dd7e 743d 62ac 703e 0983 b5bb 9685 90bd
000003e0: 9c8b 89bc b218 183e 0b83 e93a e299 003d
000003f0: b688 93be 046d 20be c5ce 7d3d 83fb 5c3e

network_body._body_endoder.seq_layers.0.bias f4 [256]
0.0015564414 0.025806062 0.012725427 -0.021323862 -0.018214824 0.020792611 -0.044530466 0.01970314
-0.009193727 0.021514703 0.0021878576 0.0495076 0.04772782 -0.017624192 0.013668455 0.058084235
-0.00082163804 -0.0119894445 0.025909103 0.024283657 -0.016073892 0.011258896 -0.00463239 0.027918795
0.024454273 -0.010733182 -0.010924935 -0.020788703 -0.009786687 0.037236664 0.023333782 0.041636012
0.070917435 0.026410516 0.028894486 0.028573109 -0.016567066 0.057719026 0.006139339 0.021375367
0.04875866 -0.021358589 0.016321266 -0.018923331 0.009489837 -0.0036119542 0.014601882 0.049298912
0.044168167 -0.038034633 0.034413565 0.008429537 0.052665506 0.020775868 0.014234545 0.014624209
-0.034014232 0.06777885 -0.00441285 0.04029239 0.016983181 0.013910835 0.037814774 -0.025717108
-0.0052876193 0.0020146912 0.010096289 0.016816009 0.041205704 -0.024249364 -0.0033087528 0.033426125
0.023381786 -0.016505228 0.014243858 0.0052664536 0.019978363 -0.02528128 0.0016708578 -0.0038986448
-0.006628622 0.02541506 0.0115697775 0.014884643 0.008833701 -0.004207332 -0.008532802 0.03262709
0.035071783 -0.01373953 -0.011292492 0.0017503204 -0.018628925 0.008106491 -0.03124413 0.015229026
-0.0020957703 -0.033079248 0.034576576 -0.012171202 0.009563558 0.040750638 0.019530721 0.008538053
-0.020194812 -0.023177473 0.01828489 -0.005360565 0.027913572 0.04467376 -0.022478998 0.016063642
-0.013466239 -0.009183904 -0.023365991 -0.025692813 0.026137702 0.023751693 -0.02283861 0.016986556
0.024979766 -0.01121092 -0.009520057 0.048671793 0.009544521 -0.01763747 0.011150953 -0.015189269
0.00842576 0.025020774 -0.0089774635 0.030767096 -0.017063912 -0.017472565 0.016385637 -6.7554656e-06
0.012828123 0.0063645295 0.023028897 -0.0038451992 0.0009373816 0.0568754 0.01871086 0.02429327
0.0107306065 0.024272906 0.04528473 0.009728609 0.02557237 0.034802034 0.03772731 0.008575983
0.0363263 0.008611349 0.022932434 0.01222915 0.035359584 0.011172285 0.0048226058 0.0037253057
-0.013356021 -0.023268746 0.0135526 0.014546131 0.019155417 -0.0012779171 0.0015497155 0.03836371
-0.027327066 -0.044668313 -0.004506649 -0.005167934 -0.018865628 0.017144654 0.030599223 0.0077603622
0.0586229 -0.022105452 0.028035413 0.042188335 0.025122618 0.019669628 0.04821707 -0.00194579
0.042331778 -0.013377211 -0.0067927996 -0.00025766692 0.019150848 0.06574351 0.036188804 -0.0068762237
-0.004579865 0.006890143 0.015853776 0.024788875 -0.013010302 0.007469821 0.0107426625 0.022550149
-0.027934756 -0.017368454 0.053140577 0.06163313 0.01246346 0.029478794 0.008567178 0.012300058
0.016586203 0.025975727 0.020032959 -0.008865191 0.027131857 0.03831414 0.014144834 0.023160968
0.02114161 -0.01582378 -0.009697152 -0.01634212 0.01904987 -0.027097523 0.025619311 0.0018728119
0.007850288 0.028557267 0.02207959 0.006970963 0.039122865 0.04730648 0.025469163 0.016011948
0.02146785 0.01187138 0.03456201 -0.00045739175 3.93832e-05 -0.011700633 0.0015223902 0.016689274
0.024225386 0.012472318 0.040532123 -0.034853514 0.0060333856 0.040247917 0.039269872 -0.00515357
0.0039116614 0.010874872 0.035059836 0.009396613 0.0047000404 -0.0033111835 0.020304216 0.04928713
00000000: 8201 cc3a 3c67 d33c 4f7e 503c 61af aebc
00000010: 4137 95bc 4455 aa3c 9465 36bd 7b68 a13c
00000020: 49a1 16bc 9a3f b03c 2962 0f3b 7bc8 4a3d
00000030: 3f7e 433d 9c60 90bc a8f1 5f3c bce9 6d3d
00000040: 3263 57ba 606f 44bc 543f d43c 85ee c63c
00000050: 65ad 83bc 3c77 383c 4ecb 97bb f5b5 e43c
00000060: 5454 c83c 3ada 2fbc 80fe 32bc 124d aabc
00000070: 5758 20bc 7985 183d 7d26 bf3c 868a 2a3d
00000080: 293d 913d de5a d83c 21b4 ec3c 2712 ea3c
00000090: a8b7 87bc c96a 6c3d 822c c93b 651b af3c
000000a0: 29b7 473d 35f8 aebc 2db4 853c 1a05 9bbc
000000b0: 437b 1b3c 89b6 6cbb bb3c 6f3c a8ed 493d
000000c0: aee9 343d 34ca 1bbd 3df5 0c3d 0a1c 0a3c
000000d0: c9b7 573d 2732 aa3c 0238 693c 619a 6f3c
000000e0: 8252 0bbd a3cf 8a3d ab99 90bb a209 253d
000000f0: 5020 8b3c 45ea 633c aae3 1a3d afac d2bc
00000100: c443 adbb e908 043b e86a 253c bac1 893c
00000110: 50c7 283d 9aa6 c6bc a9d7 58bb d5e9 083d
00000120: 298b bf3c f935 87bc 125f 693c 3792 ac3b
00000130: aaa9 a33c b01a cfbc af00 db3a 6880 7fbb
00000140: e934 d9bb 3e33 d03c 2a8f 3d3c b8de 733c
00000150: 3abb 103c a9dd 89bb 2acd 0bbc fca3 053d
00000160: 6ea7 0f3d c41b 61bc 2504 39bc 026b e53a
00000170: b09b 98bc 16d1 043c b1f3 ffbc 2a83 793c
00000180: 3159 09bb 1b7e 07bd 2ba0 0d3d b969 47bc
00000190: 78b0 1c3c 24ea 263d e4fe 9f3c 31e3 0b3c
000001a0: 976f a5bc afde bdbc 32ca 953c aea7 afbb
000001b0: 01ab e43c d5fb 363d e025 b8bc e697 833c
000001c0: 80a1 5cbc 1678 16bc 096a bfbc bc79 d2bc
000001d0: bc1e d63c e992 c23c 0918 bbbc 6427 8b3c
000001e0: 5ea2 cc3c 02ae 37bc 03fa 1bbc 135c 473d
000001f0: 9f60 1c3c 757c 90bc 7db2 363c 69dc 78bc
00000200: 330c 0a3c 5ef8 cc3c 3616 13bc 470b fc3c
00000210: 9ec9 8bbc a022 8fbc 2c3b 863c 02ad e2b6
00000220: 0c2d 523c 8b8d d03b 19a7 bc3c bdff 7bbb
00000230: 9dba 753a 2ef6 683d 8447 993c ae02 c73c
00000240: 6dcf 2f3c f9d7 c63c 7b7c 393d be64 1f3c
00000250: 267d d13c 948c 0e3d f487 1a3d 4882 0c3c
00000260: e3ca 143d 9e16 0d3c cddc bb3c c65c 483c
00000270: 36d5 103d f60b 373c f306 9e3b 4224 743b
00000280: 36d3 5abc 199e bebc b90b 5e3c e552 6e3c
00000290: d2eb 9c3c c87f a7ba d31f cb3a 4423 1d3d
000002a0: 03dd dfbc 1ff6 36bd 83ac 93bb c657 a9bb
000002b0: 178c 9abc f272 8c3c 39ab fa3c a34a fe3b
000002c0: 911e 703d 7e16 b5bc 86aa e53c adcd 2c3d
000002d0: f3cd cd3c 3322 a13c 437f 453d e109 ffba
000002e0: 1664 2d3d 172c 5bbc 2296 debb 7817 87b9
000002f0: 3de2 9c3c 89a4 863d b63a 143d f251 e1bb
00000300: b112 96bb b5c6 e13b c7df 813c 0a12 cb3c
00000310: 2929 55bc 66c5 f43b fe01 303c 17bb b83c
00000320: 6ed7 e4bc 4a48 8ebc efa9 593d 0573 7c3d
00000330: 8a33 4c3c 837d f13c 595d 0c3c 2f86 493c
00000340: cadf 873c 0ccb d43c 291c a43c 4e3f 11bc
00000350: a143 de3c 4aef 1c3d bcbf 673c 12bc bd3c
00000360: 2b31 ad3c dfa0 81bc cee0 1ebc e9df 85bc
00000370: 790e 9c3c a0fb ddbc 97df d13c 2479 f53a
00000380: 7f9e 003c eef0 e93c 42e0 b43c ad6c e43b
00000390: 4c3f 203d 71c4 413d b5a4 d03c 7d2b 833c
000003a0: 58dd af3c 2d80 423c e590 0d3d 15ce efb9
000003b0: 642f 2538 03b4 3fbc f08a c73a f2b7 883c
000003c0: 5174 c63c b158 4c3c 0305 263d 8fc2 0ebd
000003d0: b5b3 c53b 00db 243d 72d9 203d 47df a8bb
000003e0: 652d 803b 852c 323c e79a 0f3d 40f4 193c
000003f0: cc02 9a3b 7100 59bb 0755 a63c 4de1 493d

network_body._body_endoder.seq_layers.2.weight f4 [256, 256]
0.0030596424 0.02021534 0.04375092 0.05110359 -0.020812154 0.001120388 0.064466834 0.10809376
-0.0070437337 0.056609824 -0.06297677 -0.07554893 0.019841226 -0.07587327 -0.007856007 -0.0025869466
-0.056755744 0.060679216 0.051362276 -0.025222672 -0.062267344 -0.08412973 0.042044498 -0.05173236
0.1499268 -0.083476216 0.007623636 -0.077382505 -0.020127028 -0.12098208 0.09286079 -0.048889212
-0.0076910635 0.12585929 0.02750709 0.12039307 -0.021950148 0.08351797 -0.089503944 -0.030094117
-0.02901952 -0.043525737 0.069652 -0.010381431 -0.029710276 0.0009175122 0.046384 0.035892878
0.017922532 0.010720273 0.016428882 -0.0003664655 0.19995072 -0.006960051 -0.006344488 0.094692506
0.069522984 0.07927306 0.030696275 -0.020128474 -0.18257797 0.13334501 -0.0681754 -0.007607738
0.058603983 0.13461861 -0.04478959 -0.10980969 0.036064126 0.04227962 -0.1652722 0.16739416
0.02394976 0.11066456 -0.0030754309 -0.16418491 -0.001601171 -0.037352983 0.048422225 0.004178496
0.124620914 0.075055875 0.1321748 -0.049236696 0.011796443 -0.010950442 -0.074540585 0.034251716
0.094833165 0.03355693 -0.047557514 -0.019847175 -0.07849994 -0.09500946 0.044118255 -0.017669708
0.15922272 0.0101517 0.13253851 -0.031340178 -0.115178525 -0.050430752 0.0131325815 -0.029317003
0.017962163 0.14003615 -0.01690866 -0.06454961 0.017458279 -0.013707103 -0.110797666 0.045492154
-0.04177877 -0.016346704 0.08298298 -0.09772211 0.117123276 0.04586653 0.01264884 0.20580356
0.032139737 0.0012584191 -0.039398573 0.07555619 0.0534843 0.026789948 0.020105818 0.10222066
-0.026335571 0.091904335 0.07106964 0.004984529 0.055631313 -0.08878177 -0.04456653 0.014292811
-0.10260654 -0.04768431 0.037879776 0.03621349 0.008039081 0.051258765 -0.040207922 -0.012118631
0.0397215 0.09012632 0.029919852 0.02993561 0.010933678 0.063910455 -0.05115976 0.07855953
0.10202375 0.022607574 -0.042834952 0.021790419 -0.010384357 0.07970734 -0.03122398 -0.07505712
0.0023260068 -0.009248187 -0.033890195 0.016994888 0.085651785 -0.020781763 -0.18218754 -0.031397957
-0.09408807 0.012804691 -0.17599875 0.06565767 -0.061007436 0.054509908 -0.13780355 -0.11138899
-0.08899898 -0.08186641 -0.042519026 0.009478989 -0.035493825 -0.013117006 0.04928745 0.06380655
0.022712374 0.054891333 -0.0551363 0.04481651 0.028269714 -0.065660164 -0.04445201 -0.06183948
0.028342927 0.06347457 -0.020624824 -0.07766629 -0.04928096 -0.103199065 0.11243743 -0.058513083
0.016132126 0.09842177 0.04491082 0.070802204 0.0046227435 0.06790376 -0.021281272 -0.07709146
0.044269804 0.15328299 -0.02873101 -0.02544644 0.098586045 -0.02966607 0.10168128 -0.06380613
-0.08433001 -0.022183018 -0.035982702 -0.18221518 0.07821868 -0.017646147 0.062341843 0.08047614
0.02576724 -0.07207621 0.030645188 -0.05732 -0.077312656 -0.1005524 0.029594317 -0.11461297
-0.011321626 0.028239273 -0.0319027 0.020169325 0.011277044 -0.023751518 -0.0896247 -0.20792675
-0.0045154607 -0.01648495 -0.07891943 0.04947038 0.23597033 -0.07775349 0.055220228 0.0058864634
-0.16945891 0.03367508 0.05855799 0.13266788 -0.033708353 -0.0156106325 -0.040414464 0.063085854
00000000: 4884 483b a49a a53c 2a34 333d ff51 513d
00000010: 407e aabc fcd9 923a 3007 843d 4360 dd3d
00000020: 1fcf e6bb b4df 673d f7f9 80bd 66b9 9abd
00000030: 118a a23c 7263 9bbd 7bb6 00bc c389 29bb
00000040: b678 68bd c58a 783d 4061 523d c79f cebc
00000050: 0b0c 7fbd 354c acbd da36 2c3d 50e5 53bd
00000060: 6986 193e 94f5 aabd b2cf f93b b87a 9ebd
00000070: 70e1 a4bc 74c5 f7bd cc2d be3d 0e40 48bd
00000080: 5105 fcbb 42e1 003e 8c56 e13c a490 f63d
00000090: ccd0 b3bc 780b ab3d d84d b7bd f087 f6bc
000000a0: 58ba edbc 0b48 32bd b5a5 8e3d e116 2abc
000000b0: f762 f3bc 3485 703a 26fd 3d3d 6904 133d
000000c0: 46d2 923c 15a4 2f3c dd95 863c 2b22 c0b9
000000d0: e2bf 4c3e 2411 e4bb 6ce5 cfbb 25ee c13d
000000e0: 1162 8e3d ea59 a23d c176 fb3c 78e4 a4bc
000000f0: b8f5 3abe 988b 083e 8b9f 8bbd 554a f9bb
00000100: bb0a 703d 76d9 093e 4a75 37bd e7e3 e0bd
00000110: fab7 133d 652d 2d3d 1e3d 29be 6069 2b3e
00000120: 4932 c43c 1aa4 e23d 2b8d 49bb 1720 28be
00000130: 62de d1ba 71ff 18bd 6256 463d c4eb 883b
00000140: 4039 ff3d e5b6 993d d558 073e 6bac 49bd
00000150: de45 413c 7c69 33bc bca8 98bd 874b 0c3d
00000160: e437 c23d fe72 093d abcb 42bd 8b96 a2bc
00000170: 94c4 a0bd 5294 c2bd 58b5 343d 10c0 90bc
00000180: 480b 233e 5153 263c 2db8 073e 8f5e 00bd
00000190: b8e2 ebbd 7a90 4ebd 0a2a 573c 362a f0bc
000001a0: 6325 933c a365 0f3e 0884 8abc 9632 84bd
000001b0: aa04 8f3c c293 60bc e3e9 e2bd fb55 3a3d
000001c0: 3720 2bbd 86e9 85bc fbf2 a93d 8822 c8bd
000001d0: 54de ef3d 8bde 3b3d 153d 4f3c 2bbe 523e
000001e0: f5a4 033d 8af1 a43a 6660 21bd 34bd 9a3d
000001f0: 5a12 5b3d 9876 db3c f5b4 a43c 1159 d13d
00000200: b2bd d7bc 5738 bc3d f68c 913d 4355 a33b
00000210: a9dd 633d 37d3 b5bd 658b 36bd 652c 6a3c
00000220: 6123 d2bd 9f50 43bd d327 1b3d 9954 143d
00000230: 59b6 033c b6f4 513d 10b1 24bd 398d 46bc
00000240: 03b3 223d 2694 b83d 7a1a f53c 863b f53c
00000250: 2b23 333c 7ce3 823d e68c 51bd d2e3 a03d
00000260: d4f1 d03d 8533 b93c b473 2fbd d281 b23c
00000270: 2623 2abc 9a3d a33d 6fc9 ffbc 8cb7 99bd
00000280: eb6f 183b b585 17bc 72d0 0abd dd38 8b3c
00000290: 346a af3d 843e aabc 5f8f 3abe 259b 00bd
000002a0: 3fb1 c0bd c4ca 513c 0439 34be 8777 863d
000002b0: efe2 79bd c845 5f3d 601c 0dbe e91f e4bd
000002c0: 1945 b6bd 94a9 a7bd 6e28 2ebd c34d 1b3c
000002d0: f961 11bd b6e8 56bc a3e1 493d 02ad 823d
000002e0: 4d0f ba3c bcd5 603d 9ad6 61bd 8491 373d
000002f0: e395 e73c d678 86bd 5013 36bd 654b 7dbd
00000300: 6d2f e83c f5fe 813d 64f5 a8bc 810f 9fbd
00000310: d5da 49bd 085a d3bd 9845 e63d 6aab 6fbd
00000320: 8527 843c 5a91 c93d 68f4 373d bf00 913d
00000330: 627a 973b 2011 8b3d 1056 aebc 21e2 9dbd
00000340: 4154 353d 37f6 1c3e 4c5d ebbc 0d75 d0bc
00000350: 7be7 c93d 4206 f3bc 463e d03d caac 82bd
00000360: 36b5 acbd 29b9 b5bc 9962 13bd 9e96 3abe
00000370: 1e31 a03d a78e 90bc 295a 7f3d add0 a43d
00000380: d215 d33c b19c 93bd 9e0b fb3c 60c8 6abd
00000390: 1956 9ebd 6bee cdbd c86f f23c 34ba eabd
000003a0: 577e 39bc 0c56 e73c 68ac 02bd 243a a53c
000003b0: 5ac3 383c 8b92 c2bc 288d b7bd c0ea 54be
000003c0: 6ef6 93bb 720b 87bc 83a0 a1bd 74a1 4a3d
000003d0: 35a2 713e 393d 9fbd 9b2e 623d 3ce3 c03b
000003e0: a386 2dbe e1ee 093d 81da 6f3d 17da 073e
000003f0: c511 0abd bdc3 7fbc a389 25bd 2833 813d

network_body._body_endoder.seq_layers.2.bias f4 [256]
-0.014569913 -0.020547822 0.0023601013 0.012489265 0.023275241 0.008522425 0.026074339 0.0061822436
-0.008666485 -0.008140691 0.0067285514 -0.011452226 0.030887613 0.0016798993 -0.027334008 -0.020123985
0.0038028324 0.014728306 0.024689231 -0.02124499 -0.009283229 0.022444837 -0.009869963 -0.0004506074
0.015963808 0.0030248612 0.011753025 0.008431671 0.006139412 -0.00034618573 -0.008243001 -0.012875867
-0.013453348 0.009600367 -0.0026098161 -0.025403697 0.019704323 0.00647955 0.026629176 -0.011135715
-0.012702951 -0.017519234 0.01795833 0.008359489 0.020877015 4.1424737e-05 -0.0032310786 0.00919258
0.020674335 0.005088794 0.021043677 -0.00622107 -0.025343845 0.022573141 4.960653e-05 -0.00587807
0.01002828 -0.014785952 0.0003773881 -0.0050648586 -0.002075956 -0.02763026 -0.0005844635 0.01901019
0.0068152803 0.008496456 0.02327285 -0.010017953 -0.004974973 -0.011287299 0.0072215227 0.018361993
-0.036491267 -0.0166147 -0.010254282 -0.008725736 -0.008816137 0.022308104 0.010045539 0.029356299
-0.008734666 -0.02346285 -0.036269758 0.0010999887 -0.009501147 0.0132803125 -0.035562064 0.0037571874
-0.0072476426 -0.034150552 0.015275443 -0.013542029 0.00341232 -0.004690641 0.010692915 -0.014181025
-0.021200094 -0.008482508 -0.0038141008 0.010999456 -0.0043848045 0.025396315 -0.016338147 -0.013211663
0.008722993 0.0027311435 -0.011970482 -0.027201602 -0.03165411 -0.02811883 0.0048341257 0.013039396
0.007284509 0.004928408 0.028757673 -0.0004465046 -0.036697865 -0.0132714175 -0.02410599 -0.033900023
0.0057600685 0.0033918743 0.0041867103 -0.007186818 -0.012134071 0.010925491 -0.011855148 -0.0003753043
-0.0014936682 0.0060586687 -0.0038953833 0.00510771 0.010024399 0.009868838 -0.018864157 -0.0038181972
-0.0106413225 -0.0045349994 0.008967897 -0.021278895 0.003334079 0.0029785275 0.003244449 -0.003834436
0.006657353 0.018607998 -0.007023273 -0.039889444 0.0073815826 0.01571814 -0.0037010298 -0.000912086
0.02037041 -0.0167395 0.008331715 -0.0012242373 -0.0029508343 -0.022676593 -0.025415417 -0.0011211559
0.01783511 0.013294626 0.0096361125 -0.035113063 0.014917513 0.010897684 -0.008454686 0.028821796
-0.0033248297 0.0007525172 0.0136154825 -0.024327809 0.0196722 -0.027056731 -0.017923534 0.0026806607
-0.0387229 0.00025313834 0.0054076575 0.01919443 -0.03463882 -0.0024741427 0.015786124 0.009583162
-0.01179554 -0.029536653 0.0019364022 -0.029652532 0.00070385466 -0.0032534772 -0.0035578855 -0.011745554
-0.0071477313 0.018703064 -0.0053360946 -0.010232338 0.0012570254 0.0025966319 0.0021838392 0.017241264
0.0020211837 -0.011187567 -0.008756381 -0.011361519 -0.0085225925 -0.01712769 0.008390207 -0.013725851
-0.023388475 -0.014853858 -0.016096432 0.0071578966 -0.0064165913 0.008091091 -0.022313666 0.021333614
0.010127472 -0.0034574145 -0.025011342 0.0030348643 0.010614037 -0.017756155 -0.002043901 0.0013016087
0.009148581 -0.011785172 -0.014972035 -0.0018806077 -0.026041798 -0.004259418 -0.023655906 0.0014974234
-0.020407362 -0.010512632 -0.009253995 0.01409148 -0.03041165 0.005726923 -0.019197714 0.0068613384
0.007826979 0.020016445 0.029832255 -0.020185761 -0.00807228 -0.001785954 0.018622113 0.013587889
-0.012979515 0.005442654 0.0095150685 0.0024573063 -0.0060733627 -0.019285029 -0.016389076 -0.021446452
00000000: a5b6 6ebc e853 a8bc eeab 1a3b c69f 4c3c
00000010: b8ab be3c a4a1 0b3c da99 d53c 6b94 ca3b
00000020: dffd 0dbc 8860 05bc 2e7b dc3b 1ea2 3bbc
00000030: 0508 fd3c 1130 dc3a 92eb dfbc 0edb a4bc
00000040: f138 793b fe4e 713c 1241 ca3c f909 aebc
00000050: af18 18bc 3cde b73c a0b5 21bc 803f ecb9
00000060: 88c6 823c c03c 463b c38f 403c fe24 0a3c
00000070: 1f2d c93b 4380 b5b9 a70d 07bc 4df5 52bc
00000080: 6e6b 5cbc dc4a 1d3c 7309 2bbb 6a1b d0bc
00000090: f66a a13c 6852 d43b 6e25 da3c 9372 36bc
000000a0: 0a20 50bc 7f84 8fbc 591d 933c 3df6 083c
000000b0: 4606 ab3c 79bf 2d38 81c0 53bb 7a9c 163c
000000c0: 395d a93c e6bf a63b ca63 ac3c 1eda cbbb
000000d0: e59d cfbc 4feb b83c 9b10 5038 d39c c0bb
000000e0: a84d 243c c740 72bc 2cdc c539 1df7 a5bb
000000f0: c30c 08bb db58 e2bc ae36 19ba 42bb 9b3c
00000100: b752 df3b b834 0b3c b4a6 be3c 5722 24bc
00000110: 1905 a3bb 5dee 38bc 86a2 ec3b e46b 963c
00000120: de77 15bd 8d1b 88bc 9301 28bc 64f6 0ebc
00000130: 8f71 10bc 7cbf b63c 0b96 243c 9f7c f03c
00000140: d81b 0fbc 2a35 c0bc 998f 14bd 7f2d 903a
00000150: b3aa 1bbc ab95 593c 87a9 11bd 253b 763b
00000160: a27d edbb 73e1 0bbd da45 7a3c 63df 5dbc
00000170: 3ba1 5f3b f3b3 99bb 5631 2f3c 8857 68bc
00000180: d2ab adbc 38fa 0abc fef5 79bb 1037 343c
00000190: 68ae 8fbb ef0b d03c 94d7 85bc bb75 58bc
000001a0: e2ea 0e3c fcfc 323b d71f 44bc e5d5 debc
000001b0: bda7 01bd 7659 e6bc 9667 9e3b 31a3 553c
000001c0: e4b2 ee3b 7c7e a13b 3695 eb3c d518 eab9
000001d0: 8050 16bd 5c70 59bc ed79 c5bc c0da 0abd
000001e0: f5be bc3b 354a 5e3b ac30 893b 667f ebbb
000001f0: fccd 46bc d500 333c 183c 42bc 7ec4 c4b9
00000200: 30c7 c3ba cc87 c63b b049 7fbb 945e a73b
00000210: 603d 243c e8b0 213c 0189 9abc b83a 7abb
00000220: f158 2ebc 559a 94bb 16ee 123c 1451 aebc
00000230: 9080 5a3b 6633 433b d2a0 543b 294b 7bbb
00000240: ed25 da3b cd6f 983c 7c23 e6bb 1d63 23bd
00000250: 34e1 f13b 54c3 803c fa8c 72bb 0e19 6fba
00000260: d9df a63c 4721 89bc bf81 083c 9676 a0ba
00000270: c962 41bb 43c4 b9bc fe33 d0bc c0f3 92ba
00000280: f01a 923c b4d1 593c c9e0 1d3c b7d2 0fbd
00000290: 9668 743c 338c 323c 8685 0abc b01b ec3c
000002a0: 63e5 59bb 9344 453a 7913 5f3c 1d4b c7bc
000002b0: 9827 a13c 14a6 ddbc 60d4 92bc 06ae 2f3b
000002c0: e79b 1ebd a7b7 8439 b832 b13b a33d 9d3c
000002d0: 6fe1 0dbd 3a25 22bb e751 813c b202 1d3c
000002e0: 1542 41bc daf6 f1bc e0ce fd3a dee9 f2bc
000002f0: e382 383a 4a38 55bb 6a2b 69bb 6d70 40bc
00000300: 8437 eabb 2b37 993c 68da aebb 89a5 27bc
00000310: c6c2 a43a 412c 2a3b be1e 0f3b 8d3d 8d3c
00000320: d675 043b 0f4c 37bc ed76 0fbc aa25 3abc
00000330: 58a2 0bbc 5f4f 8cbc 1477 093c 64e2 60bc
00000340: 3099 bfbc 995d 73bc aadc 83bc ca8c ea3b
00000350: 4542 d2bb 7f90 043c 26cb b6bc d5c3 ae3c
00000360: b2ed 253c ca95 62bb 96e4 ccbc 93e4 463b
00000370: 7fe6 2d3c 5b75 91bc f8f2 05bb be9a aa3a
00000380: eee3 153c 9816 41bc 444d 75bc b97e f6ba
00000390: 9c55 d5bc 9792 8bbb 08ca c1bc 3145 c43a
000003a0: 572d a7bc 2d3d 2cbc 119e 17bc f3df 663c
000003b0: da21 f9bc e9a8 bb3b 8644 9dbc 14d5 e03b
000003c0: bb3c 003c 87f9 a33c c662 f43c 9c5c a5bc
000003d0: 9941 04bc ac16 eaba 678d 983c bd9f 5e3c
000003e0: 08a8 54bc 4a58 b23b 17e5 1b3c c20a 213b
000003f0: 0f03 c7bb a3fb 9dbc 6242 86bc 78b0 afbc

action_model._discrete_distribution.branches.0.weight f4 [3, 256]
0.0028579195 -0.018960489 0.0023466048 0.01253759 0.020343002 0.019966744 0.031452436 -0.03543838
0.003886131 -0.0026102155 -0.0021886649 0.017653003 -0.038670298 -0.0096866805 -0.014345126 0.013580287
-0.04121801 0.024243116 -0.0030571425 0.019380916 -0.021823164 -0.017325822 -0.0023019777 -0.0059460755
-0.0131691545 -0.014309141 -0.034665003 -0.01173422 -0.013398731 -0.028021963 0.005685441 -0.007959759
-0.04138307 -0.012699341 0.016334943 0.0073944423 0.010948486 0.0027607803 -0.078361 0.022785349
0.009478419 -0.011906415 -0.04287708 0.012475819 -0.035433408 0.003058066 0.023818849 0.015177447
0.010960134 0.004854565 -0.053692214 -0.005820416 0.0014910182 -0.037888713 0.005039526 0.049898613
-0.022163456 -0.004665254 -0.022384722 -0.004947105 -0.019678155 -0.010683531 -0.029546702 0.0022175163
-0.013344804 -0.018639902 -0.0012227758 0.0053782533 -0.005513321 -0.042511642 -0.010123117 0.021983258
-0.041605633 -0.0070988666 0.00961752 0.022700574 0.0032147814 -0.013689822 0.040340833 -0.024981415
-0.007288666 -0.065536596 -0.022461783 0.03581753 0.0069599035 0.010548214 0.03747936 -0.025904281
0.00022316446 0.021160964 -0.028756753 0.033098493 0.010549235 -0.029391214 -0.059764173 0.018879484
-0.06408874 0.034002677 0.03318237 -0.050428413 0.05031451 -0.01117923 0.0048348703 -0.0072362274
-0.043459788 0.015433877 0.04158844 0.029105656 -0.0034214563 0.0033955323 0.009083887 0.0075853355
-0.015953643 0.0027952606 -0.06592513 -0.0046207467 -0.04001016 0.0485609 0.03425692 0.013945471
-0.0033746248 0.03403674 -0.000522556 0.013416697 0.01773769 -0.025391284 0.023356847 -0.0035429497
-0.0073120897 0.004950056 -0.022702267 0.0023095317 -0.032018933 -0.023640763 0.0013780353 0.025788978
0.028871391 -0.013308254 0.0051937276 -0.01763658 -0.015546758 -0.032821562 -0.041282628 0.012477637
0.017762339 0.023767425 -0.0136626465 0.031805456 0.018907374 0.021226227 0.044987876 -0.04305791
-0.03621396 0.005478056 -0.014498158 -0.015409148 0.045663483 -0.005858759 -0.03992616 -0.014937474
-0.016247826 -0.0089009255 -0.0054847808 -0.001089845 -0.015017987 -0.03564806 0.020808209 -0.028548116
0.025790468 -0.031285513 0.0056453906 0.036707364 -0.04058548 -0.025326679 0.03135254 6.988516e-05
-0.025067994 0.005187698 -0.0044834116 0.0044177473 -0.04518588 -0.01609043 -0.014827093 -0.0064758225
0.011677524 -0.013584363 0.040141717 0.015369882 0.0068254047 0.027786212 -0.01128274 0.015407133
0.018830739 -0.05455411 0.029292408 0.052091222 -0.038247194 -0.026790412 0.04063382 -0.044776965
0.016069094 0.02526665 -0.0028210953 0.026803138 0.011054646 0.0405772 0.02201844 0.0028915287
-0.015123545 -0.0031318313 0.0077636293 -0.022953376 0.034708746 -0.0408924 0.008588011 -0.00032242815
0.020306475 0.016636465 -0.017727451 -0.024965784 0.039403107 0.025198527 -0.014132389 -0.04733864
-0.026082398 -0.026134828 0.035155915 0.00901975 0.004683326 0.043018837 -0.014924856 -0.0300411
0.0074875345 -0.034635074 0.010595642 -0.013361524 -0.0015303638 -0.02048429 0.005525593 -0.014204078
0.002874942 -0.023103451 -0.0075001502 0.021486951 0.0015404077 0.017176973 -0.057129744 -0.038724203
-0.035599962 -0.025047377 -0.006824135 0.0029225494 0.006498797 -0.022736447 0.025805114 0.0126346825
00000000: ef4b 3b3b 0753 9bbc 7fc9 193b 776a 4d3c
00000010: 5ea6 a63c 4c91 a33c 45d4 003d d627 11bd
00000020: 76ae 7e3b 2610 2bbb b46f 0fbb 089d 903c
00000030: bf64 1ebd e2b4 1ebc d207 6bbc da7f 5e3c
00000040: 37d4 28bd 8099 c63c 575a 48bb bac4 9e3c
00000050: 7ec6 b2bc e2ee 8dbc c7dc 16bb 4cd7 c2bb
00000060: 70c3 57bc e370 6abc e4fc 0dbd e340 40bc
00000070: 5a86 5bbc 518e e5bc f04c ba3b a669 02bc
00000080: 4b81 29bd e610 50bc dcd0 853c 144d f23b
00000090: 4761 333c 35ee 343b bb7b a0bd 57a8 ba3c
000000a0: 5f4b 1b3c 2013 43bc e19f 2fbd 6167 4c3c
000000b0: 9f22 11bd d569 483b bf1f c33c d4aa 783c
000000c0: 2292 333c 0b13 9f3b 5eec 5bbd 30b9 bebb
000000d0: 456e c33a 3231 1bbd 9c22 a53b 7d62 4c3d
000000e0: 2390 b5bc fdde 98bb 2a60 b7bc 531b a2bb
000000f0: 1534 a1bc fa09 2fbc ed0b f2bc c053 113b
00000100: 2aa4 5abc b5b2 98bc 8c45 a0ba 0f3c b03b
00000110: 17a9 b4bb b020 2ebd 6edb 25bc 3c16 b43c
00000120: ab6a 2abd 9c9d e8bb cd92 1d3c 8ef6 b93c
00000130: 15af 523b 464b 60bc 6e3c 253d d3a5 ccbc
00000140: c3d5 eebb 0d38 86bd c601 b8bc 67b5 123d
00000150: e70f e43b 6bd2 2c3c f583 193d 3735 d4bc
00000160: 4101 6a39 c259 ad3c 4893 ebbc 4992 073d
00000170: b3d6 2c3c d8c5 f0bc 47cb 74bd 26a9 9a3c
00000180: f540 83bd 6446 0b3d 3dea 073d 068e 4ebd
00000190: 9616 4e3d 1729 37bc d56d 9e3b e01d edbb
000001a0: e402 32bd 5fde 7c3c a458 2a3d fc6e ee3c
000001b0: 833a 60bb 9487 5e3b 95d4 143c 688e f83b
000001c0: 37b1 82bc b130 373b c103 87bd a269 97bb
000001d0: b2e1 23bd cbe7 463d fc50 0c3d 8b7b 643c
000001e0: cf28 5dbb 1c6a 0b3d 24fc 08ba b5d1 5b3c
000001f0: a24e 913c 6201 d0bc dc56 bf3c d530 68bb
00000200: 419a efbb 1434 a23b 1bfa b9bc 835b 173b
00000210: 4926 03bd 46aa c1bc 319f b43a 6843 d33c
00000220: b283 ec3c dd0a 5abc 2530 aa3b 977a 90bc
00000230: d4b7 7ebc e76f 06bd f917 29bd 016f 4c3c
00000240: 5382 913c e7b3 c23c 4bd9 5fbc 7046 023d
00000250: a3e3 9a3c a0e2 ad3c 3545 383d 7e5d 30bd
00000260: 1755 14bd 4481 b33b af89 6dbc a776 7cbc
00000270: a209 3b3d d5fa bfbb 9d89 23bd 4fbc 74bc
00000280: 291a 85bc 30d5 11bc adb9 b3bb 21d9 8eba
00000290: 010e 76bc b303 12bd fa75 aa3c bddd e9bc
000002a0: 8846 d33c 3d25 00bd f8fc b83b 765a 163d
000002b0: f63c 26bd e579 cfbc 856b 003d 4f8f 9238
000002c0: 655b cdbc 91fd a93b 95e9 92bb c0c2 903b
000002d0: d414 39bd 14d0 83bc 56ed 72bc 2333 d4bb
000002e0: 1653 3f3c f390 5ebc a46b 243d f5d1 7b3c
000002f0: a5a7 df3b e99f e33c 3edb 38bc 336e 7c3c
00000300: ec42 9a3c 2174 5fbd a2f6 ef3c 9b5d 553d
00000310: 17a9 1cbd 9177 dbbc a66f 263d 0d68 37bd
00000320: 55a3 833c 01fc ce3c 20e2 38bb 4192 db3c
00000330: 8c1e 353c 4734 263d 0460 b43c cd7f 3d3b
00000340: bfc8 77bc 693f 4dbb 0b66 fe3b b808 bcbc
00000350: c22a 0e3d ca7e 27bd bbb4 0c3c 930b a9b9
00000360: c459 a63c 3249 883c 2939 91bc 0b85 ccbc
00000370: 2765 213d 246d ce3c 898b 67bc 29e6 41bd
00000380: c1aa d5bc b518 d6bc a6ff 0f3d 93c7 133c
00000390: 9676 993b 8534 303d 6287 74bc c118 f6bc
000003a0: fe59 f53b 82dd 0dbd 5899 2d3c 4bea 5abc
000003b0: 7d96 c8ba abce a7bc 0910 b53b 39b8 68bc
000003c0: 8669 3c3b 7343 bdbc d2c3 f5bb 6705 b03c
000003d0: 81e7 c93a b9b6 8c3c e100 6abd 459d 1ebd
000003e0: 44d1 11bd 2830 cdbc fe9c dfbb 3e88 3f3b
000003f0: dcf3 d43b c941 babc 3f65 d33c b301 4f3c

action_model._discrete_distribution.branches.0.bias f4 [3]
0.0060349596 0.013409882 -0.016346386
00000000: e9c0 c53b 1fb5 5b3c dbe8 85bc

action_model._discrete_distribution.branches.1.weight f4 [3, 256]
-0.04807587 0.013848295 -0.03511214 -0.00487932 -0.058712885 -0.09317699 -0.08161829 -0.006246892
-0.0017409076 -0.018849669 -0.06701932 0.036045052 -0.014137033 -0.0333002 0.017582418 0.042130694
-0.04026229 -0.060248595 -0.07832515 0.037255276 0.019442925 -0.017797122 -0.011756854 -0.049528413
-0.047993608 0.03224352 -0.022094093 -0.038869504 -0.049217314 -3.3689816e-05 -0.0192312 0.036754865
-0.00030661726 -0.024000922 -0.040354405 0.022948466 -0.06846269 -0.02930013 0.026156534 0.033957403
0.031811934 -0.020503577 -0.029457942 -0.07004928 -0.024342982 -0.030077271 -0.049204808 -0.030887896
-0.036584396 -0.037422 -0.0056093237 -0.039856676 0.040115725 -0.11030094 -0.053264845 0.005593988
0.019528486 0.037652526 0.03218846 -0.014707721 -0.04935183 0.023501255 0.011307011 -0.030070726
-0.047825914 -0.039412178 -0.06626281 -0.03635649 0.037906133 0.019214349 -0.035428166 -0.047433697
0.030711403 0.022342375 0.07195612 -0.027572567 0.04616393 -0.07304318 -0.016373552 0.03468454
0.05241014 0.029024832 0.028593428 -0.026917137 0.026304884 0.058061346 0.0050460855 0.0050716223
-0.021271126 0.02441864 -0.0007610871 0.005915779 -0.007981268 0.036139194 -0.044999313 0.038479798
0.018865418 0.006311588 0.023882266 -0.009017175 -0.0046604187 0.0079289945 -0.0460847 0.008437374
-0.019994507 -0.026927821 0.014944597 0.028979128 0.036217283 0.036425892 0.045030747 -0.028633943
0.009387378 -0.07120195 -0.044932228 -0.0060202014 0.016924359 0.021908456 0.026230445 0.0317944
-0.030737994 0.07235109 -0.06260714 -0.049139366 0.021111302 0.023067622 -0.014407662 -0.06291377
-0.0060947025 -0.02740297 0.02152784 -0.005239705 0.034745265 -0.03744218 -0.0027068623 0.0008568885
-0.059089165 -0.025848817 0.016585419 0.019621996 0.017537337 -0.032721255 -0.04164426 0.039104827
-0.04697695 -0.027002802 0.03212748 0.018809112 0.033350743 -0.07983301 -0.0059113586 0.014588254
0.0061498247 0.024722986 -0.024997022 0.021833478 0.031820223 -0.033391327 0.006270235 -0.025518168
0.03108694 -0.0069307215 -0.0072454833 0.0293481 -0.06163604 -0.0626634 -0.06609143 -0.07931338
-0.005288248 -0.0051114676 -0.014260809 -0.025356997 -0.0141315805 0.05637768 -0.06998031 0.014365318
0.0014811009 0.033382665 -0.0613158 -0.026639843 -0.02617695 -0.09597168 -0.06323503 -0.041091625
0.04457208 0.008568937 0.0061033447 -0.0063926536 0.024369527 0.006432244 -0.042035386 0.015458248
-0.004178157 -0.042782858 -0.046958365 -0.01925333 -0.0063930806 -0.015561221 -0.020736273 -0.028696956
0.016307853 -0.034733918 0.00024941494 0.012606508 0.037457187 -0.012127688 -0.009403081 0.04850654
-0.06629136 -0.0014250433 0.035297547 -0.02140035 -0.03756315 -0.019708954 -0.013655871 -0.06399983
-0.048575945 0.04347175 0.05151204 -0.011902417 -0.025384005 -0.04127628 -0.0012760852 0.049222257
-0.02287883 0.019443382 -0.012742629 0.06824172 0.037556686 -0.020933686 0.011708661 -0.03757139
0.021685058 -0.056910872 -0.03287678 -0.05419213 -0.016195979 -0.027028691 0.030044511 -0.037941523
-0.03601065 -0.04687914 -0.061753213 0.017375523 -0.007514201 -0.027425125 -0.0026010915 0.057527628
0.0074159466 -0.0027985908 -0.024829188 -0.041272517 -0.07778633 0.0007243968 0.0076187137 0.021968469
00000000: 34eb 44bd f6e3 623c bfd1 0fbd b4e2 9fbb
00000010: ec7c 70bd 94d3 bebd 7d27 a7bd bab2 ccbb
00000020: 2a2f e4ba 9f6a 9abc 6d41 89bd faa3 133d
00000030: 049f 67bc ca65 08bd 0109 903c 3c91 2c3d
00000040: 12ea 24bd 3bc7 76bd f068 a0bd fd98 183d
00000050: c546 9f3c 45cb 91bc d29f 40bc 4ede 4abd
00000060: f294 44bd c811 043d acfe b4bc a135 1fbd
00000070: 1898 49bd 2a4e 0db8 c08a 9dbc 458c 163d
00000080: 79c1 a0b9 959d c4bc a94a 25bd 6cfe bb3c
00000090: 2b36 8cbd d406 f0bc 3a46 d63c eb16 0b3d
000000a0: 3b4d 023d 1ef7 a7bc c851 f1bc ff75 8fbd
000000b0: ef6a c7bc 9c64 f6bc fb8a 49bd 9d08 fdbc
000000c0: 85d9 15bd d047 19bd 6bce b7bb c140 23bd
000000d0: 6350 243d 76e5 e1bd 3d2c 5abd c64d b73b
000000e0: 34fa 9f3c 8939 1a3d 0cd8 033d a7f8 70bc
000000f0: 2525 4abd b485 c03c 0b41 393c e256 f6bc
00000100: 1be5 43bd aa6e 21bd ccb4 87bd 8bea 14bd
00000110: 7643 1b3d 6967 9d3c 201d 11bd d649 42bd
00000120: 7b96 fb3c 5b07 b73c bb5d 933d dddf e1bc
00000130: 6416 3d3d aa97 95bd d421 86bc 6011 0e3d
00000140: 04ac 563d 7cc5 ed3c c43c ea3c 5481 dcbc
00000150: 577d d73c bcd1 6d3d a259 a53b da2f a63b
00000160: c940 aebc 9a09 c83c b183 47ba 27d9 c13b
00000170: ddc3 02bc b106 143d 3351 38bd fe9c 1d3d
00000180: a68b 9a3c 70d1 ce3b bea4 c33c c6bc 13bc
00000190: 6db6 98bb 9de8 013c 4fc3 3cbd e93c 0a3c
000001a0: 85cb a3bc bc97 dcbc 2fda 743c a365 ed3c
000001b0: 9358 143d 5133 153d 2972 383d bb91 eabc
000001c0: 84cd 193c 54d2 91bd db0a 38bd 1c45 c5bb
000001d0: f4a4 8a3c 5d79 b33c 3be1 d63c d83a 023d
000001e0: 3fce fbbc cf2c 943d 2c38 80bd 5c46 49bd
000001f0: 9cf1 ac3c 4ff8 bc3c 1d0e 6cbc efd8 80bd
00000200: 12b6 c7bb 317c e0bc 275b b03c d5b1 abbb
00000210: 0d51 0e3d f95c 19bd 9d65 31bb d0a0 603a
00000220: 7b07 72bd e6c0 d3bc 25de 873c 4fbe a03c
00000230: 76aa 8f3c b906 06bd 2c93 2abd 622c 203d
00000240: e76a 40bd fb34 ddbc 1b98 033d 9115 9a3c
00000250: ca9a 083d 7d7f a3bd 12b4 c1bb 9203 6f3c
00000260: 7884 c93b dc87 ca3c 8ec6 ccbc 1fdc b23c
00000270: ec55 023d 58c5 08bd 8b76 cd3b 7a0b d1bc
00000280: 0aaa fe3c 1b1b e3bb 856b edbb 6d6b f03c
00000290: 1376 7cbd ab55 80bd f25a 87bd 0e6f a2bd
000002a0: 0a49 adbb 197e a7bb 2ba6 69bc 7ab9 cfbc
000002b0: 2588 67bc 48ec 663d d651 8fbd 835c 6b3c
000002c0: 8021 c23a 43bc 083d 4726 7bbd cd3b dabc
000002d0: 0b71 d6bc cd8c c4bd 5e81 81bd b14f 28bd
000002e0: 3791 363d ba64 0c3c 91fe c73b 7779 d1bb
000002f0: 9aa2 c73c 93c5 d23b 4c2d 2cbd 9744 7d3c
00000300: ece8 88bb 143d 2fbd 6a57 40bd 29b9 9dbc
00000310: 0c7d d1bb 7ef4 7ebc 1edf a9bc e115 ebbc
00000320: 0c98 853c 2745 0ebd e8c3 8239 878b 4e3c
00000330: b56c 193d 36b3 46bc 610f 1abc cbae 463d
00000340: c4c3 87bd 85c8 baba 2994 103d c94f afbc
00000350: d1db 19bd ac74 a1bc e0bc 5fbc 5812 83bd
00000360: 92f7 46bd 6f0f 323d 4afe 523d 5b02 43bc
00000370: 1ef2 cfbc 5111 29bd 5042 a7ba 479d 493d
00000380: 626c bbbc ba47 9f3c 76c6 50bc 51c2 8b3d
00000390: 0ad5 193d 1f7d abbc afd5 3f3c 75e4 19bd
000003a0: dda4 b13c 601b 69bd cda9 06bd 91f8 5dbd
000003b0: 6ead 84bc 466b ddbc e81f f63c 9268 1bbd
000003c0: e77f 13bd 5704 40bd f0f0 7cbd 1d57 8e3c
000003d0: b039 f6bb a8aa e0bc 1377 2abb 17a2 6b3d
000003e0: 7801 f33b 9068 37bb 9566 cbbc 5f0d 29bd
000003f0: 704e 9fbd 72e5 3d3a 67a6 f93b 38f7 b33c

action_model._discrete_distribution.branches.1.bias f4 [3]
0.008234797 0.006096409 -0.013366064
00000000: 3eeb 063c 63c4 c73b 56fd 5abc

action_model._discrete_distribution.branches.2.weight f4 [2, 256]
-0.0075436584 -0.0053721014 0.01320064 -0.00094995316 0.010641232 -0.03449013 0.027488569 0.04690703
0.020942507 -0.016926972 0.013662769 -0.018883225 -0.02124813 -0.020505842 0.0066221254 -0.018127859
-0.023526262 -0.037217997 0.008287515 -0.01760843 0.0035760372 -0.03334992 0.005581301 -0.037914947
0.007741981 0.0047994168 -0.0062160944 0.004336853 -0.035539 -0.045096774 -0.058812357 0.008784003
-0.007138069 -0.027232997 -0.092309594 -0.015397692 0.04986655 -0.012820829 0.04508124 -0.0072403564
-0.041547816 0.0054255244 0.01759592 0.023586432 0.012511045 -0.020325614 0.026721926 -0.042133927
-0.00051300036 0.008374388 -0.020374946 -0.029517038 -0.022387197 0.007937792 -0.02920456 -0.024078326
-0.030470548 0.0050857672 -0.019009195 0.015012871 -0.022561876 -0.016495049 0.01891434 0.023201222
0.0010812525 0.008154132 0.026020436 0.0042028944 -0.00080647477 -0.013950035 -0.0023934704 0.032309994
-0.015849072 -0.032466475 0.0106932195 -0.024053527 -0.009888087 0.021856366 0.02096014 -0.0065166573
-0.0115388855 -0.030074641 0.0022159044 -0.040746856 -0.019788058 -0.006844543 -0.006787609 -0.02864853
-0.016342234 -0.0055853548 -0.033314906 -0.01690205 -0.033798948 -0.01592543 -0.046595056 -0.012824236
-0.026368592 -0.021163933 -0.045859776 0.0054394035 -0.029292004 0.05160254 -0.026288811 -0.0326037
0.006107383 -0.00296842 -0.006437377 -0.010225088 -0.011846169 -0.01029981 -0.030251967 0.04693487
0.031839952 -0.013852567 -0.00044396074 0.015946362 -0.011073044 -0.0012944994 0.00861032 -0.007251655
0.007830845 -0.0076849987 -0.021885829 -0.014999443 -0.008125058 0.004641016 -0.03666417 -0.036186747
-0.0028017946 -0.0011318579 0.0069635217 -0.042607065 0.011398772 -0.061960388 -0.0378846 -0.06770676
-0.0060841935 -0.012379222 -0.01846466 -0.0077075 0.03514328 0.010042398 -0.011292999 0.026744572
-0.008813649 -0.021689482 0.005862473 -0.012744169 -0.008171235 -0.012495229 0.0063989903 0.026005413
0.022076199 -0.031793617 -0.02049656 0.005059972 -0.009834662 -0.032070823 -0.029146362 0.017224794
0.012896042 -0.0007620642 0.03283083 -0.01777916 0.02267635 0.023729358 -0.01266172 0.03453249
0.018082978 0.049354263 -0.007851161 0.0005158426 0.0010300908 -0.0004254648 -0.03347665 0.007868223
-0.034226153 -0.027123466 0.010443908 -0.061950654 -0.046842102 -0.02583263 0.017869325 -0.012396273
-0.022655852 -0.0155285355 -0.018433126 -0.042268302 0.011385791 -0.0446531 -0.021455133 -0.03635844
-0.056848083 0.0021580409 -0.027603632 0.0007802139 -0.0056610075 0.052479453 -0.0027209166 -0.02940885
0.008075845 0.019522084 -0.015311469 -0.021458358 -0.040782936 -0.033419296 -0.03614873 0.011423272
-0.0560922 -0.00018693616 -0.020831147 0.022695042 -0.0024042844 -0.004995225 0.0045333398 0.02465223
0.004295694 -0.028059373 -0.0072297286 0.020916082 0.007979883 -0.02004646 -0.035093978 -0.01096579
0.0036989772 -0.0027989254 0.014418245 0.02111167 -0.016514836 -0.045904346 -0.03398507 -0.0066667525
-0.02819425 -0.068611756 -0.012803983 0.019220125 -0.006510321 0.004690987 -0.0032010598 -0.027598992
-0.024562363 0.029557211 0.024133006 -0.034781326 0.023810573 -0.041936558 -0.02218516 0.022413813
-0.045933656 -0.019489769 0.036566366 0.020412 -0.06385195 -0.023031108 0.010803515 0.013968609
00000000: cb30 f7bb 7408 b0bb 7f47 583c 4706 79ba
00000010: 9058 2e3c 8645 0dbd b52f e13c 9621 403d
00000020: 9f8f ab3c 6faa 8abc cfd9 5f3c feb0 9abc
00000030: 8f10 aebc defb a7bc 6afe d83b e080 94bc
00000040: 26ba c0bc e671 18bd 5bc8 073c 8e3f 90bc
00000050: f35b 6a3b ed99 08bd 59e3 b63b b44c 1bbd
00000060: 72b0 fd3b 6d44 9d3b 61b0 cbbb 291c 8e3b
00000070: 5891 11bd 65b7 38bd 3ae5 70bd c7ea 0f3c
00000080: 76e6 e9bb bc17 dfbc d00c bdbd 9a46 7cbc
00000090: de40 4c3d 740e 52bc 1ba7 383d 8340 edbb
000000a0: 0b2e 2abd 99c8 b13b 5225 903c 5538 c13c
000000b0: 20fb 4c3c e781 a6bc f1e7 da3c a094 2cbd
000000c0: df7a 06ba bb34 093c 5ce9 a6bc b7cd f1bc
000000d0: 5b65 b7bc 830d 023c 673e efbc e93f c5bc
000000e0: 5f9d f9bc 82a6 a63b 2cb9 9bbc 8bf8 753c
000000f0: afd3 b8bc a020 87bc 3ff2 9a3c 7d10 be3c
00000100: d0b8 8d3a e998 053c cf28 d53c 6fb8 893b
00000110: 9b69 53ba b08e 64bc c5db 1cbb 7c57 043d
00000120: ead5 81bc 91fb 04bd 9d32 2f3c e70b c5bc
00000130: a501 22bc 1f0c b33c 99b4 ab3c af89 d5bb
00000140: 980d 3dbc 185f f6bc b538 113b 2de6 26bd
00000150: 911a a2bc 3048 e0bb 976a debb 52b0 eabc
00000160: 26e0 85bc 5a05 b7bb 3675 08bd 2b76 8abc
00000170: c470 0abd 0c76 82bc 75da 3ebd bf1c 52bc
00000180: f202 d8bc fc5f adbc 76d7 3bbd 063d b23b
00000190: c9f5 efbc 2f5d 533d a25b d7bc 758b 05bd
000001a0: 7120 c83b d389 42bb a2f0 d2bb 2187 27bc
000001b0: 6f16 42bc 89c0 28bc f9d2 f7bc c73e 403d
000001c0: 9c6a 023d e1f5 62bc 67c3 e8b9 f2a1 823c
000001d0: b66b 35bc 31ac a9ba 4d12 0d3c 4b9f edbb
000001e0: f24c 003c 71d2 fbbb e949 b3bc 39c0 75bc
000001f0: f71e 05bc aa13 983b 2b2d 16bd 8e38 14bd
00000200: 509e 37bb d95a 94ba 412e e43b bf84 2ebd
00000210: eac1 3a3c 2dca 7dbd e22c 1bbd d7a9 8abd
00000220: ea5d c7bb 38d2 4abc 3343 97bc 328f fcbb
00000230: 66f2 0f3d df88 243c 4506 39bc 6f17 db3c
00000240: 2067 10bc 24ae b1bc fd19 c03b ebcc 50bc
00000250: a5e0 05bc cab8 4cbc 9fae d13b 4e09 d53c
00000260: 25d9 b43c 063a 02bd 67e8 a7bc 1fce a53b
00000270: 9021 21bc b25c 03bd 5ac4 eebc 031b 8d3c
00000280: ec49 533c 43c5 47ba 9f79 063d 9aa5 91bc
00000290: c1c3 b93c 1264 c23c 1a73 4fbc f171 0d3d
000002a0: c122 943c b227 4a3d 28a2 00bc 9c39 073a
000002b0: 1d04 873a eb10 dfb9 d01e 09bd b8e9 003c
000002c0: b930 0cbd 0832 debc ed1c 2b3c f8bf 7dbd
000002d0: 81dd 3fbd f49e d3bc b162 923c bd19 4bbc
000002e0: c498 b9bc 666b 7ebc 1101 97bc 8721 2dbd
000002f0: 788b 3a3c 2be6 36bd adc2 afbc 96ec 14bd
00000300: 89d9 68bd eb6d 0d3b 0321 e2bc 4587 4c3a
00000310: f97f b9bb b2f4 563d 6851 32bb d4ea f0bc
00000320: 8d50 043c c7ec 9f3c f5dc 7abc 70c9 afbc
00000330: 020c 27bd ace2 08bd b110 14bd ad28 3b3c
00000340: efc0 65bd 4b04 44b9 15a6 aabc f4ea b93c
00000350: 3391 1dbb fcae a3bb 698c 943b 79f3 c93c
00000360: e5c2 8c3b c5dc e5bc 5ce7 ecbb 3458 ab3c
00000370: 0ebe 023c 7938 a4bc b4be 0fbd dba9 33bc
00000380: 8a6a 723b 2d6e 37bb 813a 6c3c 62f2 ac3c
00000390: 1f4a 87bc 3206 3cbd ee33 0bbd c674 dabb
000003a0: a1f7 e6bc 5284 8cbd ccc7 51bc 8673 9d3c
000003b0: 8854 d5bb dab6 993b dfc8 51bb 4817 e2bc
000003c0: 0237 c9bc f721 f23c 95b2 c53c dd76 0ebd
000003d0: 640e c33c abc5 2bbd a7bd b5bc 2c9d b73c
000003e0: ee24 3cbd 02a9 9fbc 9dc6 153d 1137 a73c
000003f0: d0c4 82bd bcab bcbc 3a01 313c 98dc 643c

action_model._discrete_distribution.branches.2.bias f4 [2]
-0.00950672 0.0095067285
00000000: 13c2 1bbc 1cc2 1b3c
