ML_stuff/results/cw_08/FindCubeWife/FindCubeWife-519452.onnx (onnx, 352586 bytes, 11 tensors)

discrete_act_size_vector f4 [1, 3]
3.0 3.0 2.0
00000000: 0000 4040 0000 4040 0000 0040

network_body._body_endoder.seq_layers.0.weight f4 [256, 69]
-0.16380331 0.014252912 0.15867698 -0.05912593 -0.09154788 0.1313379 0.0009750548 0.06066822
0.19442366 -0.03539828 0.23109491 0.034738094 0.21511564 -0.021141632 -0.15084639 0.1417285
-0.10079083 0.19412872 0.29916638 -0.102216706 0.07881437 -0.12613858 0.073657885 -0.15321095
0.05936753 -0.17117536 0.21824527 0.0016645511 -0.073029235 -0.118797824 0.081543945 -0.07188819
0.032947816 -0.09085628 -0.021505632 -0.1436517 -0.16064219 0.114819124 -0.19316038 -0.053351182
0.07565283 0.07849824 0.15862517 -0.08155386 0.04776503 -0.13399962 -0.03136205 -0.023408696
-0.063652076 -0.003227773 -0.0050097033 0.05486628 -0.16655502 0.09414632 -0.19898754 -0.088592246
-0.07380091 0.11936966 0.05623004 -0.15744354 0.2490373 -0.023003116 0.11906919 -0.096410245
0.047425415 -0.18697788 0.11960522 0.072004184 -0.04276829 0.17151827 -0.035123926 -0.08221718
-0.20430607 -0.17573184 0.1507035 0.022943597 -0.10707359 -0.07995446 -0.13787104 0.08873544
0.108678214 0.039315246 0.0065996717 0.14070392 0.082014106 0.21535821 -0.008655496 -0.029370366
-0.20739256 0.04426306 0.04220168 -0.17857575 0.14518689 0.12241199 -0.09984174 0.008889813
-0.109373584 0.042040534 -0.06872015 -0.08727141 -0.18733805 0.07536903 0.050906297 0.16550092
0.038931593 -0.16054386 0.2418925 0.18713187 0.05386125 0.06392177 -0.28514987 0.021923183
-0.11542407 0.03771715 0.13820808 0.017453205 0.022539832 -0.22257242 -0.20799173 0.07931187
-0.12873763 0.085456274 -0.19305804 0.14026605 0.030369693 0.19059947 -0.027720014 0.18464676
-0.15082484 -0.061280996 -0.08535092 -0.10483766 0.17317156 -0.04868985 -0.05610248 -0.032346215
-0.17741224 -0.054549184 0.05135305 0.29103056 0.083202116 0.0017419669 0.038932927 0.26292855
0.15142758 0.26949206 0.019953463 -0.06285248 0.18454754 -0.030607203 0.08068885 0.09620887
-0.054763675 0.14600869 0.022380313 0.085746504 0.03959347 -0.0067681083 0.0801977 -0.08817144
0.05674991 -0.034707252 -0.13254866 0.116422705 -0.14107333 -0.24831243 -0.059785362 0.07040462
0.06468917 -0.16554317 0.09357466 0.10581427 -0.2579596 -0.08293578 -0.09580072 0.19935176
0.10421215 0.040449496 -0.055302817 0.18086098 -0.04085995 -0.085708216 -0.04613433 -0.11620107
-0.1673499 0.10306287 -0.03749981 0.060014963 0.08381109 -0.054549266 -0.15180764 0.01296121
-0.32913634 -0.122669 -0.009942868 0.0068705147 -0.024573632 -0.18241642 -0.0047124363 -0.10680801
-0.19822305 -0.1203878 0.05388055 -0.039953686 0.1924731 -0.114916064 -0.13367078 0.18266997
0.008105572 -0.17986064 0.11350198 -0.023948455 -0.17552838 -0.061640896 -0.025723195 0.0073196064
-0.14717302 -0.15537691 0.12165971 0.14751524 -0.18824315 -0.013413593 0.24685566 -0.10323776
-0.057038665 -0.012340154 -0.020297881 -0.16947311 0.17162961 -0.0133698005 0.10765019 -0.00028899632
-0.06103944 0.112141475 -0.2250952 -0.1291026 0.1503116 0.059547745 0.06955012 -0.29029638
-0.09810063 -0.14081922 0.039112773 0.09905677 0.059828263 0.24252065 0.0006507999 -0.07158056
-0.010117107 0.14959681 0.001795219 0.04636027 -0.28080946 -0.15701509 0.064422354 0.20669124
00000000: 0ebc 27be 0c85 693c 387c 223e 082e 72bd
00000010: 747d bbbd 717d 063e d29a 7f3a 3d7f 783d
00000020: ff16 473e c9fd 10bd 25a4 6c3e 8849 0e3d
00000030: 4647 5c3e 3731 adbc 7a77 1abe 4721 113e
00000040: 6c6b cebd aec9 463e 562c 993e fe56 d1bd
00000050: 6e69 a13d 792a 01be f2d9 963d 55e3 1cbe
00000060: 5e2b 733d 9848 2fbe b07b 5f3e 112d da3a
00000070: 5a90 95bd 464c f3bd 8300 a73d 1e3a 93bd
00000080: 4af4 063d db12 babd 942c b0bc 6e19 13be
00000090: 637f 24be 4a26 eb3d d6cb 45be c586 5abd
000000a0: dfef 9a3d afc3 a03d a36e 223e b605 a7bd
000000b0: 44a5 433d 3237 09be 7e75 00bd 98c3 bfbc
000000c0: 055c 82bd 0b89 53bb 7028 a4bb 77bb 603d
000000d0: 668d 2abe c9cf c03d 64c3 4bbe da6f b5bd
000000e0: ee24 97bd 1578 f43d 7851 663d e138 21be
000000f0: a203 7f3e 0871 bcbc 8cda f33d bc72 c5bd
00000100: 2741 423d 2177 3fbe 95f3 f43d ee76 933d
00000110: cd2d 2fbd 7ca2 2f3e 1bde 0fbd 7b61 a8bd
00000120: 9c35 51be 0cf3 33be 0552 1a3e 36f4 bb3c
00000130: 6649 dbbd 2abf a3bd 112e 0dbe edba b53d
00000140: af92 de3d 0609 213d 0f42 d83b b014 103e
00000150: 03f7 a73d dd86 5c3e c8cf 0dbc 1f9a f0bc
00000160: b75e 54be 2f4d 353d abdb 2c3d 90dc 36be
00000170: dfab 143e 23b3 fa3d d479 ccbd 94a6 113c
00000180: 42ff dfbd b232 2c3d 26bd 8cbd 5abb b2bd
00000190: 8cd5 3fbe 145b 9a3d 1f83 503d 1379 293e
000001a0: bc76 1f3d 9c65 24be abb2 773e 7f9f 3f3e
000001b0: 9d9d 5c3d 6be9 823d 2aff 91be 3f98 b33c
000001c0: 7463 ecbd 4c7d 1a3d 6b86 0d3e 06fa 8e3c
000001d0: 74a5 b83c 06ea 63be c9fb 54be 436e a23d
000001e0: ccd3 03be b303 af3d 02b1 45be e7a1 0f3e
000001f0: ddc9 f83c 822c 433e 1515 e3bc 0a14 3d3e
00000200: d471 1abe c801 7bbd 77cc aebd 21b5 d6bd
00000210: e353 313e 026f 47bd b7cb 65bd 777d 04bd
00000220: 8eab 35be f76e 5fbd 9357 523d f501 953e
00000230: df65 aa3d b652 e43a 2278 1f3d 929e 863e
00000240: d50f 1b3e ddfa 893e 7275 a33c cdb8 80bd
00000250: 08fa 3c3e f5bb fabc 3240 a53d 2809 c53d
00000260: e04f 60bd 4d83 153e eb56 b73c dd9b af3d
00000270: c32c 223d 02c7 ddbb b13e a43d 3a93 b4bd
00000280: 9872 683d 3129 0ebd d6ba 07be 076f ee3d
00000290: 8775 10be 9d45 7ebe 7fe1 74bd 4c30 903d
000002a0: c17b 843d 2684 29be 12a4 bf3d 27b5 d83d
000002b0: 4813 84be 3cda a9bd 2b33 c4bd de22 4c3e
000002c0: 2e6d d53d 5fae 253d 3585 62bd 9f33 393e
000002d0: c35c 27bd ca87 afbd 5af7 3cbd d4fa edbd
000002e0: c65d 2bbe a012 d33d 6799 19bd 40d2 753d
000002f0: 26a5 ab3d 0d6f 5fbd 7673 1bbe 415b 543c
00000300: 8f84 a8be e239 fbbd 69e7 22bc 0e22 e13b
00000310: a44e c9bc 5fcb 3abe c86a 9abb 28be dabd
00000320: fcfa 4abe e18d f6bd dab1 5c3d 7aa6 23bd
00000330: ab17 453e 1d59 ebbd fee0 08be d60d 3b3e
00000340: 3ccd 043c 632d 38be ba73 e83d 8d2f c4bc
00000350: b6bd 33be 2a7b 7cbd 73b9 d2bc 4fd9 ef3b
00000360: 86b4 16be 201b 1fbe ba28 f93d 3c0e 173e
00000370: d0c2 40be b0c4 5bbc bbc7 7c3e 526e d3bd
00000380: 60a1 69bd 5b2e 4abc be47 a6bc 5c8a 2dbe
00000390: acbf 2f3e 020d 5bbc b477 dc3d 6e84 97b9
000003a0: 7e04 7abd 6eaa e53d 5b7f 66be 7933 04be
000003b0: 49eb 193e 56e8 733d 4b70 8e3d baa1 94be
000003c0: fce8 c8bd ea32 10be b734 203d 47de ca3d
000003d0: 7b0e 753d 5557 783e 719a 2a3a d498 92bd
000003e0: 39c2 25bc e82f 193e 8e4d eb3a 44e4 3d3d
000003f0: 42c6 8fbe 90c8 20be deef 833d dea6 533e

network_body._body_endoder.seq_layers.0.bias f4 [256]
0.0018519221 0.026316099 0.014278133 -0.022184689 -0.020010449 0.023992704 -0.044759944 0.021527022
-0.010538207 0.020049082 0.0036568472 0.049458876 0.051522363 -0.015759189 0.009144945 0.05932979
0.0008276635 -0.01697814 0.030537521 0.031313587 -0.014043448 0.01635946 -0.00010532607 0.025243342
0.023602324 -0.012249886 -0.016162802 -0.019603284 -0.008786816 0.038362302 0.02141529 0.043945335
0.07450111 0.024024146 0.024700329 0.025440183 -0.015922943 0.067224234 0.011029592 0.021048136
0.051136192 -0.024537735 0.016670719 -0.022916893 0.01416365 -0.003979894 0.007941634 0.050602563
0.048075702 -0.040203117 0.033364173 0.002136799 0.05180716 0.020680675 0.017134912 0.018473705
-0.033599533 0.0690773 -0.0057757683 0.03869023 0.016288372 0.01137487 0.040925972 -0.024292205
-0.0031699731 0.008365253 0.0124972 0.02214143 0.046912797 -0.026066568 0.0014080044 0.028266713
0.025826983 -0.022879852 0.022613212 0.012631032 0.021922454 -0.02356236 -0.00092149386 -0.004333019
-0.0124499565 0.02499992 0.008497384 0.019156924 0.009673831 -0.0027990164 -0.011674148 0.032234866
0.034496933 -0.016972065 -0.014553511 -0.003695007 -0.022878775 0.006751766 -0.031169211 0.011962851
-0.004437053 -0.039515242 0.031445317 -0.014288444 0.008750471 0.04331456 0.021874143 0.011703418
-0.020556282 -0.02499797 0.024370288 -0.006758049 0.027893059 0.045744658 -0.023124617 0.01651378
-0.014243277 -0.0067192432 -0.02501531 -0.028784594 0.032465134 0.031037753 -0.023683393 0.017801953
0.026469037 -0.018519744 -0.006224583 0.049366176 0.011143198 -0.017774245 0.013461744 -0.019133795
0.0018278102 0.027430642 -0.0049649216 0.027367972 -0.01776512 -0.025108213 0.02026783 0.003546334
0.022823133 0.012686581 0.02103101 -0.011540526 -0.0005327678 0.06002983 0.020196544 0.027101748
0.009063966 0.02570388 0.045057286 0.015940527 0.029005773 0.02983814 0.037591275 0.0072669545
0.035725214 0.012101931 0.024343545 0.013983869 0.037184305 0.013937949 0.003985959 0.0090450235
-0.0123475455 -0.0256243 0.008885029 0.018625919 0.017499097 0.0029437656 0.007593107 0.0467602
-0.03029701 -0.040746436 -0.0043453975 -0.0045235837 -0.020251764 0.015005434 0.02450179 0.0066949944
0.063190416 -0.023193019 0.03193768 0.039973225 0.021608721 0.014629094 0.0500898 -0.00038151265
0.044761546 -0.008927431 -0.0058665504 -0.003686226 0.02685212 0.06931723 0.041526012 -0.009949663
0.0021694156 0.0063290936 0.017726796 0.0282388 -0.017055124 0.0053086476 0.013075403 0.02709959
-0.027596878 -0.018825362 0.054117322 0.05669571 0.014160655 0.034129 0.0059472597 0.013496785
0.011317634 0.027131852 0.020214831 -0.007144957 0.026076548 0.040618736 0.015980566 0.026603112
0.020272356 -0.015689863 -0.008033062 -0.018690443 0.019207064 -0.026272593 0.019602338 0.00019172321
0.009017254 0.031184113 0.016374106 0.010513651 0.043031305 0.048405442 0.024405697 0.017706629
0.021629779 0.015805753 0.031124288 -0.0014496485 0.00040142733 -0.016113218 0.0015147 0.013802922
0.024324775 0.008598735 0.045017343 -0.0331686 0.0031400512 0.04191556 0.041172866 -0.0038926695
0.006070752 0.013925967 0.038396895 0.006417258 0.0087607335 0.0020001302 0.023776907 0.049473383
00000000: 32bc f23a dc94 d73c d5ee 693c aabc b5bc
00000010: f4ec a3bc 598c c43c 3456 37bd 7059 b03c
00000020: 72a8 2cbc f93d a43c b7a7 6f3b 6495 4a3d
00000030: 1d09 533d 6a19 81bc aed4 153c cb03 733d
00000040: 8ff7 583a be15 8bbc d329 fa3c ad42 003d
00000050: 7d16 66bc 4604 863c 81e2 dcb8 20cb ce3c
00000060: a959 c13c bfb3 48bc da67 84bc 1197 a0bc
00000070: 94f6 0fbc ca21 1d3d 1e6f af3c 0600 343d
00000080: 0a94 983d 49ce c43c 5858 ca3c ee67 d03c
00000090: d570 82bc dcac 893d 76b5 343c 246d ac3c
000000a0: 2f74 513d 5c03 c9bc 0891 883c 35bc bbbc
000000b0: a70e 683c c569 82bb a11d 023c a244 4f3d
000000c0: 07eb 443d 06ac 24bd dfa8 083d 8a09 0c3b
000000d0: bf33 543d 856a a93c 845e 8c3c 2b56 973c
000000e0: aa9f 09bd 6678 8d3d a842 bdbb a679 1e3d
000000f0: 316f 853c aa5d 3a3c fea1 273d 7200 c7bc
00000100: 53bf 4fbb 6a0e 093c 0ec1 4c3c f261 b53c
00000110: a227 403d 8e89 d5bc ca8c b83a 988f e73c
00000120: 1c93 d33c 876e bbbc 583f b93c 63f2 4e3c
00000130: b896 b33c da05 c1bc 6890 71ba fffb 8dbb
00000140: e7fa 4bbc a2cc cc3c 9d38 0b3c fbee 9c3c
00000150: fd7e 1e3c b46f 37bb ed44 3fbc b508 043d
00000160: a84c 0d3d 0009 8bbc d971 6ebc ee27 72bb
00000170: 456c bbbc eb3d dd3b 9356 ffbc d5ff 433c
00000180: b364 91bb bcda 21bd cecc 003d 141a 6abc
00000190: 235e 0f3c 9c6a 313d 6731 b33c b1bf 3f3c
000001a0: a665 a8bc 8bc8 ccbc 33a4 c73c a072 ddbb
000001b0: fc7f e43c c05e 3b3d d66f bdbc e847 873c
000001c0: a25c 69bc 192d dcbb e8ec ccbc abcd ebbc
000001d0: 29fa 043d e342 fe3c ad03 c2bc 67d5 913c
000001e0: 98d5 d83c b8b6 97bc 96f7 cbbb 3034 4a3d
000001f0: f691 363c 4b9b 91bc a68e 5c3c 7abe 9cbc
00000200: 2293 ef3a 3ab6 e03c c8b0 a2bb cc32 e03c
00000210: 2888 91bc bdaf cdbc b808 a63c 9d69 683b
00000220: 94f7 ba3c 61db 4f3c 3a49 ac3c 7914 3dbc
00000230: 71a9 0bba d7e1 753d 3973 a53c 7c04 de3c
00000240: 0781 143c f190 d23c fd8d 383d b595 823c
00000250: 849d ed3c 1d6f f43c 4ff9 193d a21f ee3b
00000260: 9a54 123d 2d47 463c 1d6c c73c 991c 653c
00000270: 924e 183d ff5b 643c a69c 823b 9431 143c
00000280: 5c4d 4abc 0dea d1bc 8392 113c 6295 983c
00000290: 445a 8f3c 31ec 403b 99cf f83b a087 3f3d
000002a0: 6f31 f8bc bce5 26bd d663 8ebb 923a 94bb
000002b0: 07e7 a5bc 5ad9 753c fab7 c83c af61 db3b
000002c0: fa69 813d 49ff bdbc 16d1 023d f7ba 233d
000002d0: c604 b13c deae 6f3c f62a 4d3d c305 c8b9
000002e0: e257 373d 5c44 12bc 313c c0bb 9c94 71bb
000002f0: faf8 db3c 31f6 8d3d 2e17 2a3d e903 23bc
00000300: c12c 0e3b 4964 cf3b c937 913c 0e55 e73c
00000310: 30b7 8bbc 2af4 ad3b 373a 563c f6ff dd3c
00000320: d912 e2bc a537 9abc 20aa 5d3d c339 683d
00000330: 1802 683c daca 0b3d 3be1 c23b 9f21 5d3c
00000340: 996d 393c 9e43 de3c 9399 a53c 3e20 eabb
00000350: 7c9e d53c d55f 263d ade9 823c c5ee d93c
00000360: 3612 a63c 0788 80bc 1b9d 03bc b31c 99bc
00000370: 2258 9d3c 9f39 d7bc 1595 a03c 4f09 4939
00000380: 1bbd 133c d375 ff3c fd22 863c 7341 2c3c
00000390: 9841 303d c944 463d 75ee c73c 7e0d 913c
000003a0: ef30 b13c 117b 813c 5df8 fe3c 2202 beba
000003b0: aa76 d239 deff 83bc e688 c63a a725 623c
000003c0: c044 c73c b5e1 0c3c 1b64 383d ccdb 07bd
000003d0: 51c9 4d3b a6af 2b3d e1a4 283d 281c 7fbb
000003e0: 29ed c63b bd29 643c 1046 1d3d dd47 d23b
000003f0: 2e89 0f3c 9e14 033b cac7 c23c 9aa4 4a3d

network_body._body_endoder.seq_layers.2.weight f4 [256, 256]
-0.00895855 0.03203113 0.052411452 0.06837933 -0.020614943 -0.0014232192 0.054819506 0.11028534
0.0030129496 0.07809379 -0.058500636 -0.08960333 0.008278257 -0.08639237 0.00044266108 -0.0037181447
-0.048357308 0.05342276 0.055770233 -0.04098777 -0.06276687 -0.0910689 0.02538727 -0.055130474
0.15637664 -0.096414916 0.009292492 -0.069340765 -0.019374786 -0.12699999 0.0931563 -0.064595744
-0.011962693 0.13533993 0.021420963 0.11831334 -0.04554108 0.09568973 -0.09782471 -0.043971017
-0.025851209 -0.043174647 0.058588043 -0.003358715 -0.041423995 0.0014677835 0.026755866 0.04180364
0.009910677 0.010630036 0.024163945 -0.0030553674 0.2002367 -0.0033246756 -0.014985546 0.09118177
0.07390926 0.07084246 0.02916952 -0.025593001 -0.19692297 0.121992104 -0.0792664 -0.017893005
0.053071048 0.12807663 -0.047671888 -0.10734938 0.026736727 0.0362409 -0.17107506 0.1587749
0.020010324 0.11780625 -0.007336426 -0.18422815 -0.015208587 -0.03338151 0.04209756 0.017294906
0.122776024 0.074148096 0.13260633 -0.04083906 0.0025752159 -0.011163742 -0.06830547 0.026408328
0.09099218 0.037685648 -0.047858693 -0.016476342 -0.072006896 -0.099587716 0.043568015 -0.028420571
0.172915 0.012990878 0.13133067 -0.023568138 -0.10217581 -0.043782562 0.011124963 -0.01585546
0.029063862 0.14049247 -0.023852808 -0.06436876 0.011497508 -0.03447729 -0.11417891 0.043976173
-0.044730358 -0.026055316 0.08557986 -0.092259504 0.11806521 0.03832788 0.015811082 0.21565731
0.039296046 0.0022933509 -0.03388952 0.082953446 0.044188373 0.036992133 0.02671655 0.10014131
-0.011860809 0.09916291 0.0792818 0.0111420145 0.054615173 -0.07969015 -0.058925394 0.018021772
-0.11868966 -0.05177436 0.030696763 0.041659366 0.018471634 0.051256977 -0.037948087 -0.011202215
0.044712838 0.09825572 0.03300556 0.03425629 0.012554218 0.06960711 -0.037407078 0.06799657
0.096908465 0.009925286 -0.05746864 0.014690966 -0.01720359 0.07973337 -0.034146406 -0.08718241
-0.011509063 -0.0061655287 -0.0397546 0.016889414 0.09034547 -0.019023484 -0.18203093 -0.04128069
-0.09330508 0.011237898 -0.1822296 0.0754934 -0.068502806 0.06281773 -0.13217996 -0.11074626
-0.1155065 -0.08962632 -0.062118184 0.01647284 -0.029033907 -0.02263004 0.030114105 0.056039505
0.02067212 0.07417839 -0.056336664 0.05310401 0.0148527175 -0.0798884 -0.060196515 -0.062312942
0.030659322 0.06716157 -0.024250733 -0.0691169 -0.042673137 -0.10308033 0.119400404 -0.079256505
0.013770231 0.099752165 0.043345492 0.06320169 0.0026800297 0.071079046 -0.018527929 -0.074577115
0.03969366 0.15064628 -0.032764416 -0.02166176 0.08809854 -0.035953492 0.10144849 -0.067814715
-0.10089764 -0.031479295 -0.040753752 -0.18055357 0.07323375 -0.015633024 0.05802266 0.08162178
0.013199796 -0.07275337 0.039213378 -0.056682575 -0.10886724 -0.105495796 0.020141494 -0.11720071
-0.012298525 0.029880915 -0.03925542 0.017720697 0.015263117 -0.018006917 -0.09932893 -0.2102969
0.007987995 -0.008319043 -0.09505117 0.0562009 0.24977498 -0.091433086 0.06499038 0.015838655
-0.17871766 0.04629041 0.0621197 0.12488295 -0.046371035 -0.018279102 -0.057879552 0.06329195
00000000: e2c6 12bc 1333 033d 64ad 563d 760a 8c3d
00000010: abe0 a8bc 508b baba 6b8a 603d 48dd e13d
00000020: e874 453b a3ef 9f3d 5d9e 6fbd f381 b7bd
00000030: 87a1 073c 7cee b0bd f714 e839 1eac 73bb
00000040: 5012 46bd d3d1 5a3d 546f 643d cbe2 27bd
00000050: eb8b 80bd 5582 babd f7f8 cf3c 7ed0 61bd
00000060: 3321 203e 2f75 c5bd 893f 183c 8802 8ebd
00000070: dfb7 9ebc 490c 02be bbc8 be3d c64a 84bd
00000080: 2cff 43bc 8d96 0a3e 047b af3c 444e f23d
00000090: 4989 3abd faf8 c33d 5258 c8bd f41a 34bd
000000a0: eac5 d3bc e6d7 30bd 04fa 6f3d e31d 5cbb
000000b0: 35ac 29bd a462 c03a 1e2f db3c 4b3a 2b3d
000000c0: 6460 223c 9a29 2e3c 77f3 c53c 8f3c 48bb
000000d0: d90a 4d3e cde2 59bb ef85 75bc 82bd ba3d
000000e0: bd5d 973d da15 913d ebf4 ee3c 6aa8 d1bc
000000f0: 2da6 49be ffd6 f93d 6c56 a2bd 5a94 92bc
00000100: 0761 593d 8526 033e 9943 43bd fed9 dbbd
00000110: fb06 db3c 5771 143d 4d2e 2fbe e395 223e
00000120: b1ec a33c 6744 f13d 6766 f0bb 4ea6 3cbe
00000130: 702d 79bc 0dbb 08bd 7e6e 2c3d 0cae 8d3c
00000140: ff71 fb3d f5da 973d f4c9 073e dc46 27bd
00000150: f4c4 283b 21e8 36bc bde3 8bbd 4756 d83c
00000160: 1c5a ba3d 445c 1a3d 7a07 44bd 65f9 86bc
00000170: 5a78 93bd a5f4 cbbd 6074 323d 42d2 e8bc
00000180: a110 313e b1d7 543c 8c7b 063e f811 c1bc
00000190: 8d41 d1bd 5855 33bd 7a45 363c 4fe3 81bc
000001a0: 5617 ee3c 42dd 0f3e f766 c3bc c5d3 83bd
000001b0: 0b60 3c3c 0f38 0dbd a2d6 e9bd 5c20 343d
000001c0: 2e37 37bd f571 d5bc 7e44 af3d 8df2 bcbd
000001d0: 2ccc f13d b2fd 1c3d 3e86 813c 45d5 5c3e
000001e0: e4f4 203d 0b4c 163b bdcf 0abd 7fe3 a93d
000001f0: defe 343d 1085 173d abdc da3c e316 cd3d
00000200: d753 42bc ec15 cb3d 7f5e a23d ff8c 363c
00000210: 29b4 5f3d 9734 a3bd c15b 71bd 65a2 933c
00000220: 9113 f3bd 5a11 54bd c777 fb3c 03a3 2a3d
00000230: d351 973c d6f2 513d 746f 1bbd 7f89 37bc
00000240: cf24 373d 4c3a c93d d730 073d 5350 0c3d
00000250: 35b0 4d3c 2c8e 8e3d 2a38 19bd c941 8b3d
00000260: f277 c63d ab9d 223c 3d64 6bbd 61b2 703c
00000270: 8bee 8cbc 404b a33d 1add 0bbd b18c b2bd
00000280: 8290 3cbc 3408 cabb b8d5 22bd ab5b 8a3c
00000290: 0c07 b93d 23d7 9bbc 5166 3abe f115 29bd
000002a0: bc16 bfbd 291f 383c 659a 3abe 499c 9a3d
000002b0: 334b 8cbd 95a6 803d 2f5a 07be efce e2bd
000002c0: ac8e ecbd 018e b7bd a36f 7ebd 0df2 863c
000002d0: 84d8 edbc a262 b9bc dbb1 f63c ae89 653d
000002e0: 9458 a93c d7ea 973d 46c1 66bd 9783 593d
000002f0: d058 733c 889c a3bd 9f90 76bd db3b 7fbd
00000300: 4229 fb3c 018c 893d 79a9 c6bc 298d 8dbd
00000310: 07ca 2ebd c81b d3bd 3388 f43d 3c51 a2bd
00000320: 899c 613c dd4a cc3d 0b8b 313d e36f 813d
00000330: 70a3 2f3b e491 913d e2c7 97bc e3bb 98bd
00000340: d295 223d 0543 1a3e fb33 06bd 0174 b1bc
00000350: 026d b43d f843 13bd 3ac4 cf3d 71e2 8abd
00000360: 6ca3 cebd 6ff0 00bd 68ed 26bd 09e3 38be
00000370: 94fb 953d d410 80bc 2ba9 6d3d 5229 a73d
00000380: f543 583c b8ff 94bd 359e 203d fd2b 68bd
00000390: caf5 debd 2e0e d8bd c6ff a43c ed06 f0bd
000003a0: c17f 49bc d2c8 f43c 4bca 20bd ff2a 913c
000003b0: 2712 7a3c 3e83 93bc f76c cbbd 1258 57be
000003c0: 14e0 023c 984c 08bc 30aa c2bd ea32 663d
000003d0: 03c5 7f3e 4541 bbbd ad19 853d 11c0 813c
000003e0: c301 37be 039b 3d3d 3a71 7e3d a2c2 ff3d
000003f0: 8eef 3dbd 0ebe 95bc 1c13 6dbd 369f 813d

network_body._body_endoder.seq_layers.2.bias f4 [256]
-0.017898174 -0.022707198 -1.0418269e-05 0.014829651 0.018194705 0.009994429 0.027221411 0.008847334
-0.009612545 -0.008215801 0.0064497683 -0.010089005 0.030199425 -0.0012538373 -0.034749724 -0.023954326
0.003103154 0.011239254 0.022961242 -0.026961587 -0.009645471 0.02250742 -0.008747987 -0.00034389753
0.019100526 0.001985033 0.009856447 0.009013535 0.0022858328 0.0024380407 -0.008734057 -0.015626362
-0.02090634 0.009254942 -0.006219469 -0.025276503 0.017624773 0.0076038125 0.027807465 -0.007849408
-0.013698955 -0.021405898 0.020405585 0.0037300328 0.02064163 -0.0026613262 0.00376144 0.008332981
0.020437853 -0.00031634286 0.020831512 -0.00863075 -0.029043023 0.017266946 -0.0015066325 -0.0038800775
0.013297347 -0.017855478 0.0012689973 -0.0062300335 -0.005456445 -0.033240452 -0.0018059594 0.019296363
0.008831278 0.0037002652 0.014344856 -0.014413026 0.0007841982 -0.017271591 0.00503208 0.017846558
-0.045097414 -0.019319918 -0.013221821 -0.011043743 -0.010647078 0.018738464 0.01289464 0.033676874
-0.010856173 -0.032108013 -0.04383109 -0.0017502938 -0.009661199 0.018979935 -0.033528347 0.007690416
-0.01099274 -0.035608873 0.017302113 -0.015601752 0.00878679 -0.0043134866 0.010487257 -0.01344417
-0.029197292 -0.011148101 -0.0035755916 0.010759909 -0.005350854 0.021372365 -0.016701085 -0.008298386
0.0020951545 -0.000542074 -0.013092766 -0.027239075 -0.0345338 -0.03368697 0.0065435246 0.009787324
0.005058105 0.003788894 0.023874741 -0.0049716793 -0.04413027 -0.014705369 -0.023456194 -0.03625305
0.009325451 0.006374801 -0.00039414992 -0.0097655915 -0.011079917 0.015408805 -0.013512733 -0.0012746692
-0.0003623815 -0.00075486256 -0.0038920168 0.007701894 0.00875835 0.010351199 -0.021203382 -0.0044007245
-0.009231088 -0.00419951 0.011779334 -0.026818933 -0.00058529596 0.006691002 -0.0006689288 -0.0007121176
0.010106575 0.01861956 -0.00837771 -0.042324588 0.0098779695 0.017747918 -0.005781468 -0.0054962854
0.020871032 -0.020173294 0.011234933 -0.0050734784 -0.004515887 -0.022891857 -0.030715536 0.0012242823
0.019627005 0.012501414 0.01265948 -0.039524868 0.0098850345 0.0023139096 -0.013384848 0.025308568
0.0021689113 0.0008542205 0.015144369 -0.025479613 0.020128313 -0.034959182 -0.019739691 0.007066677
-0.04280605 0.004645619 -0.0012025024 0.020690233 -0.039424945 -0.006889742 0.013956584 0.005711644
-0.015174384 -0.030521091 0.00069284264 -0.025651714 0.0059368387 -0.0018462281 -0.00441308 -0.011101965
-0.00889292 0.013201824 -0.005754486 -0.008910184 0.0029805894 0.0051833913 0.00065088377 0.013918983
0.0055923597 -0.013077327 -0.005647163 -0.011454604 -0.0066083535 -0.0131848 0.0058119856 -0.014292365
-0.020991653 -0.018288452 -0.017835328 0.0060265576 -0.009415105 0.004034309 -0.023788886 0.020441538
0.009134769 -0.0050666165 -0.021923529 -0.0046440507 0.018766636 -0.019299204 -0.00054788886 0.005478797
0.012371865 -0.011815774 -0.013597642 -0.002573036 -0.02986794 -8.626306e-05 -0.027910521 0.00011771655
-0.023357166 -0.007981207 -0.006407037 0.015793141 -0.029433485 0.004382848 -0.01895124 0.011431967
0.00626245 0.022230165 0.028742954 -0.021720394 -0.0022718878 -0.0041364944 0.022657318 0.017654484
-0.017628523 0.0069317403 0.0021882588 0.00037786234 -0.009083224 -0.016430335 -0.01759826 -0.021560883
00000000: 319f 92bc 7204 babc 20ca 2eb7 11f8 723c
00000010: 100d 953c acbf 233c 70ff de3c 69f4 103c
00000020: f07d 1dbc 919b 06bc 9458 d33b 5b4c 25bc
00000030: c964 f73c cc57 a4ba ba55 0ebd dd3b c4bc
00000040: 495e 4b3b d924 383c 3719 bc3c 8cde dcbc
00000050: 0a08 1ebc 7b61 b83c b853 0fbc 254d b4b9
00000060: b578 9c3c 5417 023b ef7c 213c 82ad 133c
00000070: e9cd 153b 89c7 1f3b 4a19 0fbc db02 80bc
00000080: c643 abbc 0aa2 173c b0cc cbbb ab10 cfbc
00000090: d461 903c 6729 f93b 7bcc e33c ce9a 00bc
000000a0: 9571 60bc 6c5b afbc 9d29 a73c 9173 743b
000000b0: a318 a93c a569 2ebb 7e82 763b 0e87 083c
000000c0: 496d a73c d2da a5b9 d9a6 aa3c fd67 0dbc
000000d0: a2eb edbc 6973 8d3c 337a c5ba e648 7ebb
000000e0: 1edd 593c a745 92bc 7c54 a63a 4f25 ccbb
000000f0: facb b2bb 2427 08bd f1b5 ecba 6813 9e3c
00000100: 11b1 103c 2680 723b b006 6b3c 9d24 6cbc
00000110: a692 4d3a 277d 8dbc 26e4 a43b f232 923c
00000120: 11b8 38bd ce44 9ebc 56a0 58bc d1f0 34bc
00000130: 1571 2ebc 6881 993c 0a44 533c c3f0 093d
00000140: 17de 31bc b183 03bd 3b88 33bd 1d6a e5ba
00000150: 014a 1ebc cf7b 9b3c 0555 09bd e3ff fb3b
00000160: e51a 34bc 9cda 11bd 29bd 8d3c 7e9e 7fbc
00000170: 78f6 0f3c 2658 8dbb bed2 2b3c f044 5cbc
00000180: 292f efbc 86a6 36bc 7954 6abb 544a 303c
00000190: 3756 afbb 1915 af3c b7d0 88bc f4f5 07bc
000001a0: dc4e 093b f819 0eba 0a83 56bc 7b24 dfbc
000001b0: 5073 0dbd 59fb 09bd 106b d63b 035b 203c
000001c0: 76be a53b 184f 783b f694 c33c 78e9 a2bb
000001d0: f1c1 34bd caee 70bc 3427 c0bc 147e 14bd
000001e0: c7c9 183c b5e3 d03b e8a5 ceb9 dcff 1fbc
000001f0: 8a88 35bc 3675 7c3c 8364 5dbc cd12 a7ba
00000200: 06fe bdb9 f8e1 45ba 3511 7fbb 2b60 fc3b
00000210: 2f7f 0f3c 1398 293c b7b2 adbc f433 90bb
00000220: fd3d 17bc 0b9c 89bb 1cfe 403c 61b3 dbbc
00000230: 8c6e 19ba 3140 db3b 0d5b 2fba 67ad 3aba
00000240: 0c96 253c 0c88 983c aa42 09bc 8c5c 2dbd
00000250: 35d7 213c 1564 913c 7872 bdbb 2f1a b4bb
00000260: baf9 aa3c 7742 a5bc b912 383c 6c3f a6bb
00000270: 01fa 93bb b487 bbbc 269f fbbc 1978 a03a
00000280: d0c8 a03c bbd2 4c3c b569 4f3c d4e4 21bd
00000290: d7f4 213c f6a4 173b 1f4c 5bbc ea53 cf3c
000002a0: 4b24 0e3b c4ed 5f3a 1620 783c 9fba d0bc
000002b0: 22e4 a43c 5c31 0fbd 22b5 a1bc 958f e73b
000002c0: 6655 2fbd 473a 983b 499d 9dba 907e a93c
000002d0: 0d7c 21bd 58c3 e1bb 28aa 643c be28 bb3b
000002e0: fb9d 78bc 5e07 fabc e29f 353a 8b23 d2bc
000002f0: d089 c23b 23fd f1ba 999b 90bb 04e5 35bc
00000300: 9cb3 11bc 774c 583c 2190 bcbb 05fc 11bc
00000310: fe55 433b 70d9 a93b 12a0 2a3a 720c 643c
00000320: 1d40 b73b 4942 56bc d60b b9bb 17ac 3bbc
00000330: e38a d8bb 0f05 58bc 7872 be3b 862a 6abc
00000340: b0f6 abbc aad1 95bc 651b 92bc 6e7a c53b
00000350: d041 1abc 3d32 843b e9e0 c2bc 0375 a73c
00000360: 00aa 153c dc05 a6bb f998 b3bc 1f2d 98bb
00000370: 7dbc 993c 5d19 9ebc 33a0 0fba 7b87 b33b
00000380: 5db3 4a3c f396 41bc a5c8 5ebc 61a0 28bb
00000390: 9cad f4bc 21e8 b4b8 9ba4 e4bc 97de f638
000003a0: 8757 bfbc 9cc3 02bc 1ff2 d1bb 9e60 813c
000003b0: 7e1e f1bc fe9d 8f3b a23f 9bbc 254d 3b3c
000003c0: 3d35 cd3b 091c b63c 5876 eb3c f8ee b1bc
000003d0: f4e3 14bb 6e8b 87bb d79b b93c 23a0 903c
000003e0: b169 90bc a723 e33b e468 0f3b d31b c639
000003f0: ced1 14bc e998 86bc 3a2a 90bc 73a0 b0bc

action_model._discrete_distribution.branches.0.weight f4 [3, 256]
-0.003236675 -0.015499501 -0.009357982 0.014861573 0.017810082 0.013365109 0.037956532 -0.03938521
0.0009821851 -0.018876847 0.0043387283 -0.0019006922 -0.045090746 -0.013317516 -0.01000981 0.008402788
-0.039639458 0.017010456 0.004481376 0.022132993 -0.017140413 -0.024539253 -0.0037839722 -0.018613048
-0.015371332 -0.022217372 -0.03689605 -0.013004323 -0.021101935 -0.038530104 -0.0073690517 -0.008199795
-0.03668968 -0.015035295 0.0028413122 0.009382445 0.0141298575 -0.0014156802 -0.08151665 0.01571875
-0.0018537991 -0.017065646 -0.040505216 0.013024653 -0.034065306 -0.0010572849 0.030150127 0.0072770915
0.0131802475 0.0064490023 -0.061938584 -0.014502397 -0.0026607548 -0.025699606 0.0020631596 0.048033454
-0.036781114 -0.001286231 -0.019377815 -0.0023538268 -0.026995856 0.00036317055 -0.029933542 0.0001959414
-0.013169658 -0.017602442 -0.0010269411 0.0025425958 -0.01589561 -0.034137353 -0.011952995 0.032712363
-0.042375192 0.0010939081 0.0067824936 0.01388549 -0.007660286 -0.005787561 0.044394016 -0.029895522
-0.0043591894 -0.06537531 -0.021784943 0.032053377 0.012208862 0.0031930355 0.040850755 -0.028823426
-0.0026768504 0.015051406 -0.03377631 0.03131481 0.004999551 -0.030427685 -0.07007166 0.0074302526
-0.06452757 0.025666976 0.02025867 -0.04968266 0.04329828 -0.010841494 -0.0021031445 -0.001380653
-0.038366277 0.016369699 0.04077324 0.023030879 0.0011545474 0.0038912178 -0.0008231998 -0.0014002912
-0.014841905 0.0013232001 -0.061244577 -0.010846311 -0.043418646 0.0476017 0.040503766 0.014131047
-0.0068809246 0.026868198 -0.006495289 0.008139734 0.00669366 -0.031402454 0.016783025 -0.0074275215
0.0014979598 0.0052598305 -0.02870833 -0.0125592835 -0.032267857 -0.032688566 -0.016627438 0.017276831
0.028831704 -0.009237547 -0.0006553328 -0.017297652 -0.015836198 -0.035939775 -0.017901735 0.012188879
0.019930094 0.02503671 -0.02176244 0.02093604 0.014319142 0.028550584 0.038166076 -0.04456424
-0.033244044 0.0025957166 -0.01489128 -0.013036285 0.03951245 -0.014787395 -0.042467233 -0.01630569
-0.015715066 -0.0131592965 -0.010219828 0.0053556524 -0.017672148 -0.024292948 0.013702861 -0.018058801
0.023494475 -0.03458489 3.4712793e-06 0.040441833 -0.034731153 -0.021017129 0.024127899 0.0039114454
-0.02881915 -0.0048164516 -0.016833065 -0.0064791846 -0.050488636 -0.022757221 -0.0069252695 -0.010663636
0.012590337 -0.021844512 0.03978079 0.007769918 0.0033388443 0.027476596 -0.020356283 0.011327298
0.0037397626 -0.047255114 0.023059035 0.04975577 -0.047445003 -0.03065915 0.034093242 -0.051756844
0.02825312 0.028458534 0.0013384692 0.018369028 -0.0045392835 0.044841524 0.016309299 -0.009106381
-0.0232535 -0.004913798 0.010499252 -0.032276407 0.03783293 -0.02815429 0.0122731915 0.004772426
0.021662954 0.008963885 -0.023189167 -0.022296371 0.04774278 0.024338944 -0.0003882836 -0.056576554
-0.028158063 -0.021624822 0.030055972 0.008435774 0.004951927 0.045926165 -0.010009595 -0.037663545
0.008860014 -0.04608214 0.008159699 -0.0113957655 -0.004625427 -0.0080570625 0.0012111858 -0.00845643
-0.0054991324 -0.02574617 0.0008468311 0.022700995 -0.0006498084 0.009659124 -0.07049741 -0.044581257
-0.035270493 -0.029654462 -0.012317283 0.009089101 -0.0069953715 -0.023906667 0.028966462 -0.002784941
00000000: 651e 54bb 9ef1 7dbc 3952 19bc f57d 733c
00000010: 73e6 913c 55f9 5a3c 4f78 1b3d 6352 21bd
00000020: aabc 803a 9ea3 9abc e42b 8e3b a620 f9ba
00000030: 13b1 38bd b631 5abc 3000 24bc d9ab 093c
00000040: fc5c 22bd 8359 8b3c 82d8 923b 4050 b53c
00000050: 0d6a 8cbc 8b06 c9bc 85fc 77bb 647a 98bc
00000060: 0ad8 7bbc 3501 b6bc 5020 17bd 1510 55bc
00000070: f7dd acbc bed1 1dbd 1678 f1bb 6f58 06bc
00000080: eb47 16bd 9956 76bc 4f35 3a3b d4b8 193c
00000090: eb80 673c 588e b9ba 34f2 a6bd 9cc4 803c
000000a0: 2dfb f2ba 41cd 8bbc cce8 25bd 5b65 553c
000000b0: 1088 0bbd 9894 8aba 66fd f63c ab74 ee3b
000000c0: f7f1 573c 2752 d33b 50b3 7dbd 769b 6dbc
000000d0: 0f60 2ebb fb87 d2bc 1336 073b babe 443d
000000e0: cba7 16bd c096 a8ba 39be 9ebc a942 1abb
000000f0: 6a26 ddbc ed67 be39 3037 f5bc 9e75 4d39
00000100: 8dc5 57bc ff32 90bc 6d9a 86ba aea1 263b
00000110: 8337 82bc 9cd3 0bbd 7fd6 43bc 66fd 053d
00000120: 9c91 2dbd 7761 8f3a ae3f de3b f77f 633c
00000130: 2303 fbbb 95a5 bdbb 80d6 353d 74e7 f4bc
00000140: 88d7 8ebb 7ee3 85bd 5676 b2bc 674a 033d
00000150: ae07 483c 3f42 513b 1f53 273d 1b1f ecbc
00000160: 196e 2fbb 2c9a 763c 0759 0abd f543 003d
00000170: 46d3 a33b 7b43 f9bc bb81 8fbd 7a79 f33b
00000180: 0827 84bd 8d43 d23c 83f5 a53c 0b80 4bbd
00000190: 8a59 313d 86a0 31bc e9d4 09bb 07f7 b4ba
000001a0: f525 1dbd bf19 863c d701 273d 41ab bc3c
000001b0: 2f54 973a cd03 7f3b 01cc 57ba fa89 b7ba
000001c0: 762b 73bc 3a6f ad3a 98db 7abd bab4 31bc
000001d0: c0d7 31bd 00fa 423d 47e7 253d e885 673c
000001e0: 6179 e1bb b21a dc3c 6fd6 d4bb 855c 053c
000001f0: 7d56 db3b dc9f 00bd 8e7c 893c 9162 f3bb
00000200: 3157 c43a a85a ac3b bb2d ebbc 74c5 4dbc
00000210: 4d2b 04bd 72e4 05bd 4436 88bc 2488 8d3c
00000220: 7730 ec3c 1559 17bc a4ca 2bba ceb3 8dbc
00000230: eaba 81bc 9635 13bd a9a6 92bc ddb3 473c
00000240: 7044 a33c c919 cd3c 2547 b2bc 0f82 ab3c
00000250: d69a 6a3c eae2 e93c 0854 1c3d fe88 36bd
00000260: e82a 08bd e61c 2a3b 8efa 73bc 2496 55bc
00000270: cfd7 213d d446 72bc 1ff2 2dbd 8393 85bc
00000280: e2bc 80bc 179a 57bc 1171 27bc 787e af3b
00000290: 2ec5 90bc 0102 c7bc f781 603c 0df0 93bc
000002a0: 7c77 c03c e3a8 0dbd 20f4 6836 56a6 253d
000002b0: 4142 0ebd 1d2c acbc dfa7 c53c 952b 803b
000002c0: 2316 ecbc 53d3 9dbb 7fe5 89bc 574f d4bb
000002d0: 2ccd 4ebd 5a6d babc 5fed e2bb 88b6 2ebc
000002e0: b347 4e3c 43f3 b2bc 2ff1 223d cc9a fe3b
000002f0: 83d0 5a3b 9916 e13c 38c2 a6bc 2296 393c
00000300: ce16 753b 948e 41bd 4de6 bc3c b5cc 4b3d
00000310: b155 42bd e628 fbbc 5ba5 0b3d fcfe 53bd
00000320: 1673 e73c df21 e93c 936f af3a a57a 963c
00000330: 45be 94bb bfab 373d 149b 853c ee32 15bc
00000340: 207e bebc ed03 a1bb 0e05 2c3c 4434 04bd
00000350: b4f6 1a3d d3a3 e6bc 7f15 493c 0362 9c3b
00000360: 8276 b13c 42dd 123c 35f7 bdbc e1a6 b6bc
00000370: ef8d 433d 7762 c73c 8b92 cbb9 d1bc 67bd
00000380: bdab e6bc 8a26 b1bc f137 f63c 3336 0a3c
00000390: c643 a23b 131d 3c3d 49ff 23bc 1745 1abd
000003a0: 9829 113c a0c0 3cbd 42b0 053c 4eb5 3abc
000003b0: e590 97bb c501 04bc a7c0 9e3a d78c 0abc
000003c0: 1132 b4bb a2e9 d2bc e0fd 5d3a 70f7 b93c
000003d0: e757 2aba 4d41 1e3c f260 90bd d69a 36bd
000003e0: cb77 10bd eaed f2bc 6ece 49bc 74ea 143c
000003f0: 6e39 e5bb ead7 c3bc 134b ed3c 8f83 36bb

action_model._discrete_distribution.branches.0.bias f4 [3]
0.009403925 0.0138749285 -0.02026394
00000000: ec12 1a3c ab53 633c 9000 a6bc

action_model._discrete_distribution.branches.1.weight f4 [3, 256]
-0.049673934 0.018869968 -0.021061217 -0.005154603 -0.04916815 -0.09660402 -0.08010149 -0.0062061083
-0.0050197938 -0.021585133 -0.0647242 0.038231384 -0.0063784625 -0.03032322 0.017191276 0.036975797
-0.052219655 -0.059871297 -0.076862596 0.03432703 0.025676742 -0.00815629 -0.011420505 -0.043149415
-0.05037647 0.03975133 -0.020841515 -0.04622294 -0.045874786 0.0018844985 -0.019598024 0.0401955
0.0046893586 -0.021391243 -0.04446098 0.025651935 -0.06457424 -0.036015023 0.040632553 0.03800998
0.02943892 -0.010051503 -0.0315605 -0.06653426 -0.017307902 -0.022465033 -0.054892555 -0.028797505
-0.03319908 -0.031499375 -0.004440454 -0.042243026 0.033304732 -0.104900494 -0.055860832 0.000116260264
0.02026201 0.041188195 0.034072433 -0.013073254 -0.04636864 0.023255281 0.01051536 -0.02819119
-0.05657899 -0.03671327 -0.056092825 -0.0380717 0.047386326 0.021059107 -0.025725303 -0.047862545
0.033075508 0.015851453 0.072968826 -0.03195814 0.042992998 -0.072340354 -0.015917357 0.046220325
0.05303713 0.034250222 0.030674163 -0.022247808 0.021699192 0.06703507 0.0013101315 -0.0027077757
-0.025990862 0.018179683 0.005489632 0.0010201463 -0.015965074 0.03182468 -0.05052393 0.03473273
0.019702526 0.011890667 0.018058982 -0.0026053458 -0.010116636 0.015310353 -0.049907446 0.0025853887
-0.015785495 -0.023817899 0.0078725405 0.025328195 0.0374408 0.03136417 0.048456546 -0.02042989
0.016359419 -0.071362354 -0.03673737 -0.0012062036 0.018386379 0.017550925 0.020730838 0.023074862
-0.03211838 0.0755453 -0.06598285 -0.04918088 0.023809375 0.032773823 -0.010690805 -0.06602543
-0.0013321153 -0.01811856 0.028087065 0.00021959402 0.035790306 -0.034633014 -0.0011878893 -0.00834648
-0.0635816 -0.024163628 0.023086192 0.017038057 0.02457359 -0.037601024 -0.045219153 0.03551508
-0.051243078 -0.022756152 0.042007964 0.015733251 0.041527364 -0.08288048 4.7933438e-05 0.018244052
0.012326111 0.020613255 -0.030094031 0.030926965 0.025195984 -0.038468294 0.006747513 -0.024554623
0.044983186 -0.0010273391 -0.010471685 0.026636865 -0.057258863 -0.066916026 -0.06565706 -0.07780389
-0.011103445 -4.0291456e-05 -0.0177414 -0.021295307 -0.014207663 0.056293562 -0.07378505 0.01868485
0.0006808348 0.044323936 -0.044972207 -0.023496099 -0.03025246 -0.10024708 -0.065075494 -0.032661963
0.037204236 0.009346492 0.009413706 -0.013013065 0.02576664 -0.0026292822 -0.046902176 0.006902152
-0.01150189 -0.03060663 -0.04839942 -0.027834192 -0.0011313154 -0.016535526 -0.022542583 -0.025197359
0.017391723 -0.031384066 -0.005067259 0.015777677 0.036463115 -0.022643512 -0.00055033644 0.044731524
-0.08129385 -0.0048180274 0.02882998 -0.014799327 -0.03756379 -0.022942353 -0.02094075 -0.061817378
-0.049247198 0.040373918 0.054508045 -0.0054398626 -0.03913432 -0.04842374 -0.0025781933 0.05861982
-0.028163783 0.019293057 -0.01754155 0.07189026 0.031336512 -0.03391334 0.009639284 -0.030444894
0.017514097 -0.06562145 -0.039277457 -0.051105343 -0.024914367 -0.023778504 0.033797998 -0.052172426
-0.033243727 -0.04976386 -0.06116837 0.009095112 -0.005297665 -0.032518562 0.0026770348 0.07274539
0.01023991 -0.0016514604 -0.014930544 -0.037037116 -0.08176045 0.0021269214 0.008788273 0.02030219
00000000: e576 4bbd 3195 9a3c 9388 acbc f2e7 a8bb
00000010: 8b64 49bd 54d8 c5bd 400c a4bd 9c5c cbbb
00000020: 157d a4bb 4ed3 b0bc 1f8e 84bd 8398 1c3d
00000030: 6c02 d1bb 6768 f8bc b8d4 8c3c ef73 173d
00000040: 47e4 55bd 9b3b 75bd 236a 9dbd 809a 0c3d
00000050: 0858 d23c f6a1 05bc 121d 3bbc 71bd 30bd
00000060: 8f57 4ebd 4ad2 223d d3bb aabc 4454 3dbd
00000070: 33e7 3bbd 4701 f73a 098c a0bc 09a4 243d
00000080: 31a9 993b b03c afbc b71c 36bd 0224 d23c
00000090: 803f 84bd 7d84 13bd 526e 263d 5ab0 1b3d
000000a0: e429 f13c 0faf 24bc 9545 01bd 1d43 88bd
000000b0: 4dc9 8dbc 9708 b8bc 04d7 60bd bfe8 ebbc
000000c0: c2fb 07bd 7d05 01bd 3a81 91bb 0607 2dbd
000000d0: 8b6a 083d 12d6 d6bd 54ce 64bd c1d0 f338
000000e0: 84fc a53c f4b4 283d 898f 0b3d 3431 56bc
000000f0: 0bed 3dbd dc81 be3c 9e48 2c3c 36f1 e6bc
00000100: 5fbf 67bd a760 16bd 97c1 65bd 12f1 1bbd
00000110: 2a18 423d 2684 ac3c dfbd d2bc 840b 44bd
00000120: 2f7a 073d e8da 813c ae70 953d 8ae6 02bd
00000130: 6d19 303d 2e27 94bd 1e65 82bc 8651 3d3d
00000140: 763d 593d f649 0c3d 6248 fb3c 0941 b6bc
00000150: 81c2 b13c af49 893d b8b8 ab3a f074 31bb
00000160: caea d4bc 8fed 943c 5fe2 b33b 6eb6 853a
00000170: 30c9 82bc 985a 023d 2ef2 4ebd e843 0e3d
00000180: 3167 a13c 12d1 423c 6ef0 933c 73be 2abb
00000190: 3fc0 25bc 46d8 7a3c c06b 4cbd a06f 293b
000001a0: 9550 81bc c11d c3bc d4fb 003c 137d cf3c
000001b0: 865b 193d b777 003d 5f7a 463d 965c a7bc
000001c0: 3004 863c 6d26 92bd ed79 16bd 7a19 9eba
000001d0: 089f 963c f5c6 8f3c b8d3 a93c 7e07 bd3c
000001e0: 908e 03bd 7fb7 9a3d 0422 87bd e471 49bd
000001f0: e10b c33c d83d 063d 7c28 2fbc 5738 87bd
00000200: 5f9a aeba 606d 94bc d816 e63c d242 6639
00000210: db98 123d 59db 0dbd f3b2 9bba adbf 08bc
00000220: 1237 82bd cdf2 c5bc 411f bd3c 6593 8b3c
00000230: 8e4e c93c 8803 1abd b837 39bd 4378 113d
00000240: 43e4 51bd 1c6b babc 8b10 2c3d 05e3 803c
00000250: 9918 2a3d 3ebd a9bd 230c 4938 8d74 953c
00000260: 75f3 493c 21dd a83c c287 f6bc 8c5a fd3c
00000270: cf67 ce3c ee90 1dbd 3e1a dd3b c726 c9bc
00000280: 4a40 383d c8a7 86ba 6e91 2bbc 8e35 da3c
00000290: 4588 6abd 450b 89bd 3577 86bd a557 9fbd
000002a0: 39eb 35bc 9ffe 28b8 6a56 91bc 7f73 aebc
000002b0: 42c7 68bc 1494 663d 9e1c 97bd f810 993c
000002c0: 0d7a 323a 048d 353d c734 38bd e47a c0bc
000002d0: 02d4 f7bc 574e cdbd 4d46 85bd 8dc8 05bd
000002e0: 7863 183d 0722 193c f23b 1a3c c034 55bc
000002f0: 9014 d33c 0950 2cbb 7f1c 40bd 732b e23b
00000300: 6c72 3cbc c1ba fabc 783e 46bd 8804 e4bc
00000310: a548 94ba 8375 87bc 39ab b8bc b16a cebc
00000320: 1679 8e3c 948c 00bd 400b a6bb 3040 813c
00000330: 595a 153d e37e b9bc 7444 10ba 6738 373d
00000340: 647d a6bd 8be0 9dbb da2c ec3c e078 72bc
00000350: 7ddc 19bd 9af1 bbbc f08b abbc 3834 7dbd
00000360: 6eb7 49bd 1f5f 253d d443 5f3d e040 b2bb
00000370: 4f4b 20bd f957 46bd e8f6 28bb 561b 703d
00000380: bcb7 e6bc 790c 9e3c 4cb3 8fbc 333b 933d
00000390: b75a 003d b7e8 0abd 16ee 1d3c 9267 f9bc
000003a0: b979 8f3c 8a64 86bd 66e1 20bd d653 51bd
000003b0: 3719 ccbc 23cb c2bc c56f 0a3d c1b2 55bd
000003c0: 932a 08bd 30d5 4bbd af8b 7abd aa03 153c
000003d0: 0998 adbb 2f32 05bd 3171 2f3b 89fb 943d
000003e0: 4cc5 273c d175 d8ba 3e9f 74bc 3bb4 17bd
000003f0: 0672 a7bd d263 0b3b b0fc 0f3c c750 a63c

action_model._discrete_distribution.branches.1.bias f4 [3]
0.010584405 0.0069214604 -0.016762024
00000000: 366a 2d3c 6bcd e23b 8350 89bc

action_model._discrete_distribution.branches.2.weight f4 [2, 256]
-0.013620378 -0.006997057 0.018879743 -0.011058383 0.014454935 -0.030923322 0.03078289 0.053194754
0.023317793 -0.018458284 0.00969394 -0.013817651 -0.02014278 -0.017872924 0.012431312 -0.0163012
-0.02290047 -0.03325054 0.0047006784 -0.014560906 -0.0037408478 -0.032536563 0.011186327 -0.035186954
0.014107988 0.0012093832 -0.006328425 -0.0026620445 -0.032938186 -0.043690212 -0.051939268 0.003431718
-0.0021531186 -0.024792016 -0.08810828 -0.013096369 0.051934768 -0.004744015 0.044143442 -0.01034247
-0.038975514 0.010488377 0.022991046 0.02481439 0.0152153475 -0.015299959 0.03267188 -0.03781614
0.001495077 0.011377729 -0.019865274 -0.024125254 -0.018975496 0.004763698 -0.028190238 -0.026659768
-0.031634714 -0.0009634 -0.024724295 0.010229364 -0.018625703 -0.01412801 0.020379556 0.021214103
0.008092052 0.00800975 0.026148865 0.009288102 0.00045636477 -0.013288011 0.0011630919 0.028690536
-0.008412492 -0.032082498 0.005067941 -0.018432153 -0.013316335 0.017476907 0.013484888 -0.0068045803
-0.016566258 -0.023661109 0.010504959 -0.036613967 -0.018635506 -0.005773484 -0.0031708723 -0.032684047
-0.009352434 -0.0011406731 -0.032287948 -0.0121211875 -0.039596878 -0.019855909 -0.042524748 -0.0121184755
-0.02297534 -0.016371122 -0.05133107 -0.0013752226 -0.029177537 0.039130375 -0.017146507 -0.036450624
0.002453635 0.0013134289 -0.0065182527 -0.012935328 -0.010612409 -0.004992601 -0.027818898 0.051444516
0.01926412 -0.010085988 -0.0059245466 0.020222966 -0.0021384135 -0.0006693655 0.0033624347 -0.00142738
0.0162553 -0.012355911 -0.02239459 -0.006502401 -0.008207306 0.007494886 -0.03342974 -0.03797436
-0.01033569 0.0026597874 -0.0011546898 -0.03911316 0.005509735 -0.062294055 -0.036595054 -0.06945415
-0.0042348057 -0.018064309 -0.012490775 -0.0035533032 0.022711575 0.015967283 -0.018351369 0.027852822
-0.0031886264 -0.01767203 0.0034864894 -0.010536896 -0.0044884747 -0.013481194 0.013951494 0.022277424
0.010530658 -0.027839012 -0.018077318 0.0024205714 -0.012962669 -0.03067285 -0.023366647 0.020795386
0.011320465 -0.004854223 0.034197215 -0.014443319 0.02393747 0.01370537 -0.0058378372 0.033330068
0.026479239 0.05477271 0.0017297325 0.0018447886 -0.0058869426 0.0018585119 -0.026688738 0.00092967914
-0.030498905 -0.022217505 0.017412184 -0.063308045 -0.04642135 -0.023425942 0.009799026 -0.013140715
-0.021744978 -0.008346422 -0.010137714 -0.039779402 0.01748672 -0.0462527 -0.01956353 -0.038301636
-0.057518534 0.001657627 -0.030476045 -0.007321543 -0.011725011 0.055508714 -0.0014846695 -0.026325408
-0.0017175287 0.02639558 -0.028121699 -0.019513935 -0.03738935 -0.03267393 -0.032247625 0.007254803
-0.053976778 0.00635583 -0.022281628 0.019899353 0.003809786 -0.008557577 0.011668898 0.023540843
0.0071354345 -0.02510384 -0.0075799376 0.0138370935 0.015619806 -0.017045515 -0.036753293 -0.008088818
0.011324579 -0.011709183 0.017664371 0.01828483 -0.017066058 -0.048875563 -0.030246079 -0.0012164766
-0.028444627 -0.066998675 -0.008149331 0.02075899 -0.0023623654 -0.004246904 -0.010755165 -0.035029177
-0.018494086 0.033339106 0.018390302 -0.034665734 0.026018763 -0.035023946 -0.021405151 0.016791226
-0.041766234 -0.011495132 0.0346567 0.015451297 -0.06488744 -0.027817653 0.0064548086 0.0047727604
00000000: 0228 5fbc 9147 e5bb b1a9 9a3c 382e 35bc
00000010: 64d4 6c3c e852 fdbc 662c fc3c bee2 593d
00000020: f504 bf3c d435 97bc 55d3 1e3c 6e63 62bc
00000030: 7902 a5bc 3d6a 92bc b4ac 4b3c 188a 85bc
00000040: c499 bbbc b831 08bd 2608 9a3b de90 6ebc
00000050: 0329 75bb 0f45 05bd db46 373c 3220 10bd
00000060: 3125 673c 2b84 9e3a ad5e cfbb b275 2ebb
00000070: 31ea 06bd 82f4 32bd 45be 54bd ade6 603b
00000080: 561b 0dbb a018 cbbc 1d72 b4bd 2792 56bc
00000090: 8db9 543d af73 9bbb c1cf 343d 7773 29bc
000000a0: caa4 1fbd 71d7 2b3c b857 bc3c 8c47 cb3c
000000b0: cb49 793c aeac 7abc f3d2 053d 19e5 1abd
000000c0: 76f6 c33a a769 3a3c 80bc a2bc 53a2 c5bc
000000d0: 8072 9bbc cc18 9c3b 37ef e6bc 9665 dabc
000000e0: 6793 01bd ae8c 7cba 9b8a cabc 1099 273c
000000f0: ee94 98bc 2b79 67bc 07f3 a63c 33c9 ad3c
00000100: 8794 043c 543b 033c 2536 d63c 202d 183c
00000110: 3e44 ef39 f5b5 59bc e372 983a 6a08 eb3c
00000120: 8dd4 09bc f068 03bd f810 a63b 07ff 96bc
00000130: c22c 5abc bb2b 8f3c b8ef 5c3c f5f8 debb
00000140: f6b5 87bc f1d4 c1bc fe1c 2c3c 87f8 15bd
00000150: 7da9 98bc 7e2f bdbb 69ce 4fbb b5df 05bd
00000160: f43a 19bc a382 95ba 5e40 04bd f297 46bc
00000170: 5630 22bd dca8 a2bc 6e2e 2ebd 928c 46bc
00000180: c836 bcbc bb1c 86bc 8740 52bd d040 b4ba
00000190: bb05 efbc 2c47 203d d576 8cbc 404d 15bd
000001a0: 2acd 203b 5c27 ac3a 1197 d5bb b3ee 53bc
000001b0: abdf 2dbc f998 a3bb 75e4 e3bc 7cb7 523d
000001c0: cacf 9d3c b33f 25bc b322 c2bb a2aa a53c
000001d0: a024 0cbb 5c78 2fba 4b5c 5c3b ed16 bbba
000001e0: d629 853c 7270 4abc dc74 b7bc 1812 d5bb
000001f0: f077 06bc a997 f53b a0ed 08bd 018b 1bbd
00000200: 0757 29bc d44f 2e3b f658 97ba 1f35 20bd
00000210: 028b b43b 0d28 7fbd b2e4 15bd fa3d 8ebd
00000220: 20c4 8abb 9afb 93bc 1ca6 4cbc 89de 68bb
00000230: a00d ba3c d2cd 823c 9c55 96bc 9a2b e43c
00000240: 46f8 50bb efc4 90bc 967d 643b f2a2 2cbc
00000250: 0e14 93bb 3ae0 5cbc cf94 643c 257f b63c
00000260: c888 2c3c a40e e4bc e216 94bc 73a2 1e3b
00000270: 6061 54bc a145 fbbc 696b bfbc 165b aa3c
00000280: 7979 393c 2d10 9fbb 6112 0c3d aca3 6cbc
00000290: 8318 c43c 7d8c 603c 544b bfbb 1c85 083d
000002a0: fdea d83c 5959 603d 31b8 e23a d5cc f13a
000002b0: 41e7 c0bb 5099 f33a 57a2 dabc b6b5 733a
000002c0: d7d8 f9bc 7c01 b6bc ffa3 8e3c a6a7 81bd
000002d0: 5024 3ebd c3e7 bfbc 188c 203c 274c 57bc
000002e0: 8622 b2bc 6ebf 08bc a818 26bc baef 22bd
000002f0: 4f40 8f3c 7973 3dbd b243 a0bc 2de2 1cbd
00000300: 8e98 6bbd bc44 d93a e6a8 f9bc 8ee9 efbb
00000310: 431a 40bc 1b5d 633d 3e99 c2ba 62a8 d7bc
00000320: b31e e1ba 8b3b d83c 7a5f e6bc b0db 9fbc
00000330: 9325 19bd 19d5 05bd 1616 04bd b3b9 ed3b
00000340: c116 5dbd 9144 d03b f687 b6bc f803 a33c
00000350: 9aad 793b 1435 0cbc e82e 3f3c bad8 c03c
00000360: 5dd0 e93b 91a6 cdbc 2061 f8bb fab4 623c
00000370: 37ea 7f3c 09a3 8bbc 9f8a 16bd f686 04bc
00000380: ba8a 393c e0d7 3fbc dfb4 903c 11ca 953c
00000390: 1ece 8bbc be31 48bd a0c6 f7bc 2e72 9fba
000003a0: b504 e9bc 9a36 89bd c684 05bc c20e aa3c
000003b0: ead1 1abb 9d29 8bbb 6e36 30bc c17a 0fbd
000003c0: e980 97bc 968e 083d 42a7 963c a8fd 0dbd
000003d0: 4d25 d53c 4575 0fbd db59 afbc c18d 893c
000003e0: 1213 2bbd 1456 3cbc 2ff4 0d3d 7027 7d3c
000003f0: b5e3 84bd d9e1 e3bc dc82 d33b d164 9c3b

action_model._discrete_distribution.branches.2.bias f4 [2]
-0.012362884 0.012362893
00000000: b28d 4abc bb8d 4a3c
