ML_stuff/results/cw_09/FindCubeWife/FindCubeWife-4999935.onnx (onnx, 352586 bytes, 11 tensors)

discrete_act_size_vector f4 [1, 3]
0	0x40400000	3.0
1	0x40400000	3.0
2	0x40000000	2.0

network_body._body_endoder.seq_layers.0.weight f4 [256, 69]
0	0xbe1daf18	-0.15398824
1	0x3de9e591	0.114207394
2	0x3e569eb2	0.20958975
3	0xbd15fbff	-0.036617275
4	0xbdc27169	-0.094942875
5	0xbcd47d24	-0.025938578
6	0xbccae938	-0.02476941
7	0x3e24a2b1	0.16077687
8	0xbbf3e4e3	-0.007443057
9	0xbde11ba7	-0.109916024
10	0x3d67ad8b	0.056561988
11	0xbe4d5bf9	-0.20054616
12	0xbe964294	-0.2934767
13	0x3d0e566d	0.03475039
14	0xbd0f729b	-0.035021406
15	0xbca0e8a4	-0.019642182
16	0x3e8aaeee	0.27086586
17	0x3e3043d4	0.17213374
18	0xbd8a1e1e	-0.06744026
19	0xbd5669e5	-0.052347083
20	0x3dfca228	0.12335616
21	0xbdfdd03a	-0.12393232
22	0xbd4aa5ea	-0.049474634
23	0x3e264ee5	0.16241033
24	0x3d238cb9	0.039929125
25	0xbe7fce8d	-0.24981137
26	0x3c95c541	0.018282535
27	0x3e0e570e	0.13900396
28	0x3eb300a8	0.34961438
29	0x3dd752ab	0.105138145
30	0x3e289a06	0.16465005
31	0xbd9af1df	-0.075656645
32	0xbdac114e	-0.08401738
33	0x3d47e13b	0.04879878
34	0x3e16b77f	0.14718436
35	0xbe3cb825	-0.1842962
36	0xbb656915	-0.003500526
37	0x3d0b1a37	0.033960547
38	0xbe0ff750	-0.14059186
39	0xbc96a803	-0.018390661
40	0x3df65388	0.12027651
41	0xbee379ea	-0.4442895
42	0xbccc36f3	-0.024928546
43	0x3cee5834	0.029094793
44	0xbd42ba2f	-0.04754084
45	0xbd8bdcb4	-0.06829205
46	0xbca6e12e	-0.020371046
47	0xbe412837	-0.18862997
48	0x3da1e44a	0.07904871
49	0x3ca27d4e	0.01983514
50	0x3e3174e4	0.17329746
51	0xbe05d9bd	-0.13071342
52	0x3e9ed434	0.31021273
53	0xbe17ecd2	-0.14836434
54	0x3e221c30	0.15831065
55	0xbd3266a5	-0.04355492
56	0xbd99e257	-0.07513874
57	0xbe00da13	-0.12583189
58	0x3de42e93	0.11141696
59	0xbe0a4bf2	-0.13505533
60	0xbdd5f3db	-0.10446902
61	0xbcabd0c6	-0.020973574
62	0xbeb0369c	-0.34416664
63	0xbdb6173c	-0.0889115
64	0x3e66b971	0.22531678
65	0xbd9f3b2c	-0.07774958
66	0xbc633952	-0.013868647
67	0xbe194b6f	-0.14970182
68	0xbe97d739	-0.2965639
69	0x3c6708d5	0.014101227
70	0x3d3a930c	0.04555039
71	0xbd909286	-0.07059197
72	0xbe540896	-0.207064
73	0x3e0f9904	0.14023215
74	0xbc72efb4	-0.0148276575
75	0xbe60dbff	-0.21958922
76	0xbe0f3b69	-0.13987507
77	0xbe90c671	-0.282764
78	0x3e830210	0.2558751
79	0xbe487dcc	-0.19579238
80	0x3e8de651	0.2771478
81	0x3e6ee85c	0.23330826
82	0xbe456926	-0.19278392
83	0x3cb5cac1	0.022191407
84	0xbd13ae2e	-0.036054783
85	0xbeaf3500	-0.34220123
86	0x3dc45545	0.09586576
87	0x3d113d6c	0.035458967
88	0x3dded628	0.10880691
89	0xbe05a5e8	-0.1305157
90	0xbcff7088	-0.031181589
91	0x3eb0b643	0.34514055
92	0x3e530238	0.20606315
93	0x3d6f9121	0.058488015
94	0x3ddf7d35	0.10912553
95	0x3d81c76c	0.06336865
96	0xbd174287	-0.03692868
97	0xbe474383	-0.19459347
98	0xbd8ce6ec	-0.06879982
99	0x3e07217f	0.13196371
100	0xbe80fe02	-0.25193793
101	0x3e706202	0.23474887
102	0xbb6fc5d8	-0.003658643
103	0x3c3c513c	0.011493977
104	0x3ec9cde6	0.394149
105	0x3d1d9012	0.038467474
106	0x3e257872	0.16159227
107	0x3ea507dc	0.3223256
108	0x3e88d6b3	0.26726303
109	0x3dee28be	0.11628865
110	0xbce7ced5	-0.028296867
111	0x3e92d335	0.28676763
112	0x3e3d8250	0.18506742
113	0xbde0c7ae	-0.10975586
114	0x3df1a631	0.117992766
115	0x3e243d0d	0.16038914
116	0x3e783091	0.24237277
117	0x3debd642	0.11515476
118	0xbd6e258e	-0.058141284
119	0xbee71dac	-0.45139825
120	0xbd0cff62	-0.03442324
121	0x3d9a1088	0.07522684
122	0xbea97069	-0.33093575
123	0x3d105b88	0.03524354
124	0x3a4fa932	0.00079216354
125	0x3cde3a3d	0.02712738
126	0x3ea6b07c	0.32556522
127	0x3e4f5690	0.20247865
128	0x3e11b272	0.14228228
129	0x3d8d6a46	0.06905036
130	0xbd5357f9	-0.05159757
131	0xbd51b1ff	-0.05119514
132	0x3df56bec	0.11983475
133	0x3c67668f	0.014123573
134	0xbd748525	-0.05969729
135	0xbde3ad9f	-0.111171
136	0xbeab383d	-0.33441344
137	0xbe0605ab	-0.130881
138	0x3d093355	0.03349622
139	0x3e2af65d	0.16695543
140	0xbe3ace7b	-0.18242829
141	0x3dfca8d9	0.12336893
142	0x3d2fe059	0.042938564
143	0xbdbdc28c	-0.092656225
144	0xbe94e655	-0.2908198
145	0xbd225ae4	-0.03963746
146	0x3e95a4f7	0.2922742
147	0xbd8f9433	-0.07010689
148	0xbe8fc700	-0.28081512
149	0x3dc2b50d	0.09507189
150	0xbdb4ed24	-0.088342935
151	0x3e2db784	0.16964537
152	0x3d6e441c	0.058170423
153	0x3e30f7c3	0.17282014
154	0x3d85ba4c	0.06529674
155	0xbe309757	-0.17245232
156	0x3d755c4c	0.059902474
157	0xbd85a802	-0.065261856
158	0xbeb741a8	-0.3579228
159	0x3d1c7483	0.03819705
160	0x3cd1e266	0.02562065
161	0xbe12e255	-0.14344151
162	0xbe23cc7e	-0.15995976
163	0x3c3fc58e	0.011704816
164	0xbcf2c92f	-0.029636947
165	0xbe38d162	-0.18048623
166	0x3e8d9267	0.2765076
167	0xbe5fffe5	-0.2187496
168	0xbcf56233	-0.029954052
169	0x3e5b6541	0.21425344
170	0xbd3bb932	-0.045830913
171	0x3d555918	0.05208692
172	0x3ca3fcb1	0.020017954
173	0xbedcc4b1	-0.43118814
174	0xbe942810	-0.28936815
175	0xbc0fab77	-0.008768908
176	0xbedfa13f	-0.43677709
177	0x3de28fb2	0.11062564
178	0x3dd69524	0.10477665
179	0x3d4410f3	0.047867727
180	0xbdceb379	-0.100928254
181	0x3e0d5b3d	0.13804336
182	0xbdd3fcff	-0.103509896
183	0x3d9335b1	0.07187975
184	0x3d8fa6a5	0.07014207
185	0xbe44ad13	-0.19206648
186	0xbdc51454	-0.09623018
187	0x3dbfb9c5	0.093616046
188	0x3dc0f4e0	0.09421706
189	0x3e9e0aee	0.30867714
190	0x3d092510	0.03348261
191	0x3dbef145	0.09323362
192	0x3ba6286d	0.005070737
193	0x3dc2342d	0.09482608
194	0xbda4ec68	-0.080529034
195	0xbd0d6539	-0.03452036
196	0x3d658e36	0.056043826
197	0xbe105246	-0.14093885
198	0xbeabd7b8	-0.33563018
199	0xbe0bc0f9	-0.13647832
200	0xbe2e16ba	-0.17000857
201	0x3d14a71f	0.03629219
202	0x3d9d6fd1	0.07687343
203	0xbecd9a4e	-0.40156788
204	0x3ce0815a	0.02740543
205	0xbf115a37	-0.5677828
206	0x3c85e37a	0.01634382
207	0xbc6cb287	-0.014446861
208	0x3d0e838d	0.034793425
209	0xbdab01f0	-0.08349979
210	0xbdb55d38	-0.08855671
211	0xbdd22c21	-0.10262323
212	0x3d200792	0.03906972
213	0x3dc958a9	0.09831364
214	0xbd7abd6a	-0.061215796
215	0x3c971123	0.018440789
216	0x3cf68cbc	0.030096404
217	0x3e3f210a	0.18664947
218	0xbe338256	-0.17530188
219	0xbea98b04	-0.33113873
220	0xbc5ac65a	-0.013352955
221	0x3dfed56d	0.124430515
222	0xbe2c4cfa	-0.16826239
223	0x3e302c96	0.17204508
224	0xbb83c921	-0.004021779
225	0x3d5554e1	0.0520829
226	0xbe7ef445	-0.24897869
227	0x3e430057	0.19043098
228	0xbe0af797	-0.1357101
229	0xbc5d7ad8	-0.013518058
230	0xbd194acf	-0.03742486
231	0x3c748bd3	0.014925915
232	0x3d0e7f57	0.03478941
233	0x3d674c31	0.056469146
234	0x3d59686a	0.053078093
235	0xbd2cfa43	-0.042230856
236	0xbb2ab17a	-0.0026045726
237	0x3e65bc9e	0.22435233
238	0xbd74a52f	-0.059727844
239	0xbe0a16ce	-0.13485262
240	0xbb88ca3a	-0.004174498
241	0xbd5ecf4b	-0.05439691
242	0xbef7e1b3	-0.48414382
243	0x3d6cc077	0.057800736
244	0x3d98b29e	0.074559435
245	0x3d7448fe	0.059639923
246	0x3e39a5ec	0.181297
247	0x3e3342a6	0.17505893
248	0xbe3c24f2	-0.18373469
249	0x3e256e6e	0.16155407
250	0x3e31e7d7	0.17373596
251	0x3dc9d6a6	0.09855394
252	0xbe122509	-0.1427194
253	0x3c8b71b1	0.017021986
254	0xbead0f0a	-0.33800536
255	0x3e086f6b	0.13323753

network_body._body_endoder.seq_layers.0.bias f4 [256]
0	0x3d3d6f23	0.046248566
1	0xbd60f298	-0.054918855
2	0x3cf3b004	0.029747017
3	0x3d8e3d2c	0.06945261
4	0x3d5a91f8	0.053361863
5	0xbd2edd9c	-0.042691812
6	0xbd454cc8	-0.048168927
7	0xbd71cc13	-0.05903251
8	0x3ca503f8	0.020143494
9	0x3ce5083d	0.02795803
10	0xbd146703	-0.036231052
11	0x3d2e808e	0.042603068
12	0xbc9dfc32	-0.019285295
13	0x3d83b6e0	0.06431365
14	0x3ce40c91	0.027838023
15	0x3d0b96d9	0.034079406
16	0x3dd5c0be	0.10437153
17	0xbd00edda	-0.031476833
18	0xbd246a6e	-0.04014056
19	0xbd851990	-0.06499016
20	0xbb300b32	-0.0026862142
21	0xbd4f96e7	-0.05068102
22	0x3d813922	0.06309725
23	0xbd76094d	-0.060067464
24	0xbbf55b9f	-0.0074877287
25	0x3d9cad96	0.076502964
26	0xbccb6140	-0.024826646
27	0x3c4309b4	0.011904169
28	0x3c96c159	0.018402742
29	0x3d0e39b3	0.034722995
30	0xbc62dd30	-0.0138466805
31	0xbd0b425a	-0.033998825
32	0xbd2794fc	-0.040913567
33	0x3ae616ea	0.0017554436
34	0x3c21a1e8	0.009865262
35	0x3d8d15fa	0.06888957
36	0x3bc0e2c7	0.005886409
37	0xbb9c10f3	-0.0047627627
38	0x3da6b0c8	0.08139187
39	0xbd03d3fb	-0.032184582
40	0x3cf63247	0.030053271
41	0x3c8adf22	0.016952101
42	0xbd708ec4	-0.058729902
43	0x3c3b5af5	0.01143526
44	0xbcad4466	-0.021150779
45	0x3caa4d89	0.020788925
46	0x3d31b4f5	0.043385465
47	0xbd400b04	-0.046885505
48	0xbcce9c98	-0.025221154
49	0x3d157cd3	0.036495995
50	0x3c76f4de	0.015073029
51	0xbd359d4d	-0.044339467
52	0x3db46f33	0.08810272
53	0x3d946a32	0.07246818
54	0x3d5914b6	0.052998267
55	0x3cf28162	0.02960271
56	0xbc08028c	-0.0083013885
57	0xbcd20789	-0.025638359
58	0xbc6a9ab5	-0.014319112
59	0x3d13c13d	0.03607296
60	0x3df5c8e5	0.12001208
61	0x3defe0a2	0.11712767
62	0x3cf43687	0.029811157
63	0xbcb41a7c	-0.021985285
64	0xbc9e22ef	-0.019303767
65	0x3d9d1ada	0.07671137
66	0xbda4ed0e	-0.08053027
67	0xbc35e799	-0.01110258
68	0x3cf49994	0.029858388
69	0x3d715a18	0.05892381
70	0xbc93d00b	-0.018043539
71	0xbc9802fe	-0.018556114
72	0x3c83e33a	0.016099561
73	0x3da2316f	0.07919585
74	0x3d62be00	0.05535698
75	0x3dcb85ac	0.09937605
76	0xbd02e52e	-0.031956844
77	0x3d314109	0.043274913
78	0x3d1e03f5	0.038577992
79	0xbc08256d	-0.008309704
80	0x3d13a106	0.036042236
81	0xbcfa7a2f	-0.03057584
82	0x3cf05130	0.029335588
83	0xbc1627d6	-0.009164771
84	0x3db3a957	0.087725334
85	0xbd310aaa	-0.04322306
86	0xbcc1ee4d	-0.023673201
87	0xbda2a921	-0.07942415
88	0x3d2d9a95	0.04238375
89	0xbc4bf71c	-0.012449052
90	0x3cd5c016	0.02609257
91	0x3d24bff9	0.040222142
92	0x3c9ee571	0.019396516
93	0x3c83bc98	0.01608114
94	0x3d095178	0.03352496
95	0x3d8aece6	0.06783466
96	0xbc425bb1	-0.011862681
97	0xbcc40129	-0.023926334
98	0x3c41c038	0.011825614
99	0x3e1ac0f2	0.15112665
100	0x3a924ead	0.0011162363
101	0x3cd781db	0.026307037
102	0x39c5fbd2	0.0003776239
103	0x3d04995e	0.032372825
104	0x3d797514	0.06090267
105	0xbc923520	-0.017847598
106	0x3d035c97	0.032070722
107	0x3c80a3e6	0.015703153
108	0xbb28886d	-0.0025716082
109	0xbbf0a1fb	-0.0073435283
110	0x3d5e82ff	0.054324146
111	0xbd919acf	-0.071096055
112	0x3d68a2a0	0.056795716
113	0x3c24dbd1	0.010062174
114	0xbd42e748	-0.04758385
115	0xbd6e7514	-0.058217123
116	0xbcbf09f2	-0.023320172
117	0x3bfadebf	0.007655948
118	0xbc83a907	-0.01607181
119	0x3d4d3d22	0.05010713
120	0x3d737cf8	0.05944535
121	0x3d585980	0.05281973
122	0xbd3d1911	-0.046166483
123	0x3c115b59	0.008871877
124	0x3cff4dcf	0.031165032
125	0x3c3a1a87	0.011358864
126	0xbd12481f	-0.03571331
127	0x3d8baa02	0.06819536
128	0xbcbd7278	-0.023125872
129	0xbd784ff1	-0.060623113
130	0xbc996256	-0.018723648
131	0x3d48043e	0.04883217
132	0xbd5617a1	-0.052268628
133	0x3d104a29	0.035226975
134	0x3c681879	0.014165991
135	0x3ae4127e	0.0017400531
136	0xbcc0f71d	-0.023555333
137	0x3d14badf	0.036311027
138	0x3c02a6a7	0.007974303
139	0x3d4863f0	0.048923433
140	0x3d106f43	0.035262357
141	0x3c323b9d	0.010878471
142	0x3d07b91a	0.03313551
143	0xbd5a95ba	-0.053365447
144	0x3bd09c5b	0.0063662953
145	0x3db8348e	0.08994399
146	0x3dc079b7	0.09398215
147	0x3ca11a1b	0.019665768
148	0xbd6abef3	-0.05731101
149	0x3cfffa5e	0.031247314
150	0x3cb0e66b	0.021594247
151	0x3c48ec86	0.012263423
152	0x3d8cb6f6	0.068708345
153	0x3c9da5ce	0.0192441
154	0x3c82ee65	0.015982816
155	0xbd2bb8e3	-0.04192437
156	0xbb1a7fa1	-0.0023574608
157	0xbb2bea98	-0.0026232358
158	0x3d50e6f8	0.05100152
159	0x3d6e2708	0.05814269
160	0xbcd0fde2	-0.025511686
161	0x3d83ee71	0.064419635
162	0x3d939c6c	0.072075695
163	0xbca7822c	-0.020447813
164	0x3d889887	0.06669717
165	0xbcabd742	-0.020976666
166	0x3d219b3d	0.039454687
167	0x3d28f537	0.04124948
168	0x3c17dd1a	0.009269023
169	0x3cc1b295	0.023644725
170	0xbd7eaffc	-0.06217955
171	0x3c63e170	0.013908729
172	0x3d14f02e	0.036361866
173	0x3d26cfda	0.040725566
174	0xbd2c2933	-0.042031478
175	0xbd6ab2c2	-0.057299383
176	0x3ce84269	0.02835198
177	0x3d9961db	0.074893676
178	0x3c3cdd1c	0.011527326
179	0xbd37f59a	-0.04491196
180	0xbc543d14	-0.012954015
181	0x3d89ef6e	0.06735121
182	0x3dc163d6	0.0944287
183	0x3d844e06	0.06460194
184	0xbd04d28f	-0.032427367
185	0x3d401acd	0.04690056
186	0x3d7888c0	0.06067729
187	0xbd563fb2	-0.05230684
188	0xbd0c05f2	-0.034185357
189	0x3dba7cc8	0.091058314
190	0x3cf88478	0.030336604
191	0x3d593052	0.053024597
192	0xbd84f207	-0.064914756
193	0x3cda5faf	0.026656954
194	0xbd07de35	-0.033170898
195	0xbc7b3b2f	-0.015333935
196	0xbcc32536	-0.023821454
197	0x3aa8f958	0.0012891693
198	0x3c94e1a5	0.018174002
199	0x3c13c117	0.009018204
200	0x3c8c5584	0.01713062
201	0xbc9ff257	-0.019524736
202	0x3d815cfe	0.06316565
203	0x3d68829e	0.05676519
204	0x3dc4da47	0.096119456
205	0x3cd5e2b5	0.026109079
206	0x3b4e0bfa	0.0031440244
207	0xbbb8c2df	-0.005638465
208	0xbc8e3778	-0.017360434
209	0x3d3abf7e	0.045592777
210	0x3cb4fbd9	0.022092747
211	0xbd38b7d2	-0.04509718
212	0x3d7d6a04	0.061868683
213	0x3d4b001d	0.049560655
214	0x3d057312	0.032580443
215	0x3d1fb10f	0.038987216
216	0xbd18d326	-0.03731074
217	0x3d083894	0.033257082
218	0x3d0a542c	0.03377168
219	0xba82bb7c	-0.0009974088
220	0xbcc35047	-0.02384199
221	0xbd364e85	-0.044508476
222	0xbcc2f0e9	-0.023796516
223	0x3c57f99a	0.013182068
224	0x3d94cf0a	0.07266052
225	0x3d4a27e2	0.04935444
226	0x3c608c16	0.013705274
227	0xbd5716a6	-0.052511834
228	0xbcec51ad	-0.02884754
229	0x3d895ebd	0.06707523
230	0xbce0d802	-0.02744675
231	0x3c01fc8f	0.00793375
232	0x3dcfe2a1	0.10150648
233	0x3d4230df	0.04740989
234	0x3e04ba11	0.12961604
235	0x3bbd4745	0.0057763183
236	0xbd805638	-0.06266445
237	0xbd46f06d	-0.04856913
238	0x3d7ab7cd	0.061210442
239	0x3cd2bd11	0.02572492
240	0x3c56283b	0.013071115
241	0x3d573e6e	0.052549772
242	0xbce3b4b5	-0.027796129
243	0xbd9e9588	-0.077433646
244	0x3d917279	0.07101912
245	0xbc2e801d	-0.010650662
246	0x3d2bab0b	0.041911166
247	0xbd09743e	-0.033558123
248	0xbcd9b35d	-0.026574785
249	0x3aef4f43	0.0018257875
250	0x3ccd94f3	0.025095439
251	0xbc397d2f	-0.01132135
252	0xbd55309e	-0.052048318
253	0xbce2513c	-0.027626626
254	0xbdb12921	-0.08650423
255	0xbc23b19c	-0.009991076

network_body._body_endoder.seq_layers.2.weight f4 [256, 256]
0	0x3db5da3b	0.08879515
1	0xbc24b12d	-0.010052008
2	0x3bc8311e	0.006109371
3	0x3e3bae01	0.18328096
4	0xbd9c20f6	-0.07623474
5	0xbddda6db	-0.10822841
6	0x3e0eb545	0.13936336
7	0xbe0659e8	-0.13120234
8	0xbe02d840	-0.12777805
9	0x3e1d25d5	0.15346463
10	0x3c0164df	0.007897585
11	0xbe8217f3	-0.25408897
12	0x3c45fe14	0.012084503
13	0xbe38c96c	-0.18045586
14	0x3e2a4e18	0.16631353
15	0xbd0c1d00	-0.034207344
16	0x3d393afb	0.045222264
17	0xbde4c489	-0.111702986
18	0x3a9b815b	0.0011864112
19	0xbe25fe52	-0.16210297
20	0xbdeb0595	-0.11475674
21	0xbe04cb02	-0.12968066
22	0xbca4375f	-0.020045934
23	0x3d2633dc	0.0405768
24	0xbd50ca6b	-0.05097429
25	0xbd89c9c9	-0.067279406
26	0xbd0de8c4	-0.03464581
27	0x3d49c166	0.049256705
28	0x3d8f1184	0.06985763
29	0x3d4fcae4	0.0507306
30	0xbe2902dc	-0.16504997
31	0xbeabc201	-0.3354645
32	0x3e3c19e9	0.18369259
33	0x3e0a5767	0.13509904
34	0x3db320e2	0.08746506
35	0xbd9cd466	-0.07657699
36	0xbd0d4ed6	-0.034499012
37	0x3a2448b7	0.0006266939
38	0x3e13b3ec	0.14424103
39	0xbd28186a	-0.041038908
40	0x3dd8f1bb	0.105929814
41	0xbdae4b64	-0.08510473
42	0xbe042027	-0.1290289
43	0xbda80217	-0.082035236
44	0xbd91be94	-0.07116428
45	0x3e26cf23	0.16289954
46	0xbe04a69a	-0.12954178
47	0xbd80ef15	-0.06295601
48	0x3d988e16	0.07448976
49	0xbca71251	-0.020394476
50	0x3e098ffd	0.13433833
51	0xbdd8267e	-0.10554217
52	0xbd4812b1	-0.04884595
53	0x3bfb2e56	0.007665436
54	0x3da7e961	0.0819881
55	0xbd7b147a	-0.061298825
56	0xbb96b422	-0.00459911
57	0x3e433564	0.19063336
58	0xbde8fadd	-0.113759734
59	0xbd506d06	-0.050885223
60	0x3e169eec	0.14709061
61	0x3c9322de	0.017960962
62	0x3e30ef57	0.17278801
63	0xbdad20bf	-0.084535114
64	0x3c9abb58	0.01888816
65	0x3df65005	0.12026981
66	0x3c070493	0.008240837
67	0x3e232571	0.15932252
68	0x3e0731be	0.13202569
69	0x3da2ebff	0.07955169
70	0x3d8bca5b	0.068257056
71	0x3d4de669	0.050268564
72	0xbd6cbd40	-0.05779767
73	0xbd896428	-0.067085564
74	0x3e10ac7f	0.14128302
75	0x3daad248	0.08340889
76	0x3e26363e	0.16231629
77	0xbddb6f26	-0.10714559
78	0xbea4b518	-0.32169414
79	0x3d9ac503	0.07557108
80	0xbe829bfc	-0.25509632
81	0x3cc64554	0.02420298
82	0x3e23b3f1	0.15986611
83	0xbdf905e5	-0.121593274
84	0x3ca9cd2d	0.020727718
85	0xbd8f786c	-0.070053905
86	0xbde3b8cf	-0.11119234
87	0xbc32a6ed	-0.010904056
88	0x3df7291b	0.12068387
89	0x3bfd67ba	0.0077333124
90	0xbdd34cf0	-0.10317409
91	0x3d28c2d0	0.041201413
92	0xbe180294	-0.14844733
93	0xbd830e9f	-0.06399273
94	0x3c52efdb	0.012874569
95	0x3e307c97	0.17235027
96	0x3db46843	0.08808949
97	0x3d9f2afa	0.07771869
98	0x3e4908b5	0.19632228
99	0x3e578680	0.21047401
100	0xbd091f4d	-0.033477116
101	0x3e541681	0.2071171
102	0xbe1fabf9	-0.15592946
103	0x3a0d1b30	0.00053827744
104	0x3d3d307b	0.046188813
105	0x3dc942fc	0.098272294
106	0x3e08f11c	0.13373226
107	0xbe0d3649	-0.1379024
108	0x3c4da635	0.012551834
109	0xbd9d8f1a	-0.0769331
110	0x3c03dc88	0.008048184
111	0xbdb47568	-0.08811456
112	0x3d92b37b	0.071631394
113	0x3da3f7a4	0.08006218
114	0x3e7476a3	0.23873381
115	0x3d298109	0.041382823
116	0xbdce61ad	-0.10077224
117	0x3c696e5e	0.014247505
118	0x3e6068d5	0.2191499
119	0x3e417e92	0.18895939
120	0xbe1a902c	-0.1509406
121	0x3e8a408a	0.27002364
122	0x3e218df2	0.15776804
123	0xbd24e4b0	-0.040257156
124	0xbe0c3cbf	-0.13695048
125	0xbd83ea0f	-0.064411275
126	0xbe5584c3	-0.20851426
127	0xbe1e2f3c	-0.15447706
128	0x3ddede24	0.10882214
129	0x3e26180a	0.16220108
130	0xbd2cb439	-0.04216406
131	0xbe19f8cc	-0.15036315
132	0x3d1549f3	0.036447477
133	0xbcfad00e	-0.030616786
134	0xbd80c60e	-0.06287776
135	0xbc8fff37	-0.01757775
136	0xbe05b34e	-0.1305668
137	0x3e31fa0d	0.17380543
138	0x3d756548	0.059911042
139	0x3e8927de	0.2678823
140	0xbc8fae22	-0.017539088
141	0xbcf30024	-0.029663153
142	0x3c083caf	0.008315249
143	0xbe00bdc1	-0.12572385
144	0xbc7e29a7	-0.01551286
145	0xbc2dea7b	-0.0106149865
146	0xbb4497e8	-0.002999777
147	0xbe50fe5e	-0.20409533
148	0x3ad3e948	0.0016167546
149	0xbcb51102	-0.022102837
150	0xbdb9d23b	-0.090733014
151	0x3dd130c6	0.10214381
152	0xbe0d7758	-0.13815057
153	0xbea66bf5	-0.3250424
154	0xbd196836	-0.0374529
155	0xbd333449	-0.043751035
156	0xbe024aa3	-0.12723784
157	0x3d6e389b	0.058159452
158	0x3ccd968f	0.025096206
159	0x3bca4ae3	0.006173478
160	0xbe0f6585	-0.1400357
161	0x3dd83b48	0.10558182
162	0xbd9c229e	-0.0762379
163	0x3c435b4c	0.011923622
164	0x3e996328	0.29958463
165	0xbdfe4f56	-0.12417476
166	0xbc9a6222	-0.018845621
167	0xbd80d041	-0.06289721
168	0x3e04f72b	0.12984912
169	0xbd08bb8f	-0.033381995
170	0xbb065709	-0.0020498654
171	0xbd31092f	-0.04322165
172	0x3e168d42	0.14702323
173	0x3d6ed585	0.058309097
174	0x3e409f0d	0.18810673
175	0x3dc02573	0.09382143
176	0xbbda5756	-0.0066632433
177	0x3d959a05	0.073047675
178	0xbdde262a	-0.10847123
179	0x3cbb77a1	0.022884192
180	0xbdb615a3	-0.088908456
181	0xbe415ae2	-0.18882325
182	0x3cca6652	0.024706993
183	0xbcc49d12	-0.024000678
184	0xbd91d599	-0.07120819
185	0x3e934476	0.2876317
186	0x3d0f04cf	0.034916695
187	0x3c8cbefc	0.017180912
188	0xbd0d4579	-0.034490082
189	0xbd2f668e	-0.042822413
190	0x3db6d016	0.08926408
191	0xbd86b25c	-0.06576988
192	0xbd02d07e	-0.031937115
193	0xbbe63e74	-0.007026488
194	0x3e1d06c8	0.15334618
195	0x3c676320	0.014122754
196	0xbdea48fb	-0.11439701
197	0xbef41dcf	-0.47678992
198	0xbda696af	-0.08134209
199	0x3e1b212e	0.15149376
200	0x3e42f020	0.19036913
201	0xbcc93b21	-0.024564328
202	0x3e440b7f	0.1914501
203	0x3e20538e	0.15656874
204	0xbdfdf071	-0.12399376
205	0xbe04a315	-0.12952836
206	0xbe33d323	-0.17561011
207	0x3c10b4a7	0.008832133
208	0xbddd75b2	-0.10813464
209	0xbd73d2e1	-0.05952728
210	0x3b1bae1c	0.00237549
211	0xbdad2cb5	-0.08455793
212	0xbd933e7d	-0.07189653
213	0xbd1554e1	-0.0364579
214	0xbe71acb0	-0.23601031
215	0xbd079f82	-0.033111103
216	0xbd7a8f4c	-0.061171815
217	0xbe7f2577	-0.24916635
218	0x3d8243b7	0.06360572
219	0x3e5c53c0	0.21516323
220	0xbe7c787b	-0.24655335
221	0x3d3939c0	0.04522109
222	0x3d8377f6	0.06419365
223	0x3e1fadd7	0.15593658
224	0x3d50310b	0.05082802
225	0x3d7228fc	0.059121117
226	0xbe4608af	-0.1933925
227	0xbd30433a	-0.043032862
228	0xbe763e8f	-0.24047302
229	0x3c8a5482	0.016886
230	0x3dc241f7	0.09485238
231	0xbeb4241d	-0.35183802
232	0x3d4fed10	0.05076319
233	0xbcb4d03f	-0.022071956
234	0x3d7405a7	0.059575703
235	0xbe7f3205	-0.24921425
236	0xbd9357ac	-0.071944565
237	0xbe26611c	-0.16247982
238	0xbdaf16f4	-0.085493
239	0xbcf3f75e	-0.02978104
240	0xba1c7638	-0.00059685437
241	0xbdd5241d	-0.10407279
242	0xbddd52ac	-0.10806784
243	0x3c167fa9	0.00918571
244	0x3dcf2bc8	0.101157725
245	0xbc0a45a4	-0.008439455
246	0x3e34dfc1	0.1766348
247	0xbd46a33c	-0.048495516
248	0xbe0e238a	-0.13880745
249	0xbdc0a71b	-0.09406873
250	0xbd5224ff	-0.051304813
251	0x3dcd4ed9	0.100248046
252	0xbdb60924	-0.08888462
253	0xbc4505c8	-0.012025304
254	0xbddf704c	-0.10910091
255	0xbe4a4171	-0.19751526

network_body._body_endoder.seq_layers.2.bias f4 [256]
0	0xbd599212	-0.05311782
1	0xbd57ffa1	-0.05273402
2	0xbdd32f1f	-0.10311722
3	0xbceb0243	-0.028687602
4	0x3c1e31bc	0.009655412
5	0xbd214520	-0.039372563
6	0xbd61bd81	-0.055112366
7	0xbd9323cc	-0.07184562
8	0x3cde1e60	0.027114093
9	0x3ce054aa	0.027384121
10	0xba13791a	-0.00056256505
11	0xba5bd7d0	-0.00083863456
12	0xbd815dcc	-0.063167185
13	0xbdbd1b75	-0.09233753
14	0xbbdb9a56	-0.006701748
15	0xbd972d2e	-0.07381664
16	0xbc90021d	-0.017579133
17	0xbdbfba07	-0.09361654
18	0xbb9a63e1	-0.0047116135
19	0x3c9468d4	0.018116392
20	0xbe09065e	-0.13381335
21	0xbcd092b7	-0.025460584
22	0xbd8216a9	-0.06351978
23	0x3d1062b7	0.03525039
24	0x3a571863	0.0008205233
25	0x3d0a8298	0.03381595
26	0xbd8c9a99	-0.06865425
27	0xbd947216	-0.07248323
28	0x3ceab003	0.028648382
29	0xbd282476	-0.041050397
30	0xbd0ca7be	-0.03433966
31	0xbd7f2747	-0.062293317
32	0xbc280dfb	-0.010257239
33	0xbd59a1de	-0.053132884
34	0x3d7f196c	0.062280104
35	0x3c1459a2	0.009054573
36	0xbd1578a8	-0.03649202
37	0xbc3acaa6	-0.011400854
38	0xbda1b3c7	-0.07895618
39	0xbcbe4a18	-0.02322869
40	0xbd94f47b	-0.072731934
41	0x3c6dfac1	0.014525116
42	0xbd68d5cd	-0.05684452
43	0xbd163638	-0.0366728
44	0xbc06c62f	-0.008225962
45	0xbc9e5648	-0.019328251
46	0xbdd559b9	-0.10417504
47	0xbcfd9858	-0.030956432
48	0xbc18add3	-0.009318787
49	0xbb814579	-0.0039450494
50	0x3d18658c	0.037206218
51	0xbe151513	-0.1455882
52	0xbda5db44	-0.08098462
53	0xbda61140	-0.08108759
54	0x3d204663	0.039129626
55	0xbd51c89f	-0.051216718
56	0xbdc675d1	-0.096904404
57	0xbd2652e3	-0.04060639
58	0x3d5d6f9d	0.05406152
59	0x3ac7607f	0.0015211253
60	0xbca5f072	-0.020256255
61	0xbe06e537	-0.13173376
62	0x3cb32232	0.021866892
63	0x3c963111	0.018333944
64	0x3c8b8199	0.01702957
65	0x3cfe218b	0.031021854
66	0xbd7bef7c	-0.061507687
67	0xbdc85bd1	-0.097831376
68	0xbe13f3a6	-0.14448413
69	0x3cd651e1	0.02616209
70	0xbd0cb49f	-0.03435194
71	0xbdd92e73	-0.106045626
72	0xbdae87b9	-0.08521981
73	0xbd033b20	-0.032038808
74	0xbcb40721	-0.021976056
75	0xbcdcc9b8	-0.026951656
76	0xbd944643	-0.07239964
77	0xbcd3247d	-0.025774235
78	0xbd641505	-0.05568411
79	0xbc7d4d64	-0.015460346
80	0xbd53b063	-0.051681887
81	0xbd4a169a	-0.04933796
82	0xbce2304f	-0.027610926
83	0xbc5313c8	-0.012883134
84	0xbc24219b	-0.010017778
85	0xbacabf0b	-0.0015468312
86	0x3d8d38fc	0.068956345
87	0xbbcd53db	-0.0062661
88	0xbd3e7f80	-0.046508312
89	0x3c2ca47f	0.010537266
90	0xbd1efc99	-0.038815115
91	0xb99eadac	-0.00030265504
92	0x3c4772c4	0.012173358
93	0xbd504f8c	-0.05085711
94	0xbc8738f9	-0.016506659
95	0xbd4772f2	-0.048693605
96	0x3c39980b	0.011327754
97	0xbd0b7821	-0.03405011
98	0xbac2d099	-0.0014863192
99	0xbd8fb1de	-0.07016347
100	0xbd9cee1e	-0.07662605
101	0xbccf8110	-0.025330096
102	0x3a9f83fe	0.0012170074
103	0xbcb5df55	-0.02220122
104	0xbd8131fe	-0.063083634
105	0x3d6eba3a	0.05828307
106	0xbc86a7ee	-0.016437497
107	0xbc850f89	-0.01624276
108	0xbd74f30f	-0.05980211
109	0xbd322302	-0.043490417
110	0xbd89c614	-0.067272335
111	0xbdb99290	-0.09061158
112	0xbd13da19	-0.036096666
113	0xbd587f65	-0.052855868
114	0x3c8616df	0.016368328
115	0xbd128d10	-0.03577906
116	0xbc3b08ea	-0.0114156995
117	0xbde2214a	-0.11041506
118	0x3d7f1e37	0.062284674
119	0xbe0f5bac	-0.13999814
120	0xbd824c55	-0.063622154
121	0x3bca7019	0.006177914
122	0xbdc75b63	-0.097342275
123	0xbd699bdb	-0.0570334
124	0xbdf253c9	-0.11832387
125	0xbb5b1818	-0.003343111
126	0xbda20bec	-0.0791243
127	0x3c3e24fb	0.0116054965
128	0xbde16783	-0.110060714
129	0xbd01b45d	-0.03166615
130	0xbd1acbc6	-0.03779199
131	0xbcc683ba	-0.024232734
132	0xbdaa4934	-0.08314744
133	0xbd80f4e7	-0.062967114
134	0xbcc98714	-0.024600543
135	0x3d14ef81	0.03636122
136	0x3be51ea7	0.0069921794
137	0xbd86df5e	-0.06585573
138	0xbbd6cda5	-0.0065552765
139	0xbe10d2fd	-0.14142986
140	0x3ce01fb6	0.027358871
141	0xba700866	-0.0009156525
142	0xbdcf5adf	-0.10124754
143	0xbca2e65a	-0.01988523
144	0xbe24314f	-0.16034435
145	0x3b930a75	0.0044873306
146	0xbc46b5eb	-0.012128334
147	0x3c89345d	0.016748602
148	0xbdf527f2	-0.119705096
149	0xbcea4b20	-0.028600276
150	0xbb8d4c19	-0.00431205
151	0xbd6cd780	-0.057822704
152	0xbd1bf155	-0.03807195
153	0x3c88eec3	0.016715413
154	0x3d08f77e	0.033439152
155	0xbdb499bb	-0.08818384
156	0x3d6552e8	0.05598727
157	0xbc00758f	-0.007840528
158	0xbdb22d35	-0.08700029
159	0xbe08396f	-0.13303159
160	0xbd6232f4	-0.055224374
161	0xbd84cc55	-0.06484286
162	0xbdbb33d5	-0.091407456
163	0x3c2afb36	0.01043587
164	0xbdb9d8af	-0.09074532
165	0xbd6093ee	-0.054828577
166	0xbdae82f8	-0.08521074
167	0xbe0573f1	-0.1303251
168	0xbd2d43ce	-0.04230099
169	0xbcac4302	-0.021028046
170	0x3ca2f2a0	0.019891083
171	0xbd9ea49d	-0.07746241
172	0xbd9c3067	-0.076264195
173	0x3c9dd0ce	0.019264605
174	0xbdd03398	-0.10166091
175	0xbc609153	-0.013706523
176	0xbcca1bcd	-0.02467146
177	0xbdbf8e8b	-0.0935336
178	0xbd3eb7ab	-0.04656188
179	0x3d79a08c	0.060944125
180	0x3c69f894	0.014280457
181	0x3cbd0ba8	0.023076847
182	0x3bef455f	0.007301971
183	0xbd88fcac	-0.06688818
184	0x3d83b2b3	0.064305685
185	0xbd4abc96	-0.049496256
186	0xbddee403	-0.108833335
187	0xbdc3d68f	-0.09562408
188	0x3c8092d1	0.015695008
189	0x3ce952a1	0.028481783
190	0xbcc36aa9	-0.02385457
191	0x3dbb1175	0.09134189
192	0xbd2980c7	-0.041382577
193	0xbc8e568a	-0.01737525
194	0x3d898538	0.067148626
195	0xbb6d2584	-0.003618569
196	0x3cf3af7c	0.029746763
197	0xbb39b338	-0.0028335582
198	0xbda80c47	-0.08205467
199	0xbdbfa04f	-0.09356748
200	0x3c3fa05d	0.011695948
201	0xbd08d5da	-0.03340707
202	0xbc7ff195	-0.0156215625
203	0xbde32e72	-0.11092843
204	0xba05a1ed	-0.0005097676
205	0x3ba10dbb	0.004914967
206	0x3d9f2c20	0.07772088
207	0x3cb52526	0.02211244
208	0xbe0368a3	-0.12832884
209	0xbcc4df54	-0.024032272
210	0xbd91c1bf	-0.07117032
211	0x3cbac852	0.022800598
212	0x3c6c88a8	0.014436878
213	0xbdedfaee	-0.11620127
214	0x3b3af88f	0.00285295
215	0xbd6bffcb	-0.05761699
216	0xbc564f4e	-0.013080431
217	0xbd2820a9	-0.041046772
218	0xbc99cf72	-0.018775675
219	0xbd53b762	-0.05168856
220	0xbc3e9dad	-0.0116342725
221	0xbc2b44b9	-0.0104533965
222	0xbcbf394b	-0.02334275
223	0xbd7c1be2	-0.06155003
224	0xbe03aa1a	-0.12857857
225	0xbd85817a	-0.06518836
226	0xbdc05730	-0.0939163
227	0x3cae5ab0	0.021283478
228	0xbcb51477	-0.022104485
229	0xbd5c07ce	-0.05371838
230	0x3d26dbb6	0.040736876
231	0xbc78d516	-0.015187522
232	0xbde1a77f	-0.110182755
233	0xbcbe98cd	-0.02326622
234	0x3d306202	0.043062218
235	0x3b75d75f	0.0037512404
236	0xbba0014c	-0.004882967
237	0xbd223dec	-0.039609835
238	0xbda017ca	-0.078170374
239	0xbd011667	-0.031515505
240	0x3be918a5	0.0071135336
241	0xbdca0fe9	-0.09866316
242	0x3d12ee3f	0.03587174
243	0xbe028175	-0.12744696
244	0xbd2898c5	-0.041161317
245	0xbd9efcc9	-0.07763059
246	0xbcdfb48d	-0.027307773
247	0xbc87320c	-0.016503356
248	0xbd8c1068	-0.06839067
249	0xbd8b6eef	-0.06808268
250	0xbe2d12fa	-0.1690177
251	0xbd1c9307	-0.038226154
252	0xbd1e5242	-0.038652666
253	0xbd200f3a	-0.03907702
254	0xbe0b5dd9	-0.13610019
255	0xbd3eea2d	-0.046610046

action_model._discrete_distribution.branches.0.weight f4 [3, 256]
0	0x3c05a82d	0.008157772
1	0x3d85117e	0.06497477
2	0xbd93abf2	-0.0721053
3	0x3bcf6bdf	0.006329998
4	0x3e2c336d	0.16816492
5	0x3d6cdc81	0.057827476
6	0xbd40cc12	-0.047069617
7	0x3d250f58	0.040297836
8	0xbb71bb9e	-0.003688551
9	0x3dc218b4	0.09477368
10	0xbd8dd1b1	-0.06924761
11	0x3d248cc7	0.04017332
12	0xbd770f5e	-0.06031739
13	0xbe1202b9	-0.14258851
14	0x3bd38be4	0.0064558852
15	0x3cdd758a	0.027033586
16	0x3caa0ffb	0.020759573
17	0xbb58e187	-0.003309341
18	0x3d9ceb23	0.07662036
19	0x3e19b730	0.15011287
20	0xbc3412fc	-0.010990854
21	0xbd1e619b	-0.038667303
22	0xbcf6a713	-0.030108964
23	0x3c34e9bd	0.011042056
24	0x3dc1f7c8	0.09471089
25	0xbd42e512	-0.04758174
26	0x3b65d788	0.0035071094
27	0x3cba3224	0.022728987
28	0xbb1c4ea5	-0.0023850587
29	0xbd041514	-0.032246664
30	0x3c943006	0.018089306
31	0xbd8bd110	-0.06826985
32	0x3b2da3f6	0.0026495433
33	0x3cefb9d2	0.02926341
34	0xbbd00d1e	-0.00634922
35	0x3d842dec	0.064540714
36	0x3db651c1	0.08902312
37	0x3d6f599e	0.058435075
38	0xbcb82545	-0.022478709
39	0x3d6a86c7	0.05725744
40	0xbcf407bf	-0.02978885
41	0xbdede4e6	-0.116159245
42	0xbe1d647c	-0.15370363
43	0xbc473cb7	-0.012160472
44	0xbd4b98eb	-0.04970638
45	0x3cf530f1	0.029930564
46	0x3ceb10c7	0.028694523
47	0xbdb11ec0	-0.08648443
48	0x3d760909	0.06006721
49	0xbcfa4250	-0.030549198
50	0xbc1878dc	-0.009306159
51	0xbd624e7c	-0.05525063
52	0xbd02813b	-0.031861525
53	0x3c573740	0.013135731
54	0x3dc7db9f	0.09758686
55	0x3d6f76ec	0.058463022
56	0x3dd3fb96	0.103507206
57	0x3cdc564a	0.026896615
58	0x3e332597	0.17494808
59	0xbd06056b	-0.03272001
60	0xbdba52e7	-0.090978436
61	0xbcc051d9	-0.023476528
62	0xbd9750fb	-0.07388493
63	0xbd51d576	-0.051228963
64	0xbd588262	-0.052858718
65	0x3d465354	0.04841931
66	0x3b2ecb40	0.002667144
67	0x3da170cd	0.07882843
68	0xbca3b66a	-0.019984443
69	0xbe289bff	-0.16465758
70	0xbd2b8797	-0.041877355
71	0xbcde84c1	-0.027162911
72	0xbe0ca0de	-0.13733241
73	0xbdd70649	-0.10499246
74	0x3d9afcd4	0.075677544
75	0x3d8eb9e0	0.069690466
76	0xbd23d758	-0.04000029
77	0xbdd281d5	-0.1027867
78	0x3ad5bcc7	0.001630687
79	0x3d458d40	0.04823041
80	0x3cc94c0b	0.024572393
81	0x3cabf82d	0.020992363
82	0x3d07af1e	0.03312599
83	0x3d2e503c	0.042556986
84	0x3c519cac	0.012793701
85	0xbce92693	-0.028460776
86	0x3d62b951	0.055352513
87	0xbd18178f	-0.037131842
88	0x3d6bb9a8	0.057550102
89	0x3dda4d05	0.106592216
90	0xbdcd3837	-0.10020488
91	0x3d696494	0.056980684
92	0xbd61c42b	-0.05511872
93	0x3dabf31e	0.0839598
94	0xbe81fb25	-0.2538692
95	0xbda660d2	-0.08123936
96	0xbdb28d64	-0.08718374
97	0xbd349218	-0.04408464
98	0x3d503b19	0.05083761
99	0x3b39fb19	0.0028378426
100	0xbdf0435a	-0.11731596
101	0x3d90a36d	0.07062421
102	0x3d759d94	0.05996473
103	0xbd45a17d	-0.04824971
104	0x3d14705f	0.036239978
105	0xbd3334dc	-0.043751583
106	0x3d88e421	0.06684137
107	0x3d10d50a	0.03535942
108	0xbd0d1d6c	-0.034451887
109	0x3a9ec836	0.0012114111
110	0xbb53e14d	-0.0032330335
111	0xbd37b7c7	-0.044852998
112	0x3d9b0092	0.07568468
113	0x3cdea74e	0.027179386
114	0x3d0ae211	0.033907
115	0x3b8c1ee4	0.0042761434
116	0x3d360932	0.044442363
117	0x3c4b31b8	0.012401991
118	0x3c3f6fb4	0.011684347
119	0xbe12be92	-0.1433051
120	0x3dbe0858	0.09278935
121	0x3c1dfea8	0.009643234
122	0xbdddc7d5	-0.108291306
123	0x3bc2e47f	0.005947649
124	0x3d7b96c8	0.061423093
125	0xbdd455bf	-0.10367917
126	0x3d041468	0.032246023
127	0xbcf44856	-0.029819649
128	0x3d01e174	0.03170915
129	0xbd1ffdce	-0.039060406
130	0x3dd42903	0.10359385
131	0xbd7fbc6d	-0.062435556
132	0xbdb6839e	-0.08911823
133	0x3a631f32	0.0008664011
134	0xbd231bc9	-0.03982142
135	0x3d53cf3a	0.0517113
136	0x3d892838	0.06697124
137	0x3c2b26f2	0.010446297
138	0x3dc2d000	0.09512329
139	0xbd65b81c	-0.056083784
140	0x3d86b6c5	0.06577829
141	0x3c87cff3	0.01657865
142	0xbcc3e9bc	-0.023915164
143	0xbe259ebe	-0.16173837
144	0xbdf28b89	-0.118430205
145	0x3d944cc4	0.072412044
146	0xbda5107e	-0.08059786
147	0xbd11f5ca	-0.035634793
148	0xbdf633a3	-0.12021568
149	0x3d788537	0.06067392
150	0x3d8a3037	0.067474775
151	0x3cacdb5a	0.021100689
152	0xbd0abea6	-0.033873223
153	0xbd9cac93	-0.076501034
154	0x3da8984b	0.082321726
155	0x3dc52bbc	0.09627482
156	0x3d8918cb	0.06694182
157	0xbc6257ca	-0.013814876
158	0xbbeb1f9d	-0.0071753995
159	0xbd6cbd1d	-0.05779754
160	0x3cc7c9c7	0.024388207
161	0xbc478701	-0.0121781835
162	0xbd7a2a9e	-0.0610758
163	0x3c75331f	0.0149658015
164	0x3d92d63c	0.07169768
165	0xbce5a606	-0.028033268
166	0xbb7ec0a2	-0.0038872142
167	0x3d5ac2ba	0.053408362
168	0x3d54a333	0.05191345
169	0xbceed154	-0.02915255
170	0x3d977403	0.07395174
171	0xbd08ee6c	-0.0334305
172	0xbd9b0b9f	-0.07570576
173	0x3d6aa504	0.057286277
174	0xbd0c0080	-0.034180164
175	0xbdfea22f	-0.12433278
176	0x3bf6444b	0.0075154654
177	0xbd862346	-0.065496966
178	0x3bc7aa29	0.0060932827
179	0xbcb90a9f	-0.022588072
180	0x3d81bd8a	0.0633498
181	0xbcb7b0e5	-0.022423217
182	0xbde85b34	-0.113455206
183	0xbdbd04a7	-0.09229403
184	0xbd3a6ac3	-0.045511972
185	0x3d363ebe	0.04449343
186	0xbd8d111b	-0.06888028
187	0xbd02416a	-0.031800665
188	0x3d8d1e06	0.06890492
189	0xbd15dbbb	-0.036586504
190	0x3db33470	0.08750236
191	0xbc719585	-0.014745121
192	0xbdd9b401	-0.10630036
193	0xbd4cb0f8	-0.049973458
194	0x3e2c8267	0.1684662
195	0xbd95405b	-0.072876655
196	0xbcf66032	-0.030075166
197	0xbd365968	-0.04451886
198	0xbdc1fc00	-0.09471893
199	0xbd1d071b	-0.038336854
200	0x3b066278	0.002050547
201	0x3b84ca6c	0.004052451
202	0x3d51cf07	0.051222827
203	0xbd01fe19	-0.031736467
204	0x3d2d611c	0.04232894
205	0x3e71bd65	0.23607405
206	0xbc8c502f	-0.017128078
207	0x3d6f5fbc	0.05844091
208	0x3d65d62d	0.056112457
209	0xbd174ef1	-0.03694052
210	0xbde091a7	-0.10965281
211	0x3cdc2623	0.026873654
212	0xbc52bb6d	-0.012862069
213	0x3dc0b981	0.09410382
214	0x3da38177	0.07983678
215	0xbd5357a2	-0.051597245
216	0x3d886ae6	0.06661014
217	0x3cae64ed	0.02128836
218	0x3dac3d59	0.08410139
219	0xbcead01c	-0.028663687
220	0x3cb12aa3	0.021626776
221	0xbc16a827	-0.009195364
222	0x3ad1a95a	0.0015995905
223	0x3df5a231	0.11993826
224	0x3d8a68e1	0.06758285
225	0xbdb469f3	-0.08809271
226	0xbaa822f8	-0.0012827804
227	0xbc0a880d	-0.008455289
228	0x3deb65c9	0.11494023
229	0xbd16cfb7	-0.036819186
230	0x3bbe72f3	0.005812043
231	0xbc964552	-0.018343601
232	0xbc881408	-0.016611114
233	0xbca8690b	-0.0205579
234	0xba50719e	-0.00079515006
235	0xbdd9a27d	-0.10626695
236	0x3c82eb86	0.015981447
237	0xbd5d9806	-0.05410006
238	0xbd0cc04c	-0.034363076
239	0x3dabb8d5	0.08384863
240	0xbd8fde82	-0.07024862
241	0x3d37f181	0.04490805
242	0x3e096103	0.13415913
243	0x3c917012	0.017753635
244	0x3d833357	0.06406277
245	0x3d5a6f75	0.05332895
246	0xbbf6513c	-0.007517008
247	0xbb2da18c	-0.0026493995
248	0xbdd93bbb	-0.10607096
249	0x3e2b4645	0.16726024
250	0xbd9722dd	-0.073796965
251	0xbd89fecb	-0.06738051
252	0xbd18b507	-0.037282016
253	0x3d904200	0.070438385
254	0xbda6f8d9	-0.08152933
255	0x3dd73103	0.10507395

action_model._discrete_distribution.branches.0.bias f4 [3]
0	0x3e0857ce	0.13314745
1	0xbd7ffa8c	-0.0624948
2	0xbdc626c2	-0.09675361

action_model._discrete_distribution.branches.1.weight f4 [3, 256]
0	0xbd2db36b	-0.042407434
1	0x3b3f70f1	0.0029211605
2	0x3cfafbe0	0.030637681
3	0xbc37a935	-0.011209776
4	0x3d6e710d	0.058213282
5	0xbd41030f	-0.047122058
6	0x3d80917b	0.06277748
7	0xbe147a90	-0.14499879
8	0xbd58fc24	-0.052974835
9	0xbcddb74a	-0.027064938
10	0xbd54f48a	-0.051991023
11	0x3d3bda2d	0.045862366
12	0x3c94c5c7	0.018160714
13	0x3cc6deae	0.024276104
14	0x3c28935a	0.010289038
15	0xbb8d66d5	-0.004315237
16	0xbd4c076e	-0.049811773
17	0x3d527595	0.051381666
18	0x3c9513ee	0.01819798
19	0x3cee4afa	0.029088486
20	0x3dd40eac	0.10354361
21	0xbca17a98	-0.019711778
22	0xbe15091d	-0.14554258
23	0x3cec791b	0.028866341
24	0xbbba6851	-0.005688705
25	0xbcc9baa5	-0.024625132
26	0xb9ebdc25	-0.00044986713
27	0x3ca74d05	0.020422468
28	0x3cd57610	0.026057273
29	0x3d6c708d	0.057724524
30	0x3c25c685	0.0101181315
31	0x3cdca0fb	0.02693223
32	0x3cf3d068	0.029762462
33	0xbd98a455	-0.07453219
34	0x3cdbc3bc	0.026826732
35	0xbc878873	-0.016544556
36	0x3d530a89	0.05152372
37	0x3d2405a5	0.040044446
38	0x3b94bf4c	0.004539406
39	0x3d637b7f	0.055537697
40	0x3d0b5502	0.034016617
41	0x3d5940e5	0.053040404
42	0x3d484526	0.04889407
43	0x3d6c1be0	0.05764377
44	0xbda62ec0	-0.081143856
45	0x3c83bfe5	0.016082713
46	0x3cafd3ec	0.021463357
47	0x3df48919	0.11940212
48	0xbc175860	-0.009237379
49	0xbc35b198	-0.011089705
50	0x3d934d0a	0.071924284
51	0x3d467b8f	0.04845768
52	0xbc9976a0	-0.018733323
53	0x3d24d85f	0.04024541
54	0x3d161896	0.03664454
55	0x3c76b3d2	0.015057521
56	0xbd419e88	-0.047270328
57	0x3cc0da67	0.023541642
58	0x3d0916a1	0.033468846
59	0x3dca07bb	0.09864756
60	0xbc8ff11b	-0.017571023
61	0x3c3d288a	0.01154531
62	0xbd4c9ead	-0.049956013
63	0xbc97291f	-0.018452225
64	0x3cab3579	0.020899521
65	0xbcfa3398	-0.03054218
66	0xbe3be40d	-0.18348713
67	0x3d3370c7	0.043808725
68	0x3cb79f92	0.022414956
69	0xbc558604	-0.01303244
70	0x3d1b5bbf	0.037929293
71	0x3daaeff7	0.08346551
72	0x3d45f354	0.04832776
73	0x3d488e04	0.04896356
74	0xbcc1935d	-0.023629839
75	0xbd3b0910	-0.04566294
76	0x3c641267	0.013920403
77	0x3d457fc8	0.048217565
78	0x3e0accfb	0.13554756
79	0xbd816246	-0.06317572
80	0x3cdcf5f3	0.026972746
81	0xba28d877	-0.0006440947
82	0x3c620d9d	0.013797191
83	0x3d3d2119	0.046174143
84	0xbcff677c	-0.031177275
85	0x3ca5abb6	0.02022348
86	0xbc244013	-0.010025042
87	0xbe3d8787	-0.18508731
88	0x3c2ea75b	0.010660018
89	0xbd691c8b	-0.056911986
90	0x3d89be3e	0.06725739
91	0xbd4d6bf9	-0.0501518
92	0x3d8b129e	0.0679066
93	0x3d91fb04	0.071279556
94	0x3d21c91d	0.039498437
95	0x3d98fa6b	0.074696384
96	0x3d24b29b	0.040209394
97	0x3dd0381f	0.10166954
98	0xbbd86ea8	-0.006604988
99	0x3d86e1f7	0.06586068
100	0xbd4d5ca5	-0.05013718
101	0x3cf832b3	0.030297613
102	0x3c2f3d74	0.010695804
103	0x3e0a7ddb	0.13524573
104	0x3ca505ca	0.020144362
105	0xbd69ff24	-0.057128087
106	0xbdad53cf	-0.08463251
107	0xbd33cd62	-0.04389704
108	0x3ccd10d7	0.025032444
109	0xbdec6f03	-0.11544611
110	0x3c11b490	0.008893147
111	0x3cf58354	0.029969849
112	0xbc380493	-0.011231559
113	0x3d30f858	0.04320559
114	0x3d541a2b	0.05178277
115	0x3c69d202	0.014271261
116	0xbcc7169d	-0.024302775
117	0x3c037650	0.008023813
118	0x3d247eda	0.040160038
119	0x3cf4bf45	0.02987636
120	0xbce3b6c2	-0.027797107
121	0x3c7b61ec	0.015343171
122	0x3c92c971	0.01791832
123	0xbc669142	-0.014072718
124	0xbc1b84c8	-0.009492107
125	0x3e08563e	0.13314149
126	0x3d485987	0.048913505
127	0xbdae8e6a	-0.08523257
128	0x3d3242f5	0.043520886
129	0x3d4d90fa	0.05018709
130	0xbcfd0d7f	-0.030890225
131	0x3d83ec57	0.064415626
132	0x3cad9859	0.02119081
133	0xbdb8c826	-0.0902255
134	0xbcbd4add	-0.023106987
135	0x3c486bce	0.012232734
136	0x3b59a2ad	0.0033208535
137	0x3c75eb93	0.015009779
138	0xbd04ca3c	-0.03241943
139	0x3c76d601	0.015065671
140	0x3c9f9821	0.01948172
141	0x3d6d6f49	0.057967458
142	0x3c50d530	0.01274614
143	0x3bd523aa	0.0065044956
144	0xbcb93303	-0.022607332
145	0xbcfda098	-0.030960366
146	0xbbfdf1fa	-0.007749793
147	0x3d326317	0.04355153
148	0x3d528760	0.051398635
149	0x3cf92f17	0.030417962
150	0xbd6ca7ba	-0.057777144
151	0x3d0203a2	0.031741746
152	0x3d46d69b	0.048544507
153	0xbca39068	-0.01996632
154	0x3ccf8147	0.025330199
155	0x3d1278d8	0.035759777
156	0x3c5d8d8c	0.013522517
157	0xbd345165	-0.044022936
158	0x3d9a0f10	0.07522404
159	0x3ba627f6	0.0050706817
160	0xbc62c040	-0.013839781
161	0xbd00cb67	-0.03144398
162	0x3b8f5939	0.00437465
163	0x3d77593c	0.060387835
164	0xbc4de236	-0.01256614
165	0x3d147df7	0.036252942
166	0x3dc43911	0.09581197
167	0x3c74c002	0.014938356
168	0xbde4f56e	-0.111796245
169	0x3cffec27	0.031240536
170	0xbcfb3e8f	-0.030669479
171	0x3d1b746c	0.037952825
172	0x3d88ca5f	0.06679224
173	0xbd90d663	-0.07072141
174	0xbd813854	-0.06309572
175	0x3e098d3c	0.13432783
176	0x3c651d8c	0.013984095
177	0x3d2bb1e4	0.041917697
178	0x3d814fe6	0.063140675
179	0x3b95b213	0.0045683472
180	0xbdc0df27	-0.09417563
181	0xbc4c4df3	-0.012469756
182	0x3c1222b8	0.00891941
183	0x3cfc9ce6	0.030836534
184	0xbc500c8d	-0.012698305
185	0x3ccbd37b	0.024881115
186	0x3d8b31d4	0.06796613
187	0x3c9d71e9	0.019219356
188	0x3d4554a7	0.048176434
189	0xbde381dc	-0.11108753
190	0x3de9274b	0.11384448
191	0x3d204a57	0.039133396
192	0x3d7a6ceb	0.06113903
193	0xbda1f1ec	-0.07907471
194	0x3c1a6108	0.009422548
195	0xbd83a6bb	-0.06428286
196	0xbcbf8504	-0.023378856
197	0x3d2e3179	0.04252765
198	0x3d362c9e	0.044476144
199	0x3d71ce1d	0.059034456
200	0xbd51554a	-0.05110673
201	0xbd54f95c	-0.05199562
202	0xbd11f12d	-0.035630394
203	0x3b5558fc	0.003255426
204	0x3da54b46	0.08070998
205	0x3cbad655	0.02280728
206	0xbb2cf617	-0.0026391798
207	0xbd857edd	-0.06518338
208	0x3c878e0d	0.016547227
209	0x3be7ab93	0.007070014
210	0x3ddc9742	0.10771038
211	0x3cdcc1ff	0.026947973
212	0xbc312bb5	-0.010813643
213	0x3aba84cc	0.001423025
214	0x3c6e8fa4	0.014560614
215	0x3dbb17f5	0.09135429
216	0xbb2a95bd	-0.0026029192
217	0x3d6cec3b	0.057842474
218	0x3d7bf770	0.06151527
219	0xbdcd25c3	-0.10016968
220	0x3cccb33d	0.024987811
221	0x3caba18c	0.020951055
222	0x3d44610c	0.047944114
223	0xbdd9a216	-0.106266186
224	0xbd5c5ae5	-0.05379762
225	0xbba213ab	-0.0049461923
226	0x3ce72c69	0.028219419
227	0xbc88aa4b	-0.016682765
228	0x3d1654a6	0.03670182
229	0x3d4ca94f	0.049966153
230	0x3d5174ba	0.05113671
231	0x3d58c09a	0.052918054
232	0x3dd5ac32	0.10433234
233	0x3da93825	0.08262662
234	0x3c1221ba	0.008919174
235	0x3d22dea8	0.039763123
236	0x3da9518c	0.08267507
237	0x3da8dacf	0.082448594
238	0xbc9c2f29	-0.019065456
239	0xbc14f024	-0.009090457
240	0x3db52baa	0.08846219
241	0x3b9079a7	0.0044090333
242	0x3c32877e	0.010896562
243	0xbd10ccf0	-0.035351694
244	0xbccff186	-0.025383722
245	0x3d9992a7	0.07498675
246	0x3dfe141d	0.1240618
247	0x3d8eadd8	0.06966752
248	0x3dbf3594	0.09336391
249	0x3d56a217	0.052400675
250	0xbc3897bc	-0.011266645
251	0x3df9faad	0.12206016
252	0x3d89617f	0.06708049
253	0x3d0ff83e	0.03514885
254	0x3d855d8d	0.06511984
255	0xbd157d28	-0.03649631

action_model._discrete_distribution.branches.1.bias f4 [3]
0	0xbd563dfd	-0.05230521
1	0x3c694ef0	0.014240012
2	0x3d58e0ad	0.052948643

action_model._discrete_distribution.branches.2.weight f4 [2, 256]
0	0xbc05f585	-0.008176212
1	0x3db2d62e	0.08732258
2	0xbd892538	-0.06696552
3	0x3e2cfc5b	0.16893141
4	0xbc8236f4	-0.015895344
5	0xbd803bcc	-0.06261405
6	0x3d980ebc	0.07424685
7	0xbcbad1ec	-0.022805177
8	0xbbbe9c51	-0.005816974
9	0x3b6edd49	0.0036447814
10	0x3cb5d796	0.022197526
11	0x3d591247	0.052995946
12	0xbd88355d	-0.06650803
13	0xbc256adf	-0.010096281
14	0x3e5bbaa0	0.2145791
15	0xbcdb2279	-0.026749836
16	0x3cbda104	0.023148067
17	0xbe14eb2e	-0.14542839
18	0xbcd2b89d	-0.025722796
19	0xbc4c59d8	-0.012472592
20	0xbc5aec78	-0.013362043
21	0xbd0a4714	-0.03375919
22	0xbe20f84d	-0.15719719
23	0x3e1c7436	0.15278706
24	0x3d2600cd	0.040528107
25	0x3d6d7430	0.057972133
26	0xbd226367	-0.03964558
27	0xbd065647	-0.032797124
28	0xbb9f4f03	-0.004861714
29	0xbcb16254	-0.021653332
30	0xbe269e74	-0.16271383
31	0x3c9c54ef	0.019083468
32	0xb8bd5402	-9.02787e-05
33	0x3b4b298c	0.0031000106
34	0x3ed2280b	0.41046175
35	0x3d41b03f	0.047287222
36	0xbb01a094	-0.001977955
37	0x3e086159	0.13318385
38	0x3b7c682c	0.003851424
39	0x3c7546b5	0.014970471
40	0x3c9c0cac	0.019049011
41	0x3dd0ddbd	0.10198543
42	0xbc479b20	-0.012182981
43	0xbce06494	-0.02739171
44	0x3cc0e128	0.023544863
45	0x3cbbac79	0.02290939
46	0xbbb6cc1d	-0.0055785314
47	0x3d079cb4	0.033108428
48	0xbe02c698	-0.1277107
49	0x3e5144ca	0.20436397
50	0x3d1b5a58	0.037927955
51	0xbda43672	-0.08018197
52	0x3c8e4c6f	0.01737043
53	0xbe141b00	-0.14463425
54	0xbc80d6c9	-0.015727418
55	0x3dbf6cff	0.09346961
56	0xbd1fc00d	-0.039001513
57	0xbd1202aa	-0.035647072
58	0x3a579ce8	0.000822498
59	0x3db88e9b	0.09011575
60	0x3d76a45b	0.060215335
61	0xbdda631f	-0.10663437
62	0x3ca9fb0e	0.020749595
63	0x3cdb66ca	0.026782412
64	0x3d902d10	0.07039845
65	0x3c991c68	0.018690303
66	0xbd80b5c9	-0.06284673
67	0xbd720be8	-0.059093386
68	0xbca96c58	-0.020681545
69	0xbca92bd8	-0.02065079
70	0xbe2a7ab8	-0.16648376
71	0xbe15163d	-0.14559264
72	0x3c2f2e19	0.010692143
73	0xbd389ca0	-0.045071244
74	0xbb07760c	-0.0020669727
75	0xbce55ae2	-0.027997438
76	0x3db9e88c	0.09077558
77	0x3cd9f432	0.0266057
78	0xbdbdd59f	-0.092692606
79	0x3cb9121b	0.022591641
80	0xbe363333	-0.17792968
81	0x3c6e020c	0.014526855
82	0xbc0126a6	-0.00788275
83	0x3d7484d8	0.059697002
84	0xbd3a63c7	-0.04550531
85	0x3e912bd1	0.28353742
86	0x3ddab314	0.10678688
87	0xbd8b7f20	-0.068113565
88	0xbca45f38	-0.020064935
89	0xbc5ef2df	-0.01360771
90	0xbd6ec4e0	-0.058293223
91	0x3af24711	0.0018484314
92	0x3da0fed5	0.07861105
93	0x3d03a011	0.032135073
94	0x3df1661f	0.11787056
95	0x3cf4af09	0.02986862
96	0x3ddac583	0.106822036
97	0xbd49d2d9	-0.049273346
98	0x3c88d650	0.016703755
99	0xbd1cdc4a	-0.03829602
100	0x3c2fa515	0.010720511
101	0xbd121f0e	-0.035674147
102	0x3cae9826	0.021312784
103	0xba38bfe7	-0.00070476386
104	0xbd48a796	-0.048987947
105	0xbc2ac4f4	-0.010422934
106	0xbcfe76d3	-0.03106252
107	0x3d54b1de	0.05192744
108	0xbd32e152	-0.043671913
109	0xbe13cbf0	-0.14433265
110	0xbe2b9d11	-0.16759135
111	0xbd0073c6	-0.03136041
112	0x3aad9eaa	0.0013246138
113	0xbd1b3ab4	-0.03789778
114	0xbd3650fb	-0.044510823
115	0x3cb001bf	0.021485208
116	0x3e2fa34d	0.17152138
117	0xbd432993	-0.04764707
118	0x3e017c2a	0.12645021
119	0xbe16b466	-0.14717254
120	0xbd68313b	-0.056687575
121	0x3cc12dcd	0.02358141
122	0xbdb932e4	-0.0904291
123	0x3d76cfae	0.060256653
124	0xbd39f04f	-0.04539519
125	0x3c135537	0.008992485
126	0x3cd13e1e	0.025542315
127	0x3d8f261d	0.069896914
128	0xbdb914a1	-0.09037138
129	0xbda8a0a2	-0.08233763
130	0x3d77fe64	0.06054534
131	0x3ca0c8b1	0.019626947
132	0x3d09c069	0.033630762
133	0xbd455413	-0.048175883
134	0xbdfb6090	-0.12274277
135	0x3d702ab2	0.058634467
136	0x3cd2b292	0.025719915
137	0x3d90e663	0.07075193
138	0x3c39f837	0.011350683
139	0xbd65dd9e	-0.056119554
140	0x3dbad65e	0.091229185
141	0xbbc81c31	-0.0061068763
142	0xbd4bf917	-0.049798097
143	0xbd920659	-0.07130117
144	0xbd696e7b	-0.056990128
145	0xbc5e9b59	-0.013586842
146	0xbc8972d2	-0.016778383
147	0x3e420d44	0.18950373
148	0xbd06602b	-0.032806557
149	0xbb170648	-0.0023044515
150	0xbc7edc73	-0.015555489
151	0xbceece35	-0.029151062
152	0x3d746165	0.059663195
153	0x3dec6a5f	0.11543726
154	0x3c5e75a1	0.01357785
155	0xbc61e975	-0.013788571
156	0x3d57d38b	0.052691977
157	0xbc6936cf	-0.014234259
158	0xbd8dac37	-0.06917613
159	0xbd1af39c	-0.03782998
160	0xbda6471e	-0.08119033
161	0x3cf0ba3f	0.029385684
162	0xbcc943b3	-0.024568414
163	0x3d8d1255	0.06888262
164	0xbca9608c	-0.02067592
165	0xbe027497	-0.12739788
166	0xbd0011f6	-0.03126713
167	0xbd9ae0b4	-0.0756239
168	0x3b91e8be	0.004452794
169	0x3c7a5911	0.015280024
170	0x3d391203	0.045183193
171	0x3d3c3fc7	0.04595926
172	0xbd7c5e51	-0.061613385
173	0x3b0caf85	0.0021466922
174	0x3cb86c08	0.02251245
175	0x3c39036b	0.011292319
176	0xbc93c0b9	-0.018036233
177	0xbccba1e4	-0.024857469
178	0xbd32649a	-0.043552972
179	0x3e8e94d4	0.27847922
180	0xbba3c3a3	-0.004997687
181	0xbd15edc5	-0.036603708
182	0x3dbfdc18	0.093681514
183	0x3d3b01f6	0.045656167
184	0x3ebd0ba5	0.36922947
185	0x3bb4889c	0.005509449
186	0xbda5897b	-0.08082863
187	0x3c9ecb73	0.019384122
188	0xbccfc81b	-0.025363972
189	0x3ce154f2	0.027506325
190	0xbcea12e5	-0.028573463
191	0x3eea6d3c	0.45786464
192	0x3dbeec3f	0.09322404
193	0xbe387b51	-0.18015791
194	0xbb346e23	-0.0027531467
195	0xbd679f99	-0.05654869
196	0x3d99d848	0.075119555
197	0xbd8ffcb5	-0.07030622
198	0xbe293881	-0.16525461
199	0xbc964352	-0.018342648
200	0xbd42d78c	-0.047568843
201	0x3c981af0	0.018567532
202	0x3c0622af	0.00818698
203	0xbd9e204c	-0.07721004
204	0x3d1b2339	0.037875388
205	0xbd3259e1	-0.043542746
206	0x3e990c6f	0.298923
207	0xbd1f268c	-0.03885512
208	0xbd9b49b8	-0.0758242
209	0x3d501dc7	0.050809648
210	0xbd0dbe9e	-0.034605615
211	0x3e1a80ca	0.15088192
212	0xbbc70957	-0.0060741114
213	0x3d32f49d	0.043690313
214	0xbb0bcebd	-0.0021332942
215	0x3d8d97f7	0.069137506
216	0x3cabc7d3	0.020969307
217	0x3ba17c8a	0.0049281763
218	0x3bcc7664	0.006239699
219	0xbd8cc1c3	-0.068728946
220	0xbcb037f8	-0.021511063
221	0x3e4de768	0.20107806
222	0x3c011e62	0.007880779
223	0x3d01b4a5	0.031666417
224	0xbd470ce7	-0.04859629
225	0xbd46848d	-0.048466254
226	0x3c61caf7	0.013781301
227	0xbcac3104	-0.021019466
228	0xbb940f79	-0.004518446
229	0x3d6e32d6	0.05815395
230	0x3ec4b245	0.3841726
231	0x3af65899	0.0018794715
232	0xbdf872b6	-0.121312544
233	0x3cad7f26	0.021178793
234	0x3ce59f8c	0.02803018
235	0x3d9b2aef	0.07576548
236	0x3dc07057	0.09396427
237	0xbce70dc2	-0.028204802
238	0xbd8c72f1	-0.06857861
239	0xbd52fd0e	-0.051510863
240	0x3d0dcb0e	0.034617476
241	0x3ce74669	0.028231816
242	0x3db3ffb0	0.08789003
243	0xbdb7e756	-0.08979671
244	0xbd3fdbc3	-0.04684044
245	0xbda2bbe9	-0.07945997
246	0xbba926cd	-0.005162096
247	0xbcec0f02	-0.02881575
248	0xbe0f3ef2	-0.13988855
249	0xbe022df8	-0.12712848
250	0xbd8d0324	-0.06885365
251	0x3d6039e6	0.054742716
252	0xbcc12fa7	-0.023582293
253	0x3d14a520	0.036290288
254	0xbd1c0953	-0.03809483
255	0xbd423b49	-0.04741982

action_model._discrete_distribution.branches.2.bias f4 [2]
0	0x3dcdf9c4	0.10057405
1	0xbdcdf9ac	-0.10057387
