ML_stuff/results/cw_09/FindCubeWife/FindCubeWife-5182205.onnx (onnx, 352586 bytes, 11 tensors)

discrete_act_size_vector f4 [1, 3]
000000 00 00 40 40 00 00 40 40 00 00 00 40
       3.0 3.0 2.0

network_body._body_endoder.seq_layers.0.weight f4 [256, 69]
000000 71 57 2e be 26 0c e5 3d c8 2b 5f 3e c8 69 db bc
       -0.17025544 0.11183958 0.21794045 -0.026783839
000010 c5 94 b6 bd 5c b2 28 bd 82 92 b0 bc 19 47 2c 3e
       -0.08915094 -0.04118572 -0.021554235 0.16823997
000020 8f bb 4b 3c 67 61 cd bd 05 dd 54 3d 61 3c 67 be
       0.012434854 -0.10028344 0.051968593 -0.22581626
000030 b4 cb 9a be f9 4d 05 3d 08 2f 0d bd 60 71 1d bd
       -0.30233538 0.032545064 -0.03446868 -0.0384382
000040 fb 42 8a 3e 76 fd 3d 3e 5c 2d 37 bd e8 da 2c bd
       0.27004227 0.18553719 -0.044720992 -0.042200953
000050 1e 4e 04 3e c0 c2 f4 bd bf 44 82 bd 20 94 20 3e
       0.12920424 -0.11951208 -0.063607685 0.15681505
000060 36 e2 1c 3d 1c 48 80 be cb 16 0a 3d 00 0c d6 3d
       0.03830167 -0.25055015 0.033713143 0.104515076
000070 fa f8 b5 3e dd 3c e4 3d b6 64 38 3e 09 f2 a8 bd
       0.35541517 0.11144421 0.18007168 -0.082492895
000080 d2 08 d5 bd 28 d6 2f 3d f7 26 14 3e ab 4f 56 be
       -0.10402073 0.042928845 0.14467989 -0.20928828
000090 db 7b 3f 3c 8f f4 3a 3d 93 95 09 be 67 70 21 bb
       0.011687244 0.045643385 -0.13435964 -0.0024633647
0000a0 8a 64 04 3e ff 4a e0 be 0a 64 b1 bc cc 35 09 3d
       0.12928978 -0.43807217 -0.021654148 0.03349857
0000b0 ce f2 03 bd 5b e8 8c bd 4b ba 7d bc d6 e2 12 be
       -0.03221398 -0.06880256 -0.01548631 -0.14344344
0000c0 f6 be c3 3d 82 da f0 3c e0 83 31 3e c4 ad 10 be
       0.09557907 0.029401068 0.17335463 -0.14128786
0000d0 47 20 a0 3e 2e d7 d1 bd a5 cc 22 3e a2 ec 2a bd
       0.31274626 -0.102461204 0.15898378 -0.041729577
0000e0 34 3b ad bd 9d dd 02 be a0 64 f4 3d 1b 06 01 be
       -0.08458558 -0.12779851 0.11933255 -0.12599985
0000f0 6e 52 c8 bd 37 80 65 bc 8b c3 b5 be 19 fd 9c bd
       -0.09781347 -0.01400762 -0.3550075 -0.07665462
000100 f4 26 63 3e 65 97 e5 bd 65 49 47 bc e0 19 1f be
       0.22182828 -0.11210517 -0.012163495 -0.15537214
000110 91 6f 9d be 63 12 a7 3c a5 d4 52 3d a8 24 c2 bd
       -0.3074918 0.02039451 0.051472325 -0.09479648
000120 63 bc 5f be 3b 2f 09 3e 90 60 ef b8 f7 13 51 be
       -0.21849208 0.13396923 -0.00011414394 -0.20417772
000130 0d 4c 2e be 3c 6a 98 be f3 42 80 3e a2 2b 51 be
       -0.17021199 -0.2976855 0.25051078 -0.20426801
000140 0c 5f 9a 3e e0 c1 66 3e 49 fc 4a be 16 f7 93 3c
       0.3015064 0.22534895 -0.19822802 0.018062156
000150 48 e7 a0 bc cb b4 b4 be 4b a1 b7 3d 82 ef 5b 3c
       -0.019641533 -0.35294184 0.08966311 0.013423802
000160 86 c5 d2 3d ed ad e3 bd 0b d8 70 bd be be a7 3e
       0.10291581 -0.11117158 -0.058799785 0.32762712
000170 a7 0d 4f 3e 50 82 6d 3d 19 0d fa 3d 9b 5d b0 3d
       0.20220052 0.057985604 0.122095294 0.08611604
000180 02 ad 57 bd 99 2d 6b be 91 5e 9f bd f0 cf 03 3e
       -0.052655227 -0.22966613 -0.07781709 0.1287229
000190 ee c9 7e be 3c 88 66 3e 00 32 2c bb ad bd 35 3c
       -0.24881718 0.22512907 -0.002627492 0.0110925855
0001a0 8a 6d d3 3e 87 84 67 3c 8d 70 14 3e 95 0d ad 3e
       0.4129451 0.014130718 0.1449606 0.33799425
0001b0 0b 00 69 3e 1a d6 ba 3d 13 f6 09 bd 50 43 8a 3e
       0.22753923 0.09122868 -0.03368194 0.2700448
0001c0 8a d5 30 3e 39 cf ec bd 32 f8 a1 3d 56 80 0b 3e
       0.17268959 -0.11562962 0.079086676 0.13623175
0001d0 dc a4 52 3e ec 47 d1 3d e0 d1 89 bd 64 09 e2 be
       0.20570701 0.10218796 -0.067294836 -0.4414779
0001e0 91 bb 7d bd 15 41 71 3d 81 37 b0 be 82 6e f9 3c
       -0.061946455 0.058899958 -0.34417346 0.030448202
0001f0 a8 b9 bd bb e2 4f 2b 3d 0e dc 96 3e 05 73 3f 3e
       -0.005789954 0.04182423 0.29464763 0.1869622
000200 d0 41 f6 3d ff 91 a7 3d 74 15 4b bd 0a 3d 67 bd
       0.120242715 0.081821434 -0.049581006 -0.056454696
000210 db 80 f1 3d 92 89 ea 3c a2 37 a6 bd 7b 77 da bd
       0.11792155 0.028630052 -0.0811608 -0.1066732
000220 f6 ef 98 be 94 d7 20 be 9e af e1 3c cd 30 39 3e
       -0.29870576 -0.15707237 0.027549561 0.18085022
000230 8d da 3b be 46 06 0b 3e 14 20 57 3d c1 cc bf bd
       -0.1834509 0.13576612 0.052520826 -0.093652256
000240 da 31 93 be da 6f a9 bc 9e 4c 9b 3e 4c 01 66 bd
       -0.2874897 -0.020683218 0.30331892 -0.05615358
000250 65 6f 8f be e5 53 d3 3d 8d bc e5 bd 45 8c 3d 3e
       -0.28014675 0.10318736 -0.11217604 0.1851054
000260 12 88 90 3d 8a 7a 32 3e 37 38 9a 3d a9 29 42 be
       0.07057203 0.17429557 0.075302534 -0.18961205
000270 c9 9c 98 3d da b9 62 bd 7f 38 b7 be 0e 98 81 3d
       0.074517794 -0.055353023 -0.3578529 0.0632783
000280 9f b3 95 bb fe 2b 10 be 72 36 1e be 2c f8 a8 3c
       -0.0045685316 -0.14079282 -0.15450457 0.02062615
000290 7d cf 6c bc 4e 07 64 be 30 a0 90 3e 28 60 5b be
       -0.014453766 -0.22268412 0.28247213 -0.214234
0002a0 d0 2f 9b bc b0 02 4a 3e a0 0d 2b bd 3b c1 91 3d
       -0.018943697 0.19727588 -0.04176104 0.07116934
0002b0 e8 66 25 3d 03 04 de be 65 7d 95 be 75 cc 90 39
       0.040381342 -0.43362436 -0.2919723 0.00027618153
0002c0 30 9e e9 be 63 e9 e6 3d 17 86 eb 3d 7e e1 83 3d
       -0.456285 0.11274984 0.11500185 0.064394936
0002d0 0e ed d9 bd 11 e9 14 3e d4 fc b9 bd 89 cc 79 3d
       -0.10640918 0.14542033 -0.09081426 0.060986076
0002e0 04 67 98 3d dd 25 3a be a2 6e cc bd cd 8e d0 3d
       0.07441524 -0.18178506 -0.09982039 0.10183487
0002f0 47 7b b9 3d 37 2f 9f 3e 45 08 26 3d 1f 13 9a 3d
       0.090567164 0.3109071 0.04053523 0.07523178
000300 01 1c 84 ba a0 2c d4 3d b1 b8 a4 bd 2d 23 12 bd
       -0.0010079147 0.10360074 -0.080430396 -0.035678077
000310 1b b4 81 3d c5 a5 2a be 62 e5 a7 be e9 93 f9 bd
       0.063331805 -0.16664799 -0.32792193 -0.12186415
000320 57 2b 27 be 56 c4 18 3d 18 65 93 3d 82 f6 d4 be
       -0.16325127 0.037296616 0.071970165 -0.4159432
000330 24 43 1f 3d 2a c6 16 bf 37 cb ba 3c be 55 91 bc
       0.03888239 -0.58896124 0.022801979 -0.01774108
000340 c4 46 c1 3c 22 d6 8b bd 81 a7 9e bd 98 8f c2 bd
       0.023593314 -0.06827952 -0.077467926 -0.095000446
000350 24 ad ff 3c 8b 8d d8 3d 95 7e 04 bd a5 f9 e4 3c
       0.03121049 0.10573872 -0.03234728 0.027951071
000360 de eb 15 3d 3c ad 44 3e bf 1c 54 be f7 2c af be
       0.036601894 0.19206709 -0.20714091 -0.34213993
000370 01 d0 44 bc 1c c6 05 3e 14 2c 35 be 4b 6a 3d 3e
       -0.012012483 0.13063854 -0.17692596 0.18497579
000380 ee d5 56 3b 4f c5 85 3d 64 11 7a be 8f d1 40 3e
       0.003278132 0.06531774 -0.24420696 0.1882994
000390 01 d0 06 be 9d 6c 9a bc 58 ae 17 bd cf 41 81 3c
       -0.13165285 -0.018850619 -0.0370315 0.01577845
0003a0 2c bc 11 3d 96 b5 93 3d ea 69 6e 3c 56 5e 1f bd
       0.035579845 0.07212369 0.014551619 -0.038908325
0003b0 ff ea 5a ba 6d 33 5b 3e b2 d0 96 bd b0 94 06 be
       -0.0008351057 0.21406336 -0.07364024 -0.13142657
0003c0 7d 5c 42 3c d7 42 3f bd 57 a2 02 bf 37 79 88 3d
       0.011862871 -0.046694603 -0.5102896 0.06663745
0003d0 e5 71 aa 3d ff 13 42 3d 63 67 52 3e 0a 92 41 3e
       0.08322505 0.04738235 0.20547251 0.18903366
0003e0 3e c9 25 be 62 4e 25 3e 08 d4 35 3e 17 88 a1 3d
       -0.16190049 0.16143182 0.17756665 0.07887285
0003f0 3f b2 1b be 7a 79 a5 3c 3e 97 98 be 26 46 0f 3e
       -0.15204714 0.020199526 -0.2980289 0.13991603

network_body._body_endoder.seq_layers.0.bias f4 [256]
000000 3f 47 46 3d 58 3b 65 bd f0 a9 20 3d d2 cd 93 3d
       0.04840779 -0.055964798 0.039224565 0.072169915
000010 dd 9c 4a 3d 90 a4 1b bd 02 d1 14 bd 5c ff 2e bd
       0.049466003 -0.037998736 -0.036332138 -0.042724
000020 63 02 8a 3c e5 3a ef 3c 64 0c 0b bd e6 ff 46 3d
       0.016846841 0.029202888 -0.033947363 0.048583888
000030 84 01 bf bc 55 15 79 3d 15 75 c0 3c 02 2a 15 3d
       -0.023316152 0.06081136 0.023493329 0.036417015
000040 56 89 db 3d cb 6f 05 bd 64 8e 1a bd b4 10 71 bd
       0.10719554 -0.032577317 -0.03773345 -0.05885382
000050 aa a6 77 bb 5f 97 2d bd 94 1f 8c 3d eb a7 66 bd
       -0.0037788549 -0.042380687 0.068419605 -0.056312483
000060 d4 c2 6b bc 4a 3c b1 3d bc a5 d3 bc 5f e8 57 3c
       -0.014389712 0.08654077 -0.025835864 0.01317796
000070 5f c8 b3 3c 4f a6 fe 3c ce bc 31 bc c0 cd 15 bd
       0.02194613 0.031085161 -0.010848237 -0.03657317
000080 03 51 19 bd 98 07 60 bb 42 d4 fe 3b d9 f6 90 3d
       -0.037430774 -0.0034184214 0.007776768 0.070783325
000090 8f b1 c1 b7 71 3d 9c b9 65 45 a0 3d e9 df ee bc
       -2.3090075e-05 -0.00029800416 0.07825736 -0.029159503
0000a0 c4 51 1e 3d 55 bc 35 3c 7e 93 67 bd 5d 13 8a 3a
       0.038652197 0.011092265 -0.056537144 0.0010534335
0000b0 37 8d 6f bc 21 f3 c9 3c 30 2a 3e 3d 48 cd 3e bd
       -0.014621071 0.024652066 0.046426952 -0.04658249
0000c0 cc f6 d5 bc 0e 34 f4 3c 47 aa 93 3c 2e ea 39 bd
       -0.026118658 0.029809978 0.01802553 -0.045389347
0000d0 85 cb b7 3d 8f a2 96 3d 01 57 45 3d c3 9f 13 3d
       0.08974365 0.07355224 0.048178677 0.036041033
0000e0 92 e2 86 bc b9 94 ca bc 78 f4 85 bc da d2 11 3d
       -0.016465459 -0.02472912 -0.016351923 0.035601474
0000f0 f5 19 05 3e 03 7f f9 3d 41 41 cd 3c 56 9b 6b bc
       0.12998183 0.12182429 0.02505553 -0.014380297
000100 59 35 5d bc 93 2d 95 3d a2 e0 b8 bd b7 a2 9a bc
       -0.013501489 0.07284083 -0.0902722 -0.018876417
000110 d6 7e e1 3c ec c8 95 3d 2e 8d 6f bc 74 74 19 bc
       0.0275263 0.073137134 -0.014621062 -0.0093661435
000120 dd 08 74 3c 2f 5e a3 3d 72 1d 44 3d fa 54 cb 3d
       0.014894691 0.079769485 0.047879644 0.09928317
000130 27 dd f9 bc 80 e5 39 3d 53 eb 28 3d 1f 73 23 3b
       -0.030500961 0.045384884 0.041240048 0.0024940444
000140 24 c5 17 3d 32 0b de bc df 13 01 3d 8a c6 a5 bb
       0.037053242 -0.027104948 0.03151309 -0.005059068
000150 06 a0 ad 3d a9 bb 31 bd 6d 17 db bc 80 7c 9c bd
       0.08477788 -0.043391857 -0.026744569 -0.07640934
000160 77 67 42 3d 18 ba 8b bc 50 a7 7a 3c 93 a0 21 3d
       0.047461953 -0.01705651 0.0152986795 0.039459776
000170 3b 1f c4 3c 33 17 10 3c 17 38 03 3d e8 c3 89 3d
       0.023940673 0.008794594 0.032035913 0.06726819
000180 6d 6f 58 bc 41 5e 4b bc 07 bc 01 3d 63 42 1c 3e
       -0.01321016 -0.012412609 0.031673457 0.152597
000190 d9 0a 9b 3b a3 b0 06 3d 44 7a 96 3b 00 62 3e 3d
       0.0047315178 0.032883298 0.004592212 0.04648018
0001a0 5c 38 7e 3d b5 8d ba bc 6d 7c c8 3c 4a b9 0c 3c
       0.062065467 -0.02277265 0.024473393 0.008589098
0001b0 ea 54 68 bb 9d 35 ab bb fe ce 66 3d 4a 3d 7b bd
       -0.0035451003 -0.005224897 0.056349747 -0.061337747
0001c0 58 43 7c 3d b4 7a 32 3b bd f4 2f bd 61 bc 81 bd
       0.06158766 0.0027233781 -0.04295801 -0.063347585
0001d0 98 e3 f5 bc 74 74 38 3c 23 6c 0f bc b6 e8 56 3d
       -0.030015752 0.011258233 -0.008753809 0.052468024
0001e0 30 c5 89 3d ae 9b 53 3d fb 54 49 bd 3e 04 9b 3c
       0.06727064 0.05166214 -0.04915331 0.018922921
0001f0 45 3a f9 3c c8 6f 70 3c 46 b8 e1 bc 44 78 94 3d
       0.030423293 0.014675088 -0.027553689 0.07249501
000200 30 62 fc bc d2 0b 7a bd ef 32 c2 bc 42 a9 4c 3d
       -0.030808538 -0.06104643 -0.023705928 0.049966104
000210 58 41 43 bd ef 33 1d 3d 4c 02 ee 3b af 67 7c 3b
       -0.04766974 0.038379606 0.0072634574 0.0038513949
000220 40 de b7 bc af 82 26 3d 2a c3 bc 3b 94 2b 59 3d
       -0.022444844 0.040651973 0.00576057 0.053020075
000230 2d 3c fe 3c 31 ea c1 3b 31 68 0f 3d c1 64 5a bd
       0.031034553 0.0059178104 0.035011474 -0.053318743
000240 48 fd 22 3a 11 0d c3 3d 04 8e c6 3d e1 7e 5a 3c
       0.00062175514 0.095239766 0.09695056 0.013335914
000250 99 8e 6f bd c3 be 18 3d 8f 6b 96 3c d1 66 b5 3b
       -0.0584856 0.0372913 0.018361835 0.0055359383
000260 59 37 96 3d 0e 3e 9c 3c 81 c4 ab 3c 78 44 0e bd
       0.073347755 0.019072559 0.020967724 -0.034733266
000270 c0 8a 09 3c 08 d7 76 bc d3 aa 44 3d 07 4b 81 3d
       0.008394897 -0.015065916 0.048014473 0.063131385
000280 cd b9 d6 bc 17 4e 99 3d 99 41 ac 3d 74 01 d0 bc
       -0.026211644 0.074855976 0.08410949 -0.025391318
000290 a7 0f 90 3d 8a 8e 08 bd fd 2f 38 3d 50 80 10 3d
       0.070342354 -0.03333906 0.04496764 0.03527862
0002a0 91 5b 7d 3c 19 38 e3 3c 90 d3 7f bd 9c 8a 76 3c
       0.015463726 0.02773671 -0.06245762 0.0150476955
0002b0 36 ae 22 3d 5e a0 3a 3d 6d a8 e8 bc cb c6 65 bd
       0.03971692 0.045563094 -0.028400624 -0.056097787
0002c0 11 eb f8 3c 3f 7a 95 3d ca bf 6c 3c ec 3b 55 bd
       0.030385526 0.07298707 0.014450023 -0.0520591
0002d0 3e 39 b7 bc 44 41 8c 3d f7 16 b5 3d d6 29 89 3d
       -0.022366162 0.06848386 0.08842271 0.06697433
0002e0 1a 57 e0 bc 41 3e 51 3d 20 a0 77 3d 4c 36 57 bd
       -0.027385283 0.05108476 0.06045544 -0.052542016
0002f0 b8 15 eb bc 78 1d b3 3d 08 d4 e3 3c ed 2e 59 3d
       -0.02869688 0.08745855 0.027811065 0.053023268
000300 f9 03 6d bd 7a fe c9 3c 5e d1 20 bd 67 01 83 bc
       -0.057865117 0.024657477 -0.039262168 -0.01599188
000310 ca e1 e4 bc 56 8b 45 3b 00 40 7c 3c 6c 5f 83 3b
       -0.027939696 0.0030142865 0.015396118 0.004009178
000320 01 5c b3 3c 0f 4d c4 bc 19 15 82 3d fd a7 4e 3d
       0.021894457 -0.023962526 0.0635168 0.050453175
000330 08 f3 e0 3d 40 e6 d9 3c b2 30 6b bc 73 aa 45 bb
       0.109838545 0.02659905 -0.014354872 -0.003016141
000340 08 a4 ab bc 78 3e 37 3d 36 81 f6 3c bb 6b 2b bd
       -0.02095224 0.04473731 0.03009091 -0.041850787
000350 15 86 8a 3d 54 ad 74 3d 9b 19 07 3d 25 58 21 3d
       0.06763855 0.05973561 0.032983404 0.0393907
000360 08 d8 15 bd cb 60 fd 3c 43 d3 24 3d f5 46 dc ba
       -0.036582977 0.030929944 0.040240537 -0.0016805815
000370 f7 00 e0 bc b7 a2 1d bd b8 51 f6 bc 5e 90 f6 3b
       -0.02734421 -0.038485255 -0.030068263 0.007524534
000380 57 37 89 3d 82 44 30 3d ed eb 31 3b 00 a2 76 bd
       0.06700008 0.043034084 0.002714868 -0.06021309
000390 17 9e 1a bd 6c 79 83 3d 90 21 f1 bc 38 f0 57 3c
       -0.037748422 0.06419644 -0.02943495 0.013179831
0003a0 2c 7b df 3d 70 2e 39 3d 31 f8 06 3e 5f 5c 8d 3b
       0.10912165 0.045210302 0.13180615 0.00431399
0003b0 1b 8d 92 bd cb f3 43 bd fe 18 75 3d c2 37 d3 3c
       -0.0715582 -0.04783992 0.059838288 0.025783423
0003c0 c5 1b 51 3c bb 9b 63 3d c0 bc 93 bc fe 18 ab bd
       0.012762968 0.055568438 -0.018034339 -0.08354376
0003d0 a1 f3 8a 3d 98 dc fe bb 1f 7d 31 3d 73 5d 0f bd
       0.0678475 -0.0077777617 0.043332215 -0.03500123
0003e0 6c 83 00 bd fd b3 5f 3b 09 62 a4 3c 83 9a 90 bc
       -0.031375334 0.003413438 0.020066278 -0.017651802
0003f0 76 b5 61 bd 72 64 d4 bc ee 30 a6 bd d9 7a ca bb
       -0.055104695 -0.025926802 -0.08114801 -0.0061791954

network_body._body_endoder.seq_layers.2.weight f4 [256, 256]
000000 5f 32 b6 3d b2 d2 23 3c e8 2c 24 3c 41 51 30 3e
       0.08896326 0.009998964 0.010020472 0.17218496
000010 ce 0e 8b bd 4f 62 ec bd 4e 63 0e 3e 77 94 1a be
       -0.06789933 -0.115421884 0.13905069 -0.15095697
000020 15 f6 0c be 20 69 2f 3e 61 ea 9c 3c f7 27 82 be
       -0.13765748 0.17129946 0.01915473 -0.25421116
000030 dc 8b d6 3c 8a 7d 32 be 4d 5e 2a 3e 27 72 25 bd
       0.026189737 -0.17430702 0.16637535 -0.040392067
000040 30 e5 7b 3d b3 51 dd bd 62 b8 c8 3b 4b 4b 22 be
       0.061497867 -0.108065985 0.006125496 -0.15849034
000050 4f 56 0c be 2c 51 16 be 88 ff 3a bd b5 55 2b 3d
       -0.13704799 -0.14679402 -0.04565385 0.041829783
000060 a0 09 03 bd b4 bd 75 bd df a2 8e bd f4 ef 1e 3d
       -0.0319916 -0.059995368 -0.06964659 0.038803056
000070 f8 a9 c9 3d 1c 6c 1d 3d ea 44 33 be 23 84 c0 be
       0.09846872 0.03843318 -0.17506757 -0.37600812
000080 06 2e 3d 3e 7c dc 0a 3e 04 3a ae 3d 5a 6d c9 bd
       0.18474588 0.1356067 0.08507159 -0.0983531
000090 99 cf a9 bc 8e d7 88 bb 2e da 18 3e bd eb 7d bc
       -0.020728873 -0.0041760867 0.14926979 -0.015498099
0000a0 e5 f4 fd 3d 08 fa f3 bd 8a d2 08 be 1b cf b9 bd
       0.124002255 -0.11912924 -0.13361564 -0.09072705
0000b0 8a 7e cf bd 5e ad 26 3e 47 c4 17 be 6a d4 ce bd
       -0.10131557 0.16277072 -0.14820968 -0.100991085
0000c0 ac 9f 61 3d 4d 61 55 bc a5 d6 0d 3e 12 cd 13 be
       0.055083916 -0.013023687 0.13851412 -0.14433697
0000d0 08 11 80 bd b6 fc 79 3c 6d 0c af 3d 7d ad 5c bd
       -0.062532485 0.015258005 0.08547292 -0.05387639
0000e0 29 55 f6 bc 79 30 2b 3e fe 36 05 be 9e fc 6c bd
       -0.030069904 0.1671771 -0.13009259 -0.057858102
0000f0 b5 98 e5 3d 8a 32 3a 3d 5b 1e 28 3e f1 6b ad bd
       0.11210767 0.045458354 0.1641783 -0.08467854
000100 25 fd a9 3c 9d 43 c4 3d d7 be 88 bb 5e fe 04 3e
       0.020750592 0.09583209 -0.0041731405 0.12987658
000110 2d 6d c8 3d 6f 2e aa 3d c1 af 3b 3d 4c 77 98 3d
       0.09786449 0.08309638 0.04582191 0.07444629
000120 17 7c a0 bd 61 60 c6 bd e9 5c 02 3e ce 5c c3 3d
       -0.07836168 -0.096863516 0.12730755 0.095391855
000130 f1 ce 11 3e 05 ef df bd e2 40 aa be ed 47 f3 3d
       0.14239098 -0.10934261 -0.33252627 0.11878953
000140 32 eb 82 be 63 f3 36 3c 83 1e 35 3e 06 12 10 be
       -0.25570065 0.011166426 0.1768742 -0.14069375
000150 85 b6 1c 3c 32 99 9c bd 65 69 0f be 50 a4 86 bc
       0.009565 -0.07646407 -0.14005049 -0.016435772
000160 e2 d6 06 3e 7d 5b 36 bc 6b 61 dd bd 71 e1 97 3b
       0.13167909 -0.011130211 -0.10809597 0.004635029
000170 8f 7f 35 be 55 c5 66 bd 62 0b 0d bc aa 3f 4b 3e
       -0.17724441 -0.056340534 -0.008608671 0.19848505
000180 3d 5d cf 3d 2f e6 8c 3d 4d 4f 60 3e b6 a3 53 3e
       0.10125206 0.068798415 0.21905251 0.2066792
000190 f1 01 8c bd 70 26 6a 3e 20 cf 2c be 62 48 b7 bc
       -0.06836308 0.22866225 -0.16875887 -0.022373382
0001a0 36 d6 83 3d dc 95 dd 3d 75 41 02 3e 83 de 2e be
       0.06437342 0.10819599 0.12720282 -0.17077069
0001b0 23 0a 91 3c ae 86 b1 bd d2 52 ed bc 60 fc d8 bd
       0.017705029 -0.08668266 -0.028970156 -0.10595012
0001c0 32 b2 b2 3d 7c 9e 5a 3d f8 3b 81 3e 2b 96 37 3d
       0.08725394 0.0533738 0.25241065 0.044820946
0001d0 cb c0 bb bd 19 c3 eb bc 06 9d 83 3e 8f 0a 27 3e
       -0.09167632 -0.028779553 0.25705737 0.16312622
0001e0 c0 e1 27 be 5b cb 8c 3e cb af 0c 3e cb 2d 87 bd
       -0.1639471 0.27498898 0.13738935 -0.06600531
0001f0 bc 0d 21 be 78 ca b3 bd fd 56 6e be 2a 7d 06 be
       -0.15727895 -0.08778852 -0.23275371 -0.13133684
000200 38 dd c0 3d c4 bc 16 3e c4 d4 92 bd 15 b3 3a be
       0.09417194 0.14720446 -0.07169488 -0.18232377
000210 84 08 85 3d 17 d5 37 bd a0 e8 81 bd b6 5e 0e bd
       0.06495765 -0.044880953 -0.06343198 -0.034758292
000220 25 7f f9 bd f5 0d 49 3e 9c f0 7a 3d 36 47 83 3e
       -0.12182454 0.1963423 0.06126462 0.25640267
000230 cb c8 fc b9 25 3b c4 bc a3 75 5e bb 71 92 20 be
       -0.00048214788 -0.023953984 -0.0033944629 -0.15680863
000240 2b 4b 20 bd 6c 95 95 3b b5 6a 21 ba 74 f2 56 be
       -0.039134186 0.0045649316 -0.0006157563 -0.20990926
000250 d9 20 78 bc d9 b4 69 3c e7 31 ca bd 26 4a c0 3d
       -0.01514455 0.014264309 -0.09872799 0.09389143
000260 83 38 28 be 3f cc b1 be f8 3c fa bc 7a 42 9e bd
       -0.16427808 -0.3472614 -0.03054665 -0.07727523
000270 9e 57 f1 bd 1c 1a 65 3d ae 5c 49 3d 58 7a a7 3c
       -0.1178429 0.055933103 0.04916065 0.02044408
000280 3a 7a 11 be fd c2 02 3e 1e c0 92 bd dc e7 6d 3b
       -0.14206782 0.12769695 -0.0716555 0.003630153
000290 05 a4 8a 3e 2b eb 1a be 39 5a b5 bb 37 00 5c bd
       0.27078262 -0.15128772 -0.005534437 -0.053711142
0002a0 3d 8a 11 3e 06 c4 a5 bc 8d 9f d4 3a 7c 34 f5 bc
       0.1421289 -0.020235073 0.0016221866 -0.029932253
0002b0 33 d0 34 3e b0 b4 7c 3d 83 10 36 3e 0a ab d5 3d
       0.17657547 0.061695755 0.17779736 0.10433014
0002c0 ad f8 eb bb 7f a4 cf 3d 59 8d da bd f2 2a 4f 3b
       -0.0072012753 0.10138797 -0.10671491 0.003161129
0002d0 7a 4f bd bd bb 41 4f be c2 30 8d 3c a6 7a 82 bc
       -0.092436746 -0.20239918 0.017235164 -0.015927624
0002e0 94 59 b4 bd 04 0f 90 3e 5f 88 3b 3d d6 38 f9 bb
       -0.08806148 0.28136456 0.04578435 -0.0076056523
0002f0 27 02 85 bc 36 78 78 bd 76 e6 d4 3d 34 47 99 bd
       -0.016236378 -0.060661517 0.103955194 -0.07484284
000300 0f 72 93 bc 36 53 18 3b 93 75 05 3e 23 ce 0e bc
       -0.017998723 0.0023242957 0.13033132 -0.008716139
000310 bd 0e 13 be ce 44 02 bf fa aa d2 bd 7c 28 03 3e
       -0.14361091 -0.5088624 -0.102865174 0.12808412
000320 7a 4b 4e 3e 7a be 3b bd 2a c0 48 3e 04 d8 1e 3e
       0.2014598 -0.04583595 0.19604555 0.15512091
000330 31 de 0c be 6b b0 1a be eb 64 34 be 7a 43 d7 bb
       -0.13756634 -0.1510636 -0.17616622 -0.006569323
000340 99 f5 ed bd 86 c3 12 bd 63 15 83 3a 66 11 e6 bd
       -0.1161911 -0.035830997 0.001000088 -0.11233787
000350 70 de 85 bd 9f 06 a0 bd 93 1d 83 be e4 7f 61 bd
       -0.06536567 -0.07813763 -0.256085 -0.055053607
000360 50 3c 89 bd ec 71 9a be c1 1b bd 3d 2a 7b 51 3e
       -0.06700957 -0.3016504 0.09233809 0.2045714
000370 26 e3 7e be 64 cf 2c 3d 1e 75 99 3d f7 ab 15 3e
       -0.24891338 0.04218997 0.074930415 0.1461638
000380 23 18 c7 3c 41 fa 98 3d df 2a 4a be cb b6 5e bd
       0.024303501 0.07469607 -0.19742917 -0.054373544
000390 db d8 6e be c0 98 cd bb 93 73 da 3d 20 28 c1 be
       -0.23324911 -0.0062743127 0.10666575 -0.37725925
0003a0 18 96 92 3d 82 09 af bc 4a 11 92 3d 7d 25 65 be
       0.07157534 -0.021366838 0.07132204 -0.22377582
0003b0 01 c4 99 bd 62 42 3b be 8c 54 9e bd d0 73 83 bc
       -0.07508088 -0.18287042 -0.0773097 -0.016046435
0003c0 7e e2 73 bc 8a 4a b7 bd 3f 66 c2 bd 70 b2 fd ba
       -0.014885543 -0.08949764 -0.09492158 -0.0019355547
0003d0 a5 83 b6 3d f4 1d b3 bc d8 e4 3c 3e 03 cf 81 bd
       0.08911828 -0.021864869 0.18446672 -0.063383125
0003e0 a8 1a 26 be 5e f7 de bd a6 d4 81 bd 81 62 af 3d
       -0.16221106 -0.10887025 -0.063393876 0.0856371
0003f0 65 87 c4 bd 6c a9 d8 3b c3 f7 0f be aa af 66 be
       -0.09596137 0.0066119935 -0.14059357 -0.22527948

network_body._body_endoder.seq_layers.2.bias f4 [256]
000000 2d 3e 4e bd c7 a4 07 bd 9f 20 cc bd eb 4c 10 bd
       -0.050352264 -0.03311613 -0.099671595 -0.035229605
000010 16 bf 98 3b c3 27 2e bd 52 b5 58 bd d6 6c 98 bd
       0.004661451 -0.04251839 -0.052907296 -0.07442634
000020 f0 e1 a4 3c 00 52 e8 3c db aa 9d 3b 99 b3 07 bc
       0.020127267 0.028359413 0.0048116273 -0.0082825655
000030 37 c7 6c bd 16 13 de bd 2d 9a 0d bc 43 d1 96 bd
       -0.057807174 -0.10843484 -0.008642715 -0.07364132
000040 fb 8e b0 bc a4 1f ad bd 47 a3 f7 ba 60 9f 75 3c
       -0.021552553 -0.084533006 -0.0018893265 0.014991611
000050 00 62 16 be 98 32 1e bd be 31 74 bd c1 2c 20 3d
       -0.14685822 -0.03862247 -0.05961775 0.03910518
000060 c4 65 31 ba e0 0b 1a 3d 94 98 9b bd e5 c9 9f bd
       -0.00067671784 0.03760898 -0.07597461 -0.0780218
000070 fb 02 07 3d ab 4c fd bc 61 22 39 bd 60 0e 57 bd
       0.032961827 -0.030920347 -0.045198802 -0.052503943
000080 1f 31 2a 3c 63 d8 67 bd 2d f6 96 3d 4c 2e 0c 3d
       0.010387688 -0.056602847 0.07371173 0.03422384
000090 97 96 db bc 42 b5 41 bb ff 68 aa bd 86 22 96 bc
       -0.026805205 -0.00295575 -0.08320808 -0.018327009
0000a0 c7 81 81 bd 90 29 e4 3c 06 83 81 bd 59 cf 0e bd
       -0.06323581 0.02785185 -0.06323819 -0.03486571
0000b0 0f a1 a7 bc d8 69 71 bc 84 c3 c5 bd 65 13 20 bd
       -0.02046254 -0.014734708 -0.09656432 -0.039080996
0000c0 ad 84 4d 3c de 45 bd bc c8 4b 2a 3d 11 b8 0f be
       0.012543839 -0.023104604 0.041576177 -0.1403506
0000d0 80 66 a7 bd af a9 b3 bd ea cf 14 3d 10 44 67 bd
       -0.08173847 -0.08772599 0.036331095 -0.056461394
0000e0 2e 84 e3 bd 2d cb 22 bd 8b 79 41 3d 5d 54 1c bc
       -0.11109196 -0.039744545 0.047235053 -0.009541598
0000f0 f0 96 ad bc a8 7f 05 be 3d 3a 72 3c ab 4b c0 3c
       -0.021190137 -0.13036978 0.014784393 0.023473581
000100 b3 5b f3 3c bc 3a f3 3c 17 64 a2 bd fe e2 df bd
       0.029706812 0.029691093 -0.07929247 -0.10931967
000110 dd a9 01 be a7 f5 9b 3c 08 f2 54 bd 89 76 b2 bd
       -0.12662454 0.019038035 -0.05198863 -0.08714015
000120 71 74 bd bd a8 10 27 bd 27 70 1f bd 16 8b 20 bd
       -0.09250725 -0.04078737 -0.038925316 -0.039195143
000130 59 7c 8d bd 4f f1 91 bc 2a 78 a7 bd 69 d4 99 bc
       -0.06908483 -0.01781526 -0.08177216 -0.018778043
000140 c9 bd 62 bd 91 9c 57 bd 2c 87 d8 3b f1 c6 21 bc
       -0.055356774 -0.052639548 0.0066079106 -0.0098740915
000150 e0 85 9e bc ab bb 3d bc 14 83 5c 3d 66 7e 45 3c
       -0.019350946 -0.011580388 0.053835943 0.0120540615
000160 7d f8 47 bd b4 2d 32 3b dc c5 1a bd 49 cd 80 bc
       -0.04882096 0.0027187886 -0.03778635 -0.015722888
000170 ce be 9f 3c a6 3c 6c bd fd 83 85 bc 6a ca 20 bd
       0.019500162 -0.057675026 -0.016298288 -0.039255537
000180 e0 ba 0d 3d 32 76 a1 bb af c4 09 bb 43 c1 8c bd
       0.034602046 -0.00492742 -0.0021021774 -0.06872799
000190 3b 34 a3 bd 10 74 ce bc 7b c2 9b 39 23 8f fa bc
       -0.079689465 -0.025201827 0.00029708803 -0.030585831
0001a0 68 85 5e bd 43 d3 8e 3d 86 3f 10 bd 5c 43 04 bd
       -0.054326445 0.06973889 -0.03521683 -0.0322908
0001b0 b9 45 a9 bd 67 26 34 bd e1 08 a2 bd 59 66 c6 bd
       -0.08265252 -0.043981936 -0.0791185 -0.0968749
0001c0 15 36 54 bd 2a 38 80 bd 8e df 51 3c bd ee 32 bd
       -0.05180939 -0.062607124 0.012809647 -0.04368471
0001d0 f8 1d a0 bc f0 51 e1 bd 2d a9 93 3d 06 ed 02 be
       -0.01954554 -0.110019565 0.07210002 -0.1278573
0001e0 d4 25 80 bd 8a a8 a1 3c be 41 90 bd ff 6b 69 bd
       -0.06257215 0.019733686 -0.07043789 -0.05698776
0001f0 06 17 04 be 68 a9 ed ba 9e 78 b4 bd cc 2e f4 3a
       -0.12899408 -0.0018132152 -0.088120684 0.0018629669
000200 a3 e6 ee bd 8d 6b 92 bc ba 55 80 bd 14 81 fc bc
       -0.11665084 -0.01787355 -0.06266351 -0.030823268
000210 ed b8 a2 bd 72 3c 7c bd 24 e2 31 bd 2d 7e 66 3d
       -0.07945428 -0.061581083 -0.043428555 0.056272674
000220 e1 72 75 3c 8d d7 7c bd c0 78 7e bb 57 01 1e be
       0.014981003 -0.061729003 -0.0038829297 -0.15430199
000230 1c a0 00 3d 3e e7 84 3c c5 1a e2 bd ce 30 b4 bc
       0.031402692 0.016223546 -0.11040262 -0.021995928
000240 55 4e 1b be 2f c0 aa bc ed 35 6e bb af f1 28 3c
       -0.151666 -0.020843593 -0.003634806 0.010311528
000250 cf ad 01 be 93 28 78 bc 8f d8 87 bc a4 cd 81 bd
       -0.12663959 -0.015146392 -0.016582755 -0.06338051
000260 86 1c 08 bd 23 3f 09 3d 1a b7 11 3d f6 bc ea bd
       -0.033230327 0.033507477 0.03557501 -0.11461823
000270 99 e7 6f 3d 61 8c 29 bc e5 04 af bd 9b 91 08 be
       0.058570478 -0.01034841 -0.085458554 -0.13336794
000280 25 74 52 bd 64 b2 a1 bd 31 69 c0 bd 79 da 2a 3c
       -0.051380295 -0.078953534 -0.09395064 0.0104280645
000290 1b 82 c0 bd 60 d0 8e bd 12 3c 70 bd a8 94 06 be
       -0.09399816 -0.06973338 -0.058651038 -0.13142645
0002a0 d0 f7 41 bd 79 ac b7 bc 8a 19 85 3c 3d 19 a3 bd
       -0.047355473 -0.022421109 0.01624753 -0.07963798
0002b0 f6 b0 b3 bd 50 8c fc ba 2a 3a b4 bd f5 0b 94 bc
       -0.08773987 -0.0019267891 -0.088001564 -0.018072108
0002c0 0f a8 50 bc 76 38 d4 bd 35 fd 19 bd 01 5c 92 3d
       -0.012735381 -0.103623316 -0.037594993 0.071464546
0002d0 8b 78 72 3b 76 21 9d 3c 44 e3 f0 3b 3f 3d 8e bd
       0.0036998119 0.019180994 0.007351311 -0.069452755
0002e0 cc 28 7c 3d 40 8d 56 bd 44 33 e0 bd 66 29 c2 bd
       0.061562344 -0.0523808 -0.10947278 -0.094805524
0002f0 01 3a b6 3c 25 25 22 3c ff 63 db bb 07 3d c4 3d
       0.022244455 0.009896551 -0.00669527 0.095819525
000300 53 c2 3f bd 52 6d d3 bc 4b c2 73 3d 30 af 82 bc
       -0.04681618 -0.025808964 0.059511464 -0.015952677
000310 74 26 40 3d f7 e7 2a bc af 20 ac bd 89 07 c7 bd
       0.04691167 -0.010431281 -0.084046714 -0.09718234
000320 18 4e bf 3b 7f 10 da bc 29 5e 0c bd 9c 78 0d be
       0.005838167 -0.026619194 -0.034269486 -0.1381554
000330 b5 c3 12 bc 3c 59 38 bb 48 07 b1 3d 34 75 03 3b
       -0.008957793 -0.002812936 0.08643967 0.0020058872
000340 89 96 d6 bd 44 ec 5a bc a2 be 8d bd 49 fe a7 3c
       -0.10477931 -0.013361994 -0.06921126 0.020506995
000350 1d cf e2 3c 62 a2 dc bd 83 f4 da 39 aa 6b 81 bd
       0.02768665 -0.107731596 0.00041762376 -0.063193634
000360 7e 98 68 bc fb c8 54 bd d1 b0 1a bc 7f 19 53 bd
       -0.014196513 -0.051949482 -0.00944157 -0.051537987
000370 11 8d 9f bc 9b 20 17 bc 63 a0 97 bc 41 9c 77 bd
       -0.019476445 -0.009224082 -0.018509096 -0.06045175
000380 6b d0 0a be d3 6f 9b bd 25 6d da bd db 73 06 3d
       -0.13556068 -0.07589688 -0.10665349 0.032825332
000390 b5 38 2b bd 1d ec 85 bd 8b 6c 39 3d 7b 03 de bc
       -0.041802127 -0.06539176 0.04526953 -0.027101269
0003a0 7f 18 bd bd be b4 eb bb 38 52 2c 3d 62 a7 4a 3a
       -0.09233188 -0.007193177 0.042070597 0.00077306305
0003b0 30 5c 60 bc 6f be 47 bd 61 1f 8a bd db 89 e8 bc
       -0.013693854 -0.048765596 -0.06744266 -0.028386047
0003c0 17 c4 3c bb f6 79 cb bd 9f 80 15 3d 32 7f 03 be
       -0.0028803402 -0.099353716 0.036499616 -0.1284149
0003d0 b5 ae 37 bd 20 94 95 bd 85 90 b7 bc f5 96 fd bc
       -0.044844348 -0.07303643 -0.02240778 -0.030955771
0003e0 c1 9f a0 bd d6 36 84 bd b7 d9 20 be 3a ca 46 bd
       -0.07842971 -0.064557716 -0.15708052 -0.048532702
0003f0 d4 91 2c bd 9b 60 ee bc 90 e0 0a be b8 7d 1b bd
       -0.04213126 -0.0290988 -0.13562226 -0.03796169

action_model._discrete_distribution.branches.0.weight f4 [3, 256]
000000 d7 cf c7 3c a9 b4 ab 3d 34 62 a6 bd 75 35 d9 ba
       0.024391098 0.083840676 -0.081241995 -0.0016571718
000010 91 e5 22 3e c3 53 3c 3d 20 9b 84 bd 36 56 80 3d
       0.15907885 0.04597832 -0.064749 0.062664434
000020 93 41 e1 bb 08 40 b5 3d 3a 45 a1 bd a1 c6 2a 3d
       -0.006874272 0.088501036 -0.07874532 0.041693334
000030 f4 eb 5a bd ab 8d 0c be 64 00 35 3c 80 bc 08 3d
       -0.05344768 -0.13725917 0.011047456 0.033382893
000040 65 87 8e 3c f6 4e 8b bc 09 49 61 3d 41 22 0f 3e
       0.017398546 -0.017005425 0.055001292 0.1397791
000050 3a cb b6 bb 09 e1 04 bd 6f 06 65 bc c7 83 a0 bb
       -0.0055784257 -0.032441173 -0.013978585 -0.0048985216
000060 65 f6 ba 3d 23 05 5a bd fa 96 88 3b be bc f2 3c
       0.09129027 -0.053227555 0.0041683884 0.029631015
000070 f6 0f 57 3c c2 29 00 bd 07 3f 8d 3c dd 87 ab bd
       0.013126364 -0.031289823 0.017241968 -0.08375523
000080 1b 41 9b 3c 09 30 36 3d aa f0 43 bb 4a b7 2b 3d
       0.018951943 0.044479404 -0.0029898086 0.041922845
000090 3d ad d2 3d 06 f3 96 3d 68 cc ee bc 8a b9 7a 3d
       0.10286949 0.07370572 -0.029150203 0.0612121
0000a0 a7 aa 2c bd bc 7c f6 bd 0d 32 14 be 75 e6 64 bc
       -0.042154934 -0.1203551 -0.14472218 -0.013970961
0000b0 18 a9 5e bd b2 bc 24 3d d6 ed 3f 3d cb e7 ad bd
       -0.05436048 0.040219016 0.046857677 -0.084914766
0000c0 e2 27 96 3d 6f c1 31 bc ef 7a c3 bb 8d d1 64 bd
       0.07331826 -0.010849341 -0.0059655826 -0.055863906
0000d0 73 43 91 bc 24 a8 bc 3c e0 cc c6 3d 9c 4c 88 3d
       -0.017732358 0.023029394 0.097070456 0.06655237
0000e0 a3 65 d2 3d cc 05 5d 3c c9 52 35 3e 37 25 3c bd
       0.10273292 0.013490152 0.17707361 -0.04593393
0000f0 05 ac d3 bd cd fb 70 bc 03 80 92 bd 9d fd 41 bd
       -0.103355445 -0.0147084715 -0.071533225 -0.047361005
000100 1e d1 41 bd 81 c4 49 3d 2c 66 ad bc 8c 41 9b 3d
       -0.04731857 0.049259666 -0.021166883 0.075808614
000110 8e df 71 bc b8 a1 0f be 02 cc 0e bd 46 d5 1b bd
       -0.014762772 -0.14026535 -0.034862526 -0.03804519
000120 57 0f 06 be 2a 9d d0 bd b9 7b 9e 3d cf db a0 3d
       -0.13091789 -0.10186227 0.07738442 0.07854425
000130 68 75 12 bd 0f 07 cd bd da 8f 58 ba ec 4d 9a 3d
       -0.0357565 -0.10011112 -0.00082611816 0.07534394
000140 e6 48 62 3d ad 1b 88 3c 28 3b 34 3d 47 74 64 3d
       0.055245303 0.01661476 0.04400173 0.055774953
000150 90 d3 30 3c fe 62 bd bc 5c 1d 53 3d 09 c9 17 bd
       0.010792628 -0.023118492 0.05154167 -0.037056956
000160 a0 bb 80 3d 2e e5 f3 3d 2e 54 ba bd f1 59 76 3d
       0.06285787 0.11908947 -0.09098087 0.06014437
000170 8d 33 53 bd 59 7e b0 3d 18 81 80 be a7 c7 a7 bd
       -0.051562835 0.08617849 -0.2509849 -0.081923775
000180 34 d5 9b bd 90 de 7c bd 52 b2 42 3d 2b 70 2b bc
       -0.07609025 -0.06173569 0.04753334 -0.010463755
000190 f9 60 d9 bd c1 00 92 3d ff ab 66 3d c4 9f 4a bd
       -0.10614199 0.0712905 0.056316372 -0.04946877
0001a0 48 c2 19 3d 24 0f 5c bd 73 89 be 3d 8a 2e f5 3c
       0.037538797 -0.053725377 0.0930356 0.029929418
0001b0 f3 a2 94 bc af ac f2 3c 47 88 95 3b 3d 77 4c bd
       -0.018144106 0.029623358 0.0045633647 -0.049918402
0001c0 85 39 c0 3d ba 1b 22 3d a3 37 29 3d 0b c3 ad 3b
       0.09385971 0.039577223 0.041312825 0.005302792
0001d0 b2 7c 31 3d 23 0e 40 3c 7b b7 e5 bb 28 ca 17 be
       0.04333181 0.01172212 -0.007010398 -0.1482321
0001e0 20 87 cd 3d 95 b9 9f 3c c8 5b f2 bd 64 e0 81 3c
       0.10035539 0.019497672 -0.11833912 0.015854068
0001f0 9b 5f 82 3d a2 07 cd bd 41 03 c6 3c c9 54 be bc
       0.063658915 -0.100112215 0.024171473 -0.023233788
000200 e7 10 24 3d ad 82 26 bd 7f 12 d0 3d f1 4f 22 bd
       0.04005518 -0.040651966 0.10159778 -0.03962702
000210 09 9a ad bd b3 ef cb 3c 5b 4e ca bc 8e 02 5c 3d
       -0.084766455 0.024894571 -0.024695566 0.053713374
000220 49 30 91 3d 63 c6 a8 3b d2 a6 cd 3d e2 b4 3d bd
       0.07089288 0.0051506027 0.10041584 -0.04631508
000230 95 59 8f 3d 0b 62 d9 3c a3 dd ad bc bd 02 2b be
       0.06999508 0.026536008 -0.021223849 -0.16700263
000240 09 cf d9 bd b8 71 a3 3d 33 19 96 bd c5 5d 06 bd
       -0.10635192 0.079806745 -0.07329025 -0.03280427
000250 57 74 f4 bd 0d 5c 7d 3d 22 b7 87 3d d0 37 a8 3c
       -0.119362526 0.061855365 0.06626727 0.020534426
000260 7d 64 ab bc 94 1b bd bd 15 c2 c3 3d 87 6c bb 3d
       -0.02092194 -0.09233776 0.095585026 0.09151559
000270 44 bd 85 3d ef 42 c9 bc db 75 8a bc 4e 50 6e bd
       0.0653024 -0.02456805 -0.016901901 -0.058182053
000280 76 8f 28 3d 7d 26 03 bd 86 17 95 bd b0 75 f1 3b
       0.04115244 -0.032019127 -0.07279877 0.007368766
000290 e3 88 92 3d f7 1f fd bc 75 2f af bc 14 b3 83 3d
       0.07155015 -0.030899031 -0.021384934 0.06430641
0002a0 2a c7 85 3d 85 14 af bc f6 42 b1 3d c9 18 f7 bc
       0.06532128 -0.02137209 0.0865535 -0.030163186
0002b0 63 b6 9a bd 04 43 67 3d 64 23 f1 bc ae 7f ff bd
       -0.07554319 0.056460395 -0.02943582 -0.12475525
0002c0 61 bd 87 3c 12 d5 75 bd 5b 7e a8 3c da 3d b4 bc
       0.016569795 -0.060017653 0.020568063 -0.02200215
0002d0 0a 85 97 3d 3c 77 de bc 21 7f e7 bd ed ac c2 bd
       0.07398422 -0.027156465 -0.11303545 -0.09505639
0002e0 a4 b9 37 bd 9c 60 fc 3c de 15 a7 bd 58 42 bc bc
       -0.044854775 0.030807786 -0.08158468 -0.022980854
0002f0 f8 8f 9a 3d d0 d6 dd bc 1f 31 ab 3d 09 f4 85 bc
       0.07546991 -0.02707997 0.083589785 -0.016351717
000300 21 81 d2 bd 81 0d 57 bd 65 c9 2b 3e 3e 99 89 bd
       -0.10278536 -0.052503113 0.16776045 -0.06718682
000310 93 7a 1e bd a4 14 b0 bc 54 13 cd bd da 87 5e bd
       -0.038691115 -0.021494217 -0.10013452 -0.054328777
000320 71 8e 74 bc b7 b0 17 3c c0 71 85 3d d3 fb 02 bd
       -0.014926539 0.009258441 0.06515837 -0.03197844
000330 ee 90 56 3d ba de 6b 3e f0 8e 82 bc 22 2e 6e 3d
       0.05238431 0.23034182 -0.015937299 0.058149464
000340 db 42 6e 3d 35 45 15 bd 85 77 fa bd 13 d6 bd 3c
       0.058169227 -0.036442954 -0.12229828 0.023173368
000350 cb 7c 75 bc 87 d8 cd 3d 1e e9 b9 3d 97 44 53 bd
       -0.014983366 0.10051065 0.09077667 -0.051579084
000360 ae 5e 80 3d 22 a5 01 3d d9 cf af 3d 43 60 08 bd
       0.06268059 0.031651624 0.08584566 -0.033294927
000370 78 a2 d3 3c f6 a6 6e bc e0 c6 c4 bc 2c 16 06 3e
       0.025834307 -0.014566174 -0.024020612 0.13094395
000380 28 97 90 3d c1 9d ac bd 2c 7d c3 bb 88 08 a2 bc
       0.07060081 -0.08428527 -0.0059658494 -0.019779459
000390 63 7c f3 3d 02 29 05 bd e6 bd b0 3b 38 eb 99 bc
       0.11888959 -0.03250981 0.0053937314 -0.018788919
0003a0 86 b2 d6 bc d4 aa 1b bc 63 2b 84 bc 91 49 cf bd
       -0.026208173 -0.009501178 -0.01613397 -0.101214536
0003b0 38 de bd 3c 40 c7 10 bd 58 f2 00 bd 30 fd ba 3d
       0.023177251 -0.03534627 -0.031481117 0.09130323
0003c0 e4 16 9a bd 73 fd 48 3d 42 fc 06 3e de a7 fe 3b
       -0.07523897 0.049069833 0.13182166 0.007771476
0003d0 10 6f 4d 3d 2c 6e 13 3d 7c 6e 38 bc 75 85 dc bb
       0.050154746 0.03599374 -0.01125681 -0.0067297765
0003e0 55 0e e7 bd 24 1e 1f 3e 1a 2f 9c bd 7c 86 69 bd
       -0.112820305 0.15538841 -0.076261714 -0.05701302
0003f0 d8 3d f2 bc fc d4 b4 3d 83 22 c4 bd 57 37 e7 3d
       -0.029570505 0.08829686 -0.09576895 0.11289852

action_model._discrete_distribution.branches.0.bias f4 [3]
000000 0d 5b 03 3e 29 1a 83 bd 9e f2 b5 bd
       0.12827702 -0.06401474 -0.08884166

action_model._discrete_distribution.branches.1.weight f4 [3, 256]
000000 53 69 59 bd e6 f6 40 bc 24 0a c8 3c 53 ce 56 3c
       -0.05307896 -0.011777615 0.024418898 0.013110715
000010 a9 b6 b3 3d 24 64 82 bd f7 e8 4c 3d 86 e6 1c be
       0.08775074 -0.063667566 0.05002686 -0.15322313
000020 90 bf 0c bd 2e d4 46 bc 6b 4f 1e bd b0 68 1b 3d
       -0.034362376 -0.0121355485 -0.038649958 0.037941635
000030 8e 73 1c 3c de 3e 00 3c 43 08 73 3c 24 4d b8 bc
       0.009549035 0.007827489 0.014833513 -0.022497721
000040 ba 31 24 bd b1 a0 8f 3d a5 93 1f 3d f3 cc 3f 3d
       -0.040086485 0.07013071 0.038959164 0.046826314
000050 6c e2 c0 3d 5d 5e 55 3c 01 45 28 be 0a 60 be 3c
       0.094181865 0.013022986 -0.16432573 0.023239154
000060 3c d5 74 bc b4 e3 18 bd 21 1d 96 3b e7 62 3c 3c
       -0.014943417 -0.03732653 0.004581109 0.0114981895
000070 15 46 20 3d 14 c3 2a 3d 8e b7 ec 3c c1 14 15 bc
       0.039129335 0.041689947 0.02889612 -0.009099186
000080 d4 30 89 3d ee 34 a7 bd b1 14 b8 3c dd 42 c4 bc
       0.06698766 -0.081643924 0.022470804 -0.023957664
000090 62 ee b1 3d bf d2 dc 3c e5 0d 71 3c 4c 6e 91 3d
       0.08688046 0.02695596 0.014712785 0.071011156
0000a0 d3 91 84 3c 82 83 8a 3d 6f c0 6f 3d 03 e2 6c 3d
       0.016182816 0.067633644 0.05853313 0.05783273
0000b0 15 c4 5e bd d1 5b dc 3c 17 2a d2 3b 83 60 ee 3d
       -0.054386217 0.02689925 0.006413709 0.11639502
0000c0 da 97 f2 bc 94 e3 a9 bb a7 4b b1 3d d3 65 12 3d
       -0.029613424 -0.0051846 0.08657008 0.03574164
0000d0 42 2d 48 bc b2 f6 c8 3c fd 2c 28 3d 04 a1 bb 3b
       -0.012217822 0.024531696 0.04105853 0.0057259817
0000e0 23 c1 04 bd 7a 04 e5 3c 47 96 56 3d 91 a4 a6 3d
       -0.032410752 0.027956236 0.05238941 0.08136857
0000f0 39 58 33 bc 7b 33 c1 3b 13 a2 42 bc 3f 9c fc bc
       -0.010946327 0.0058960295 -0.011879462 -0.030836223
000100 ca eb 33 3d 41 43 02 bd 1d 21 1d be 1b 66 e7 3c
       0.043926038 -0.03180242 -0.15344663 0.02824693
000110 a6 01 f4 3c f7 01 1c bd 39 7d b2 3c 5a 21 a6 3d
       0.029785942 -0.03808781 0.021788226 0.0811183
000120 a3 0e 08 3d 32 b0 4c 3d 40 29 b7 bb 59 e1 03 bc
       0.033217084 0.04997272 -0.005589634 -0.008049333
000130 0d d7 0f 3c 72 80 f0 3c 38 0a f5 3d 12 af 79 bd
       0.008779299 0.029358122 0.1196484 -0.060957976
000140 95 06 0c 3d 63 f3 a4 bb 92 14 b2 bb b0 41 f0 3c
       0.034185965 -0.005033897 -0.005434581 0.029328197
000150 af 91 6c bc 0b 7e 81 3c 12 d0 91 bc d4 9f 41 be
       -0.014439031 0.015807172 -0.017799411 -0.18908626
000160 c8 6c 26 3d 36 b6 8b bc b0 2f 85 3d 33 69 a9 bc
       0.040631086 -0.017054658 0.06503236 -0.020680046
000170 da b2 86 3d 4f a7 8b 3d 8a 6b 60 3c c7 b8 72 3d
       0.06577082 0.06819021 0.013697514 0.05925825
000180 d2 89 31 3d 84 ff e0 3d b7 29 07 3c f3 73 4d 3d
       0.043344326 0.10986236 0.008249692 0.050159406
000190 47 c4 86 bc e1 f9 0a 3d 7e d9 7f 3c c4 30 ee 3d
       -0.016451014 0.03392971 0.015615819 0.11630395
0001a0 a7 d5 6c 3c 89 34 86 bd 3e ab 92 bd 60 cf 56 bd
       0.014455236 -0.06552989 -0.07161568 -0.052443862
0001b0 d7 9c a7 3b 30 d1 f6 bd 61 a5 39 3c 63 5d e4 3c
       0.0051151323 -0.12051618 0.011330933 0.027876562
0001c0 65 5d b9 bc d8 fc b8 3c 0d 17 1f 3d 14 d1 3a 3c
       -0.022627542 0.022581503 0.038840342 0.011402387
0001d0 81 29 dd bb 98 38 64 3c 4d e8 11 3d 10 ca 10 3d
       -0.0067493324 0.013929509 0.03562193 0.03534895
0001e0 56 b2 08 bd 27 7d 4a 3c dc 3d 7f 3c 6f c1 e7 bc
       -0.0333732 0.01235894 0.015578713 -0.028290479
0001f0 4a 4e e9 bb 0c 49 00 3e ff bb 31 3d 2d f8 7b bd
       -0.0071199285 0.12527865 0.043392178 -0.061515976
000200 68 f8 dd 3c 69 67 b8 3d f0 ec 2d bd 6d 63 59 3d
       0.027095988 0.09004099 -0.04246229 0.053073335
000210 17 55 af 3c 70 56 be bd 40 65 20 b9 51 c0 ec 3c
       0.021402879 -0.092938304 -0.00015296508 0.028900297
000220 9b 59 83 3b 23 c7 cb 3c c5 24 d7 bc 6a 8b 84 3c
       0.0040084845 0.02487523 -0.02626265 0.016179759
000230 c1 1a a4 3c 95 ba d9 3d 1f 96 19 3c 60 02 4c 3d
       0.020032289 0.10631291 0.009374171 0.049806952
000240 f6 60 0a bd 0a e9 c8 bc 6b 5b 2e 3b 86 43 a8 3c
       -0.033783875 -0.024525184 0.0026604782 0.02054001
000250 3d 57 3a 3d 54 e0 01 3d 7a 56 4c bd d4 c6 34 3d
       0.045493353 0.031708077 -0.049887158 0.04413493
000260 ce 76 3d 3d c3 4d b8 bc 2e 97 51 3d ae 94 32 3d
       0.04625588 -0.022498017 0.051169567 0.043598823
000270 ec 9f e9 ba fb 06 02 bd ea 15 ba 3d e0 05 a2 bb
       -0.001782415 -0.03174494 0.09086211 -0.004944548
000280 c2 f7 f5 bc b5 60 00 bd b9 c0 5f 3b a5 ac a9 3d
       -0.030025367 -0.031342227 0.0034141971 0.082848825
000290 d4 ea 7a bc f7 06 bc 3c c4 89 c1 3d 28 48 aa 3c
       -0.015314776 0.02295254 0.09450105 0.02078636
0002a0 bb 70 07 be 9b 1f 77 3c b1 6f 9a bc e9 d8 96 3c
       -0.13226597 0.015083219 -0.018852087 0.018413978
0002b0 57 67 8b 3d 64 17 3c bd 9d 85 83 bd f3 c3 f1 3d
       0.0680682 -0.045920745 -0.06421969 0.118049525
0002c0 19 dc 03 3c 25 3e 58 3d 9b 04 b0 3d e8 5c e6 bb
       0.008048081 0.05279364 0.085946284 -0.0070301183
0002d0 57 9e 75 bd 3e f5 85 3c 6e 6e 82 3c bd 6f b2 3c
       -0.059965458 0.016352292 0.015921798 0.021781797
0002e0 93 69 82 bc 90 54 ae 3c ca 41 63 3d 1a e3 cf 3c
       -0.015919482 0.021280557 0.055482663 0.025376845
0002f0 7d d4 74 3d 19 01 a1 bd 40 7d 0b 3e 90 76 18 3d
       0.059772957 -0.078615375 0.13621998 0.037222445
000300 e0 b1 92 3d 74 8a af bd 43 df a9 3c c5 56 6a bd
       0.07162833 -0.0857133 0.020736342 -0.057211656
000310 8d 46 ad 3a de 2f d4 3c cb 11 14 3d 77 eb 76 3d
       0.0013219878 0.025901731 0.03614978 0.06028315
000320 38 cd ef bc 61 3b 41 bd 79 12 e4 bc fd de 7b bb
       -0.02927266 -0.04717577 -0.02784084 -0.0038432472
000330 77 c1 a8 3d 3a 99 37 3d 3c c0 78 bc c1 61 70 bd
       0.082400255 0.044823863 -0.015182551 -0.058686975
000340 63 6c 36 bc ca a4 63 bb fc 31 d6 3d 40 b1 ce 3c
       -0.01113424 -0.0034735673 0.104587525 0.025231004
000350 de 6e 91 ba 60 9b 3a bc 87 52 57 3d 17 75 ba 3d
       -0.0011095663 -0.011389583 0.05256894 0.09104364
000360 16 cc b8 bb b5 64 60 3d ab 4e 9d 3d c8 0e 02 be
       -0.0056395633 0.05478354 0.0768102 -0.12700951
000370 36 9c 02 3d 29 f3 d5 3c 73 4f 05 3d 78 0a d9 bd
       0.031887256 0.026116924 0.03254647 -0.105977
000380 b0 1e 88 bd 62 ac 8a 3a e9 ff 33 3c 1c 59 29 bd
       -0.06646478 0.0010579939 0.010986307 -0.041344747
000390 ab db 8a 3c e5 50 70 3d ea 8d 53 3d 64 27 60 3d
       0.016950449 0.058670897 0.05164901 0.054725066
0003a0 91 63 c7 3d d6 a5 ad 3d bd cd 10 3c 91 ca fd 3c
       0.09735788 0.08478896 0.008838114 0.03098038
0003b0 f6 05 84 3d f6 79 a7 3d b2 dc 8a bc d2 7a 1c bd
       0.064464495 0.08177559 -0.016950939 -0.038203068
0003c0 31 24 d0 3d bc 5d e3 3b 66 e8 bf 39 57 bc 5d bd
       0.10163153 0.0069386642 0.0003660351 -0.054134693
0003d0 29 98 c2 bc c2 d1 95 3d 74 0c 05 3e 3f ce a7 3d
       -0.023754196 0.07315399 0.12993032 0.08193635
0003e0 33 a6 c5 3d 37 93 9c 3d 02 b6 6c bc b7 fa de 3d
       0.096508406 0.076452665 -0.014447691 0.10887664
0003f0 82 6f b2 3d 02 45 da 3c aa bd 8a 3d 1f cb 31 bd
       0.08712675 0.026644234 0.06774457 -0.043406602

action_model._discrete_distribution.branches.1.bias f4 [3]
000000 ed 7f 62 bd ff 24 81 3c 67 07 64 3d
       -0.05529778 0.015764711 0.055671122

action_model._discrete_distribution.branches.2.weight f4 [2, 256]
000000 1f 35 f0 bb 94 39 c4 3d 3d 96 84 bd c1 d5 28 3e
       -0.0073305513 0.09581295 -0.06473968 0.1648779
000010 f8 1d ca bc 0c 00 88 bd 73 eb cf 3d a0 67 76 bc
       -0.024672493 -0.06640634 0.1015233 -0.015039355
000020 d1 d4 1c 3c 0f 19 04 3b 59 56 2b 3d a7 7e 90 3d
       0.009572224 0.0020156538 0.041830394 0.07055407
000030 4c 69 9e bd 42 49 83 bc 02 de 5b 3e 8f 02 ff bc
       -0.077349275 -0.016026143 0.21471408 -0.03112915
000040 ee 14 f0 3c c1 a6 20 be 7a 94 01 bd 3f ad 91 bc
       0.029306855 -0.15688612 -0.03163574 -0.017782805
000050 ee 38 6e bc 02 b9 1a bd 53 de 22 be 9c 7a 0c 3e
       -0.01453994 -0.037774093 -0.15905122 0.13718647
000060 c9 c1 9f 3c 11 74 ac 3d d2 da fe bc 22 23 08 bd
       0.019501584 0.084205754 -0.031110201 -0.03323663
000070 f4 a2 a5 bc 8d 2e 2f bd 96 bf 18 be 20 66 9a 3c
       -0.020219304 -0.042769004 -0.14916834 0.018847525
000080 1c f0 09 3c 6b a0 b0 3b 25 e1 d3 3e 7c f9 96 3d
       0.008419063 0.005390217 0.4138271 0.07371804
000090 57 3c 43 3a cf c2 11 3e f4 88 9f 3c 1f 8f bd 3c
       0.0007447651 0.1423447 0.019474484 0.023139535
0000a0 9a d4 8d 3c b5 37 e8 3d 20 ed 9e bc ae ec ee bc
       0.01731329 0.1133875 -0.01940018 -0.029165592
0000b0 0e 32 a1 3c d5 c7 a7 3c 8d c7 8b bc b4 e8 c5 3c
       0.019677188 0.02048103 -0.017062927 0.024158813
0000c0 14 00 1e be 07 a1 49 3e 94 2d 58 3d fe 42 ab bd
       -0.15429717 0.19690333 0.05277784 -0.08362387
0000d0 ce 95 a4 3a 07 dc 19 be 37 78 c6 bc b1 e1 b7 3d
       0.0012556852 -0.1502534 -0.024227245 0.08978594
0000e0 0f f7 2f bd 48 69 e7 bc cc f1 99 3b 74 3f a3 3d
       -0.042960223 -0.028248444 0.004698014 0.07971087
0000f0 ba 36 95 3d f4 b1 ee bd 5a c0 20 3d 1e 04 42 3d
       0.07285829 -0.116550356 0.03924594 0.047367208
000100 cd 2e cd 3d 94 58 47 3c 1f 26 65 bd 32 21 95 bd
       0.10018692 0.012167115 -0.05594456 -0.07281722
000110 40 67 b9 bc 68 11 fa bc 92 a9 1a be 24 18 20 be
       -0.022632241 -0.030525878 -0.15103748 -0.15634209
000120 2c a2 d0 3b 4a 55 0e bd b0 66 8b bc bb 86 ac bb
       0.0063669886 -0.034749307 -0.017016739 -0.0052650846
000130 98 aa c1 3d 4e 97 ca 3b 98 ef bc bd 89 06 e2 3c
       0.09456366 0.0061825877 -0.092253864 0.027591007
000140 98 ce 39 be 33 ba 65 3c b1 16 d1 bc d9 ce 6e 3d
       -0.18145216 0.014021444 -0.025523515 0.058302734
000150 e8 e0 4a bd 6e 48 90 3e ca 60 bb 3d ac 81 91 bd
       -0.049530894 0.2818026 0.091493204 -0.07104811
000160 c9 f8 7b bc 18 3d cd bb e2 b4 95 bd 29 16 e9 3b
       -0.015379139 -0.0062633865 -0.07309891 0.0071132374
000170 a9 5f af 3d 50 91 e2 3c a3 2b dc 3d 3f f3 7b 3c
       0.085631676 0.027657181 0.107505105 0.015377819
000180 cc 3d 08 3e 1b c0 92 bd 50 69 99 3c 0b e5 12 bd
       0.13304824 -0.071655475 0.018726975 -0.035862964
000190 19 c6 ea 3c 99 3f 34 bd 03 84 21 3c 24 d7 cb bc
       0.028658913 -0.044005964 0.009858134 -0.02488286
0001a0 9e 42 5f bd 11 4d 3c bb ad 47 23 bd 73 36 57 3d
       -0.05450689 -0.0028732459 -0.039863277 0.05254216
0001b0 df 72 3a bd 15 39 1d be 99 a6 21 be 73 b5 be bc
       -0.045519706 -0.15353806 -0.15786208 -0.023279881
0001c0 47 a0 35 3c e8 f4 f9 bc d2 45 3b bd 84 7e c4 3c
       0.011085576 -0.030512288 -0.045720883 0.023986109
0001d0 79 ef 2d 3e a3 cd 63 bd 3b 0e 15 3e ba 04 1d be
       0.16985883 -0.055616032 0.1455621 -0.15333834
0001e0 bc 9f 91 bd 62 ab 03 3d e9 7b df bd 76 bd 71 3d
       -0.07110545 0.032145865 -0.10912306 0.059018575
0001f0 64 bb 47 bd d6 6e 80 ba 90 97 95 3c ff ef a1 3d
       -0.048762694 -0.0009798657 0.018260747 0.07907104
000200 a7 de e7 bd 99 31 9f bd ee b9 46 3d 58 ef 88 3b
       -0.113217644 -0.07773132 0.04851716 0.0041789226
000210 ce 8a 35 3d 6f 49 49 bd f0 17 d1 bd a7 2c 85 3d
       0.044321828 -0.049142297 -0.10209644 0.065026574
000220 52 a6 06 3d 42 12 a2 3d 20 ee 4d 3c dc 44 7e bd
       0.03287346 0.07913639 0.01256898 -0.06207739
000230 79 59 c9 3d f0 ee 13 bc 26 a8 5a bd ae 26 89 bd
       0.09831519 -0.009029135 -0.053383015 -0.06696831
000240 90 64 3f bd 9d 67 38 bc a8 23 83 bc cd 06 2e 3e
       -0.046726763 -0.011255172 -0.016008213 0.16994782
000250 d0 16 1f bd 83 32 49 bc 54 ff a1 bc 5a 60 13 bd
       -0.038840115 -0.012280109 -0.01977507 -0.03598056
000260 c3 57 73 3d 70 c9 ea 3d ad 66 91 3c ff 5d e7 bb
       0.059409868 0.114642024 0.017749155 -0.0070607658
000270 a1 c2 81 3d e1 78 9d bc cc b0 93 bd 70 bb 35 bd
       0.06335951 -0.019222679 -0.07211456 -0.044368207
000280 9b 07 ad bd c6 ac 22 3d df 00 b9 bc 15 06 3c 3d
       -0.08448716 0.03971555 -0.022583423 0.045904238
000290 5b b2 93 bc 78 6d e7 bd 77 01 79 bd b9 07 a1 bd
       -0.018029382 -0.113001764 -0.060792413 -0.07862801
0002a0 b0 4f e1 3b 45 c3 63 3c 2d 5d 40 3d 2b d5 0b 3d
       0.0068759546 0.013901536 0.04696386 0.03413884
0002b0 49 76 73 bd 15 2a 17 3c 73 72 b5 3c 81 bc 54 bc
       -0.059438977 0.009226342 0.0221493 -0.012984396
0002c0 22 b6 3b bc 2e 83 c0 bc 8e 11 52 bd 85 af 8a 3e
       -0.011456998 -0.023500051 -0.051286273 0.27087036
0002d0 ff 59 53 3c 60 45 1e bd a4 5d bf 3d 0c 51 45 3d
       0.012899875 -0.03864038 0.093440324 0.048172995
0002e0 de 90 b7 3e 59 1c 40 3c f8 25 a6 bd 32 9b a3 3c
       0.35852712 0.011725509 -0.08112711 0.019971464
0002f0 6a a4 13 bd 4c b7 26 3d 10 41 b8 bc 4f 8c f2 3e
       -0.03604547 0.04070215 -0.022491962 0.47372672
000300 eb 2e af 3d 5d 69 2f be b1 c8 9b 39 dc 4a 1f bd
       0.08553871 -0.17130037 0.0002971343 -0.03888975
000310 d0 71 d3 3d 62 6a 98 bd 88 bc 32 be 7a 36 bd bc
       0.103244424 -0.07442166 -0.17454731 -0.023097266
000320 46 92 0c bd b5 6a 71 3c dc cc 2d bc e5 65 9e bd
       -0.034319185 0.014734914 -0.010607924 -0.077342786
000330 03 78 42 3d ee 85 49 bd 08 20 98 3e 14 5a ec bc
       0.047477733 -0.04919999 0.29711938 -0.028851546
000340 64 99 b1 bd 17 b4 5a 3d d4 a0 31 bd 7e 88 14 3e
       -0.08671835 0.053394403 -0.04336627 0.14505193
000350 fe de a9 bc ed fb eb 3c 9f 18 af bb 6d 57 68 3d
       -0.020736214 0.028806651 -0.0053435112 0.056724
000360 4e 47 a7 3c 57 e6 9b 3c ae 29 0d bc 52 c8 98 bd
       0.020419743 0.019030733 -0.008615894 -0.07460083
000370 44 34 b3 bc a0 b2 5b 3e da d9 d0 3c cb a6 24 3d
       -0.021875508 0.21454859 0.025494505 0.04019813
000380 64 dc 3a bd a2 f2 13 bd 2a 39 54 3c 19 9a a1 bc
       -0.045620337 -0.036120065 0.012953082 -0.0197268
000390 fb 47 5b bc 8d 43 63 3d b2 84 c7 3e be 70 6e 3b
       -0.013383861 0.055484343 0.38968426 0.0036383118
0003a0 df 06 0e be 5e 00 25 3d 80 a7 03 3d 0c 1d 9d 3d
       -0.13869809 0.040283553 0.032142162 0.07671556
0003b0 01 f8 b3 3d b5 89 1c bd d8 df 94 bd e4 d8 6e bd
       0.08787537 -0.038217265 -0.07269257 -0.05831231
0003c0 4f 79 88 3c 3a 5a db 3c c8 f6 c9 3d 85 51 b7 bd
       0.016659407 0.026776422 0.09861523 -0.089510955
0003d0 07 82 2d bd c2 b8 a3 bd a7 1b 1e bc 03 ad 41 bd
       -0.042360332 -0.07994224 -0.0096501475 -0.047284137
0003e0 7c 55 f2 bd fb 8e 0d be 4f 07 98 bd 36 88 0b 3d
       -0.11832711 -0.13824074 -0.07423269 0.034065448
0003f0 87 6c 5d bc c8 fd c8 3c 24 73 0e bd b6 0f 85 bd
       -0.0135146445 0.024535075 -0.034777775 -0.06497137

action_model._discrete_distribution.branches.2.bias f4 [2]
000000 a3 a3 d1 3d 8a a3 d1 bd
       0.10236289 -0.10236271
