ML_stuff/results/cw_09/FindCubeWife/FindCubeWife-4499900.onnx (onnx, 352586 bytes, 11 tensors)

discrete_act_size_vector f4 [1, 3]
3.0 3.0 2.0
00000000: 0000 4040 0000 4040 0000 0040

network_body._body_endoder.seq_layers.0.weight f4 [256, 69]
-0.15782177 0.102295846 0.18960102 0.000104039376 -0.06250507 -0.021952853 -0.010792881 0.12359059
0.009567704 -0.09415056 0.0712978 -0.21172306 -0.3062444 0.025996309 -0.032129817 -0.015959682
0.28126088 0.18153982 -0.06855867 -0.051015053 0.11036836 -0.15374519 -0.0442635 0.18046977
0.05238149 -0.25069425 0.033041414 0.12531346 0.36351287 0.11620384 0.19832739 -0.11964527
-0.06935405 0.03799827 0.1432989 -0.13227752 -0.024430173 0.035892375 -0.15947972 -0.002996148
0.13834079 -0.46033615 -0.034376007 0.03429391 -0.028847612 -0.06801371 -0.010273159 -0.20218858
0.09594625 0.037913494 0.12334097 -0.11913944 0.32169884 -0.09981119 0.1620765 -0.031244216
-0.085604236 -0.11294144 0.1266558 -0.15065292 -0.09794063 -0.007658839 -0.33498114 -0.08391626
0.19973038 -0.06205273 -0.01513061 -0.19550706 -0.27777594 0.043023773 0.06307817 -0.102081284
-0.21876544 0.12374615 0.005583602 -0.2627791 -0.13886015 -0.27726996 0.24998781 -0.17329213
0.24961725 0.16392498 -0.17379402 0.022731282 -0.042720325 -0.3531128 0.046524957 0.06148575
0.11080645 -0.1045347 -0.036392283 0.28990823 0.2075627 0.061138213 0.12910247 0.08165612
-0.040676773 -0.23374775 -0.09074067 0.1261288 -0.19030541 0.20794015 -0.0041681323 0.022535216
0.4124024 0.042286538 0.16920431 0.32030225 0.25750336 0.123979904 -0.03633321 0.29448265
0.19262096 -0.112592086 0.1321901 0.17346394 0.2870306 0.11921006 -0.05001189 -0.35423824
-0.043920353 0.08031542 -0.34248447 0.036300674 0.008595396 0.044541266 0.29924533 0.19832717
0.13619074 0.069216505 -0.04011718 -0.05278836 0.12804681 0.009764213 -0.074425854 -0.09979545
-0.33166295 -0.08125195 0.06346038 0.17719066 -0.15691204 0.104131006 0.04960235 -0.09547229
-0.2546423 0.0044879955 0.29067254 -0.060474634 -0.24157314 0.11567606 -0.10251478 0.14486682
0.06818684 0.18435077 0.09107386 -0.18070595 0.055053595 -0.067270696 -0.38543442 0.06709677
0.0030843634 -0.119500406 -0.13844639 0.0040541035 -0.014393375 -0.1258486 0.30029467 -0.21535845
-0.010219763 0.19958264 -0.08784474 0.070625566 0.036654793 -0.4686715 -0.2931939 -0.0006887963
-0.5178562 0.09812952 0.11098459 0.056667533 -0.11204142 0.1452521 -0.104309894 0.03860098
0.06849005 -0.22533536 -0.10226421 0.09943696 0.107706025 0.28953186 0.036392037 0.08432313
0.0006349494 0.10306236 -0.084591635 -0.042675186 0.058277614 -0.16084649 -0.3291367 -0.12408404
-0.14922373 0.0020851567 0.058770504 -0.38342792 0.031044064 -0.58094543 0.023287028 -0.020537848
0.02306194 -0.050460458 -0.07005172 -0.09216339 0.04567068 0.13737695 -0.057733577 0.01076838
0.02826903 0.19446407 -0.16804859 -0.3115333 -0.009365118 0.12619436 -0.16213016 0.16067713
0.017109495 0.059638023 -0.23637663 0.19239978 -0.11922288 -0.0043442426 -0.034595303 0.019847276
0.0266499 0.029547274 0.06367771 -0.0093046 0.023116399 0.2510484 -0.08782096 -0.109253846
-0.014117352 -0.05101935 -0.51586705 0.060083892 0.080721594 -0.008227308 0.21196347 0.19148181
-0.1814197 0.16937776 0.1840647 0.1080271 -0.14852363 0.019280031 -0.3755464 0.15139449
00000000: 089c 21be 7c80 d13d c526 423e b72f da38
00000010: a802 80bd 78d6 b3bc a0d4 30bc 101d fd3d
00000020: dcc1 1c3c 02d2 c0bd 9504 923d eecd 58be
00000030: 11cc 9cbe 36f6 d43c 8e9a 03bd e1bd 82bc
00000040: 6d01 903e 93e5 393e 7d68 8cbd 29f5 50bd
00000050: cf08 e23d 616f 1dbe a54d 35bd 11cd 383e
00000060: f98d 563d ff5a 80be 6f56 073d 2c52 003e
00000070: 5c1e ba3e 47fc ed3d 5616 4b3e 9408 f5bd
00000080: 7f09 8ebd 13a4 1b3d f2bc 123e c273 07be
00000090: c921 c8bc e203 133d a74e 23be 065b 44bb
000000a0: 35a9 0d3e 2eb1 ebbe dbcd 0cbd c577 0c3d
000000b0: d451 ecbc c64a 8bbd c050 28bc 860a 4fbe
000000c0: 787f c43d 2e4b 1b3d 319a fc3d 61ff f3bd
000000d0: b6b5 a43e cf69 ccbd 62f7 253e dff3 ffbc
000000e0: 4651 afbd d74d e7bd 0fb2 013e c244 1abe
000000f0: 1995 c8bd 00f7 fabb a682 abbe 4adc abbd
00000100: 1f86 4c3e 012b 7ebd 61e6 77bc 0133 48be
00000110: a638 8ebe b239 303d 212f 813d fe0f d1bd
00000120: 0c04 60be 9f6e fd3d a6f6 b63b fb8a 86be
00000130: 5b31 0ebe 54f6 8dbe cefc 7f3e 7e73 31be
00000140: aa9b 7f3e f3db 273e 0ff7 31be f436 ba3c
00000150: 82fb 2ebd 33cb b4be f490 3e3d 7bd8 7b3d
00000160: 7eee e23d 4a16 d6bd 1310 15bd da6e 943e
00000170: 518b 543e 106c 7a3d 7033 043e 533b a73d
00000180: b09c 26bd 925b 6fbe 3fd6 b9bd e827 013e
00000190: 6cdf 42be 43ee 543e d494 88bb c69b b83c
000001a0: 6826 d33e a634 2d3d e543 2d3e a8fe a33e
000001b0: 7bd7 833e 2de9 fd3d 22d2 14bd 6ec6 963e
000001c0: 6e3e 453e ae96 e6bd d75c 073e 88a0 313e
000001d0: adf5 923e 6724 f43d 44d9 4cbd b75e b5be
000001e0: d4e5 33bd 697c a43d 205a afbe 04b0 143d
000001f0: b4d3 0c3c e770 363d af36 993e 4716 4b3e
00000200: 9675 0b3e 62c1 8d3d ea51 24bd 9b38 58bd
00000210: b41e 033e 14fa 1f3c 956c 98bd 8f61 ccbd
00000220: bacf a9be 6c67 a6bd 84f7 813d 7871 353e
00000230: 8dad 20be a342 d53d d52b 4b3d fa86 c3bd
00000240: 7a60 82be 0910 933b 08d3 943e 40b4 77bd
00000250: f35e 77be 92e7 ec3d 45f3 d1bd f857 143e
00000260: 8ba5 8b3d 73c6 3c3e ef84 ba3d fb0a 39be
00000270: e17f 613d 38c5 89bd a957 c5be 086a 893d
00000280: 0823 4a3b a1bc f4bd e4c4 0dbe 49d8 843b
00000290: 31d2 6bbc 75de 00be 39c0 993e ed86 5cbe
000002a0: cb70 27bc 645f 4c3e f1e7 b3bd 23a4 903d
000002b0: 5623 163d b6f5 efbe 831d 96be 5690 34ba
000002c0: 3992 04bf 21f8 c83d e44b e33d 371c 683d
000002d0: f975 e5bd f7bc 143e 6da0 d5bd 101c 1e3d
000002e0: 8344 8c3d 50be 66be e66f d1bd 9ba5 cb3d
000002f0: fa94 dc3d 853d 943e d10f 153d 9bb1 ac3d
00000300: bc72 263a 5c12 d33d 613e adbd 2dcc 2ebd
00000310: 82b4 6e3d f1b4 24be 9b84 a8be c61f febd
00000320: 1bce 18be 20a7 083b 57b9 703d aa50 c4be
00000330: 1f50 fe3c d7b8 14bf 70c4 be3c fd3e a8bc
00000340: 65ec bc3c a0af 4ebd 4777 8fbd 29c0 bcbd
00000350: 2e11 3b3d 8bac 0c3e 0b7a 6cbd dc6d 303c
00000360: 7494 e73c 9721 473e ee14 2cbe 4b81 9fbe
00000370: 2770 19bc 1839 013e 7305 26be 8c88 243e
00000380: 3629 8c3c 0047 743d b70c 72be 7304 453e
00000390: 202b f4bd 265a 8ebb ceb3 0dbd c196 a23c
000003a0: e450 da3c 200d f23c 7669 823d 5272 18bc
000003b0: 9a5e bd3c 6a89 803e 7adb b3bd 7bc0 dfbd
000003c0: 774c 67bc aaf9 50bd dd0f 04bf 871a 763d
000003d0: 5d51 a53d d5cb 06bc f40c 593e cf13 443e
000003e0: 16c6 39be 5d71 2d3e 757b 3c3e 503d dd3d
000003f0: 9416 18be 28f1 9d3c 9e47 c0be 2807 1b3e

network_body._body_endoder.seq_layers.0.bias f4 [256]
0.052250355 -0.04607313 0.039437782 0.076865576 0.04967869 -0.034807924 -0.049536668 -0.05775968
0.021309039 0.027546527 -0.027214162 0.044218894 -0.026524473 0.06653315 0.02309114 0.027929975
0.10197255 -0.03409693 -0.037641335 -0.053858273 -0.011834016 -0.036973763 0.07169189 -0.06649472
-0.002670382 0.068372 -0.021978004 -0.01001314 0.0105624115 0.026392575 -0.010948436 -0.03562174
-0.054074965 0.006011987 0.004495376 0.07794685 -0.009772097 -0.008054435 0.08417017 -0.033631388
0.019351654 0.022727843 -0.057001203 0.0049536466 -0.01925781 0.002300689 0.03426866 -0.046377692
-0.03677548 0.033883683 0.010023779 -0.033477966 0.08753432 0.07652445 0.062298562 0.025505045
0.0051388587 -0.032895736 -0.01364322 0.04014337 0.12669875 0.10831518 0.029157825 -0.021946706
-0.026295755 0.085840076 -0.07753211 -0.014808381 0.039406076 0.061952252 -0.020334238 -0.010159126
0.024523286 0.07691143 0.042278353 0.091954805 -0.047775418 0.04123513 0.032022633 -0.0038217376
0.025780255 -0.016843922 0.021447089 -0.0029961048 0.09688907 -0.039721515 -0.015669301 -0.07735609
0.046833847 -0.004011569 0.024212727 0.050189752 0.026719503 0.008274905 0.042762555 0.05901445
-0.002623118 -0.015071567 0.019909453 0.13964702 -0.00012904525 0.01588222 -0.010289488 0.037564434
0.049447734 -0.029459001 0.018509595 0.016083313 -0.003395808 -0.0040681884 0.060936745 -0.07047174
0.051874172 -0.0066655814 -0.03655917 -0.062426403 -0.024174768 0.018275322 -0.020036934 0.057706103
0.0597983 0.033060376 -0.05067356 0.0052833725 0.03837661 0.010351232 -0.03014009 0.060324468
-0.012501677 -0.05853708 -0.014289344 0.03960075 -0.051112417 0.030857649 0.010204708 0.005997224
-0.018293612 0.035191894 0.0057750517 0.047797292 0.034416843 0.01419815 0.033150297 -0.045881968
0.0032422836 0.093402095 0.08857905 0.018990314 -0.058966856 0.02870226 0.014045794 0.01526722
0.062657885 0.021971233 0.0027517274 -0.049090322 -0.0049605435 -0.011602781 0.041544516 0.05218396
-0.011462634 0.066612266 0.06894044 -0.02017326 0.06567201 -0.023924854 0.026414825 0.04578314
0.01527805 0.0019157382 -0.06493206 0.010295526 0.028396802 0.033923194 -0.04652988 -0.070109256
0.022821352 0.056302667 0.01222516 -0.047768258 -0.031480726 0.06919027 0.0868382 0.060783565
-0.023304444 0.048251446 0.053812753 -0.058953248 -0.035672482 0.08594647 0.027951846 0.04563925
-0.07517804 0.01884272 -0.028375011 -0.01575925 -0.026414467 0.008555565 0.0174546 0.019403866
0.014939435 0.0063463175 0.052272048 0.06265715 0.097648844 0.029596152 0.0040495745 -0.0028044118
-0.020565545 0.051127158 0.018767899 -0.032061014 0.07183584 0.059811644 0.035503924 0.049254075
-0.051348846 0.029669242 0.035672 -0.011793606 -0.017882599 -0.050001826 -0.033011682 0.012593298
0.07385957 0.039191872 0.0067622764 -0.063140824 -0.033422645 0.052802313 -0.04093187 0.014294619
0.087757155 0.040338498 0.114369586 0.0066265045 -0.046977106 -0.03853658 0.060685333 0.031266097
0.016930774 0.049095605 -0.023037348 -0.084689 0.07464627 -0.008623571 0.04530585 -0.034575846
-0.017493442 -0.00064640434 0.031521708 -0.013453292 -0.046796538 -0.023171782 -0.078970045 -0.006009854
00000000: 7804 563d 2eb7 3cbd 8389 213d b36b 9d3d
00000010: e27b 4b3d c192 0ebd f6e6 4abd 6a95 6cbd
00000020: 4b90 ae3c 41a9 e13c 3cf0 debc df1e 353d
00000030: da49 d9bc 8842 883d a129 bd3c 67cd e43c
00000040: fcd6 d03d 39a9 0bbd cd2d 1abd 7e9a 5cbd
00000050: 76e3 41bc cd71 17bd 33d3 923d 622e 88bd
00000060: 9301 2fbb 9e06 8c3d 370b b4bc 270e 24bc
00000070: f70d 2d3c 3e35 d83c 1261 33bc 1ae8 11bd
00000080: b67d 5dbd 3400 c53b f24d 933b 99a2 9f3d
00000090: 251b 20bc c0f6 03bc 6961 ac3d 11c1 09bd
000000a0: 5c87 9e3c be2f ba3c 187a 69bd 3352 a23b
000000b0: 8ec2 9dbc 28c7 163b 4b5d 0c3d 89f6 3dbd
000000c0: e3a1 16bd 9ec9 0a3d c73a 243c 3120 09bd
000000d0: 3245 b33d dab8 9c3d c72c 7f3d f5ef d03c
000000e0: df63 a83b aebd 06bd d087 5fbc 606d 243d
000000f0: 51bd 013e 59d4 dd3d 64dc ee3c 94c9 b3bc
00000100: 326a d7bc eccc af3d 28c9 9ebd da9e 72bc
00000110: 4468 213d a5c1 7d3d fd93 a6bc 7672 26bc
00000120: 0fe5 c83c bd83 9d3d 112c 2d3d cd52 bc3d
00000130: 28b0 43bd 2be6 283d 2a2a 033d 1e76 7abb
00000140: 1d31 d33c 44fc 89bc ceb1 af3c 4c5a 44bb
00000150: c76d c63d 07b3 22bd e85c 80bc df6c 9ebd
00000160: d9d4 3f3d 7b73 83bb c559 c63c c593 4d3d
00000170: dce2 da3c 7893 073c ca27 2f3d 23b9 713d
00000180: 9ee8 2bbb bcee 76bc 2619 a33c a1ff 0e3e
00000190: 5250 07b9 6e1b 823c 3e95 28bc 2add 193d
000001a0: b589 4a3d 0154 f1bc 6fa1 973c 27c1 833c
000001b0: 348c 5ebb 704e 85bb cf98 793d 7d53 90bd
000001c0: 037a 543d f36a dabb 11bf 15bd d4b2 7fbd
000001d0: 2a0a c6bc 21b6 953c 7f24 a4bc 3c5d 6c3d
000001e0: 10ef 743d 516a 073d 148f 4fbd 2420 ad3b
000001f0: cb30 1d3d 3798 293c 5ae8 f6bc ca16 773d
00000200: d5d3 4cbc 94c4 6fbd da1d 6abc 6534 223d
00000210: 415b 51bd 2ec9 fc3c a631 273c 5c84 c43b
00000220: 7cdc 95bc 6025 103d a53c bd3b 18c7 433d
00000230: adf8 0c3d 5b9f 683c 9bc8 073d bbee 3bbd
00000240: 7e7c 543b 9949 bf3d ef68 b53d 9391 9b3c
00000250: 3b87 71bd 0121 eb3c 5420 663c 5d23 7a3c
00000260: c752 803d 04fd b33c 5356 343b ef12 49bd
00000270: 0e8c a2bb 9719 3ebc 952a 2a3d d9be 553d
00000280: c6cd 3bbc 036c 883d a530 8d3d 6442 a5bc
00000290: 0c7f 863d 0efe c3bc e763 d83c 1a87 3b3d
000002a0: c950 7a3c 8219 fb3a 1afb 84bd 91ae 283c
000002b0: 69a0 e83c 0cf3 0a3d 1e96 3ebd 7195 8fbd
000002c0: d8f3 ba3c a09d 663d 0a4c 483c a6a8 43bd
000002d0: eff1 00bd a1b3 8d3d 3ad8 b13d 30f8 783d
000002e0: f6e8 bebc 4fa3 453d c36a 5c3d f678 71bd
000002f0: 4f1d 12bd b404 b03d 45fb e43c 39f0 3a3d
00000300: f2f6 99bd 0c5c 9a3c b672 e8bc 8b19 81bc
00000310: 2763 d8bc a42c 0c3c f3fc 8e3c dbf4 9e3c
00000320: 88c4 743c c5f4 cf3b 371b 563d 6452 803d
00000330: 1efc c73d a173 f23c 4bb2 843b 39ca 37bb
00000340: 1379 a8bc b66a 513d 23bf 993c 6952 03bd
00000350: ab1e 933d 0efd 743d 906c 113d a4be 493d
00000360: 2b53 52bd e90c f33c ce1c 123d f839 41bc
00000370: 877e 92bc b7ce 4cbd 4237 07bd 1f54 4e3c
00000380: b043 973d a887 203d 1696 dd3b fa4f 81bd
00000390: 2fe6 08bd 3d47 583d 2da8 27bd fa33 6a3c
000003a0: 06ba b33d fb39 253d 9a3a ea3d 2623 d93b
000003b0: 116b 40bd 88d8 1dbd 2f91 783d e110 003d
000003c0: 68b2 8a3c 7918 493d d2b8 bcbc 6d71 adbd
000003d0: 25e0 983d e149 0dbc a192 393d 679f 0dbd
000003e0: 684e 8fbc 7673 29ba e81c 013d 326b 5cbc
000003f0: baad 3fbd c0d2 bdbc 0cbb a1bd 4fee c4bb

network_body._body_endoder.seq_layers.2.weight f4 [256, 256]
0.086885445 -0.057764076 -0.015247386 0.18666665 -0.10072719 -0.079176314 0.1551571 -0.14033726
-0.119841374 0.14402086 -0.01505857 -0.23226522 -0.013453131 -0.16960424 0.12955934 -0.060381416
0.03058483 -0.10573933 -0.0112355435 -0.17220213 -0.09632339 -0.088372655 -0.020517671 0.05973062
-0.075943984 -0.063254066 0.032517683 0.07146323 0.04891731 0.058848295 -0.14936699 -0.30160007
0.16814612 0.11854974 0.07112395 -0.07571348 -0.06867104 -0.021834321 0.12943922 -0.033082683
0.07725427 -0.06060775 -0.09480456 -0.09110133 -0.06617838 0.14481887 -0.10795286 -0.03252309
0.10147597 -0.022477048 0.10674857 -0.080581516 -0.020363875 0.0072160917 0.07845352 -0.057541516
-0.019261703 0.20125228 -0.0769409 -0.08498942 0.1605885 -0.025656482 0.15544918 -0.11765707
0.00069993513 0.07927304 -0.014371639 0.1875915 0.17082098 0.06940127 0.07978116 0.047812372
-0.058686785 -0.051149372 0.13087079 0.07346903 0.15471579 -0.108765766 -0.23858139 0.057960276
-0.21521176 0.04858741 0.123642415 -0.118678525 0.047755428 -0.03164022 -0.08852141 -0.012357632
0.123573914 0.02443895 -0.08412296 0.041484304 -0.13379593 -0.053921226 0.014921706 0.16038434
0.062386483 0.060215537 0.1530399 0.23955813 -0.024838725 0.15584518 -0.14045957 -0.018706473
0.037056603 0.11604963 0.11693137 -0.110358454 -0.008932948 -0.074075505 0.036961257 -0.07860688
0.05287101 0.0922173 0.20694107 0.053021844 -0.11323981 0.053798657 0.18355814 0.21774127
-0.15597413 0.23408604 0.14301467 -0.025415288 -0.15003231 -0.0306575 -0.18739416 -0.171024
0.13313456 0.15612845 0.0076178475 -0.10654412 -0.0075378725 -0.021866413 -0.0622606 0.015126271
-0.12557672 0.15957943 0.054846138 0.2572829 -0.046508696 -0.019401373 0.030189736 -0.057039868
-0.060920898 -0.031562634 -0.009259522 -0.20840108 0.009629093 -0.030703193 -0.09432857 0.10095631
-0.10764579 -0.32297987 -0.035130255 -0.06262149 -0.11262623 0.034694925 0.049910747 -0.00872141
-0.12572329 0.08785766 -0.04094081 0.01298917 0.30235615 -0.11657635 -0.02463315 -0.085935086
0.10557482 -0.02299775 -0.015542089 -0.038970027 0.10807302 0.034041997 0.20080487 0.073408276
-0.0011990368 0.039146725 -0.08744439 0.05292958 -0.09725918 -0.1940361 0.011791543 0.009815991
-0.07887265 0.27732918 0.01064941 0.01525558 0.011950373 -0.010072896 0.103847645 -0.08907044
-0.013592714 -0.028121654 0.13534397 0.033395056 -0.09720326 -0.42085803 -0.04181092 0.1668425
0.16612683 0.017454794 0.1485551 0.1904597 -0.12863399 -0.14129765 -0.1675115 0.054640733
-0.12614024 -0.07589604 -0.018424744 -0.026888063 -0.08246035 -0.011146948 -0.1980777 -0.043786075
-0.037189517 -0.1859319 0.013288928 0.18857703 -0.26136228 0.065464504 0.025567723 0.18663806
0.069659665 0.056543507 -0.18829149 -0.045623098 -0.22233872 0.04342425 0.08551252 -0.32780808
0.025204292 -0.015879553 0.020507948 -0.21140021 -0.053311188 -0.14065182 -0.09385653 -0.016370945
0.011356371 -0.106727175 -0.10692207 0.028170072 0.08616928 0.016776145 0.16947763 -0.051081367
-0.13360342 -0.07412894 -0.03899698 0.08600707 -0.10713588 -0.019841308 -0.10614287 -0.16601735
00000000: fff0 b13d 069a 6cbd 2cd0 79bc 8b25 3f3e
00000010: 0f4a cebd 3127 a2bd 81e1 1e3e 92b4 0fbe
00000020: 656f f5bd 347a 133e 38b8 76bc efd6 6dbe
00000030: 856a 5cbc bcac 2dbe 34ab 043e 8152 77bd
00000040: 0a8d fa3c dd8d d8bd 4915 38bc c155 30be
00000050: 3345 c5bd b9fc b4bd ad14 a8bc 18a8 743d
00000060: 8588 9bbd 598b 81bd 4331 053d 505b 923d
00000070: 845d 483d e90a 713d a9f3 18be 536b 9abe
00000080: 7f2e 2c3e 35ca f23d 6fa9 913d ab0f 9bbd
00000090: 67a3 8cbd e4dd b2bc b78b 043e b581 07bd
000000a0: 7d37 9e3d d53f 78bd e528 c2bd 5693 babd
000000b0: 8888 87bd 664b 143e 6416 ddbd ee36 05bd
000000c0: a2d2 cf3d c921 b8bc ff9e da3d ec07 a5bd
000000d0: 24d2 a6bc f774 ec3b 3dac a03d a7b0 6bbd
000000e0: b8ca 9dbc 1415 4e3e 3193 9dbd ef0e aebd
000000f0: 5071 243e 8b2d d2bc 122e 1f3e 31f6 f0bd
00000100: da7b 373a e759 a23d 0677 6bbc fc17 403e
00000110: b2eb 2e3e 4122 8e3d 4e64 a33d e8d6 433d
00000120: 8e61 70bd 0182 51bd fe02 063e ee76 963d
00000130: d16d 1e3e 96c0 debd ae4e 74be c167 6d3d
00000140: 7960 5cbe 9803 473d 3c38 fd3d ba0d f3bd
00000150: 329b 433d 2d99 01bd b74a b5bd aa77 4abc
00000160: 5214 fd3d 3134 c83c a948 acbd 72eb 293d
00000170: cd01 09be 81dc 5cbd 2c7a 743c cb3b 243e
00000180: f888 7f3d 91a4 763d 7eb6 1c3e ba4e 753e
00000190: 957a cbbc e195 1f3e a2d4 0fbe 513e 99bc
000001a0: aac8 173d 6eab ed3d b779 ef3d 9d03 e2bd
000001b0: 805b 12bc e6b4 97bd b064 173d a5fc a0bd
000001c0: 468f 583d 6cdc bc3d 5ce8 533e 6f2d 593d
000001d0: 46ea e7bd fb5b 5c3d aaf6 3b3e 91f7 5e3e
000001e0: afb7 1fbe 40b4 6f3e 7072 123e b933 d0bc
000001f0: 12a2 19be 7025 fbbc 41e4 3fbe ea20 2fbe
00000200: 6d54 083e 23e0 1f3e 239f f93b ce33 dabd
00000210: 4200 f7bb 3121 b3bc f904 7fbd 2ed4 773c
00000220: 2f97 00be ca68 233e 58a6 603d 96ba 833e
00000230: e77f 3ebd a1ef 9ebc 7750 f73c a3a2 69bd
00000240: 3188 79bd d247 01bd 40b5 17bc 1867 55be
00000250: 58c3 1d3c 4385 fbbc 562f c1bd 2fc2 ce3d
00000260: 6575 dcbd 9e5d a5be bee4 0fbd b23f 80bd
00000270: 95a8 e6bd 441c 0e3d 366f 4c3d 3fe4 0ebc
00000280: 9bbd 00be b8ee b33d 8db1 27bd 87d0 543c
00000290: 6dce 9a3e 95bf eebd 76cb c9bc bcfe afbd
000002a0: 9c37 d83d c765 bcbc 3fa4 7ebc 099f 1fbd
000002b0: 6355 dd3d 9f6f 0b3d cb9f 4d3e 1457 963d
000002c0: 0029 9dba 5158 203d 0b16 b3bd b0cc 583d
000002d0: d22f c7bd 66b1 46be 5131 413c 40d3 203c
000002e0: fc87 a1bd 17fe 8d3e dd7a 2e3c 8af2 793c
000002f0: 7fcb 433c ca08 25bc 13ae d43d 906a b6bd
00000300: fab3 5ebc 625f e6bc 9c97 0a3e 41c9 083d
00000310: 8112 c7bd b47a d7be ed41 2bbd c3d8 2a3e
00000320: 271d 2a3e 5bfd 8e3c d41e 183e de07 433e
00000330: a1b8 03be 55b0 10be 2288 2bbe f6ce 5f3d
00000340: e82a 01be 626f 9bbd 7def 96bc 5b44 dcbc
00000350: f9e0 a8bd b0a1 36bc e1d4 4abe 0759 33bd
00000360: 0954 18bd ef64 3ebe ceb9 593c 561a 413e
00000370: 47d1 85be 4112 863d 6773 d13c 0c1e 3f3e
00000380: baa9 8e3d 2a9a 673d 7ccf 40be 49df 3abd
00000390: c3ac 63be a0dd 313d 3021 af3d 76d6 a7be
000003a0: 3b79 ce3c d615 82bc 4900 a83c 4c79 58be
000003b0: d55c 5abd 0807 10be da37 c0bd 5c1c 86bc
000003c0: 1310 3a3c c793 dabd f5f9 dabd ecc4 e63c
000003d0: 8579 b03d 206e 893c 8b8b 2d3e b23a 51bd
000003e0: 56cf 08be ead0 97bd 4cbb 1fbd 7a24 b03d
000003f0: 0e6a dbbd 3d8a a2bc 6f61 d9bd 7400 2abe

network_body._body_endoder.seq_layers.2.bias f4 [256]
-0.056544717 -0.05052377 -0.105424054 -0.021526886 0.0060850317 -0.05083559 -0.05096942 -0.090333425
0.018943409 0.024726259 -0.0004835267 0.007771301 -0.05205856 -0.07284433 0.007111742 -0.049823415
-0.030796127 -0.07794906 0.008228212 0.031295598 -0.13212606 -0.028548796 -0.048456058 0.03298588
-0.0063770316 0.03471187 -0.079044975 -0.050724246 0.03234461 -0.060781714 -0.027135449 -0.048946798
0.014775264 -0.06895331 0.060538966 0.01517255 -0.053681772 -0.031682137 -0.067854926 -0.020142285
-0.06952943 0.018109865 -0.05955452 -0.03393118 -0.01623863 -0.010265203 -0.09126129 -0.019773355
-0.022138728 0.025394171 0.028682357 -0.14248332 -0.058958024 -0.08144759 0.03478895 -0.052221604
-0.09090768 -0.038786963 0.06618411 -0.011252234 -0.025053807 -0.12128948 0.023914907 0.023617575
0.010608905 0.023405911 -0.030323198 -0.094702594 -0.13248509 0.019246146 -0.08026379 -0.08613718
-0.077086546 -0.05458116 -0.011417013 -0.015891608 -0.07321579 -0.049685754 -0.02709437 -0.017731968
-0.07316019 -0.04224922 -0.017260551 -0.028372135 -0.018936766 0.007634404 0.04679844 -0.004744301
-0.027685443 0.01428593 -0.024384538 -0.008080407 0.022476012 -0.05950142 -0.026661918 -0.038715124
-0.0060475864 -0.026576193 0.0029228404 -0.0612203 -0.070713274 -0.022132644 0.013425138 -0.029324478
-0.039826304 0.06032412 -0.002364535 -0.010831053 -0.0748622 -0.02682375 -0.07454448 -0.07940216
-0.024455981 -0.023113092 0.01777924 -0.040518593 -0.012619549 -0.09421137 0.051776487 -0.11764087
-0.05449737 0.017637948 -0.08529733 -0.056948163 -0.090483814 -0.002743904 -0.07913419 0.0075780065
-0.100205444 -0.06264431 -0.038302828 -0.017477723 -0.09431979 -0.0345413 -0.024067575 0.05277394
0.013544173 -0.036767602 -0.015963063 -0.1370513 0.023464536 -0.01193134 -0.114563346 -0.029897243
-0.12459351 -0.006714246 0.0002699892 -0.000304711 -0.10940844 -0.028387837 -0.0047828415 -0.048688106
-0.04088749 0.014112593 0.03835958 -0.09284924 0.055758804 -0.002908021 -0.06769341 -0.1140161
-0.04698178 -0.06713226 -0.11451519 -0.0075674145 -0.084355794 -0.070070736 -0.057075646 -0.12891956
-0.04070768 -0.027302828 0.0158267 -0.07585347 -0.103228115 0.023025602 -0.050242156 -0.014946732
-0.019751025 -0.08637542 -0.05995717 0.051367633 0.019598838 0.030360322 -0.035969447 -0.05940068
0.06560242 -0.04564984 -0.12258552 -0.10851981 0.012723326 0.027223136 -0.011704242 0.07386814
-0.003375865 -0.03532108 0.05972988 -0.023677735 0.04178737 -0.0131747285 -0.086229585 -0.08721053
0.01433868 -0.051147845 0.007148654 -0.08863542 -0.016732493 0.011051507 0.058915623 0.00296841
-0.1000082 -0.02605542 -0.07875259 0.023524005 0.020395122 -0.123110764 0.0068938974 -0.051592886
-0.013716263 -0.04934132 0.00090974855 -0.05815824 -0.0075401138 -0.011710388 -0.023198463 -0.05211202
-0.119679004 -0.083525024 -0.08246612 0.027759 -0.02246426 -0.05757059 0.031065248 -0.014776386
-0.08782103 0.00077545573 0.043378685 -0.007404868 -0.019319406 -0.036914177 -0.061008364 -0.04413814
0.011044789 -0.0582142 0.026885984 -0.11764757 -0.02582989 -0.072248556 -0.02835509 -0.043297358
-0.10950537 -0.070112124 -0.1468702 -0.040000502 -0.060129393 -0.02712303 -0.12387737 -0.026752017
00000000: 6f9b 67bd 03f2 4ebd 91e8 d7bd 2759 b0bc
00000010: f264 c73b fb38 50bd 4fc5 50bd bb00 b9bd
00000020: 352f 9b3c b98e ca3c db81 fdb9 66a6 fe3b
00000030: 5b3b 55bd 682f 95bd 9e09 e93b a313 4cbd
00000040: 2948 fcbc c2a3 9fbd 9fcf 063c d02f 003d
00000050: 0e4c 07be 2adf e9bc dc79 46bd 341c 073d
00000060: 6bf6 d0bb 092e 0e3d 55e2 a1bd 3ac4 4fbd
00000070: c87b 043d 3ff6 78bd 294b debc 707c 48bd
00000080: f313 723c 6537 8dbd b5f7 773d 4a96 783c
00000090: 6be1 5bbd 21c5 01bd 86f7 8abd 6f01 a5bc
000000a0: 7265 8ebd 245b 943c 71ef 73bd 6cfb 0abd
000000b0: e006 85bc 622f 28bc 33e7 babd bbfb a1bc
000000c0: 475c b5bc 7007 d03c 43f7 ea3c 26e7 11be
000000d0: f87d 71bd fecd a6bd dc7e 0e3d 52e6 55bd
000000e0: ce2d babd 14df 1ebd 898b 873d 4a5b 38bc
000000f0: a43d cdbc 9e66 f8bd 32e9 c33c a579 c13c
00000100: f9d0 2d3c c1bd bf3c 5b68 f8bc 6ff3 c1bd
00000110: 2caa 07be 18aa 9d3c 5861 a4bd b168 b0bd
00000120: 8ddf 9dbd 7f90 5fbd 6c0e 3bbc 1e2f 82bc
00000130: 29f2 95bd 4a83 4bbd 03f5 ddbc a242 91bc
00000140: 02d5 95bd 850d 2dbd 0066 8dbc ae6c e8bc
00000150: 4721 9bbc 062a fa3b b9af 3f3d 1576 9bbb
00000160: 95cc e2bc 890f 6a3c 15c2 c7bc af63 04bc
00000170: 9d1f b83c c3b7 73bd 186a dabc c093 1ebd
00000180: d52a c6bb 51b6 d9bc 208d 3f3b 23c2 7abd
00000190: 1fd2 90bd 854f b5bc 1cf5 5b3c e339 f0bc
000001a0: e820 23bd 6d16 773d 50f6 1abb bb74 31bc
000001b0: 5a51 99bd 7bbd dbbc c7aa 98bd 9a9d a2bd
000001c0: e957 c8bc ab57 bdbc c5a5 913c d3f6 25bd
000001d0: 3ac2 4ebc e4f1 c0bd 9513 543d b2ed f0bd
000001e0: a238 5fbd 757d 903c 5eb0 aebd 7a42 69bd
000001f0: 944f b9bd 12d3 33bb 1b11 a2bd ed50 f83b
00000200: 8338 cdbd a94b 80bd 6de3 1cbd 712d 8fbc
00000210: bc2a c1bd 2e7b 0dbd 5d29 c5bc 7d29 583d
00000220: 61e8 5d3c a099 16bd f8c4 82bc 2d57 0cbe
00000230: b338 c03c ab7b 43bc 30a0 eabd 10eb f4bc
00000240: e22a ffbd 2d03 dcbb 568d 8d39 9ec1 9fb9
00000250: 8811 e0bd 9c8d e8bc 62b9 9cbb 2e6d 47bd
00000260: a479 27bd 8138 673c ef1e 1d3d be27 bebd
00000270: 5863 643d 7f94 3ebb d8a2 8abd 4681 e9bd
00000280: f86f 40bd a37c 89bd f186 eabd 13f8 f7bb
00000290: bbc2 acbd 3f81 8fbd 27c8 69bd 7d03 04be
000002a0: 19bd 26bd 2eaa dfbc ffa6 813c 1059 9bbd
000002b0: 4369 d3bd 30a0 bc3c b8ca 4dbd 23e3 74bc
000002c0: e7cc a1bc 99e5 b0bd a695 75bd de66 523d
000002d0: be8d a03c 36b6 f83c b354 13bd 214e 73bd
000002e0: 905a 863d 54fb 3abd 1e0e fbbd a23f debd
000002f0: 7f75 503c 0e03 df3c 26c3 3fbc 2e48 973d
00000300: 9e3d 5dbb d6ac 10bd 52a7 743d cff7 c1bc
00000310: 3c29 2b3d d1da 57bc 2399 b0bd 6f9b b2bd
00000320: c8ec 6a3c 6780 51bd 423f ea3b 7d86 b5bd
00000330: 9512 89bc 6111 353c 8251 713d a889 423b
00000340: 19d1 ccbd 2d72 d5bc 0a49 a1bd 6ab5 c03c
00000350: ac13 a73c 7f21 fcbd 34e6 e13b 1053 53bd
00000360: 2dba 60bc 201a 4abd 317c 6e3a 5637 6ebd
00000370: 0f13 f7bb eddc 3fbc b40a bebc 6a73 55bd
00000380: 441a f5bd 2b0f abbd ffe3 a8bd d866 e33c
00000390: f806 b8bc 24cf 6bbd 8c7c fe3c a818 72bc
000003a0: 83db b3bd f447 4b3a d9ad 313d 89a4 f2bb
000003b0: bb43 9ebc 5233 17bd e8e3 79bd 32ca 34bd
000003c0: 34f5 343c 0372 6ebd ff3f dc3c 36f1 f0bd
000003d0: 3599 d3bc 0df7 93bd ef48 e8bc 9258 31bd
000003e0: 5a44 e0bd f296 8fbd 2465 16be 91d7 23bd
000003f0: 3d4a 76bd 1e31 debc 6bb3 fdbd 0c27 dbbc

action_model._discrete_distribution.branches.0.weight f4 [3, 256]
0.03645214 0.0855869 -0.058145974 -0.041227803 0.13043244 0.0005666588 -0.041634038 0.03839376
-0.014412725 0.09237548 -0.08541947 0.04984374 -0.104834214 -0.17966914 0.017658083 0.050206404
0.03179281 -0.033046637 0.062008608 0.14336762 0.027581524 -0.053545825 -0.042921364 0.018777205
0.08897148 -0.030743122 -0.0099209985 0.035598874 -0.002986895 -0.030673558 0.030305432 -0.06011802
0.029739173 0.04600113 -0.01101023 0.07426875 0.062048543 0.054504015 -0.0019653693 0.03666635
-0.01628379 -0.11163871 -0.11420147 0.033301987 -0.056039773 0.029697435 0.039931506 -0.084156275
0.03378291 -0.011907734 -0.018858545 -0.048078924 -0.020455321 0.018583527 0.094107516 0.07457197
0.089650184 0.037692778 0.1934175 -0.027995802 -0.063040145 -0.023839166 -0.06536272 -0.054428987
0.012588105 0.046837494 0.010340164 0.06455919 -0.029156227 -0.18559381 -0.060103644 -0.050150033
-0.10891903 -0.07314733 0.060682103 0.07486131 -0.02996493 -0.083220735 0.007455323 0.03238892
-0.0074919397 0.002443249 0.052219026 0.029490845 0.0032156745 -0.0311981 0.05948298 -0.052680142
0.0745777 0.12681898 -0.09918824 0.037502725 -0.03714973 0.05037424 -0.26810303 -0.07064653
-0.08125402 -0.054529145 0.042069934 0.025493877 -0.11117746 0.060455374 0.064966105 -0.053760827
0.059801508 -0.05023919 0.0749586 0.042627327 -0.01527705 -0.0075665507 -0.013526933 -0.04672809
0.055848524 0.045407996 0.0372612 0.023061665 -0.01858701 0.03287618 0.029762229 -0.14659958
0.08583428 0.015454439 -0.11540988 0.032701265 0.069499165 -0.06913125 0.022866504 -0.028354956
0.034039013 -0.010960062 0.039329525 -0.061494462 -0.06613748 -0.029809987 -0.035004675 0.037432253
0.05603955 -0.040661957 0.08800541 -0.040221564 0.05929782 -0.0044177314 -0.03274941 -0.13008733
-0.11411866 0.04646818 -0.0672798 -0.035923548 -0.10330868 0.051842637 0.052538708 0.001536377
-0.02132677 -0.08287589 0.10011636 0.05157359 0.07262121 -0.019038642 -0.012196137 -0.06389748
-0.026192794 -0.009265228 -0.03492164 -0.025111591 0.08034647 -0.018127695 9.127316e-05 0.04315555
0.06947109 -0.0014108154 0.07329981 -0.021368066 -0.08898892 0.037260856 -0.045237675 -0.10842387
0.019128771 -0.04925286 0.01556052 -0.017542016 0.0754671 -0.023005167 -0.082371354 -0.06000634
-0.034143798 0.0657234 -0.0558414 -0.030334251 0.07403653 -0.033950236 0.09855225 -0.008791066
-0.10815497 -0.043067068 0.15312466 -0.067956395 -0.014712913 -0.08285829 -0.0958302 -0.028475901
-0.007457048 -0.009220728 0.07541784 -0.02965175 0.03249472 0.20488438 -0.009122397 0.056446966
0.0013707848 -0.008455738 -0.06359785 0.03732239 -0.01369571 0.04370527 0.06863808 -0.043765955
0.082393624 0.06774671 0.085561 -0.03868107 0.04241645 -0.0036913657 -0.01459597 0.108782
0.052912924 -0.08471519 -0.00618289 -0.041741353 0.06911952 -0.04465032 0.0076312097 -0.042032875
-0.041778494 -0.0041048327 -0.00943197 -0.069662414 0.01451208 -0.06784115 -0.046982452 0.019721488
-0.062406454 0.058219124 0.13973378 -0.0027655042 0.09159063 0.05654667 -0.027010841 -0.041034408
-0.11650389 0.112880036 -0.08391502 -0.07658653 -0.032551557 0.09725692 -0.07023634 0.1032844
00000000: d74e 153d 2f48 af3d 792a 6ebd 7cde 28bd
00000010: 1590 053e d48b 143a 7488 2abd c642 1d3d
00000020: 5a23 6cbc 5b2f bd3d 67f0 aebd f328 4c3d
00000030: 52b3 d6bd 30fb 37be afa7 903c 3ba5 4d3d
00000040: 2d39 023d e95b 07bd bdfc 7d3d f6ce 123e
00000050: a6f2 e13c de52 5bbd 50ce 2fbd a7d2 993c
00000060: ae36 b63d 00d9 fbbc af8b 22bc 20d0 113d
00000070: c8bf 43bb 1d47 fbbc 1943 f83c 503e 76bd
00000080: 919f f33c ae6b 3c3d 4064 34bc 371a 983d
00000090: 9d26 7e3d 9a3f 5f3d 6dcd 00bb 742f 163d
000000a0: 9565 85bc d6a2 e4bd 76e2 e9bd aa67 083d
000000b0: f689 65bd 0948 f33c 388f 233d 205a acbd
000000c0: f35f 0a3d a818 43bc 3c7d 9abc 68ee 44bd
000000d0: eb91 a7bc 7b3c 983c 71bb c03d 30b9 983d
000000e0: 849a b73d be63 1a3d 3d0f 463e 7457 e5bc
000000f0: 311b 81bd 5b4a c3bc e4dc 85bd eef0 5ebd
00000100: 573e 4e3c acd8 3f3d cb69 293c 9c37 843d
00000110: 0ad9 eebc 4e0c 3ebe 3d2f 76bd 1f6a 4dbd
00000120: f110 dfbd 44ce 95bd cc8d 783d e350 993d
00000130: 0379 f5bc a26f aabd c84b f43b 3faa 043d
00000140: f27e f5bb eb1e 203b 9ee3 553d c996 f13c
00000150: 11be 523b 2893 ffbc 6da4 733d 22c7 57bd
00000160: 31bc 983d d6dc 013e 3423 cbbd 759c 193d
00000170: 512a 18bd 3855 4e3d cd44 89be 21af 90bd
00000180: 8268 a6bd f459 5fbd 8651 2c3d 89d8 d03c
00000190: 02b1 e3bd 0ea0 773d f30c 853d 5034 5cbd
000001a0: 6df2 743d 9cc7 4dbd e583 993d fe99 2e3d
000001b0: 984c 7abc d4f0 f7bb 12a0 5dbc f465 3fbd
000001c0: 6cc1 643d bcfd 393d 339f 183d d1eb bc3c
000001d0: c943 98bc 2ca9 063d ebcf f33c 331e 16be
000001e0: e2c9 af3d 9e34 7d3c 045c ecbd c3f1 053d
000001f0: 9455 8e3d af94 8dbd 8952 bb3c a748 e8bc
00000200: 7e6c 0b3d d591 33bc ff17 213d 9ee1 7bbd
00000210: 1673 87bd 1334 f4bc 1061 0fbd 9052 193d
00000220: ba89 653d 278d 26bd 2e3c b43d 5ebf 24bd
00000230: 45e2 723d 9ec2 90bb 3f24 06bd 9d35 05be
00000240: 0bb7 e9bd 6b55 3e3d fec9 89bd 9224 13bd
00000250: 8093 d3bd f258 543d d432 573d 4260 c93a
00000260: 7ab5 aebc d6ba a9bd ce09 cd3d d43e 533d
00000270: 6eba 943d edf6 9bbc 4ed2 47bc afdc 82bd
00000280: 4592 d6bc 2fcd 17bc fe09 0fbd d3b6 cdbc
00000290: b18c a43d 8880 94bc e869 bf38 e0c3 303d
000002a0: dc46 8e3d 1ceb b8ba 361e 963d 150c afbc
000002b0: d33f b6bd d79e 183d 244b 39bd 550d debd
000002c0: f1b3 9c3c 5ebd 49bd 8df1 7e3c 46b4 8fbc
000002d0: 7f8e 9a3d 5575 bcbc 50b2 a8bd 35c9 75bd
000002e0: 5eda 0bbd fd99 863d f4b9 64bd 897f f8bc
000002f0: 77a0 973d 670f 0bbd c3d5 c93d 6708 10bc
00000300: 5a80 ddbd 1867 30bd b6cc 1c3e b92c 8bbd
00000310: 6e0e 71bc 9bb1 a9bd a042 c4bd 4b46 e9bc
00000320: 415a f4bb 8912 17bc ab74 9a3d 3ae8 f2bc
00000330: 2f19 053d 36cd 513e 1b76 15bc ef34 673d
00000340: e8ab b33a f089 0abc 973f 82bd 5ddf 183d
00000350: f963 60bc 4c04 333d 1f92 8c3d ee43 33bd
00000360: fdbd a83d c9be 8a3d 9b3a af3d 0b70 1ebd
00000370: dfbc 2d3d d7ea 71bb ef23 6fbc 19c9 de3d
00000380: 39bb 583d 287f adbd d799 cabb fbf8 2abd
00000390: 898e 8d3d 41e3 36bd 3a0f fa3b aa2a 2cbd
000003a0: ed1f 2bbd d581 86bb 8d88 1abc 2bab 8ebd
000003b0: 13c4 6d3c 4df0 8abd ac70 40bd f58e a13c
000003c0: e99d 7fbd 2d77 6e3d 5f16 0f3e 763d 35bb
000003d0: de93 bb3d 7b9d 673d d745 ddbc b213 28bd
000003e0: 9799 eebd a62d e73d a3db abbd 66d9 9cbd
000003f0: c854 05bd a32e c73d 12d8 8fbd c686 d33d

action_model._discrete_distribution.branches.0.bias f4 [3]
0.13159238 -0.05947355 -0.098024994
00000000: 27c0 063e 8a9a 73bd 54c1 c8bd

action_model._discrete_distribution.branches.1.weight f4 [3, 256]
-0.016734987 0.023431508 0.043855894 -0.020178014 0.054706503 -0.0060673133 0.0682664 -0.09003749
-0.05265459 -0.027035996 -0.04648296 0.07213572 0.031939883 0.044324804 0.018377919 -0.024650855
-0.058190066 0.047844417 0.031514034 0.0515394 0.085459635 -0.02562174 -0.11118062 -0.010065857
-0.010281612 -0.018072443 0.015039462 0.047879457 0.009092234 0.030601434 0.03766501 0.018434457
0.0094743585 -0.028445423 0.040413495 0.002052463 0.043483887 0.037748802 -0.0060995016 0.045066915
0.009622932 0.05740869 -0.008533117 0.032070093 -0.054497838 0.025244305 -0.012808307 0.10206314
-0.04742863 -0.009408037 0.060407404 0.028036468 -0.06399419 0.04381195 0.06663404 0.009181326
-0.045999244 0.020160198 0.047632698 0.10596047 -0.033080366 0.004539208 -0.06749837 -0.0003132473
-0.013485998 -0.017567325 -0.20673732 0.027288014 0.019049438 0.018437983 0.054381378 0.06543594
0.044379927 0.0581157 0.00015160319 -0.05315533 0.015173712 0.05178108 0.12658942 -0.06911168
0.041449063 0.0058414475 0.03765754 0.049996786 -0.007555887 0.02237734 -0.023998216 -0.17740728
-0.023369005 -0.04315782 0.06826581 -0.07672016 0.090563886 0.036987774 0.022224618 0.102931306
0.034440428 0.10382602 0.021038597 0.051403858 -0.027985524 0.021524845 0.014920432 0.11374902
0.08203038 -0.038390804 -0.08898552 -0.04709413 0.018289508 -0.07728374 0.03870871 0.016601415
0.0057070525 0.082135595 0.00043320926 0.019904643 -0.033938374 -0.00048854866 0.036864266 0.028236972
-0.01238896 0.029452145 0.008849714 -0.020041578 0.037491683 0.13676023 0.010115559 -0.07353062
0.06002471 0.025161326 -0.019812355 0.032091726 0.048015043 -0.06886931 -0.015475821 0.031087095
-0.007491078 -0.043356158 -0.00814523 0.0056012953 0.011955703 0.02607114 0.029636722 0.04814608
0.0059801424 -0.025672695 0.04929942 0.046959683 0.0062648654 0.03862639 -0.030142566 0.003608599
0.043268822 0.0148118725 0.039862484 0.0077317967 0.032887954 -0.03500115 0.031942055 0.0020406162
-0.04977814 -0.031093435 0.021700995 0.056253362 -0.0076821493 0.044794228 0.089779064 0.023089333
-0.055299412 0.008054005 0.0028619529 0.03225993 0.059937384 -0.09204383 -0.08833753 0.12956336
0.021199634 -0.013852029 0.04420129 0.01419335 -0.0997496 -0.025714843 -0.051251315 0.0011613094
-0.00551761 0.016929407 0.08605284 0.022987353 0.07160601 -0.105937414 0.10835066 0.042880084
0.071315475 -0.05781637 0.054557078 -0.055680405 -0.025904609 0.0018991017 0.07965838 0.048103422
-0.036501378 0.014538416 -0.03057259 -0.030052766 0.047102686 0.0356367 0.01336729 -0.049002826
0.023374608 -0.0012317372 0.08386304 0.0007842008 -0.0050415727 -0.011612789 0.0072582485 0.08106013
-0.023103543 0.073335774 0.091498956 -0.06990557 0.009230964 0.023283955 0.034406446 -0.0510671
-0.06290075 0.0043785595 0.006903173 -0.016897762 0.028038986 0.022003947 0.061194353 0.023695933
0.081341766 0.07525179 0.0012047222 0.039718617 0.05290314 0.06067705 -0.035454407 -0.020369556
0.05545922 0.03149487 0.003620737 -0.018418603 -0.035103187 0.080966264 0.09559641 0.052718434
0.10513177 0.058783773 -0.027314855 0.10831384 0.061102886 0.05817465 0.0639704 -0.005964943
00000000: d017 89bc 6ff3 bf3c 3da2 333d 5d4c a5bc
00000010: ed13 603d 50d0 c6bb 41cf 8b3d 9365 b8bd
00000020: 57ac 57bd 987a ddbc eb64 3ebd e4bb 933d
00000030: 65d3 023d ed8d 353d 4a8d 963c 97f0 c9bc
00000040: b558 6ebd 82f8 433d dc14 013d fa1a 533d
00000050: 7605 af3d afe4 d1bc aab2 e3bd 44eb 24bc
00000060: 3574 28bc a90c 94bc 1368 763c 401d 443d
00000070: 98f7 143c dcaf fa3c a046 1a3d dc03 973c
00000080: 573a 1b3c 6006 e9bc 9f88 253d 9d82 063b
00000090: 291c 323d 7d9e 1a3d 54de c7bb 1698 383d
000000a0: 81a9 1d3c 6025 6b3d 7dce 0bbc ee5b 033d
000000b0: 2039 5fbd 25cd ce3c efd9 51bc 7b06 d13d
000000c0: 8644 42bd 2b24 1abc c16d 773d bcac e53c
000000d0: 630f 83bd 2974 333d 6d77 883d 466d 163c
000000e0: b469 3cbd 0027 a53c 811a 433d ce01 d93d
000000f0: 477f 07bd a3bd 943b 963c 8abd 573b a4b9
00000100: 60f4 5cbc 5ae9 8fbc f3b2 53be 1d8b df3c
00000110: 910d 9c3c 410b 973c 02bf 5e3d 4703 863d
00000120: bac7 353d ba0a 6e3d acf7 1e39 67b9 59bd
00000130: 299b 783c 6618 543d a8a0 013e 6d8a 8dbd
00000140: 7ec6 293d 9d69 bf3b cb3e 1a3d 6ec9 4c3d
00000150: 6097 f7bb af50 b73c e897 c4bc 41aa 35be
00000160: 5b70 bfbc 41c6 30bd f2ce 8b3d 761f 9dbd
00000170: 8f79 b93d 7e80 173d 6710 b63c a6cd d23d
00000180: 6811 0d3d bda2 d43d 2359 ac3c da8c 523d
00000190: e641 e5bc df54 b03c d474 743c 3ff5 e83d
000001a0: 8bff a73d ad3f 1dbd 0a3e b6bd c6e5 40bd
000001b0: e1d3 953c f046 9ebd 068d 1e3d b1ff 873c
000001c0: 3a02 bb3b b536 a83d 5d20 e339 100f a33c
000001d0: f702 0bbd f211 00ba fcfe 163d 3951 e73c
000001e0: 11fb 4abc a045 f13c 64fe 103c 3c2e a4bc
000001f0: e190 193d e00a 0c3e bbbb 253c 3997 96bd
00000200: 78dc 753d 201f ce3c 854d a2bc 9d72 033d
00000210: 6cab 443d 5a0b 8dbd 4c8e 7dbc 5daa fe3c
00000220: b877 f5bb 3a96 31bd 9273 05bc 128b b73b
00000230: dae1 433c 2593 d53c b6c8 f23c d334 453d
00000240: 12f5 c33b 8b4f d2bc 30ee 493d cc58 403d
00000250: 8049 cd3b b536 1e3d 8bed f6bc 3f7e 6c3b
00000260: a63a 313d 7fad 723c d846 233d 035b fd3b
00000270: 85b5 063d 5e5d 0fbd acd5 023d dcbb 053b
00000280: 2ae4 4bbd a9b7 febc 49c6 b13c ed69 663d
00000290: 8aba fbbb 277a 373d 16de b73d d725 bd3c
000002a0: a381 62bd f2f4 033c 9a8f 3b3b fd22 043d
000002b0: e780 753d 7a81 bcbd 4fea b4bd 42ac 043e
000002c0: dbaa ad3c 9ff3 62bc 690c 353d 3a8b 683c
000002d0: 8549 ccbd efa7 d2bc e6ec 51bd 1437 983a
000002e0: 11cd b4bb 8aaf 8a3c 793c b03d f94f bc3c
000002f0: 2ca6 923d b7f5 d8bd f3e6 dd3d 07a3 2f3d
00000300: d90d 923d dcd0 6cbd 3e77 5f3d 2311 64bd
00000310: e735 d4bc 47eb f83a ef23 a33d 1808 453d
00000320: 7882 15bd 8932 6e3c 5e73 fabc 3831 f6bc
00000330: bfee 403d caf7 113d 7a02 5b3c 30b7 48bd
00000340: 1b7c bf3c 3e72 a1ba 63c0 ab3d d392 4d3a
00000350: c733 a5bb 9143 3ebc 9ad6 ed3b da02 a63d
00000360: a443 bdbc 1131 963d ce63 bb3d a72a 8fbd
00000370: 783d 173c febd be3c c6ed 0c3d bc2b 51bd
00000380: 1cd2 80bd 057a 8f3b 0334 e23b 2d6d 8abc
00000390: 04b2 e53c 9f41 b43c eea6 7a3d f91d c23c
000003a0: 8396 a63d 9c1d 9a3d c5e7 9d3a fdaf 223d
000003b0: f7b0 583d 8088 783d a438 11bd 0ede a6bc
000003c0: 3529 633d c400 013d e349 6d3b 9ce2 96bc
000003d0: 5cc8 0fbd a4d1 a53d 0dc8 c33d 49ef 573d
000003e0: 534f d73d 41c7 703d 67c3 dfbc a6d3 dd3d
000003f0: 0547 7a3d 8b48 6e3d ea02 833d 9275 c3bb

action_model._discrete_distribution.branches.1.bias f4 [3]
-0.043308448 0.005343234 0.049647845
00000000: 3364 31bd 4c16 af3b 8a5b 4b3d

action_model._discrete_distribution.branches.2.weight f4 [2, 256]
0.02770737 0.083441675 -0.05177019 0.16458589 0.0069788173 -0.060860805 0.05332419 -0.0083743865
-0.011808003 0.002190368 0.0373315 -0.0085983705 -0.071706764 -0.0626111 0.22679527 -0.042399168
-0.0023072173 -0.12584314 -0.004853896 0.010199506 -0.009526423 -0.031095017 -0.20950034 0.119831614
0.049333975 0.053253446 -0.038398653 -0.03042685 0.002232527 -0.009840576 -0.1755074 0.009318487
-0.014326876 0.012177801 0.38744652 0.035342753 -0.0234205 0.1190008 -0.006412053 0.059409533
-0.034178168 0.089416005 0.0012335345 -0.010169349 0.033324927 -0.017266123 0.011196024 0.034846656
-0.1247278 0.2294204 0.054236207 -0.08102202 0.044314265 -0.12667423 0.008474925 0.067866325
0.009843576 -0.03430634 -0.0048491117 0.05852529 0.043367546 -0.085588925 0.010944061 0.016810143
0.044716462 -0.0064260215 -0.0436459 -0.06595736 -0.023644252 -0.056830663 -0.14057645 -0.14591758
0.00042663474 -0.026883243 0.010713477 -0.02596159 0.054172073 -0.0005866656 -0.083790585 -0.018006764
-0.17348608 0.057053264 0.027240291 0.0549379 -0.02997918 0.2802488 0.113166496 -0.03883193
-0.023989653 -0.01238672 -0.047657594 0.020109773 0.053501733 0.041872103 0.05443244 0.029241756
0.06576246 -0.042442303 0.028523061 -0.048746284 0.022930244 -0.06182804 0.0011195226 -0.0012860193
-0.034788836 -0.022101087 -0.04410707 -0.02853433 -0.026828937 -0.19815086 -0.17254353 -0.0050081583
-0.02912202 -0.036994815 -0.022672419 0.021364901 0.1942009 -0.07471501 0.08712982 -0.15002671
-0.10033239 0.05310956 -0.07761096 0.047671042 -0.045332666 0.04204987 0.0031944034 0.059704013
-0.06390065 -0.07570727 0.07237666 0.044994976 0.0047972915 -0.08227692 -0.09294963 0.063950054
0.0138098 0.1171273 -0.00041663856 -0.04829111 0.047441434 -0.031571288 -0.029834151 -0.056774206
-0.064441405 -0.05114291 -0.017484853 0.16709347 -0.017031867 0.022295289 -0.012303198 -0.042077743
0.028912177 0.08109742 0.038640603 -0.0348778 0.031253017 0.014549057 -0.06395612 -0.016006172
-0.09446485 0.05893492 -0.033818945 0.0810106 -0.013221454 -0.106707744 -0.05442736 -0.047193788
0.024364207 -0.00077762606 0.035582814 0.02289744 -0.051586166 -0.025713569 0.04466977 0.0012694224
-0.0026521352 -0.006508282 -0.00076059066 0.2792365 -0.0044953693 -0.00805622 0.06881916 0.033184703
0.375877 -0.004533658 -0.083076626 0.020998612 -0.004997789 0.022916062 -0.015198871 0.46242294
0.0890823 -0.156017 0.009384619 -0.04552535 0.093824305 -0.06803934 -0.11621571 0.013739863
-0.00047295648 0.020648254 -0.032302253 -0.09369257 -0.00037896074 -0.031154664 0.24206457 -0.0048907585
-0.0897572 0.058141183 -0.026251165 0.18870406 0.0063692103 0.06485188 -0.028420689 0.07621709
0.025435202 0.0062667714 0.011896324 -0.058171622 -0.030816976 0.20331159 0.007023005 0.0070280386
-0.011360585 -0.059808183 0.032046076 -0.037361354 -0.017413007 0.056218505 0.35865775 0.018145211
-0.12770127 0.016016323 0.039296765 0.045689996 0.11611887 -0.020354167 -0.047792785 -0.03037121
0.039140277 0.034526203 0.044305287 -0.08361563 -0.05608906 -0.07594482 0.0057080374 -0.021032572
-0.06960056 -0.10924949 -0.090399146 0.061056893 -0.0011425589 0.048804175 -0.050268624 -0.02713084
00000000: 91fa e23c 78e3 aa3d fb0c 54bd 3489 283e
00000010: 90ae e43b 2e49 79bd 776a 5a3d b934 09bc
00000020: 5b76 41bc 478c 0f3b eae8 183d 2ee0 0cbc
00000030: ffda 92bd 403a 80bd 053d 683e c0aa 2dbd
00000040: af34 17bb 06dd 00be 6e0d 9fbb d41b 273c
00000050: b714 1cbc faba febc 4287 56be 476a f53d
00000060: 6c12 4a3d 4920 5a3d e847 1dbd bb41 f9bc
00000070: 964f 123b 5e3a 21bc 36b8 33be 91ac 183c
00000080: 46bb 6abc 6685 473c 645f c63e 90c3 103d
00000090: 59dc bfbc b1b6 f33d 331c d2bb 6957 733d
000000a0: 68fe 0bbd bd1f b73d 8dae a13a 579d 26bc
000000b0: b87f 083d af71 8dbc 876f 373c 5ebb 0e3d
000000c0: 4a71 ffbd 2eed 6a3e c926 5e3d dfee a5bd
000000d0: e082 353d e4b6 01be 69da 0a3c 80fd 8a3d
000000e0: f346 213c ce84 0cbd 4ce5 9ebb 37b8 6f3d
000000f0: 2ba2 313d 3f49 afbd b84e 333c 6db5 893c
00000100: 9c28 373d 6091 d2bb 0bc6 32bd a714 87bd
00000110: 97b1 c1bc 45c7 68bd 46f3 0fbe 6b6b 15be
00000120: f2ad df39 3f3a dcbc 9487 2f3c 67ad d4bc
00000130: 89e3 5d3d 76ca 19ba 669a abbd ec82 93bc
00000140: 56a6 31be afb0 693d 0827 df3c 9006 613d
00000150: e696 f5bc c57c 8f3e d6c3 e73d 3b0e 1fbd
00000160: f385 c4bc abf1 4abc 9c34 43bd 40bd a43c
00000170: a224 5b3d 1582 2b3d 8df4 5e3d 688c ef3c
00000180: 78ae 863d fbd7 2dbd 32a9 e93c 2faa 47bd
00000190: 35d8 bb3c 663f 7dbd f2bc 923a a68f a8ba
000001a0: bd7e 0ebd 570d b5bc 9da9 34bd d4c0 e9bc
000001b0: 5cc8 dbbc 0fe8 4abe 40af 30be 7a1b a4bb
000001c0: 4d91 eebc e087 17bd 82bb b9bc 7205 af3c
000001d0: 9adc 463e 2f04 99bd 1e71 b23d 9aa0 19be
000001e0: 117b cdbd 6989 593d 7ff2 9ebd b642 433d
000001f0: bfae 39bd 7c3c 2c3d 3259 513b 328c 743d
00000200: 58de 82bd 6a0c 9bbd 373a 943d a74c 383d
00000210: 9932 9d3b cd80 a8bd 605c bebd 3ff8 823d
00000220: 8042 623c 70e0 ef3d 4870 dab9 e6cc 45bd
00000230: f351 423d e550 01bd c066 f4bc 128c 68bd
00000240: dbf9 83bd 3a7b 51bd 653c 8fbc 8d1a 2b3e
00000250: 6a86 8bbc 9ca4 b63c 5a93 49bc b659 2cbd
00000260: 3bd9 ec3c 6716 a63d 9c45 1e3d 06dc 0ebd
00000270: 2a03 003d 2b5f 6e3c 6dfb 82bd 601f 83bc
00000280: ca76 c1bd be65 713d bc85 0abd e3e8 a53d
00000290: cc9e 58bc 9789 dabd 39ef 5ebd 464e 41bd
000002a0: 7297 c73c 9ad9 4bba 49bf 113d 6993 bb3c
000002b0: 044c 53bd 43a5 d2bc a6f7 363d bf62 a63a
000002c0: 72cf 2dbb 6d43 d5bb 6062 47ba 16f8 8e3e
000002d0: e44d 93bb 3cfe 03bc 0ff1 8c3d afec 073d
000002e0: f372 c03e 148f 94bb 1424 aabd 4805 ac3c
000002f0: 7ec4 a3bb 77ba bb3c af04 79bc b3c2 ec3e
00000300: c870 b63d ecc2 1fbe f2c1 193c ca78 3abd
00000310: f526 c03d 3658 8bbd 8102 eebd 2a1d 613c
00000320: 25f7 f7b9 8726 a93c 5e4f 04bd e4e1 bfbd
00000330: 40af c6b9 1138 ffbc c6df 773e a842 a0bb
00000340: 9fd2 b7bd 7325 6e3d af0c d7bc a33b 413e
00000350: cfb4 d03b 10d1 843d 81d2 e8bc b517 9c3d
00000360: 7c5d d03c 7d59 cd3b cde8 423c 5e45 6ebd
00000370: e273 fcbc ea30 503e 3c21 e63b 764b e63b
00000380: bf21 3abc 6df9 74bd bf42 033d 3808 19bd
00000390: b9a5 8ebc 6045 663d fda1 b73e 44a5 943c
000003a0: 1fc4 02be aa34 833c a5f5 203d 6f25 3b3d
000003b0: bbcf ed3d c8bd a6bc 5ec2 43bd 0bcd f8bc
000003c0: 8e51 203d 596b 0d3d 7679 353d ac3e abbd
000003d0: a4bd 65bd f588 9bbd 7d0a bb3b 804c acbc
000003e0: bd8a 8ebd 32be dfbd 3023 b9bd cb16 7a3d
000003f0: eac1 95ba e3e6 473d 79e6 4dbd 7f41 debc

action_model._discrete_distribution.branches.2.bias f4 [2]
0.10037293 -0.10037278
00000000: 5390 cd3d 3e90 cdbd
