ML_stuff/results/cw_09/FindCubeWife/FindCubeWife-3999939.onnx (onnx, 352586 bytes, 11 tensors)

discrete_act_size_vector f4 [1, 3]
00000000: 0000 4040 0000 4040 0000 0040
3.0 3.0 2.0

network_body._body_endoder.seq_layers.0.weight f4 [256, 69]
00000000: 9d14 09be 4019 8c3d 9dd1 283e fb99 b73c
00000010: 344f 34bd e346 8fbc 7a4c 4ebd a9c4 bc3d
00000020: a930 2f3d e17c 98bd 6c03 b13d b3c9 3ebe
00000030: 72bc 9bbe 73c9 3b3b 3404 4dbd 3597 a3bc
00000040: 2300 963e 28a9 323e 22ce a0bd de80 70bd
00000050: 94ee db3d a301 14be b069 9dbd 5625 2e3e
00000060: 5416 663d 18ce 77be e892 983d 7ca4 f53d
00000070: 52a0 af3e 4fdc af3d 2918 3d3e dc23 b8bd
00000080: e6be aabd 3184 dd3c 0e18 0d3e 2bb6 08be
00000090: 1f10 47bd 1c78 b93c f307 06be a853 a4bc
000000a0: 426a 073e 5a48 00bf b57d 79bd 6403 863c
000000b0: fc7c 55bd 343b cdbd 26f2 bebc 518c 4abe
000000c0: a0c6 893d 0abb 8d3c a21b a23d 7ffc 2bbe
000000d0: 701f 993e 1502 e8bd af9a 163e f490 34bd
000000e0: b0bf a0bd 7ae2 08be ad52 e63d 7905 c9bd
000000f0: 1e3c 00be a441 d3bc 8123 a8be d4d4 9fbd
00000100: 69cd 3b3e 21ab 9ebd 076b 57bc 2b6b 3abe
00000110: 51a8 57be 7db1 933d 24ed 773d 6db2 03be
00000120: 0132 80be 418d ed3d a721 83ba 95cf 75be
00000130: 3782 13be 8c07 87be fa37 803e 1150 0abe
00000140: 0b04 813e abde 313e f08f 43be 2f27 8e3c
00000150: 87b6 9cbc d29a a2be f72b 573d eff7 223c
00000160: 1176 b03d c850 a2bd 1ddd b8bd d82e 993e
00000170: bc4e 4c3e fc9d 603d 35ca 023e 4599 bf3d
00000180: 0398 c9bc 90b3 65be 87b1 9fbd e652 263e
00000190: 4ad5 15be 9bda 643e aa2d 17bd b17a cf3a
000001a0: ae60 e43e ea8b 323c eb7e 213e 3147 a43e
000001b0: c3b1 5d3e a06f e23d 3d89 273c 8d62 903e
000001c0: 8cd0 3f3e 8965 c7bd 6dba be3d 0036 263e
000001d0: 6034 7f3e 3a99 fd3d e4cd 4abd 6b58 abbe
000001e0: 304c 9cbd 509a 953d 7883 9ebe 7d3c 233d
000001f0: 0e9e 0b3c 1955 903d 8cc2 9a3e 1d07 4e3e
00000200: 9e8b 273e 9479 b23d 3126 00bd 2f68 01bd
00000210: 977f ea3d b862 a43c 1dea 9dbd b16e bbbd
00000220: cb81 8abe 9e88 bdbd 30f1 903c 9a82 513e
00000230: b203 0ebe a398 003e bdfd 7a3d 5255 e3bd
00000240: 3ebe 7ebe 91c9 393d 4a15 953e be5e 6abd
00000250: 0d00 95be 9de6 253e c86d c5bd 0f57 1c3e
00000260: fd79 893d b85e 3f3e 4e4d c43d 8b60 0cbe
00000270: b8a6 243d 6dcc 78bd f5d9 bcbe a1ea 873d
00000280: 9741 463d ae6c 0abe 17f2 14be c948 a93b
00000290: 3c26 453a c645 dbbd 8c8f 943e b00b 69be
000002a0: 50e8 ebbc 48dc 623e 1842 3f3c e631 453d
000002b0: 2bf0 a43c 69d1 d8be dff4 92be 1f48 15bc
000002c0: 3928 f9be 9c13 cd3d 1c86 c93d 6341 ca3d
000002d0: 1c2b b9bd 02d8 143e 1bfd fabd 8d1f 163d
000002e0: 3e50 5e3d c70b 5ebe 819a afbd 068c c63d
000002f0: 65e9 373d e990 863e b912 833c 3cde 123e
00000300: 08f1 483c aad9 c73d 6edf a8bd f473 86bd
00000310: 0a6b 193d 38da cfbd d6d3 97be 1901 f8bd
00000320: b0b3 24be d098 2a3c ac59 823d 2f01 cabe
00000330: b616 f03c f316 03bf 541d 413d 79e0 acbc
00000340: 5c1d 943c f8e4 75bd cd29 52bd 4bdd 90bd
00000350: 8778 2c3d 7097 f23d ee68 d0bd 6294 e93c
00000360: 3e2e 4e3d 9772 4d3e 29dd f7bd e5d4 9dbe
00000370: 9962 90bc 0265 ff3d 9e57 35be 7939 4e3e
00000380: 23f5 823a 6e17 8d3d 5256 65be 1110 453e
00000390: 5865 acbd 8045 a0bc 6445 23bd 0a1e f73c
000003a0: bc0b 2f3d bcb4 513d e5d3 893d b801 1cbd
000003b0: 5d0e 8c3b 64b4 653e a907 a3bd a87d e7bd
000003c0: b174 64bb 4135 23bd e1a6 fcbe de37 373d
000003d0: b333 8f3d d33f 00bc d9c3 513e 4828 3e3e
000003e0: 040f 41be 9b6b 303e 88f9 373e b72f 873d
000003f0: 1a28 38be 3c4e 023c c29d c2be daa8 053e
-0.1338677 0.068407536 0.16486211 0.02241229 -0.044020846 -0.017489856 -0.050365902 0.092171974
0.042771015 -0.07445694 0.08643231 -0.1863163 -0.3041721 0.0028654009 -0.050052837 -0.019969562
0.2929698 0.1744734 -0.07851817 -0.058716647 0.107388645 -0.1445375 -0.07686174 0.1700643
0.056173638 -0.24199712 0.07449895 0.119942635 0.34302002 0.085869424 0.18466248 -0.08991215
-0.08337192 0.027040573 0.13778707 -0.13350742 -0.04859936 0.02264028 -0.1308897 -0.020059422
0.13224128 -0.501104 -0.0609109 0.016359039 -0.052121148 -0.10021058 -0.023308825 -0.19780089
0.06727338 0.017301101 0.07915427 -0.16795538 0.29906797 -0.11328522 0.14707445 -0.04408355
-0.078490615 -0.13367644 0.11246238 -0.09815497 -0.12522933 -0.025788136 -0.32839587 -0.078042656
0.18340077 -0.07747484 -0.013148076 -0.18204944 -0.21060301 0.072115876 0.06052889 -0.12861033
-0.2503815 0.11599208 -0.0010004536 -0.24004968 -0.14405142 -0.26372945 0.25042707 -0.13507105
0.25198397 0.17370097 -0.19097877 0.017352669 -0.019130005 -0.31758744 0.052532163 0.009946807
0.086162694 -0.07925564 -0.09026549 0.2991855 0.1995191 0.054838166 0.12772448 0.09355406
-0.024608618 -0.22431779 -0.077975325 0.1624256 -0.14632145 0.22349016 -0.036908783 0.0015829412
0.4460501 0.010897616 0.15771072 0.32085565 0.21649842 0.11056447 0.010225591 0.28200188
0.18731898 -0.09736163 0.09312902 0.16231537 0.24922323 0.12382741 -0.04951276 -0.33465895
-0.07631719 0.073048234 -0.30959678 0.039852608 0.00852157 0.07047481 0.30226552 0.20119901
0.16361853 0.087145954 -0.031286422 -0.031593498 0.11450117 0.020066604 -0.07710669 -0.09151972
-0.2705215 -0.09254573 0.017693132 0.20459977 -0.13868597 0.12558226 0.06127714 -0.11100258
-0.24877259 0.045358244 0.29117805 -0.05721926 -0.291016 0.16201253 -0.0964008 0.15267585
0.067127205 0.18688476 0.09585057 -0.13708703 0.040198058 -0.06074183 -0.36885038 0.06636549
0.048402395 -0.1351802 -0.14545475 0.0051661474 0.0007520651 -0.107066676 0.29015768 -0.22758365
-0.028797299 0.22154343 0.011673473 0.04814329 0.020134052 -0.42347267 -0.28702447 -0.009111433
-0.486635 0.10013506 0.098400325 0.09875753 -0.090414256 0.14535525 -0.12255307 0.036651183
0.054275744 -0.2168418 -0.08574391 0.09694676 0.044900317 0.26282433 0.016000139 0.14342588
0.012264498 0.09758313 -0.08245741 -0.06565085 0.037455596 -0.10149044 -0.29653805 -0.12109584
-0.1608417 0.01041241 0.0636476 -0.39454028 0.029307704 -0.5120689 0.04714711 -0.02110313
0.018080406 -0.060032815 -0.051309396 -0.07073458 0.04210713 0.11845291 -0.10176264 0.028513137
0.05033707 0.20063244 -0.1210273 -0.30826488 -0.01762514 0.124704376 -0.17709205 0.20139112
0.0009991269 0.068892345 -0.2239621 0.1924441 -0.08417767 -0.01956439 -0.039861098 0.03016569
0.0427358 0.051197752 0.06729869 -0.038087577 0.004274173 0.22432095 -0.079604454 -0.11303264
-0.0034859593 -0.03984571 -0.49346069 0.044731013 0.06992283 -0.007827717 0.20484866 0.18570054
-0.18853384 0.17228548 0.17966282 0.06600898 -0.17984048 0.007953223 -0.38010985 0.13052693

network_body._body_endoder.seq_layers.0.bias f4 [256]
00000000: e5b1 2f3d 2c8c 13bd 3ca2 fa3c 9a25 993d
00000010: 8521 343d 5c73 14bd bd74 04bd a1f6 47bd
00000020: a709 db3c ad62 0c3d 9fbd 3bbc b4be 153d
00000030: 8afe aabc dcd2 8b3d 5830 983c 16dc cb3c
00000040: 126f d53d 4665 babc 1771 10bd 9c04 6cbd
00000050: 5762 64bc b720 0dbd a723 693d b09f 83bd
00000060: ffe9 fc3a 29ea 8c3d c0c9 fcbc f3d8 d839
00000070: f7ab 873c ef82 d03c 59ed 7abb ec2b 37bd
00000080: 0f96 41bd 6e89 6b3c 5ec3 77bb f765 833d
00000090: 4e71 e73b d42a 29bc 56f2 ad3d 56ea 00bd
000000a0: 865f df3c c601 cc3c a950 3ebd 3317 0ebb
000000b0: 7351 f3bb a374 753c 7c14 e83c 7548 5ebd
000000c0: b73d 1dbd d60e 073d f23c d939 2713 2dbd
000000d0: 00c4 a63d 5ac9 9a3d 5925 873d 78b2 c23c
000000e0: e94d 733b 7f4b babc e3b4 78bc f727 0e3d
000000f0: d020 fa3d f56c d93d 1326 273d 63e7 dbbc
00000100: fc20 fabc 27f4 a13d 0d9c a7bd ecf8 d6bc
00000110: adaf 1b3d feb9 873d 3ee2 8ebc f30d 09bd
00000120: e087 ea3c dc74 a33d 08bc 3a3d 57a3 c23d
00000130: ecf9 2ebd 8242 c33c 4a16 253d 0316 0e3c
00000140: 0537 da3c 1649 aabc 3e92 033d 0e2c 203b
00000150: 4d09 8d3d fd41 33bd aae3 9bbc 186e 8ebd
00000160: 1fea 493d 339d 37bc fc5a de3b 3c20 253d
00000170: e556 503c 83ec b23b 3cf9 103d f8b2 7b3d
00000180: 8f94 cd3b a5f6 cfbc 1a18 cd3c f6ed 063e
00000190: 824e 2f3b f0ed 8f3c 9c65 393b ee8b 033d
000001a0: 93cb 553d e836 86bc 7749 723c 31d5 713c
000001b0: 0016 6a3c 99f4 28bb 63b3 643d 8749 9fbd
000001c0: 45cf 4d3d 4b7f 0bbc 6bb9 3ebd 7a65 55bd
000001d0: a403 6dbc 69e9 253c ec05 91bc 3491 453d
000001e0: 5c89 373d d621 343d c845 33bd e2d0 e63b
000001f0: d54c f53c b3dc ee3b 2da6 ccbc 59e4 713d
00000200: 1d6d 88bc 1dc1 13bd 1572 56bc a801 013d
00000210: 98be 48bd f6cf a43c 3562 b93c 74a3 973b
00000220: fb52 99bc 7863 0c3d a12d d7bb 29c4 153d
00000230: 95b4 283d 7736 f43b e10f 3d3d 07d6 43bd
00000240: 34d8 103c 4285 ad3d c0a4 a33d 2888 a43c
00000250: ce8c 60bd 3994 2c3d d088 c03c 5a22 8a3c
00000260: 5b44 6f3d 155a af3c d3a1 033c 3274 0ebd
00000270: 415d 2cbc 2f86 8cbc 37de 553d d0f4 243d
00000280: 0575 35bc e594 5c3d f961 7d3d 8c3d 3cbc
00000290: db35 523d 48bb bebc 29a9 023d 5864 523d
000002a0: 9b23 b53b 2c6d 6f3c debd 94bd c8a7 a43c
000002b0: fa63 ee3c ef23 d03c e88b 24bd 757b 55bd
000002c0: eeac d53c 01da 753d 2223 2f3c d955 3fbd
000002d0: 2e95 a6bb 7200 743d 3ee5 b43d da26 3f3d
000002e0: d1bc 0cbd e21e 133d 76ce 5a3d e81a 64bd
000002f0: be5e 40bd b470 a43d 8d8f 053d 96e1 283d
00000300: f4b2 99bd 2089 cc3c fc09 f6bb 68a1 b4bc
00000310: 3807 a5bc af2d 443b 6936 653c 1062 9c3c
00000320: ab44 003c 82e4 f3bb 4f7a 4c3d c2e0 823d
00000330: 9db8 bb3d ad8c 1c3d 1cf8 333c 887c c3bc
00000340: 933a 91bc 42a5 693d 3d46 b63c b720 2cbd
00000350: 7fdb 8c3d 19b1 563d 6925 eb3c 5db3 123d
00000360: 58f1 0cbd 56b6 bd3c 6649 0e3d 9bb6 5abc
00000370: 6b9b 52bc 02cb ecbc 7d5f e1bc eee3 65ba
00000380: 3e9c 823d 5f89 ed3c 7b1d 783c 67a4 47bd
00000390: 141e bfbc 1a69 8c3d 8088 69bc 8a9b 783c
000003a0: 5519 ad3d 0ac0 063d e6fa e73d 894e 12bc
000003b0: dc9c 53bd 3691 21bd 5260 573d 872d 023d
000003c0: 91d5 803c e5be 223d e603 d5bc be8a 5bbd
000003d0: a4d5 883d d97f 16bc b5d0 343d 161e aabc
000003e0: 66c6 85bc bd56 a7bc 4c01 013d 9dae 30bc
000003f0: c24d 1fbd f09e 89bc e66e b0bd 0de7 36bc
0.042894263 -0.03602235 0.030594938 0.07477875 0.04397728 -0.036242828 -0.032337893 -0.048819188
0.026738001 0.034273792 -0.011458783 0.03655882 -0.020873327 0.068273276 0.01857774 0.024885219
0.104215756 -0.022753369 -0.0352641 -0.057621583 -0.013939462 -0.034455027 0.056918766 -0.06426942
0.001929581 0.068806 -0.03085792 0.0004136037 0.016561491 0.025453059 -0.0038288443 -0.04471962
-0.047262248 0.0143760275 -0.0037805657 0.064159326 0.0070630675 -0.010325152 0.084934875 -0.03147348
0.027267229 0.02490319 -0.046463642 -0.0021681308 -0.007425481 0.014981422 0.02833008 -0.05426832
-0.038388934 0.032973133 0.00041434873 -0.042254593 0.08142853 0.07557936 0.065989204 0.023766741
0.0037125295 -0.022741077 -0.0151798455 0.034706082 0.1221329 0.10616485 0.040807795 -0.026843732
-0.030533306 0.079078965 -0.08184061 -0.026241742 0.038009334 0.06627272 -0.017441865 -0.03346057
0.028629243 0.079812735 0.045589477 0.09503811 -0.042718813 0.023835424 0.04030446 0.00867224
0.026637563 -0.020786803 0.03212189 0.002444032 0.068865396 -0.043764103 -0.019029457 -0.069545925
0.04929554 -0.011206913 0.0067857485 0.040313944 0.01271603 0.0054603233 0.03539394 0.061449975
0.006273813 -0.025386164 0.025035907 0.13176712 0.0026749675 0.017569512 0.0028289324 0.03211587
0.052196097 -0.016383603 0.014788023 0.014760301 0.014287472 -0.0025780557 0.05583514 -0.07777696
0.050246496 -0.008514236 -0.046563547 -0.05209873 -0.0144662 0.01012645 -0.01770302 0.04823418
0.04480873 0.04397758 -0.04376772 0.0070439437 0.029943863 0.007289493 -0.024981583 0.05905566
-0.016653592 -0.03607284 -0.013088723 0.03149572 -0.04900989 0.020118695 0.022629837 0.0046276394
-0.018716326 0.03427455 -0.0065667187 0.036564026 0.04118784 0.007452782 0.04615772 -0.047811534
0.008840609 0.084726825 0.07990408 0.020084456 -0.05482178 0.042133544 0.023502737 0.016862083
0.0584148 0.02140526 0.008034187 -0.03477878 -0.01052028 -0.017153827 0.052213874 0.040272534
-0.011075263 0.053852934 0.061861012 -0.011489283 0.05132089 -0.023282662 0.031899605 0.051365227
0.005527926 0.014613431 -0.07262777 0.020099536 0.029100407 0.02540776 -0.040172487 -0.05211969
0.026083436 0.060022358 0.010689529 -0.04671273 -0.0050837016 0.059570737 0.08832787 0.04666791
-0.034359757 0.035918124 0.053419553 -0.055689722 -0.046965353 0.08029309 0.032607604 0.04123076
-0.07504836 0.02496773 -0.0075085144 -0.02204962 -0.020145044 0.0029934456 0.013990023 0.019089729
0.007828872 -0.0074430117 0.04992133 0.063905254 0.091660716 0.038220096 0.010984447 -0.023863092
-0.017728126 0.057042368 0.02225029 -0.042023387 0.06877803 0.052414987 0.028704362 0.035815585
-0.03440985 0.023158234 0.034737967 -0.013349201 -0.012854437 -0.028905395 -0.027511353 -0.0008769621
0.06377457 0.028996168 0.015143747 -0.04874077 -0.023329772 0.06855984 -0.014253736 0.015173802
0.08452097 0.032897986 0.11327152 -0.008929857 -0.051663265 -0.039445125 0.052582093 0.0317817
0.015726836 0.039732832 -0.026002835 -0.05359911 0.06681374 -0.009185755 0.04414435 -0.0207663
-0.016329955 -0.020427102 0.031495377 -0.010783819 -0.038892515 -0.01679942 -0.08614902 -0.011163485

network_body._body_endoder.seq_layers.2.weight f4 [256, 256]
00000000: f6d3 c83d 09c5 ccbc 6a82 3f3d 5334 373e
00000010: c8ad 8bbd 6506 a2bc afb2 103e d34e a4bd
00000020: fead f7bd c988 393e 4d29 953c 03fa 5ebe
00000030: bc33 0b3d dbac 28be 2fc3 103e 0db5 5dbd
00000040: c555 d73c f064 b9bd 7e28 7a3c c1fd cebd
00000050: 9c01 cabd f0bb f0bd 58e0 58bc af79 b63d
00000060: af66 2bbd 9417 36bd 39e4 103b 8078 993d
00000070: 5034 823d 3874 a03c c7fe 2bbe 82ee 9bbe
00000080: b6a5 323e 3c54 d93d 8081 ad3d 824c 13bd
00000090: 7c07 96bd 3867 d4bc faca 013e 6b80 383b
000000a0: a443 ab3d 1935 97bd d3cb e4bd a3f8 70bd
000000b0: 924f d93b 68da f23d 870c d5bd f394 91bc
000000c0: 7b1b 073e d01b 2abd 520c d43d 0cb6 14bd
000000d0: c11a 6bbd d88f f03c eeb7 8f3d 0acf c8bc
000000e0: 891e 2bbd 8014 423e 2d82 93bd 22de 10bd
000000f0: 29d3 0b3e 8c62 cebc 1939 303e e1b9 f3bd
00000100: 97d9 c53c 7d91 ad3d 4498 31bc 57c2 593e
00000110: e194 373e 2199 a53d 5daf 973d fb8a b13d
00000120: 449f 52bd 6e5a 1fbd 896a a63d d6f1 733d
00000130: bd08 243e fd82 a5bd 55c2 4cbe b94f a73d
00000140: 9797 20be 6876 7d3c c76b 343e 8a01 efbd
00000150: 4cd2 2e3d 2e26 90bb cf24 a3bd 3ff5 0fbd
00000160: 569b 123e eec6 ea3c f609 38bd f20b 473d
00000170: 54fe dbbd 0669 15bd 6331 3a3d 8257 033e
00000180: 29b5 803d b9ff af3d 91ba 353e a385 5f3e
00000190: e55d 813a cf0e 1c3e 0bf1 4ebe 10c5 ecbc
000001a0: 884b 86bc 4a8c 0c3e ca08 d83d 60c8 8ebd
000001b0: 95e0 2cbd 38ad c9bd 89e3 803d 2cfe 8bbd
000001c0: 2fd7 9e3d f860 b13d 2ae0 773e 907f 1b3d
000001d0: d0c3 e7bd 7480 ba3d 3405 573e 9c96 6a3e
000001e0: 3da1 0ebe 42d0 743e fc90 2d3e 325b 7dbc
000001f0: d6b7 0ebe 27b9 343c d76c 43be 7a52 18be
00000200: 8cf9 1a3e 320b 293e 6a78 f53c 84e5 efbd
00000210: ef57 01bb 9157 55bc 4089 38bd 313e 003d
00000220: 994e 09be 9d77 193e 341e a43d d975 843e
00000230: 93dd e2bc a568 6dbd 2b17 773b e6d6 5bbd
00000240: a482 93bc b0d5 24bc dfe5 95bc 8c89 41be
00000250: 7f9c 663c 2efa cfbb f842 9bbd fbfd 0a3e
00000260: dd56 20bd 8dde 8abe 105c 57bc 0c1a 44bd
00000270: c762 abbd 12b0 bd3d 9a85 373c 91e5 733b
00000280: 5237 91bd 6de0 ca3d 4b77 b9bd 40cd 003d
00000290: 1b5d a23e d65b 15be a7a3 06bd 9126 35bd
000002a0: e144 013e fad8 25bd 5113 913b 3ba6 cbbc
000002b0: eea8 dd3d 2a25 723d 4de7 4b3e f7ee c23d
000002c0: 7b4e 073d 17ab 6a3d b40c 84bd a943 a73d
000002d0: fcff 9dbd 7868 1ebe fdaf 533c 5d04 cdbc
000002e0: 9a58 a0bc bbea 883e 934b 983c 4031 9a3d
000002f0: 1b3c 643c 9f8f 2abd 7573 d93d 6528 85bd
00000300: 801d 963c 6b6d 39bd 51b2 e33d da93 9f3c
00000310: 41a9 d6bd 3047 b3be 1d67 edbc e109 4a3e
00000320: 8760 2b3e b10b 1a3c e5b5 3d3e 36a4 353e
00000330: 91a2 95bd 9ccf 1dbe 8149 26be 3e8f d73d
00000340: 373a bcbd 8b0a a2bd 66dd 6e3b b257 50bc
00000350: b89f 8ebd 885a 94bc 9a02 56be ad10 49bd
00000360: c9b7 a639 53ef 29be 4394 c03c 0f6c 4f3e
00000370: 6bb0 54be 1bf3 c33c 9313 a43b 7c1a 223e
00000380: 174a 553d 2f9a 763d c19f 39be fbc0 31bd
00000390: 3d03 49be 00f7 e23c 5241 9e3d 5389 9bbe
000003a0: f8e0 433d 19db a7bc 440a f23c c870 11be
000003b0: 00dd 94bd 24dc d5bd 3c53 8bbd dc82 14bc
000003c0: e3fd 9fbc 96a6 8dbd eb88 6cbd 18f0 c13c
000003d0: 3929 a83d 0c0a 6e3c ffc3 383e 3059 08bd
000003e0: bfcb a6bd 14a0 c8bd d376 89bb f3d6 bb3d
000003f0: b508 e4bd fa6e df3c de95 e3bd 7b95 20be
0.09806053 -0.024996297 0.046755232 0.17891054 -0.068202555 -0.01977844 0.14130662 -0.08022847
-0.12093733 0.18118586 0.01820817 -0.2177506 0.033984885 -0.16472189 0.14136957 -0.05412774
0.026286015 -0.090524554 0.015268443 -0.101069935 -0.09863588 -0.11754596 -0.0132370815 0.08909928
-0.041845974 -0.04445608 0.0022108688 0.07493687 0.06357634 0.019586667 -0.16796409 -0.30455405
0.17446026 0.106117696 0.08471966 -0.035961635 -0.07325646 -0.025928125 0.12675086 0.0028152715
0.08362511 -0.073831744 -0.11171689 -0.05883087 0.0066318 0.11858064 -0.1040278 -0.01777122
0.13194077 -0.04153043 0.103539124 -0.036306426 -0.05739856 0.029365465 0.07017504 -0.024512786
-0.041777167 0.18953133 -0.072025634 -0.035368092 0.1365477 -0.025193475 0.17209281 -0.11900688
0.024151606 0.08475015 -0.010839526 0.21265541 0.17927887 0.08085848 0.07406495 0.086690865
-0.05142142 -0.0389046 0.08125789 0.059556805 0.16018958 -0.08081625 -0.19996007 0.08169503
-0.15682827 0.015470125 0.17619239 -0.116702154 0.042681023 -0.0043990826 -0.07966005 -0.035145994
0.14317068 0.02865931 -0.044931374 0.048595376 -0.107418686 -0.03647711 0.045457255 0.1282635
0.062845536 0.08593697 0.1774695 0.21828322 0.0009869902 0.15240024 -0.20209138 -0.02890256
-0.016393438 0.13725391 0.105485514 -0.06971812 -0.042206366 -0.09847492 0.06293399 -0.06835589
0.07755887 0.086610734 0.24206606 0.03796345 -0.11316645 0.09106532 0.20998079 0.22909015
-0.13928695 0.23907569 0.16949838 -0.015463637 -0.13937315 0.011030472 -0.19084488 -0.14875212
0.15134257 0.16508177 0.029964644 -0.117136985 -0.001973625 -0.013021366 -0.045052767 0.03130931
-0.13408889 0.14987035 0.08013573 0.2587116 -0.027693545 -0.057961125 0.0037703018 -0.05367174
-0.01800663 -0.010060713 -0.018298088 -0.18900126 0.0140753975 -0.0063469624 -0.07581133 0.13573448
-0.03914534 -0.27122918 -0.013144508 -0.047876403 -0.0836845 0.09262098 0.011201287 0.003721569
-0.0709063 0.09906087 -0.090559565 0.03144574 0.3171166 -0.14585814 -0.032870915 -0.044226233
0.12623931 -0.040490128 0.0044273515 -0.024859538 0.108232364 0.059117474 0.19912453 0.09518235
0.03303383 0.05729207 -0.064477354 0.08167202 -0.07714841 -0.15469539 0.012920377 -0.025026495
-0.019573499 0.26741585 0.018590724 0.07528925 0.013930346 -0.041640874 0.10617725 -0.06501845
0.018324614 -0.045270365 0.111179955 0.01947968 -0.10481501 -0.3501525 -0.028979832 0.19730331
0.16736041 0.0094022015 0.18526419 0.17738423 -0.07306398 -0.15411228 -0.16238977 0.10525368
-0.09190791 -0.07912167 0.0036447882 -0.012716221 -0.06964058 -0.018109575 -0.2089943 -0.04908817
0.00031798918 -0.16595201 0.023508197 0.20256065 -0.20770423 0.023919633 0.0050072162 0.15830415
0.05207261 0.060205635 -0.18127348 -0.04339693 -0.19630142 0.02770567 0.077273026 -0.30378208
0.04782197 -0.020490216 0.02954591 -0.14203179 -0.07268715 -0.10442379 -0.06802985 -0.009064402
-0.019530242 -0.06916539 -0.057747763 0.023674056 0.082109876 0.014528763 0.18043517 -0.03328818
-0.0814433 -0.097961575 -0.004195073 0.09171858 -0.11134473 0.027274597 -0.11112569 -0.15682022

network_body._body_endoder.seq_layers.2.bias f4 [256]
00000000: e3b9 2ebd b1b2 0ebd e1d1 e5bd d528 07bd
00000010: ff46 e73b a3a8 36bd 7333 8abd 80bc d7bd
00000020: af67 bc3c 3e6e 113c 1cfb 7cbc 3de9 9cba
00000030: 7e1c 30bd a5cc aebd 7908 05bc a1a2 79bd
00000040: 9e0a bcbc dc1b c1bd d461 5b3c 3010 1c3d
00000050: fbf7 06be f8ad bdbc c216 65bd 8960 403c
00000060: 94b3 53bc 56b4 e33c 9aac bfbd 67d0 74bd
00000070: 2fdf da3c fcd0 66bd 2bcd bdbc f4b8 3cbd
00000080: 4c26 843b 6cc2 afbd e70d 823d fbae 423c
00000090: 6019 1ebd db78 a6bc 17d1 2ebd 944e 78bc
000000a0: 15fe 9ebd f831 d73b e06d 8cbd 579c 22bd
000000b0: 594f c0bc 643c 483c 83a0 b2bd 2a73 80bb
000000c0: ebcc 82bd 652e f53c cd8a 253d f7a8 09be
000000d0: 3793 82bd 9137 b9bd 433b 0b3d 40a8 2bbd
000000e0: 5b99 b4bd 98d0 15bd e4f2 603d c45c a5bc
000000f0: a3bb 43bc ddc6 f0bd 316d 003d 5dae 9a3c
00000100: 76cf 6f3c 7115 5cbc 7c6d 5bbd 4951 c3bd
00000110: 7306 d2bd 545a 5b3c 163a 95bd 1d17 d5bd
00000120: fd09 8abd c848 1abd 0321 e5bb 983f 93bc
00000130: 4f9e 92bd 798a 17bd 1a25 0abd 170d 64bc
00000140: 2cad c6bd fd8a 0bbd aba3 cdbc 936b 01bc
00000150: 4ae1 953b 5cef af3a f609 5d3d b63f a4bb
00000160: 37de edbc 4466 0e3b c4bf cbbc 6682 8dbb
00000170: 7520 d13c 1c4a 63bd 7f00 7bba a234 35bd
00000180: c32e 953b 0fe7 38bd 2ebb 8c3c 2377 83bd
00000190: 9fae 8abd bfb8 d8bc 4889 ad3c 2ed6 c6bc
000001a0: 10f4 29bd d773 5d3d 09df 29bc 2cd1 ba3a
000001b0: 490f b9bd 1d71 30bd bec6 d4bd 0fd5 b4bd
000001c0: b37c 8fbc 942e b3bc b25a b93c 038d febc
000001d0: a765 acbc 3277 bfbd ce1f 263d cd6d 0dbe
000001e0: 8b0b 48bd 899f 473c 9caf fbbd 1dec 68bd
000001f0: 74e2 9ebd ae82 953b 912b 36bd a386 ccbb
00000200: 42ee b4bd 3341 0ebd c039 41bd cc14 d9bc
00000210: 2823 b9bd c634 6bbd 57d0 04bd 330b 3b3d
00000220: 567a 9d3c f142 27bd 77db b0bc 772f 01be
00000230: 9b15 103d 4c54 07bc 6684 ddbd 7015 153b
00000240: 05e8 f3bd 2b3e 3abc 4400 923c 023a a83c
00000250: 82a7 cbbd 161e aebc 276e ac39 3823 19bd
00000260: 8d29 1abd 820c 8c3b 8644 ac3c 5109 c2bd
00000270: 090b 693d d257 a6bc 1cdb c8bd 6bac d8bd
00000280: 50da 72bd 58e4 aabd e55d b9bd 32b0 d1ba
00000290: 79d3 88bd cf39 a4bd 91f9 89bd 1224 f0bd
000002a0: 1fbc 8abd 7cc4 cdbc baae 2e3c d1d5 b7bd
000002b0: 7cc0 b4bd f2c6 b63c d771 1abd a19e b9bc
000002c0: 7850 a6bc b65b b5bd 2d7a 2ebd 8a82 483d
000002d0: a779 553c 6fa8 9f3c 33a1 893c ac3e 6bbd
000002e0: cebf 843d 3668 3dbd 6757 f8bd 0c56 b6bd
000002f0: ffb9 5d3c ec7b 8e3b e5b0 c7bc 8acf 9e3d
00000300: 8f4c d0ba e3ce 0fbd 62d0 693d 1923 98bc
00000310: e890 df3c d147 3ebc fee0 03be 3a64 90bd
00000320: 405d 96bb 9d18 00bd 1f3e 2dbc 0bd5 c6bd
00000330: 4198 21bc 5583 9b3c 5b6b 803d e992 8d3c
00000340: c2c5 b0bd 1daf 9abc d5c9 acbd 272c d13c
00000350: 1514 8f3c 1287 d9bd ffc3 d23b bdec 3ebd
00000360: 1d0f eabb ee5d 4bbd 2c25 14bc 909f 0bbd
00000370: 1376 38bc f18b 84bc 085f a9bc 636a 44bd
00000380: 7a33 edbd 308a 87bd c3b6 89bd 088b c83c
00000390: 7e88 d0bc 0bd0 96bd f59a 1f3d f2c2 98bc
000003a0: d79e e4bd 59c9 713c 8428 033d 89ec 17bc
000003b0: d42f 0437 68c4 2bbd 4921 8bbd b801 6ebd
000003c0: a4aa ba3b 804a 20bd 32d8 d03c 904d f4bd
000003d0: 7959 1cbd 22cb b4bd 99aa f6bc 224a 1cbd
000003e0: f4b0 debd 7124 64bd 604e e4bd 9be5 f5bc
000003f0: 8c58 09bd 8908 f4bc ce2c 04be 8ab8 0fbd
-0.042657744 -0.034838382 -0.11221672 -0.032997925 0.007058024 -0.04459442 -0.067480944 -0.105340004
0.022998659 0.008876381 -0.0154407285 -0.0011971366 -0.042995922 -0.085351266 -0.008119696 -0.06094611
-0.022954281 -0.09429142 0.013390023 0.038101375 -0.13180535 -0.023154244 -0.055929907 0.011741766
-0.012921233 0.027795952 -0.09359093 -0.05976906 0.02671775 -0.056351647 -0.02316912 -0.046074823
0.0040328857 -0.08582005 0.06350308 0.011882539 -0.03859842 -0.0203213 -0.042679872 -0.015155453
-0.07763306 0.006567236 -0.068568945 -0.03969988 -0.023475336 0.0122214295 -0.087220214 -0.0039199786
-0.06386741 0.02992935 0.040415574 -0.13443361 -0.06375735 -0.090438016 0.033992063 -0.041908503
-0.08818313 -0.036575884 0.05491914 -0.020185836 -0.011946592 -0.1175668 0.031354133 0.018881971
0.014636865 -0.013432846 -0.05357121 -0.09536988 -0.10255136 0.013388235 -0.0728647 -0.10404799
-0.06740186 -0.037667066 -0.0069924607 -0.01797466 -0.07159101 -0.036997292 -0.03372679 -0.0139191365
-0.09700999 -0.034068096 -0.025102457 -0.007899183 0.0045739757 0.0013422775 0.053964578 -0.0050124777
-0.029036624 0.0021728436 -0.024871714 -0.004318523 0.025528172 -0.055490598 -0.0009574964 -0.044239648
0.0045526936 -0.04514223 0.017179098 -0.06419208 -0.067715876 -0.026455281 0.021183625 -0.02427205
-0.04149252 0.05406555 -0.010368117 0.0014253012 -0.090361185 -0.043076623 -0.103894696 -0.088297
-0.017515516 -0.021872796 0.022626255 -0.031073099 -0.021044565 -0.093489066 0.040557675 -0.13811417
-0.048839133 0.012184032 -0.12289354 -0.0568658 -0.07758036 0.0045626974 -0.044475142 -0.006241636
-0.088345066 -0.034730148 -0.047174215 -0.026499175 -0.09039909 -0.057423376 -0.03242525 0.045664977
0.019223373 -0.040835325 -0.021589024 -0.12615763 0.035176855 -0.008259844 -0.108162686 0.0022748373
-0.119094886 -0.011367361 0.017822392 0.020535473 -0.09944059 -0.02125458 0.00032888466 -0.037387103
-0.037637282 0.004273952 0.021028768 -0.09474433 0.05689529 -0.020305548 -0.09807417 -0.10579761
-0.05929023 -0.08344334 -0.09051112 -0.0015997945 -0.0668096 -0.080188386 -0.06737054 -0.1172563
-0.067741625 -0.025118105 0.010661775 -0.08976329 -0.08825776 0.022311661 -0.037706222 -0.022658648
-0.020302042 -0.08855383 -0.042596985 0.048952617 0.013029492 0.019489495 0.016800499 -0.057432815
0.06481896 -0.04624196 -0.12126046 -0.08903131 0.013533114 0.0043482687 -0.024376342 0.07754429
-0.0015891957 -0.035109412 0.057083495 -0.018571423 0.027290776 -0.011613802 -0.12878796 -0.07050367
-0.004588753 -0.031273473 -0.010573893 -0.097086035 -0.00986296 0.018983522 0.062704764 0.017281966
-0.08631469 -0.018882329 -0.08436934 0.025533749 0.01746563 -0.10621466 0.006432056 -0.04661249
-0.007142915 -0.049650125 -0.009042066 -0.034087718 -0.01125862 -0.01618001 -0.020675197 -0.04795302
-0.11582084 -0.06618154 -0.06724312 0.024480358 -0.02545571 -0.073639 0.038966138 -0.018647645
-0.11163109 0.014757478 0.03202106 -0.009272703 7.878949e-06 -0.041935354 -0.06793458 -0.058107108
0.0056966115 -0.03913355 0.025493715 -0.119288564 -0.038171265 -0.08827807 -0.030110644 -0.038156636
-0.10873595 -0.055698816 -0.11147761 -0.030016711 -0.03353171 -0.029789226 -0.12907717 -0.0350881

action_model._discrete_distribution.branches.0.weight f4 [3, 256]
00000000: 7a2e 353d 707c a03d 88bb 78bc 6282 fe3c
00000010: f63d f43d b633 083d 614c 12bd d929 b23c
00000020: ad58 abbb 7259 943d 5a0c afbc 46ab 003d
00000030: d220 76bd 7c4a 1cbe a716 163c 209b 633d
00000040: ce06 623c bbd4 7b3c dfac 7f3d c7cf 093e
00000050: 5bd4 af3c 26b8 4dbd 4a27 4abd ffbf 013d
00000060: 1482 5f3d 5328 12bb b2b1 3bba 3294 c03b
00000070: c98d 3b3c dbb1 c1bc 2b8d e6bb 6409 7bbd
00000080: 60f6 2c3d a941 b73c 08e5 ddbb c4fa 123d
00000090: 54b5 533d 1fba 3d3d 31e4 bcbb d723 e53c
000000a0: 724f 4b3c 4915 97bd 2e78 a1bd 3f9b 143d
000000b0: c0a2 43bd a337 a43c 536d 2b3d 7c24 71bd
000000c0: 31b6 e13c e1f8 85bc 967c e0bc 519e 15bd
000000d0: 231b eabc 4265 6a3c ad3c ba3d a535 343d
000000e0: c009 b83d 6a33 533d ca60 323e 1889 0bbd
000000f0: 676b 89bd 9966 50bc aef2 d3bc 259c 13bd
00000100: 2a1e 333c af74 4a3c a8a5 ea3a 915d 4b3d
00000110: cc87 ddbc 5dc9 0dbe 716f 44bc f200 2bbd
00000120: b4aa c2bd eaa0 6cbd 9ce1 5d3d 3dbd b63d
00000130: de30 39bd 14e2 2fbd de8f b53c 0041 243d
00000140: 37ef e839 bc32 df3a 1dd5 c73c b52e ad3c
00000150: 6b0d 71bc 87a3 8ebc 5b34 583d d806 2ebd
00000160: 0a51 a23d 0c5d df3d d4ae 4bbd 11af 243d
00000170: 9a32 abbc da74 563d 3da7 78be 3758 39bd
00000180: 6724 89bd 9954 cf3b 7293 233d dcee 273d
00000190: 6439 bcbd aec5 483d 3b9f 463d 10db ecbc
000001a0: 8f02 d53c 135f 0fbc 6ee2 863d 56a9 ae3a
000001b0: 1dbd 06bc 68e7 babb 1af8 df3b a197 9cbc
000001c0: 8449 1a3d 6c0b cb3c 6800 873d 8241 bc3c
000001d0: 09a1 3e3d de26 253d d26a 263d e00a 14be
000001e0: 1149 a83d d1ea a93c d8bb a9bd 1653 313d
000001f0: 3174 853d 37f9 7fbc e0a8 773d 8470 4ebd
00000200: 6a7e 533d ddcc 0a3c 7498 033d d644 16bd
00000210: f58c 7bbd c8bb 74bc 335e 1ebd 7e25 ce3c
00000220: 2877 af3c 5b2b b13c 7111 6a3d 109f bbbc
00000230: 6211 943c a591 333c 6984 f5bc 3f03 02be
00000240: 5126 b4bd 8eff 793d 337d 45bd a432 54bc
00000250: bcc1 bfbd fc1f 413d 4f98 733c 5647 3ebc
00000260: 0288 1cbd bb36 95bd 8526 bb3d bf64 a33d
00000270: dae6 b63d de39 d2bb 0f45 543c c2ed 53bd
00000280: 11f8 783a 6479 21bd c0e6 12bd 8e1e 7bbc
00000290: 6219 8f3d 031d 0fbc 3d8d 663d 346c 3a3d
000002a0: 239e 043d bec3 d63b 9660 7d3d a566 a93b
000002b0: bf87 65bd c05e 533d 7d70 46bc 0ed8 a1bd
000002c0: 5414 e83c 9aed a1bc 0c15 c03c e1d8 91bc
000002d0: 3a11 b73d b067 03bb e85b d0bd b020 55bd
000002e0: bcb2 21bd d6b6 923d 414f 9fbb 9b63 183b
000002f0: 57c7 a73d f84e 0c3c 2f87 3c3d 8450 6cbc
00000300: 1ed2 89bd 773a a1bc e00f 1d3e 5574 52bd
00000310: 12c1 cf3b 90f0 86bd 7178 3abd 64a1 0bbd
00000320: 7b24 9e3c a795 0cbc aa27 493d b4cd 45bb
00000330: 8b32 683c 987e 403e 08ae 83bb ea9a 873d
00000340: 0f22 063d eadc 10bc f71c d9b9 d49e 193d
00000350: e730 a03b 2c61 883d 3640 903d 8e8e dbbc
00000360: 8f7d a03d fde8 583d 155f c13d 733c 2dbc
00000370: 20c0 8f3d 6d78 6fbc 85f4 24bc f762 8e3d
00000380: 3c07 423d ec2c babd 177b 333b 1d46 b53b
00000390: c0e9 b43d 1fc4 f8bc 9b0d b33b 0e8a 9fbc
000003a0: 021f e2bc d1b3 7abc 3f36 583c 4154 6abd
000003b0: 4c5e 4d3d a82b 28bd ba03 2ebd d6c3 453d
000003c0: 0ed8 93bd 9616 5a3d 8921 0c3e 3ea4 5c3c
000003d0: fc5b be3d ba6c 363d ba7e 41bb edf9 a9bb
000003e0: a203 a5bd 3e5b c73d c505 abbd fae2 2dbd
000003f0: 7222 93bd b978 b93d 2d1e 80bd 3082 a03d
0.044233777 0.078362346 -0.01518143 0.03106803 0.119258806 0.03325244 -0.03571737 0.02174847
-0.005229077 0.07243623 -0.021368194 0.03141334 -0.060089894 -0.15262789 0.009160674 0.05556786
0.013795568 0.015370543 0.062420722 0.13458167 0.021463564 -0.050224446 -0.049353875 0.031677242
0.05456741 -0.0022301867 -0.00071599626 0.0058770413 0.011447378 -0.023644378 -0.0070358715 -0.061288252
0.04222715 0.022370176 -0.0067716874 0.03588368 0.0516866 0.046320077 -0.005764507 0.027971191
0.012409078 -0.07377107 -0.078842506 0.036280867 -0.047762632 0.02004606 0.041852307 -0.058872685
0.027552696 -0.016354026 -0.027403157 -0.036527935 -0.028577393 0.014306368 0.09093604 0.043996472
0.08986235 0.051562704 0.17419735 -0.03406629 -0.067099385 -0.012719774 -0.025872555 -0.036037583
0.010932485 0.012356921 0.0017902153 0.04964978 -0.027042292 -0.13846345 -0.01198946 -0.04174895
-0.09505215 -0.057770647 0.054170236 0.08922813 -0.04521262 -0.042940214 0.022163328 0.04010105
0.00044428717 0.001702867 0.024393613 0.021140436 -0.014712672 -0.01741196 0.052784305 -0.042486995
0.07925613 0.10906419 -0.049727276 0.04020602 -0.020898152 0.052357532 -0.24282546 -0.045250144
-0.06696396 0.0063272235 0.039935537 0.04099928 -0.09190634 0.049016647 0.048491698 -0.02891305
0.026002197 -0.008750695 0.06586157 0.0013325613 -0.008223799 -0.0057038553 0.006834996 -0.019115271
0.037667766 0.02478572 0.06591874 0.022980455 0.046540294 0.04032027 0.040629216 -0.14457273
0.08217061 0.020741852 -0.082877815 0.043292128 0.065163024 -0.015623382 0.060463786 -0.050400272
0.05163423 0.008471695 0.032127813 -0.03668674 -0.061413724 -0.014937349 -0.038664054 0.025164362
0.021419123 0.021627119 0.05714554 -0.022902995 0.018074695 0.010960017 -0.029970365 -0.12696551
-0.08796371 0.06103473 -0.048215102 -0.012951527 -0.09363124 0.047149643 0.014867856 -0.0116136875
-0.038215645 -0.0728583 0.091382064 0.079782 0.0893075 -0.0064155897 0.012955918 -0.051740415
0.0009497414 -0.039422408 -0.03586459 -0.015327109 0.06987263 -0.008734944 0.05628704 0.045513347
0.032377373 0.006554096 0.06185969 0.005169707 -0.05603766 0.051604033 -0.01211178 -0.07902537
0.028330006 -0.019766618 0.023447536 -0.017803611 0.089388326 -0.0020050816 -0.1017378 -0.052033126
-0.039477095 0.071637794 -0.0048617427 0.002325273 0.08192318 0.0085637495 0.04602736 -0.014423493
-0.0672953 -0.019681199 0.15338087 -0.051380474 0.0063401544 -0.065888524 -0.045525018 -0.03408946
0.019304505 -0.008580602 0.049110092 -0.0030182423 0.014172207 0.18798292 -0.004018549 0.066213444
0.032747325 -0.0088417325 -0.00041411046 0.037504986 0.004888642 0.06659159 0.07043497 -0.026801374
0.078364484 0.05295657 0.094419636 -0.010573494 0.07019067 -0.014616114 -0.010068064 0.0695247
0.04737018 -0.090905994 0.00273866 0.00553204 0.08833647 -0.030366955 0.0054642684 -0.01947501
-0.027602676 -0.015301661 0.013196527 -0.057209257 0.050138757 -0.04105726 -0.042484023 0.048282467
-0.072189435 0.053244196 0.13684668 0.013466893 0.092948884 0.044537283 -0.0029524998 -0.005187264
-0.080573335 0.097342 -0.0835071 -0.04245279 -0.07184304 0.09056229 -0.062557556 0.07837331

action_model._discrete_distribution.branches.0.bias f4 [3]
00000000: b947 fd3d 0845 3fbd d147 cdbd
0.12367196 -0.046696693 -0.100234635

action_model._discrete_distribution.branches.1.weight f4 [3, 256]
00000000: 0852 ebbc 3946 983b 3076 4a3d 7129 f33b
00000010: 4442 513d 696e b53c 6b6f a03d 9806 88bd
00000020: 6c44 38bd dd73 513c 64f0 7fbd 0184 a43c
00000030: 3c4d 7b3d 8fb3 c43c bbb4 7c3c 9955 bf3c
00000040: 305c 92bd c44c a93c 85a0 403d 99c9 383d
00000050: 1d9e 773d b2c5 8bbc 5427 e4bd 366c e0b9
00000060: c363 33bd 6eef a53b 8048 fa3b 92ae a43c
00000070: 7572 85bb 7bcf 953c a039 103c 48ea 3b3d
00000080: af31 1f3c b349 27bd d35c 0b3d b14a a23b
00000090: 8b5e 1e3d 3dee 143d c5ab c23b db63 383d
000000a0: 1195 b9bc 8bfe 323d b40b 033c 7f9a b93c
000000b0: 24c8 48bd 0b3a 91bc 96c6 033d c410 b03d
000000c0: 63cd 90bc 9245 92bc 14d2 393c 4bcc ba3c
000000d0: 8fdd acbd 76ce 5e3d 05a0 613d 6e8d 373c
000000e0: 2f06 43bd 211f 133d ee4b bd3c 0e3f 673d
000000f0: 615b 993b 6f03 943b 96fd 86bd 385f a33c
00000100: 7735 e0bc 90d6 f6bb cf53 21be 4ab3 153d
00000110: 44fe 863c bfef afbb 93ed 803d e436 f13c
00000120: 0cce 6b3d 3ff1 8c3d 04cf c53c b83d 4dbd
00000130: 561d fa3b 74d4 253d 0247 043e 3794 5ebd
00000140: 3ee7 7e3c 4673 253c d322 843c c70d 3c3d
00000150: e3e8 453c 6403 b93c 2b4a 8cbc ff04 23be
00000160: a16e 58bc 0845 57bd a4ce 633d 9571 bbbd
00000170: 70cc 8a3d 9e06 a23c 02dd 5cbc c8a6 563d
00000180: 13ce b83c 16e5 4f3d 37c8 373d 9a09 483d
00000190: 0c2a ccbc ee93 a13c 7ccf fb3c 7e9c a73d
000001a0: a658 9a3d e391 86bd 134c adbd e08c 1fbd
000001b0: 73f9 a73a ea1d 8fbd 2b83 9bbc 323d 073d
000001c0: 8d92 6139 ecdf 8a3d ef91 27ba bb8d b73c
000001d0: 1c3d 78bb b235 863b e5b8 343d fd39 4a3c
000001e0: 1d01 17bd 8d4f f23c 0ada ba3c b2cc 003d
000001f0: 7138 303d 124b d43d 34d7 f63c 567f 9fbd
00000200: fb5e 3b3d 3a04 853b 321e 42bb e18d 23bc
00000210: 0289 843d 0ae3 4cbd 3ad7 053c 0264 003d
00000220: 0a83 e2bc f468 033c 981d 303c 59b1 833a
00000230: 1cce a13c a3c7 cb3b ada0 1f3d 7657 423d
00000240: 168c 1fbc 6833 dcbc 79b6 163d 3696 7f3d
00000250: 6636 cf3c df51 1b3d da06 423c defb 36ba
00000260: 3881 663c 2f23 453d 577d 873c e0cb f53c
00000270: d929 233d 4c58 7ebc 8e43 1c3d e4e8 1e3c
00000280: c363 05bd 95bf edbc bf79 ac3c 7a88 e83c
00000290: f7c0 353b 8718 f73c f1d4 3b3d bb9d f23c
000002a0: 4dd1 7bbd 183c b13c da7f 51bc 12b8 9abc
000002b0: c687 713d 64fd 8fbd 642f 98bd 9d5d a93d
000002c0: 579e b93c acc6 10bd 60aa fc3c 1a40 e23c
000002d0: f8bf c9bd 33b2 1b3c 1209 acbd 565f 043c
000002e0: b5f7 1abb f1ab 403c b3c6 b53d 34e3 1e3d
000002f0: 395c 603d 12d3 91bd e4a2 a83d b925 323d
00000300: 145c 933d ee4c 83bd 311b 143d 51e8 34bd
00000310: dc56 54bc f199 4c3a 0752 9a3d 2d29 883d
00000320: b395 f7bb c5ec e23c 4de9 12bd 90c2 dcbc
00000330: 928b 1c3d 30cb 253d c5aa 7b3c 7692 9ebd
00000340: 42b7 823d 6753 98bc cfdd 803d 7fcc 4f3b
00000350: 8535 b3bb f528 ce3b 2d48 303b 954b 823d
00000360: bb00 71bc 5097 433d eb99 933d 7843 91bd
00000370: bf1a a03c c445 973c a394 3a3b c69f a5bd
00000380: 2a88 09bd fdd6 fc3c 7ea6 6b3c 44ea 09bd
00000390: 1d59 1a3d 9652 c33c c1ae 6c3d 869e 0d3c
000003a0: 8be6 353d bcc3 7a3d 743a 26bc cd37 81bc
000003b0: 55e7 803d d507 9a3c 5efa 14bd b507 d03c
000003c0: a707 a33d 41da bd3c a25a a13c 9d2b bf3a
000003d0: 2c53 86bd aa49 963d ae22 fa3c a2ad 8e3c
000003e0: 433a da3d fc3a 933d b1f7 4fbc 4f2e 023e
000003f0: b5bc 8d3d 0a65 a43c 8942 243d 42eb c8bc
-0.028725639 0.004647043 0.04942912 0.0074207117 0.051088586 0.022147374 0.07833751 -0.06641883
-0.044987127 0.012783972 -0.062485114 0.020082476 0.061352953 0.024011401 0.015423949 0.023356246
-0.071464896 0.020666488 0.047028083 0.045114134 0.060453523 -0.017062042 -0.11140314 -0.00042805233
-0.043796312 0.0050639426 0.007638037 0.020102773 -0.004072482 0.018287411 0.008802801 0.045877725
0.009716435 -0.04084177 0.03402407 0.0049527516 0.038664382 0.036360014 0.0059408867 0.045017105
-0.022654088 0.043699782 0.007998396 0.022656677 -0.049018994 -0.017727872 0.03217181 0.08596948
-0.017676061 -0.01785544 0.01134159 0.022802493 -0.084406964 0.054396115 0.055084247 0.011203153
-0.04761332 0.03591836 0.023107495 0.056456618 0.0046800827 0.004517011 -0.065913364 0.019942865
-0.027369244 -0.007532902 -0.15754627 0.036547936 0.016478665 -0.005369156 0.06295314 0.02944512
0.05756955 0.068819515 0.024146564 -0.050107688 0.0076328916 0.040485814 0.12917712 -0.054340567
0.015558062 0.010098284 0.016129887 0.045911577 0.01207945 0.022584625 -0.01712521 -0.15919875
-0.01320997 -0.052556068 0.05561699 -0.091525234 0.067772746 0.019778546 -0.013480427 0.05240515
0.022559201 0.050755583 0.044868674 0.04883728 -0.024922393 0.019723859 0.030738585 0.081841454
0.075364396 -0.065707944 -0.08461776 -0.03895271 0.001281543 -0.069881275 -0.018983444 0.033017345
0.00021512267 0.06780991 -0.000639229 0.02240645 -0.003787822 0.0040957564 0.04412164 0.012342927
-0.036866296 0.029578948 0.022809047 0.031445213 0.043022577 0.10365881 0.030131914 -0.07787959
0.045744877 0.0040593417 -0.0029620049 -0.009982557 0.06471445 -0.05002121 0.00816899 0.031345375
-0.027650375 0.008020628 0.010749243 0.001004736 0.0197516 0.006218867 0.03897159 0.04744669
-0.009737989 -0.026879981 0.036795113 0.06239911 0.025294494 0.037919875 0.011842454 -0.000698028
0.014068894 0.048129257 0.016539259 0.030004442 0.03983483 -0.015523981 0.038150363 0.00969908
-0.032565843 -0.029022017 0.021054147 0.02838539 0.0027733424 0.030163063 0.045857374 0.029616227
-0.0614789 0.0216351 -0.01278683 -0.0188866 0.058967374 -0.07030752 -0.07430914 0.082698084
0.02265851 -0.03534572 0.03084296 0.027618457 -0.09851068 0.009502935 -0.084001675 0.0080793705
-0.002364618 0.011759744 0.088757895 0.038790897 0.05477545 -0.071203366 0.08234194 0.043493006
0.07195297 -0.064111575 0.036158744 -0.044166867 -0.012960162 0.00078049215 0.07535177 0.06648479
-0.0075556873 0.027700791 -0.035867024 -0.026948243 0.038219042 0.040476978 0.015360539 -0.07742779
0.0638261 -0.018594457 0.06292307 0.0031707583 -0.0054690265 0.0062915036 0.002689849 0.063620724
-0.014709647 0.047751725 0.07207092 -0.07092947 0.019544004 0.018465884 0.0028469942 -0.08087115
-0.03357712 0.030864233 0.014382957 -0.03367068 0.03768264 0.023843091 0.057783846 0.008643752
0.044409316 0.061221823 -0.010145772 -0.015773678 0.06294123 0.018802563 -0.03637158 0.0253943
0.07960444 0.02317536 0.019696537 0.0014585141 -0.065588325 0.07338269 0.030534115 0.017416779
0.10655644 0.07188985 -0.012693332 0.12712978 0.06920759 0.02006771 0.040102515 -0.024526242

action_model._discrete_distribution.branches.1.bias f4 [3]
00000000: fa08 3ebd 9e64 9d3b baa8 543d
-0.04639528 0.0048032543 0.051918723

action_model._discrete_distribution.branches.2.weight f4 [2, 256]
00000000: 9297 323d 3176 b43d 308d 2ebd 94e4 093e
00000010: fd9f a3bb 84ae 89bd de5b 8e3d 997f c3bc
00000020: d6dc 75bb 861a 44bc e9be cd3c b5bc a33c
00000030: df26 62bd b674 5abc 3e95 373e cd3e d8bc
00000040: 1f34 e4bb 296f fdbd be70 46bd aa32 c1bc
00000050: 7b18 d13c 5292 56bd d006 25be 5f5f 023e
00000060: 29cd 833c 2b65 2b3c b4e5 f2bc e921 35bd
00000070: a5f1 39bd 64ca a8bc 61ff 1abe ea63 9fbb
00000080: 0b5c 4e3c 4016 6239 1801 b73e c5c8 103d
00000090: cdd3 17bd 4692 d43d 134e 83bc 909e 983d
000000a0: f13d 40bd a573 c33d a1b5 933b a5a2 313d
000000b0: 3bb1 b03c 1b09 a1bc 38eb aabc b939 533d
000000c0: c259 e2bd 1552 6b3e e6d9 963d 4860 84bd
000000d0: 47e9 1f3d acf9 c3bd e734 d1bb b755 1b3d
000000e0: 134e 003b 87ee e0bc 61b7 9dbc cdf8 833d
000000f0: efc1 403d 950d 70bd 09c3 c13c 2531 eebc
00000100: cf8a a23d e2d3 7fbc 86b3 9dbd 3c1d acbd
00000110: c867 a53b d81e 13bd f39b dabd 6ea9 0cbe
00000120: ad0a 40bd dfad 52bd bf22 dcbc b56a 83bc
00000130: 0a5b 563d 8b95 eabc 401f 07be bd06 77bd
00000140: 839d 17be 804b 2a3d f9cc fb3c 9d47 6e3d
00000150: 9e6c 4fbd 36e9 7b3e 2a69 c03d 4c0c 17bd
00000160: af5c 0fbd af92 133c 2cf6 4cbd 5b5f 373b
00000170: bf62 833d 88c1 d33c b155 503d 9fe2 9a3c
00000180: 6c7e ae3d 1b93 07bd 3c22 77bc e97c 56bd
00000190: a841 aa3c 4f90 44bd 7fcf 17bd f877 993b
000001a0: 03d1 15bd 8afe 63bd 4b34 98bd e6e5 a53c
000001b0: 86b8 f7bc 9b00 1dbe 2c25 0cbe 84ed 503c
000001c0: d070 24bd 6f13 04bd 3144 c1bc 5696 043d
000001d0: b8a3 393e 824e d0bd 8d71 803d d0c0 0ebe
000001e0: 7bdd afbd 8685 4e3d fa8f 84bd fa4e ff3c
000001f0: 613f 4cbd 5697 893b 3391 fc3c bf14 ce3c
00000200: 1b6c a1bd 7b22 8fbd 6441 663d 836f 52bc
00000210: 8b5d b0bc 4cce e4bd 02e1 d0bd 9a54 853d
00000220: 6e18 c43c 6baf a63d 5872 bbbc 1516 1abd
00000230: ecf1 283d b1ce 5dbc 4eb7 90bd 40de 98bd
00000240: 764f cdbd 53c4 28bd 6a6d a6bc 6908 3b3e
00000250: ecb7 4fbd b020 133d a569 fabc 197c 49bd
00000260: da68 b53c 1172 8e3d fb99 823c b8d4 133c
00000270: dae1 583c 9689 32bc 5ab9 3abd 151e babc
00000280: 1f4f adbd e070 373d 350e 08bd 0f7b 963d
00000290: 41d8 d9bc 336f 00be 9354 8abd 5786 44bd
000002a0: cde1 b33c 84e7 4cbc 1a86 febb d8ff 8db9
000002b0: c9f3 6dbd ac76 26bd cfc5 1e3d a380 103c
000002c0: 9bdd dfbb 2a11 853c ff44 f53b 3bf8 713e
000002d0: d4b3 033c 0925 febb 7fb7 953d 2344 83bc
000002e0: 0f8b a63e 9148 cdbb 8d24 adbd 4cbe bebc
000002f0: 016d b13b ef3f 2e3d de00 eebc e386 d23e
00000300: a522 b83d e24d 13be 149e 92bc ea89 f3bc
00000310: fadf cb3d 7ac2 74bd 8290 a0bd 8327 cfbc
00000320: 9f50 50bd 8c4a 8bba aaa9 4cbd 3bac 8fbd
00000330: 3a68 863b 2651 50bd b5d8 803e babf 2e3a
00000340: 4513 b7bd c46e 023d 1f98 57bb 894f 243e
00000350: 813b 87bc 7f72 fe3c 3f5d 21bd d40f bb3d
00000360: 37af e83c 6fe4 d13c cd2a 9c3c f7ff 81bd
00000370: d430 07bd 1db4 353e 62c2 683d ccf9 07bd
00000380: 89a0 47bd 03e6 e7bc f6cd ce3c 7c65 43bd
00000390: 806f 0cbc 3568 fbbb a5f4 af3e 46ee d3bc
000003a0: 85aa f6bd 8f14 a43c 432b 3b3c 5767 d73c
000003b0: 8efd f93d cea0 8ebd 4e53 5ebd b29f a7bc
000003c0: 8afc 813c 6e37 693d ea4d 143d a4d6 bebd
000003d0: 7943 a1bc 617a 85bd 8ac3 58bd 1bf1 9fbd
000003e0: fdca 44bd 3292 93bd fa67 a9bd 6b45 a73d
000003f0: 5d61 d5bb 027e 573d 5855 1dbd 6eaa 12bd
0.04360158 0.08811606 -0.042615116 0.13466102 -0.0049934373 -0.06722739 0.06951116 -0.023864554
-0.0037515662 -0.011969214 0.025115447 0.019987443 -0.05521285 -0.01333349 0.17928025 -0.026397133
-0.006964221 -0.12374718 -0.048447363 -0.023583729 0.025524369 -0.052385636 -0.1611588 0.12731694
0.016089039 0.010461132 -0.029650547 -0.044221792 -0.045396466 -0.02060432 -0.15136482 -0.0048642056
0.012595187 0.00021561328 0.35743022 0.03534772 -0.037067223 0.10379462 -0.01602844 0.074521184
-0.046934072 0.09543542 0.004507736 0.043368 0.021568885 -0.019657662 -0.020864114 0.05156872
-0.11052276 0.2298053 0.073657796 -0.06463677 0.03904083 -0.095691055 -0.0063844803 0.03792354
0.0019577786 -0.027457489 -0.019252481 0.06443939 0.04705995 -0.058606703 0.02365257 -0.029076168
0.07936632 -0.015614482 -0.07700257 -0.084040135 0.005047772 -0.035918087 -0.10674276 -0.13736507
-0.04688518 -0.051435348 -0.026872037 -0.016042093 0.052332915 -0.02863576 -0.13195515 -0.06030916
-0.1480618 0.04157591 0.030737387 0.058173764 -0.050640695 0.24600682 0.093950585 -0.03687696
-0.0350005 0.00900714 -0.050039455 0.002798042 0.06415319 0.025849119 0.05086297 0.01890689
0.08520207 -0.033099275 -0.015083846 -0.052365217 0.02078326 -0.047989186 -0.037063118 0.004683491
-0.036576282 -0.05566267 -0.07431849 0.020251226 -0.030239355 -0.15332262 -0.13686055 0.012751941
-0.04014665 -0.032245096 -0.023592087 0.032369934 0.1812886 -0.10171224 0.06271658 -0.1394074
-0.08587166 0.050420307 -0.06472774 0.031165589 -0.04986513 0.004198949 0.030830955 0.025156377
-0.078819476 -0.069889985 0.056214705 -0.012843969 -0.02152898 -0.111721605 -0.10199167 0.06510277
0.02393743 0.08138927 -0.022881672 -0.037618715 0.04124634 -0.013538049 -0.070662126 -0.07464266
-0.100249216 -0.041202854 -0.020315845 0.18264927 -0.05071251 0.035919845 -0.030567953 -0.049190614
0.022144724 0.0695535 0.015942564 0.009022884 0.013237441 -0.010897061 -0.04558692 -0.022719422
-0.08462357 0.04478538 -0.033216674 0.0734769 -0.026592376 -0.12542419 -0.067544125 -0.04797968
0.021958256 -0.0125063695 -0.007767451 -0.00027084234 -0.05809382 -0.040640518 0.038762864 0.008819732
-0.0068318374 0.016243536 0.0074850316 0.23629849 0.00803848 -0.00775588 0.0731039 -0.016023701
0.32527968 -0.006264754 -0.08454237 -0.0232841 0.0054146056 0.04254144 -0.029053148 0.41118535
0.08990983 -0.14385179 -0.017897643 -0.029728848 0.099548295 -0.05975578 -0.07840063 -0.025287395
-0.050858136 -0.0010627075 -0.04996649 -0.07015272 0.0041017802 -0.05085864 0.25165334 0.0006666143
-0.08939222 0.031843916 -0.0032897068 0.16045965 -0.016507866 0.031060455 -0.039395567 0.09133878
0.028403861 0.025621621 0.019063378 -0.063476495 -0.03300555 0.17744489 0.056826003 -0.03319721
-0.048737083 -0.02830792 0.025244694 -0.047704205 -0.008571506 -0.0076723346 0.34366336 -0.025870454
-0.12044243 0.020029334 0.011423889 0.026294393 0.12206565 -0.06964265 -0.054278664 -0.02046189
0.01586749 0.056937627 0.036207117 -0.09318283 -0.019685494 -0.065174825 -0.052920856 -0.07809659
-0.048045147 -0.07205619 -0.08271785 0.08167537 -0.0065118507 0.052610405 -0.03841147 -0.035807066

action_model._discrete_distribution.branches.2.bias f4 [2]
00000000: c947 b03d b647 b0bd
0.08607442 -0.08607428
