ML_stuff/results/cw_09/FindCubeWife/FindCubeWife-3499973.onnx (onnx, 352586 bytes, 11 tensors)

discrete_act_size_vector f4 [1, 3]
00000000: 0000 4040 0000 4040 0000 0040
3.0 3.0 2.0

network_body._body_endoder.seq_layers.0.weight f4 [256, 69]
00000000: 09d3 0ebe f874 e03d 5c1a 383e 916f 0b3c
00000010: 451a 6ebd f847 723b 0f9a a7bc 8f8e c43d
00000020: f162 1b3d 863b a2bd 967d aa3d 49a1 4abe
00000030: 837c 91be 7817 393c cdcc 23bd f12a 60bc
00000040: 9ed1 843e c0a8 fd3d 3c90 6cbd a651 40bd
00000050: 9b7c cb3d 3e98 0bbe 10f8 afbd 2c65 313e
00000060: 1608 7f3d 30ad 68be 8b2a b73d 6b21 6f3d
00000070: 6899 a73e e9a7 943d d283 423e 2a07 ddbd
00000080: 165c aabd 1eb9 813c 1d5c 0f3e ff95 a7bd
00000090: c9b8 4cbd 3e8a 423c 816c 8fbd b6c2 e1bc
000000a0: 28c1 e93d 213b 00bf 1671 8abd b8de a83b
000000b0: 2fa0 983a aad6 babd 36e6 1ebd aeea 4abe
000000c0: 7c23 5e3d 548b 143c c4d7 2a3d 5f77 14be
000000d0: 2e86 963e c144 ebbd 30fd 053e 5c5e 63bd
000000e0: b7fc c2bd b4ea ddbd f850 e53d 7397 25be
000000f0: 597c 23be a352 41bd 0286 aebe 9d34 60bd
00000100: 7a8e 323e 9aed ccbd 4327 4cbc 4369 f7bd
00000110: 2323 19be 2514 973d 45a5 0d3d 62db 0bbe
00000120: 6b04 73be 2075 fc3d 3583 f13a 7853 69be
00000130: 6e91 01be cbc2 8dbe 4474 713e 6ff7 e8bd
00000140: 76e1 863e 2d5d 3f3e a32c 64be dc96 933a
00000150: daad 90bc 8080 90be 4f7e 7f3d bcbb 18bc
00000160: b407 9f3d cf29 aabd b56e a1bd 81f0 aa3e
00000170: 34a0 483e cc51 5c3d 0da7 083e d5d2 8f3d
00000180: a4a6 a3ba 2343 62be b994 86bd 5b2d 1e3e
00000190: 1c8a fabd d384 913e 0b26 1bbd 30ef 64bb
000001a0: dcfa e03e d355 563c ee4a 1a3e ffea 973e
000001b0: 6127 5b3e 94f2 d43d f9d7 26bb 0016 863e
000001c0: 9216 2d3e 1538 02be ec41 a73d d420 1e3e
000001d0: 9dad 6a3e d7b8 eb3d 277b 89bd 4fb1 a5be
000001e0: da5b c9bd bfcc 5f3d 3724 abbe 8c30 1d3d
000001f0: 20d5 30bb 873f 913d 194d 913e b6c3 3b3e
00000200: 960c 153e 1fc7 ad3d a13b 27bd 164e febc
00000210: ad83 e83d 301a 643c 2891 9cbd fce0 bcbd
00000220: 62aa 36be 0394 babd bf50 583d 8ffc 263e
00000230: ec25 0fbe f2b9 003e 7240 9c3d 4ab3 c7bd
00000240: 52ee 7ebe c93f 523d 3cbc 9b3e f774 14bd
00000250: e295 95be a563 013e 5ddd e3bc d01c 2b3e
00000260: 4f11 b93d aeb3 3d3e d3a9 983d 0fbc 06be
00000270: 2c6d 983d 66d1 dfbc f344 adbe 10b5 963d
00000280: 0a1c 7f3d 60f9 1abe 4b6d 1abe 6499 873c
00000290: dbdf c939 cb19 ebbd 7e3e 983e 1b80 61be
000002a0: b9c3 3ebd 673d 8d3e d151 77bc 3e25 5a3d
000002b0: ea2b cc3c 0429 e1be e500 8cbe 793b e73b
000002c0: f96e dfbe 1c41 df3d c0e7 e33d 85cf 873d
000002d0: 94cd 90bd 1422 2a3e 9192 d2bd 3492 883d
000002e0: 27d7 933d bb2b 60be cf92 b3bd ea09 de3d
000002f0: d352 f43c b914 7d3e 3286 a73c 4a6a 333e
00000300: a7d4 d03c 302e e03d 62df cebd 643d 99bd
00000310: e71c 2e3d e6cd 18be 2427 98be ada8 edbd
00000320: 95fc 23be 8a3f d7bb 7e6e 993c e796 c0be
00000330: f207 253d 53e8 fdbe 4196 493d 1a42 14bd
00000340: 8ce7 903d 4ecb 94bd 686f 85bd 8298 a5bd
00000350: 9153 653d 20c9 0f3e c64e bfbd 3d36 a23c
00000360: 8c60 5d3d 7818 3d3e 357a 08be 9e24 9ebe
00000370: 49b7 2fbc fe08 073e 8ff8 3ebe faba 2a3e
00000380: 0357 2abc 7d39 c43d f48b 4dbe 3483 3a3e
00000390: c7fc adbd 3690 1c3c 7e86 1dbd 3a19 f53c
000003a0: 0465 503d 408b 003d 651b 853c 9c16 3cbd
000003b0: 1d1d 193c 7c11 4d3e b99b 73bd f0f3 e1bd
000003c0: 9090 9b3a abc0 17bd 025c ebbe 99d2 663d
000003d0: 195b 8b3d 9384 643d 2ab6 653e 19ee 3d3e
000003e0: 9519 19be 7fd9 2f3e c6c9 333e 5fea e93d
000003f0: 03e5 0abe 2da2 6c3c 6053 cabe 3aeb eb3d
-0.13947691 0.1095981 0.17978805 0.008510486 -0.05813052 0.0036969166 -0.020459203 0.095975034
0.037936155 -0.079215094 0.08324735 -0.19788088 -0.28415307 0.011297099 -0.039990235 -0.013682113
0.25941175 0.12385702 -0.05775474 -0.046952866 0.09935876 -0.13632295 -0.08592236 0.1732375
0.06226357 -0.22722316 0.08943661 0.05838148 0.32734227 0.07258589 0.18995598 -0.10792382
-0.08318345 0.015835341 0.13999982 -0.08182906 -0.049980912 0.01187378 -0.07003117 -0.027558666
0.11413795 -0.50090224 -0.06759851 0.0051535033 0.0011644418 -0.09122975 -0.038793765 -0.19816086
0.05423306 0.009066422 0.041709676 -0.14498661 0.29399246 -0.11487723 0.13084865 -0.05550991
-0.09520858 -0.10835782 0.11197084 -0.16171055 -0.15965404 -0.04719795 -0.34086615 -0.054737676
0.17437163 -0.100062564 -0.012460533 -0.12080624 -0.1495481 0.07376889 0.03458144 -0.13657907
-0.23732154 0.12327027 0.0018425944 -0.22785747 -0.12653133 -0.27687678 0.23579508 -0.11375319
0.26343888 0.18687887 -0.22282653 0.001126017 -0.017661024 -0.28223038 0.062376317 -0.009322103
0.07765141 -0.083087556 -0.07882444 0.33386615 0.19592363 0.053788945 0.13344975 0.07022635
-0.0012485576 -0.22095923 -0.06571335 0.15446989 -0.122333735 0.2842165 -0.037878077 -0.0034932606
0.4394139 0.0130819855 0.15067646 0.29671475 0.2140174 0.103978306 -0.002545832 0.2618866
0.16903141 -0.12716706 0.081668705 0.1544221 0.2291779 0.11509865 -0.067129426 -0.32361838
-0.098319724 0.05463862 -0.33426067 0.038376376 -0.00269825 0.07092195 0.28379133 0.18336377
0.14555582 0.08485245 -0.04082835 -0.031043094 0.1135324 0.013922259 -0.07644874 -0.092226
-0.17838433 -0.09110262 0.05281138 0.16307281 -0.1397931 0.12570933 0.076294795 -0.097509935
-0.248956 0.05133036 0.3041705 -0.03624436 -0.29215914 0.12635668 -0.027815515 0.1671021
0.090365045 0.18525574 0.074542664 -0.13157676 0.07442698 -0.027321529 -0.33841667 0.07358754
0.0622826 -0.15134192 -0.15080754 0.016552635 0.00038504493 -0.11479529 0.29735178 -0.22021525
-0.046573374 0.2758591 -0.01509519 0.053258173 0.024923284 -0.43976605 -0.27344432 0.0070566502
-0.43639353 0.109010905 0.11128187 0.06631378 -0.07070461 0.16614562 -0.102818616 0.06668511
0.072187714 -0.21891682 -0.08768236 0.10841735 0.02982465 0.24714936 0.020449731 0.17521015
0.025492026 0.109463096 -0.10101201 -0.074824125 0.042508032 -0.14922294 -0.29717362 -0.11604438
-0.16014321 -0.0065688537 0.018729445 -0.3761513 0.04029078 -0.49591312 0.04921556 -0.03619585
0.07075414 -0.0726534 -0.0651539 -0.08085729 0.0559879 0.14041567 -0.09341197 0.019801253
0.054047152 0.18466365 -0.13327868 -0.30887312 -0.010724851 0.13187024 -0.18649505 0.16672888
-0.010396722 0.095812775 -0.20072919 0.18214113 -0.08495479 0.009555867 -0.03845834 0.029919256
0.050877586 0.0313828 0.016248414 -0.04592 0.00934532 0.20026201 -0.05947468 -0.110328555
0.0011868645 -0.037048977 -0.45968634 0.056353185 0.06804485 0.055790495 0.22432771 0.18547858
-0.14951165 0.17172812 0.17557439 0.11421656 -0.13563924 0.014442963 -0.39516735 0.11519475

network_body._body_endoder.seq_layers.0.bias f4 [256]
00000000: cc26 233d 4254 17bd 33f9 283d d27c 933d
00000010: bc65 203d 7b93 debc 2f03 61bd fabd 37bd
00000020: b995 ce3c 1699 e13c 6f4f 71bc 58b2 083d
00000030: 45db cabc d6d1 913d 87f8 923c 7c94 db3c
00000040: e7c9 cc3d 2c9c dabc 3ce6 18bd 57b1 66bd
00000050: 9ff5 f3bc 95df ddbc b7a9 7e3d 2de2 3abd
00000060: 7617 573c 4ec6 763d 1fbf f9bc 91bd c1bb
00000070: 1e32 a23c 4a0a e03c 43a9 ef3a c628 16bd
00000080: 7c1a 59bd 22fc ca3c 3c34 62bc 865f 663d
00000090: 80f8 d53b f433 e9ba 93c1 a33d 5b90 f5bc
000000a0: e389 d33c 2544 e73c 38fe 75bd 2648 be3b
000000b0: 5bce 35bc a406 8d3c 2863 763c 837c 5fbd
000000c0: c79c 0cbd b12f db3c 4794 4eba 7148 3bbd
000000d0: ca33 9f3d 0c85 8a3d 1ba5 843d 9fac 053d
000000e0: 4697 c3bb 99cb 94bc 2718 f2bc f379 df3c
000000f0: d7eb fb3d 6b7f da3d 6edb 183d 7c78 ccbc
00000100: 514a 00bd ba55 a33d f27e 95bd 65c3 44bc
00000110: df69 3b3d 0696 913d 044c 9abb 6909 2abc
00000120: b7e0 063d d78b 993d eb71 7e3d 83c1 a13d
00000130: 8a4c ddbc 06d1 aa3c 3bc3 cc3c a483 923a
00000140: e53a d53c fab8 76bb 0f26 0d3d cfcd a13b
00000150: 662e 8f3d 7c86 7ebd 7589 aebc 0401 6dbd
00000160: 6e47 833d 11e7 503b d1c2 853c f16e 473d
00000170: ade3 323c 2f5c 84bb 4416 153d 9023 7a3d
00000180: e93b 703c 2e37 02bd e8ce 173d 52a6 0a3e
00000190: ebc0 953a a17e ee3c 3e34 9c3c 033e f03c
000001a0: 2a52 4e3d 3f6d 0bbd fffe cb3c a651 323c
000001b0: 6e11 df3c 342e c8bb cf90 623d 247a bbbd
000001c0: 1d1e 553d b0d9 e138 d418 24bd c7eb 65bd
000001d0: e0fb 77bc dbe4 d73b 2d94 f2bb 2987 573d
000001e0: fba1 3b3d 3f03 4d3d 8c5a 34bd ea1d de3a
000001f0: 69f5 a53c 3768 6c3c c674 e1bc d40e 5a3d
00000200: f128 7cbc 5b7e 9fbc d9a3 73bc baee e33c
00000210: def4 23bd c491 7b3c 4a30 4c3c 8f72 09bb
00000220: 77ce f7bc 1196 0c3d 2181 ffb6 f13a 1d3d
00000230: 37c4 2e3d 7fce 263c 4a04 343d 00d6 8abd
00000240: 5dd4 2d3c 1db7 973d b2b9 813d 083e 843c
00000250: d2f8 43bd 6133 383d bfe1 ce3c a261 483c
00000260: 203f 6b3d fa58 953c 01f1 2e3b 92a9 f6bc
00000270: b222 62bc fb94 b0bc 7b6d 393d c4da 0e3d
00000280: 1a50 05bb e0d0 533d e286 863d 8e05 64bb
00000290: ba67 963d 8eb5 7bbc 2d0e a93c 430c 453d
000002a0: 848a 343c c18f b8bb 81a5 75bd 70d2 0a3c
000002b0: 7ef6 f43c 25d7 b53c daf4 d5bc 84f7 40bd
000002c0: 3bcf 813c b670 653d dad9 323c d6c6 25bd
000002d0: a0e1 aebb f51a 4f3d f798 a43d 8e4b 4e3d
000002e0: d5d9 14bd f26d 423d ef44 733d 468f 43bd
000002f0: 30f9 13bd 270e bd3d de43 133d b890 0e3d
00000300: f83d 8cbd b9df c43c f933 b739 64a4 81bc
00000310: 969e 92bc 06b4 10b9 a7c8 ad3c 886b 703c
00000320: 52a0 863c 7c9a 44bc 8143 7e3d 5a03 7b3d
00000330: 0c18 9d3d c91d f43c 6ba5 3c3c 498d a8bc
00000340: 64a5 aebc c5e4 313d 8589 de3c 7119 1dbd
00000350: c02d 8a3d 1ee7 113d 8b9f ba3c e8f5 1d3d
00000360: 0eeb fdbc 60b2 ec3c 58cb fe3c ff6b 33bc
00000370: 169b 1ebc a520 c9bc 7bd4 ffbc b1d3 7bbb
00000380: 91c1 8e3d 81c2 ed3c 61a2 843c 2259 42bd
00000390: 4dfb ccbc 1a84 963d ad61 93bc d44f 43bb
000003a0: 6d8e 9d3d faad 0d3d ce2b e43d f638 ff39
000003b0: bb4d 18bd 11b6 0ebd 24bf 723d 8bba af3c
000003c0: 4491 593c 53da 0f3d c282 b5bc f39b 40bd
000003d0: 5c52 893d 5e98 2aba e4e2 243d ab9a c9bc
000003e0: d4c8 babc 8c7a 61bc 4633 1a3d 3f10 21bc
000003f0: 05b1 76bd b8d6 90bc 756d b5bd 1524 9abc
0.03983192 -0.03694559 0.04125328 0.07201542 0.03915952 -0.027169934 -0.054934677 -0.04485891
0.025217878 0.027538817 -0.014728411 0.033373207 -0.024762759 0.07120101 0.017940773 0.026804201
0.09999447 -0.026685797 -0.037328944 -0.05632147 -0.029780207 -0.027084151 0.06217357 -0.045625854
0.013128152 0.06024771 -0.030486641 -0.0059124907 0.019799288 0.027348656 0.0018284697 -0.03665998
-0.053003773 0.02477843 -0.013806399 0.056243442 0.0065298676 -0.0017791972 0.07995906 -0.02997606
0.025822585 0.028230736 -0.060056895 0.0058069406 -0.011096562 0.01721508 0.015038289 -0.054562103
-0.034329202 0.02675614 -0.00078803714 -0.045723382 0.0777355 0.06763658 0.06476804 0.032635327
-0.005968961 -0.01816349 -0.029552532 0.02727983 0.12300842 0.10668834 0.03731864 -0.024959795
-0.031320874 0.079753354 -0.072996035 -0.012009476 0.045755263 0.07108693 -0.004708769 -0.01037822
0.03292915 0.074973755 0.06212036 0.078982376 -0.027014036 0.020851623 0.024995437 0.0011178148
0.02602906 -0.0037646876 0.034460124 0.0049378644 0.06991272 -0.062139973 -0.021305779 -0.057862297
0.064101085 0.0031876008 0.016328247 0.048689786 0.01091854 -0.0040393095 0.036398187 0.06106907
0.014662721 -0.031790905 0.037062556 0.13540009 0.0011425292 0.029113116 0.01906788 0.029326444
0.050371327 -0.034039732 0.024901865 0.010883724 0.02722999 -0.0061090235 0.05531388 -0.09154156
0.05203067 0.000107693835 -0.04006274 -0.056133058 -0.015135735 0.006588561 -0.007402918 0.052619133
0.045808773 0.050051924 -0.044031665 0.0016946171 0.020258622 0.014429144 -0.027521502 0.053236797
-0.015390621 -0.01946943 -0.014870607 0.027823795 -0.040028445 0.015354577 0.012462685 -0.0020972823
-0.030249817 0.034322802 -7.614625e-06 0.03838629 0.042667594 0.010181068 0.043949403 -0.067790985
0.010609713 0.07407973 0.06334247 0.01614286 -0.047844715 0.044970874 0.025254129 0.012230309
0.057433248 0.018230904 0.0026693942 -0.030110154 -0.013802217 -0.021555414 0.045270424 0.0348766
-0.0020341934 0.05171287 0.065686956 -0.003479335 0.07344003 -0.01536311 0.020636642 0.048107397
0.011019353 -0.005632371 -0.05997229 0.008473024 0.029902693 0.022197315 -0.02611773 -0.04711105
0.015845886 0.056015693 0.010916198 -0.040472828 -0.005336955 0.050562818 0.08036988 0.050365023
-0.036340553 0.047468133 0.059391912 -0.047744058 -0.036126316 0.09231215 0.035953395 0.034805983
-0.06847757 0.02403246 0.00034943203 -0.015825458 -0.017897885 -0.00013799974 0.021213843 0.014674075
0.016433869 -0.011999723 0.062076095 0.061282493 0.07670602 0.029799359 0.011514048 -0.020575183
-0.021319099 0.043431062 0.027165184 -0.03835434 0.06747007 0.0356208 0.022781154 0.038564593
-0.030995872 0.02889365 0.031102821 -0.010951041 -0.00968053 -0.024551699 -0.031229248 -0.0038425738
0.069705136 0.02902341 0.01619071 -0.047448285 -0.025022173 0.07349415 -0.017990911 -0.002980222
0.07693181 0.034589745 0.111411676 0.0004867983 -0.037183505 -0.0348416 0.059264317 0.021451255
0.013279263 0.03512032 -0.022157077 -0.047023725 0.06705162 -0.000650769 0.040255442 -0.024609884
-0.02280084 -0.013762128 0.037646554 -0.0098305335 -0.060227413 -0.01768051 -0.08858768 -0.018816033

network_body._body_endoder.seq_layers.2.weight f4 [256, 256]
00000000: 2405 a03d 50aa 39bd 34a8 8f3d 3191 323e
00000010: 6a5a 68bd 059a 24bd 4759 f63d 4b42 e3bd
00000020: 3373 c5bd 03fd 363e fd22 033d c80a 4dbe
00000030: e198 713d 231f 2dbe eaeb 183e 2077 8fbd
00000040: bd0e 9f3c b8e5 a0bd 809f 163d 2371 82bd
00000050: 8301 b2bd 0a36 ccbd c73c d0bc 6822 aa3d
00000060: 41a4 06bd 5003 14bd 73bd fcbb 1360 963d
00000070: a687 6c3d 7a57 50bb 6a72 1abe 27a2 97be
00000080: f62d 263e d521 0c3e 7c1b bd3d f1b4 16bd
00000090: 7a9a 8bbd 9153 21bd 4ddb 163e 41ce ba3c
000000a0: 16e0 a43d 80c1 a6bd a7e7 94bd 1da4 85bd
000000b0: 78e0 253d d5b2 e33d d42f d5bd 6e6b d1bc
000000c0: a1ef e73d 432a 19bd 3336 b03d 0c54 7ebc
000000d0: 5c32 7fbd bfe0 1c3d 58b3 a83d 87d4 3dbc
000000e0: ad3a 1abd bd59 1d3e 9c21 34bd 9d2d e1bc
000000f0: 9982 e23d 7723 c0bc 4b2f 343e cd3e f2bd
00000100: 62e2 a83c 1cde 953d 02dd 9ebc bfe7 493e
00000110: 58fe 2c3e f992 a13d 5396 993d cff8 d43d
00000120: 6b74 70bd 52fe 04bd f85c 5f3d 6df6 6f3d
00000130: 4541 163e 10b5 b7bd a574 37be af8d db3d
00000140: 4847 22be 38fe 8e3c 3d00 443e 5eee edbd
00000150: 462c d33c 9e67 143c a563 32bd 0c7c 61bd
00000160: 4de3 1e3e 0ebb e43c 508f 2bbd a21c 6f3c
00000170: 9a97 dbbd a86d ebbc 99b7 3a3d 8ea2 cc3d
00000180: 6e45 9f3d 5b7f c03d 74f3 283e 32c3 5f3e
00000190: b2df a03c afba 163e fc6f 34be b7cd 50bd
000001a0: abab 12bc e54e 193e 5084 c53d d491 a6bd
000001b0: b174 33bd 2efc a6bd 6d17 9c3d 863e 15bd
000001c0: a10c bb3d 7af3 8b3d 414e 713e 3b72 183d
000001d0: 3fa9 e9bd 815c 893d 48d1 533e e9e7 5c3e
000001e0: 81ab 0fbe 52a8 5b3e 7e7e 283e 0aef 22bd
000001f0: 4a97 07be 8105 cf3c 9c72 1cbe d943 06be
00000200: 05ed 113e 9a50 1d3e 26ca dd3c b351 ddbd
00000210: cbdc 77bc 4ee7 82bb 5bc9 19bd 8d00 043d
00000220: a6a3 00be 710d 0a3e 2d7a c33d f9a5 703e
00000230: 709b 44bc 4768 68bd 3426 11bc 83c4 52bd
00000240: 4e56 d9bc b9c4 aab9 835d 97bc 763e 50be
00000250: fade 813c 7c82 663b f1b0 94bd 5d09 183e
00000260: ed90 83bc 0123 7cbe bd1c 42bc 3f9e 0bbd
00000270: c0d1 87bd bffb e83d f71a 2b3c 0c6a f83a
00000280: 5147 68bd b3e2 bc3d 627e 9fbd 6df7 733c
00000290: cabc a33e 8594 1ebe 6e67 c5bc dc7b 29bd
000002a0: 6bbe f13d ce26 4ebd f1e3 9bbc cd9d d2bc
000002b0: 4e36 d23d e517 553d 40de 303e e7b2 dd3d
000002c0: 5f24 503d db2a 703d f336 27bd 5547 853d
000002d0: 5c59 c1bd e1be 20be 09b8 883c 74dd 6fbc
000002e0: 3185 5cbb 40d1 863e 8b02 dc3b 6081 8c3d
000002f0: 5542 883c 190f f2bc 4d57 dc3d db25 b2bd
00000300: f191 2a3d a5f0 26bd 2a5f 033e cebf 81bc
00000310: 00af f5bd b0e9 a1be dcb9 5fbc 9906 3e3e
00000320: a03d 113e 3b47 1a3c d754 403e 436c 273e
00000330: 36e4 88bd 98d2 07be 34a3 31be 83b1 d13d
00000340: d355 9bbd a0cf 74bd d078 dfbb fb88 e6bc
00000350: 7f54 8bbd 277e 13bd 28b4 6bbe 88e2 1bbd
00000360: 9949 ae3b faaa 11be b52c 2b3d b1a6 293e
00000370: 0382 5bbe a993 6bbc a4d5 ffbb c55f ec3d
00000380: c508 553d 25bf ad3d 8d6b 3abe 7732 61bd
00000390: d619 49be a6d8 273d 0017 9c3d 9317 88be
000003a0: d1ba 6c3d 1c7a cabb a486 f93c e00f f2bd
000003b0: 6ca7 7abd bac4 bfbd 60b1 a4bd 7e53 933b
000003c0: 82fc bbbc 2076 73bd 3cfe 3abd ce2e 003d
000003d0: 2ed5 743d b434 bc3c 3a01 443e 95f8 43bd
000003e0: f931 a0bd 5073 babd 4802 0e3a afb6 b83d
000003f0: 60c2 f3bd 424b f83c 31f9 e9bd e964 23be
0.078134805 -0.04532844 0.07014504 0.17438199 -0.05672685 -0.040185947 0.12028747 -0.11096629
-0.09641113 0.17869954 0.03201579 -0.20023644 0.058983687 -0.16906409 0.14933744 -0.07005143
0.019416207 -0.078563154 0.036773205 -0.06369235 -0.086916946 -0.09971245 -0.025419606 0.08307344
-0.03287149 -0.03613597 -0.007713014 0.073425435 0.057746552 -0.0031790421 -0.15082708 -0.296159
0.1622847 0.13684781 0.09233758 -0.036793653 -0.068165734 -0.039386336 0.14732094 0.022803428
0.080505535 -0.08142376 -0.07270747 -0.06525443 0.040497273 0.11118094 -0.10409513 -0.025563922
0.113250025 -0.03739382 0.08604088 -0.015522968 -0.062303886 0.038300272 0.08237332 -0.011586315
-0.037653614 0.15366264 -0.043977365 -0.02748757 0.11060066 -0.023454411 0.17596166 -0.118283845
0.02061576 0.073177546 -0.019392494 0.1971731 0.168939 0.07889361 0.07499375 0.10399019
-0.058704775 -0.0324691 0.05453202 0.05858462 0.14673336 -0.08970082 -0.1791559 0.107203834
-0.15847504 0.017455205 0.19140716 -0.116177306 0.025777947 0.009057907 -0.04355206 -0.05504994
0.15516396 0.027921226 -0.04188472 0.014594229 -0.10722275 -0.028738812 0.04558525 0.09991942
0.077769145 0.09399291 0.1649912 0.21851805 0.019637916 0.14719652 -0.17620844 -0.050977435
-0.008952062 0.14971502 0.09644377 -0.08133283 -0.043812457 -0.08153568 0.076216556 -0.03643658
0.09133268 0.06833549 0.23565008 0.037218314 -0.11409234 0.06707097 0.20685303 0.21572842
-0.14030267 0.21450928 0.16454503 -0.039778747 -0.13241306 0.02527118 -0.15278095 -0.1311182
0.14250572 0.15362778 0.027073931 -0.108065985 -0.015128325 -0.003994859 -0.037545543 0.032227088
-0.12562427 0.1348169 0.095447876 0.23500814 -0.01199995 -0.05674007 -0.008859206 -0.05145694
-0.026530411 -0.00032571497 -0.018477207 -0.20336327 0.015853394 0.003517299 -0.072603114 0.14847322
-0.016060317 -0.24622728 -0.011847672 -0.034086462 -0.066318035 0.11376142 0.010443441 0.0018952503
-0.056708638 0.09222927 -0.077877775 0.014890534 0.31979972 -0.15486343 -0.02409717 -0.041377887
0.118038975 -0.050329976 -0.01902959 -0.02571001 0.10264264 0.05202474 0.17272282 0.108251385
0.050815936 0.05863462 -0.040823888 0.06507746 -0.09440872 -0.15697815 0.016689317 -0.014640201
-0.0033648724 0.2633152 0.0067141703 0.06860614 0.016633192 -0.029548215 0.10758839 -0.086986266
0.041643087 -0.04075684 0.12829271 -0.01583853 -0.11996269 -0.31623602 -0.013655152 0.18557204
0.14183664 0.009416397 0.18782364 0.16349892 -0.06684153 -0.13263929 -0.17347413 0.10238936
-0.07584729 -0.05976832 -0.006819822 -0.02814149 -0.06803226 -0.03600898 -0.23017943 -0.038057834
0.005318832 -0.14225379 0.041790683 0.16567494 -0.21436314 -0.014378467 -0.0078074504 0.11541704
0.052010316 0.084837236 -0.1820509 -0.054979768 -0.19638762 0.040978096 0.076215744 -0.26580486
0.05779535 -0.0061791074 0.03045971 -0.11819434 -0.061194822 -0.093636945 -0.08041644 0.004496037
-0.022947554 -0.059438825 -0.045652613 0.031294636 0.059773616 0.02297435 0.19141093 -0.04784449
-0.078220315 -0.09104025 0.000541721 0.09019219 -0.119023085 0.030309323 -0.114244826 -0.15956463

network_body._body_endoder.seq_layers.2.bias f4 [256]
00000000: 73e9 e5bc b75c 82bc f3be c1bd 4fdc 6ebd
00000010: 3493 323b 3feb febc 801e 5cbd 6467 b4bd
00000020: 047b ee3c 8fbe 933c e517 9fbc d33c 96bc
00000030: 5378 67bd 4eda a8bd e508 b4bc c1af 5dbd
00000040: 9277 7fbc 902b ecbd e175 1f3c b5c8 083d
00000050: fff7 d6bd 7e78 4fbc 36ce 55bd a1f8 263c
00000060: 3963 ebbb 432e 363d 5339 95bd 1152 48bd
00000070: 18f2 d33c c800 23bd 1e65 a3bd 18f8 95bd
00000080: a32a 343c c60a 86bd 8e28 393d 82ee 93ba
00000090: da71 21bd bbc6 21bc a045 31bd d663 0bbd
000000a0: 1aee 9fbd 38ed f03b b411 88bd c86e 92bc
000000b0: ab75 eebc f124 80bc 2e87 92bd 5848 623c
000000c0: 4e6d 36bd d2f0 5c3b 3958 c53c c1e0 05be
000000d0: 307a 85bd 5977 a6bd bed2 0b3d ab57 34bd
000000e0: b482 b6bd ad02 37bd 9a8e 573d 06be 40bd
000000f0: 750f 04bc d75a e8bd e5ce ca3c 3e22 043d
00000100: b9ef 5a3c dc60 8a3b 120c acbd 3f3d c0bd
00000110: 484d 92bd 3415 1d3c 35ea 9ebd 6d39 dbbd
00000120: 50b4 a6bd 228d 3abd 7548 6138 f493 0abc
00000130: 368a 79bd 3d4d 00bd d8d2 32bd 8ea4 733c
00000140: fae5 e5bd da53 50bd d399 1ebc 902f 18bc
00000150: 9992 e63c f0cb 8d3a e644 453d 478d 4bbc
00000160: 3002 cbbc 8aed 0c3c d6d9 b9bb e3c3 71ba
00000170: 63c9 39ba ccc8 3bbd b5ce 82bc 622c 03bd
00000180: 65a1 89bb 6476 02bd d166 963c b089 64bd
00000190: 71d4 6cbd ce0f 21bc 24bc d53c 0435 e4bb
000001a0: 9d2c 1bbd 12a1 4b3d 6d0d b73c b325 ac3a
000001b0: 8464 82bd fcf6 31bd 4ebe c6bd b1d3 92bd
000001c0: 7ecb b73a 2d12 c0bc a923 f63c 31af 17bd
000001d0: 6f1b 3bbd 2821 aebd d715 4e3d 57ec dcbd
000001e0: a2cc a4bd f828 a83c be1d acbd 883c 16bd
000001f0: 497f adbd 8d9f c13c 4525 d7bc c6ed 5bbb
00000200: e7e3 babd f83b 10bd efed 86bd 9ca3 86bc
00000210: b647 b0bd b0ed 60bd fa35 c6bc a618 1e3d
00000220: 9214 1a3c 1e42 6cbd 806d f5bc 6963 eebd
00000230: f987 313d f511 dbbb 622e a3bd 25d6 1cbc
00000240: d0e8 dbbd 5124 8c3c d6c3 cd3c d5ae 583c
00000250: a120 cdbd c571 08bc 2cbb a23c a2a2 e2bc
00000260: 3f8d 02bd 982d 9b3c d655 e23c e1bd 78bd
00000270: 8ef8 563d 5ff1 1ebb 5f5c a0bd 0378 83bd
00000280: f680 efbc 1aa2 8bbd 541e babd b8c5 69bc
00000290: 5400 54bd 75e0 a6bd 7ac7 7cbd 25ec bfbd
000002a0: 0bac 86bd 063d 9dbc b5e7 1e3a 1036 9ebd
000002b0: 0b54 91bd ebe7 163d 2791 16bd 701f 3fbb
000002c0: b87e 58bc f397 8fbd 122b 29bd 8308 733c
000002d0: 126f 9d3c dfa1 073d b073 4dbb 53e2 8abd
000002e0: 0e99 d93c acae 0abd 1ca4 f4bd 6a0b a7bd
000002f0: 0f5f 6a3c ae32 7c3b 4333 4abc 5f4b 523d
00000300: a8d0 223c 35bb d7bc faf9 353d 7df5 4e3c
00000310: fc6b 6a3c 247b f23b f05c 00be af69 acbd
00000320: 97c6 3bba e746 b9bc 749d 3e3c 65e5 8bbd
00000330: 8846 fd3b 7df6 d03c a919 293d 4813 c43c
00000340: 02c1 a2bd c1c5 80bb 943a 73bd 8a35 e33c
00000350: c9c1 123d 29ae babd 9612 093c 2237 51bc
00000360: bc04 46bc 2484 15bd 330e eabb 081b dabc
00000370: a233 aebb 907d 04bd 9c61 80bc 407f 90bd
00000380: d813 e3bd a115 19bd b6dc 77bd 397d da3c
00000390: 9679 b0bc cb50 83bd 2b7b c83c 4982 85bc
000003a0: 92d4 ffbd 2dd0 ac3b f145 e13c fccc 743c
000003b0: e490 373c eb08 b0bc 42c7 44bd 74dc 35bd
000003c0: d5e9 a03c 62cf ffbc 9dda 7c3c cc62 82bd
000003d0: 6c90 97bd 09ce a6bd a512 48bd 8946 57bd
000003e0: add6 d2bd a184 0bbd cb4c 06be ff05 02bd
000003f0: a991 0cbd 96d6 a8bc 47ae f1bd 9b18 26bd
-0.028065419 -0.01591335 -0.09460249 -0.05831557 0.0027248384 -0.031118033 -0.053740025 -0.08808783
0.029111393 0.018035201 -0.019420573 -0.01833955 -0.056511234 -0.08244763 -0.021976897 -0.05412269
-0.015592473 -0.115317464 0.009732694 0.033394534 -0.1049652 -0.012663005 -0.05219861 0.010191114
-0.007183459 0.044477712 -0.07286324 -0.04890639 0.025872275 -0.039795667 -0.07978271 -0.07322711
0.0109964935 -0.065450236 0.04520469 -0.0011286291 -0.039415218 -0.009874041 -0.04327929 -0.034030758
-0.07809086 0.0073524974 -0.066440016 -0.01787509 -0.029108843 -0.015642615 -0.0715469 0.013811193
-0.044537835 0.0033712876 0.02408992 -0.13074018 -0.06517446 -0.081282325 0.034136526 -0.04402892
-0.089116484 -0.044680286 0.05262623 -0.04705622 -0.008060326 -0.11345451 0.024756858 0.03225922
0.013362818 0.0042229723 -0.0840074 -0.09386682 -0.071436465 0.009587575 -0.07759515 -0.107043125
-0.08139861 -0.04554475 5.371166e-05 -0.008458126 -0.060922824 -0.03132366 -0.043658108 0.014870776
-0.11225505 -0.050861217 -0.009680229 -0.0092886835 0.028146075 0.0010818224 0.04816141 -0.01242382
-0.024781317 0.008601556 -0.00567172 -0.000922261 -0.0007087199 -0.04584579 -0.015967706 -0.03202475
-0.004200148 -0.031851187 0.018359574 -0.05579537 -0.057819787 -0.009830428 0.026090689 -0.006964328
-0.037884343 0.049714155 0.02234527 0.0013133794 -0.06366828 -0.043448433 -0.097042665 -0.07169283
0.0014022437 -0.023446167 0.030046301 -0.03703231 -0.04568046 -0.08502418 0.050313797 -0.10787266
-0.08046843 0.020527348 -0.0840411 -0.03667882 -0.08471543 0.02363565 -0.026262889 -0.0033558472
-0.091255 -0.03521344 -0.06588351 -0.016435437 -0.08607428 -0.054914176 -0.02419566 0.038597725
0.009404318 -0.05768024 -0.02995944 -0.11640055 0.043342564 -0.0066854903 -0.07967831 -0.00957254
-0.10737765 0.01710716 0.025117796 0.013225277 -0.10015989 -0.008327906 0.019864641 -0.02766544
-0.031872984 0.01894264 0.02762882 -0.060727958 0.052483134 -0.0024252755 -0.078301184 -0.06419375
-0.029236298 -0.06818028 -0.09087816 -0.014268331 -0.051758125 -0.081482805 -0.061713673 -0.09371213
-0.06575783 -0.019194137 0.0006061749 -0.07725155 -0.07096108 0.036842268 -0.03675952 -0.0029163025
-0.013213806 -0.07011404 -0.04130084 0.014833572 0.019218002 0.033113357 -0.0031349473 -0.06781449
0.02656224 -0.033857986 -0.11945364 -0.08156474 0.01430489 0.0038482356 -0.012341323 0.05134141
0.009937443 -0.026334384 0.04442785 0.012631771 0.014307972 0.0073999334 -0.12535453 -0.08418595
-0.0007163076 -0.022616817 0.011634219 -0.06830863 0.0077293552 0.02550816 0.041284237 0.023934975
-0.079469696 -0.003929824 -0.059382036 0.02773549 0.03582934 -0.0911525 0.008366248 -0.012769492
-0.01208609 -0.036502972 -0.007142806 -0.026624218 -0.0053162137 -0.03234631 -0.015671544 -0.07055521
-0.11087769 -0.037374143 -0.06051322 0.026671039 -0.021542352 -0.064118944 0.024472794 -0.016297476
-0.124917164 0.00527384 0.027499171 0.01494145 0.011203978 -0.021488627 -0.04804159 -0.044399694
0.01964275 -0.031226818 0.015432981 -0.063665 -0.07400593 -0.08144767 -0.048845906 -0.052557502
-0.102948524 -0.03406203 -0.13115232 -0.031744 -0.0343186 -0.020610135 -0.11800819 -0.04055081

action_model._discrete_distribution.branches.0.weight f4 [3, 256]
00000000: 5e88 763d 4de9 c33d d3e6 aebc 98bd ddbb
00000010: 54c1 e93d 7325 bcba 1ecc 19bc ace4 e93a
00000020: 7a12 bcbc 1690 ae3d 80a6 51bd a030 c63c
00000030: ca4a 1abd 7517 20be 2b10 393c 1006 3f3d
00000040: 65ec 3a3d c709 703c 5c18 b83d 3ca2 ff3d
00000050: 87dc 3d3d d5ba 563b da5a 7bbd adc0 f73c
00000060: f534 a33d accf 39bd 9425 b8bc 0953 a93c
00000070: 51cb 623d 4537 173d a1cc 82bd 9203 3fbd
00000080: fa83 6a3d 762d 1e3b 72fd 08bc 9503 aa3a
00000090: 8dca 7b3d 1e44 853d 07b4 c5bb 91bb cf3c
000000a0: c578 6cbb bb43 68bd e61e ccbd 6839 263d
000000b0: 6e08 803b 7065 083d 85c7 f13c d160 8abd
000000c0: 81dc b83c f85c fbbc 4eee 9f3a a03c 13bd
000000d0: c9bd 08bb 98d4 ad3c db65 c13d f629 723d
000000e0: f3a6 2e3d 1be4 393d d441 333e 266e 033c
000000f0: 6e7b 72bd f973 833b 2b5e 70bd f500 88bd
00000100: e2d3 cb3c 3df5 953c 9ef0 aabc 8e82 5f3d
00000110: 5253 06bd f16b 0dbe a388 4fbd 3f32 32bd
00000120: b4fd bfbd 6f10 b9bd 3285 9f3d d37a ca3d
00000130: 77d8 0cbd 86e0 87bd d208 fc3b db0c 493d
00000140: f77b 86bb 8925 93ba 9c1d 493d cd26 0e3d
00000150: f1ee 573b 9fa3 10bd abfc 543d 52cd 56bd
00000160: b2de be3d 34f4 ee3d aee4 5cbd 68cc 373d
00000170: 4cd5 d7bc dd90 493d 7094 50be f0a8 7cbd
00000180: 2564 b3bd 6c44 7f39 f9f2 493d 0349 833d
00000190: 000c 8abd d9bb 2a3d 9216 873d 30cd efbc
000001a0: cdf2 8d3c 2121 6e3c 9bc4 6a3d c2b3 5f3b
000001b0: 1dd6 08bc 2c95 62bc 3eef 1abb 9482 99bc
000001c0: 00fd 2c3d 12c8 fb3a d784 b43d 0dc6 f03c
000001d0: bc63 de3c 7fd1 573c 310a d93a 003d 16be
000001e0: 4d93 6d3d 4b1c 803c 9818 99bd 53e8 133c
000001f0: 1576 e83c 6dd9 3cbc 14f1 803d 7649 63bd
00000200: 1a65 3d3d da66 bf3a 9623 4a3d 6c5c b638
00000210: 5f5d 98bd b9bb 0bbd 69dd 54bd e1cb ec3c
00000220: e221 503c 0329 a73c e59e 033d 43c3 23bb
00000230: a192 313d 8f69 d93c fc63 7cbd 1891 03be
00000240: c57c 95bd fdf7 923d eedc 74bd bc52 e6bb
00000250: 2931 f1bd 43b9 3c3d 15e4 033d 23d5 b7bc
00000260: e5e2 9bbd 7060 95bd e308 fd3d dd23 a93d
00000270: 87d4 813d f50d cfbc 8aa5 ee3c 9ed4 27bd
00000280: 2317 df3b 6068 a9bc 2a8b 2cbd 2fc7 853c
00000290: 2473 413d 9d32 50bc 87b5 4e3d edfd df3b
000002a0: c379 48bb 16f4 c23c b427 b43d a265 39bc
000002b0: fe29 a9bd 722d dd3c 43c4 ae3b 1c61 a0bd
000002c0: 3685 ca3c 2f89 03bd af65 9aba 3f0a 91bc
000002d0: cc68 db3d fa7f 95bc a40b 79bd 914e 76bd
000002e0: c761 1ebd 4e19 893d 496e ccbb 75fb d5bc
000002f0: dfaf 9a3d fafd 01bd 30f4 ef3c 3472 9a39
00000300: 0833 bcbd 74b0 3cbd 2f53 183e 32c7 79bd
00000310: f109 21bc 14d5 7fbd ef02 33bd 5d18 b2bc
00000320: 1e56 143d 052b 2ebd 95ee db3c 3566 c2bc
00000330: d771 f73b 2bc7 483e a515 24bc cda4 8a3d
00000340: af32 233d bc0d 05bc a6e4 e6bc ae89 1a3d
00000350: 1eb0 82bb 7df7 833d 4836 ba3d 378b 8abc
00000360: 1b03 bd3d f957 173d a31e 8f3d 0012 55bd
00000370: e508 d03d 3d5b 1dbb f634 43bb 7ab6 84ba
00000380: cdbc 163d 805d b6bd 0218 773c 9e36 be3c
00000390: 4e5b ce3d 2420 bc3c c3a6 133c fc4d 1b3d
000003a0: 98cf debc 48d4 e1bc 90e6 b73c 7ac6 0bbd
000003b0: 1ee5 7b3d 0436 db3b ca4d 35bd 326d 873d
000003c0: 54a6 81bd e59a 2d3d 62ce bb3d 9100 e0bc
000003d0: e262 1d3d 1eba f03c c359 8e3d 7e80 343d
000003e0: df46 afbd dcd7 df3d 2e5f babd 1a82 44bc
000003f0: 1cef aabd 6388 d73d 0872 68bd 0b0f d03c
0.060188644 0.09565983 -0.0213503 -0.006766986 0.114138275 -0.0014354422 -0.009387044 0.0017844639
-0.022958029 0.08523576 -0.051184177 0.024193108 -0.03766898 -0.15633948 0.011295359 0.04663664
0.0456356 0.014650769 0.08989021 0.124821156 0.04635289 0.003276517 -0.06136594 0.030243242
0.07969085 -0.045364067 -0.022478856 0.020669477 0.05536968 0.036917944 -0.06386686 -0.046634264
0.05725477 0.0024135984 -0.008361207 0.0012971038 0.061472464 0.06507133 -0.006033424 0.025357993
-0.0036082726 -0.056705218 -0.09966831 0.04058209 0.003907255 0.033299863 0.029514084 -0.067567475
0.022566082 -0.03068398 0.0012201758 -0.03594649 -0.0020865074 0.021219537 0.094432555 0.05912205
0.042639684 0.045383554 0.1750558 0.008021867 -0.059199743 0.0040116278 -0.058683556 -0.066408075
0.024881307 0.018305415 -0.020866688 0.054567866 -0.032794304 -0.13810708 -0.050667416 -0.04350495
-0.09374562 -0.090363376 0.07789077 0.09886708 -0.034386124 -0.06634621 0.007691481 0.049084526
-0.004104133 -0.0011226396 0.049100503 0.034704972 0.0032948817 -0.03531229 0.051998775 -0.052441902
0.093198195 0.11667672 -0.053929023 0.04487267 -0.026346825 0.049210418 -0.20369124 -0.06168455
-0.087593354 0.00024344184 0.049303982 0.0641041 -0.0674057 0.04168305 0.06596102 -0.029272646
0.01732769 0.014534266 0.057316404 0.0034134244 -0.00835183 -0.013829511 -0.0023641135 -0.018739022
0.042233467 0.0019209406 0.088144 0.029391313 0.027147166 0.013172506 0.0016558823 -0.14671707
0.058001805 0.015638491 -0.07475394 0.009027558 0.028376618 -0.011526448 0.06295982 -0.05548998
0.046238996 0.0014602796 0.049350344 8.695651e-05 -0.07439684 -0.034114573 -0.051968966 0.02890581
0.012703391 0.020405298 0.032133956 -0.0024988211 0.043352727 0.026539592 -0.06161879 -0.12848318
-0.072991885 0.07176206 -0.059781007 -0.0070289057 -0.11776955 0.046075117 0.032199938 -0.022440499
-0.07611636 -0.072937846 0.12355211 0.082587935 0.063393645 -0.02527521 0.02913167 -0.040974252
0.006808178 -0.020679653 -0.042124905 0.01633033 0.047228947 -0.01270738 0.050466087 0.0068356902
-0.0030590154 0.02379803 0.08796635 -0.011315735 -0.082599625 0.02699921 0.005333455 -0.07831022
0.024721723 -0.03211325 -0.0011779572 -0.017705081 0.10713348 -0.0182495 -0.060802117 -0.06013352
-0.038667466 0.066942796 -0.006238733 -0.02612088 0.07553076 -0.03173635 0.029291242 0.00029458257
-0.09189421 -0.046066716 0.14875482 -0.060980983 -0.00982903 -0.062459067 -0.04370397 -0.021740133
0.03621494 -0.042521495 0.026847163 -0.023730377 0.0075514126 0.19607227 -0.010014926 0.067697145
0.039843258 -0.00812095 -0.0281852 0.037728958 -0.00398828 0.06443689 0.090923846 -0.016912086
0.09229108 0.03694913 0.06988265 -0.05201912 0.101579465 -0.002401068 -0.0029786206 -0.0010125183
0.03680115 -0.089045525 0.0150814075 0.023219403 0.10076009 0.022964545 0.009011927 0.03791617
-0.027198598 -0.027567044 0.022448808 -0.03412483 0.0614978 0.006689789 -0.04426364 0.06612624
-0.06330553 0.042384047 0.09170224 -0.02734402 0.03842438 0.029385623 0.069507144 0.044067852
-0.085584395 0.10929844 -0.09100185 -0.011993909 -0.08346388 0.105240606 -0.056749374 0.025397798

action_model._discrete_distribution.branches.0.bias f4 [3]
00000000: 79da 013e d1e3 41bd 2ef7 d3bd
0.12680997 -0.047336403 -0.1034988

action_model._discrete_distribution.branches.1.weight f4 [3, 256]
00000000: 25eb 00bd 99ed 1fbc 6f43 883c f1be 8f3c
00000010: 8486 0b3c 99b3 2b3d ddff e53d 76c4 58bd
00000020: 3eb0 13bd 9730 683b dd5e d9bb 3a74 af3c
00000030: b21c 293d 2130 223d c45b 923c 49e1 9d3c
00000040: f171 a2bd 46c8 4c3d 8a0d 993c 2a6a 9e3c
00000050: 4ab6 883d c3b5 4dbc 8cf9 6fbd bbfe 123d
00000060: 1e3d 4ebd 1bda 213d 9c4e 6d3c 27a3 cebb
00000070: 78f0 1ebc fad5 fc3c d003 5c3c ac1f 163d
00000080: d483 65bc 6d8b e5bc 738d 133d 87ec 283d
00000090: 7ed0 9f3c 817b 2a3d 5328 94bc 7d7d 633d
000000a0: 9450 e039 3971 733d d0c1 413d 3a90 ab3c
000000b0: f7cd 45bc 3283 08bc e53d 063d 1bab b53d
000000c0: 1174 3ebc bd6e 5fbc b43e af3c f8f6 3f3d
000000d0: 0874 e3bc a198 983d 832f 0e3d 79dd c53c
000000e0: 714b b7bc dbee 343d b4be 003c 25ff 593c
000000f0: fd1b b7bb 5987 743c 9237 05bd 685b 6e3d
00000100: c0f6 233c cc22 cdbb 339e e6bd d00f c83c
00000110: cd86 fc3b 45db 0e3d 626c 763d 851a 213d
00000120: 0f90 513d f4d3 e73c 06c2 8f3c b8a0 7bbd
00000130: d71e 713c f35f 533d dc02 153e de5a 35bd
00000140: 0d9d 0f3d 1e5c 193d 3765 4cbc 86dd 323d
00000150: bc3f e0bb a11b 253d 7b18 433c 630b 19be
00000160: 0fa2 03bd 0318 6dbd 72bc a43d 4df8 98bd
00000170: 5a74 a93d 997e 6e3d b522 ab3c ed6e 233d
00000180: 6c36 653d 002b b13d fd5b 843c b3e7 8b3d
00000190: 30fc 03bd 69b6 9ebc 869d d13c 4b4b b03d
000001a0: 2623 5c3d 7973 66bd 1b80 dbbd a02b 16bd
000001b0: c427 413d fd29 15bd 478d c1bb 7a4d 4e3c
000001c0: 688b 803c 80a1 683d d8ad 50ba d00c 943c
000001d0: 4f08 8b3c 9d02 a93c 92a3 a63d 6175 db3c
000001e0: 2a89 96bc 9e27 943c 90a8 393d 2c9c 143d
000001f0: 774b 1d3d ef67 f93d cd85 bf3c 06b5 90bd
00000200: 1f3f 903d 4bbd 863b bb4b 7a3c 2637 953b
00000210: bfef a83d ca13 08bd d197 ea3c 464b d13c
00000220: f8b0 4abc 0fb3 e13c a86e d3ba d006 ff3c
00000230: f3de 953c 3e50 10bb 9c1f 2d3c 2367 ac3c
00000240: 79a3 f1bb ccea 25bd 8ff2 0b3d b380 7e3d
00000250: 5e3e 1e3d 411e 213d 0204 e4bb 8c42 4cbc
00000260: 2f45 51bc 0fb1 e03d e78b 80bc 84be 0f3d
00000270: 38e6 723d 77ae 473c 438e 883d 7f55 db3c
00000280: e7f3 c4bc 9593 003c aa34 e43a 4208 413d
00000290: 210e 71bc b9af 8e3d 95cd aa3d eb5e 783c
000002a0: 5f89 c4bc 7082 e93c 3fd0 d9bc 4dd7 533c
000002b0: 2b1d c23b e20f 38bd 891e 3cbd 6885 b63d
000002c0: 02e1 b93c 43b5 303c a22b bd3c 18ee cc3c
000002d0: a8d3 a7bd 0757 183c f254 50bd 1866 633c
000002e0: 086d e2ba ac2d 283d 12c4 883d d7a7 633d
000002f0: 18dc 263d a278 4abb ade2 aa3d fb52 163d
00000300: f0fc 9d3d d080 82bd 48c1 b93c 1875 c1bc
00000310: 9df0 403d c501 b33c 3d7d b33d 371e 503d
00000320: 7c1f ddbc ff51 383d ba39 aebd 5551 e3bb
00000330: e586 383d 560b 1c3c 9d6f b63c c397 9bbd
00000340: 1cbe 393d 5518 9dbb 9ca2 b63d 8702 073d
00000350: 39bd 8b3b e73d e43c e75f b4bc c69c b33d
00000360: e3d1 0abc 94db 2c3d 3430 693d bf5a 1abd
00000370: fa01 853b e18e a13c 119e 2e3c 792e 36bc
00000380: 89ac fdbc 2561 643c db2b ea3c cd6e 63bd
00000390: e700 343d 2e8e 523d 8467 603d f174 113c
000003a0: b164 873d 509a b13d 7895 1b3c 82cd a93c
000003b0: 581a 313d 88c0 503c eb99 41bc 670c 153d
000003c0: 2e1d 9d3d 4abd d53c a86c de3c fa5c a9bc
000003d0: 40a7 55bd 9980 7c3d 7773 423d 094d 103d
000003e0: 21f8 483d af8e 153d 0ece 993b d510 a93d
000003f0: 75b5 4f3c 9d31 f73a bc4f 853d 1f3c 843c
-0.03147425 -0.009761238 0.016633717 0.017547103 0.008515958 0.041919325 0.11230443 -0.052921735
-0.03605675 0.0035429352 -0.006633623 0.021417726 0.04128713 0.03959668 0.017866023 0.019272463
-0.07931889 0.049995683 0.018683214 0.019337732 0.06675394 -0.012555542 -0.058587596 0.03588746
-0.050351255 0.039514642 0.014484074 -0.0063060704 -0.009700887 0.03086375 0.013428643 0.0366513
-0.014008481 -0.028020585 0.03602357 0.041241195 0.019508597 0.04162169 -0.018085634 0.055539597
0.00042784645 0.05943415 0.047303975 0.020942796 -0.012073032 -0.008332061 0.03277387 0.088705264
-0.011624352 -0.013637242 0.021392204 0.046866387 -0.027765289 0.07450987 0.03471328 0.024153458
-0.02237484 0.044173103 0.007857967 0.01330546 -0.0055880533 0.0149248475 -0.0325237 0.05819264
0.01000756 -0.0062602516 -0.11260643 0.024421602 0.007706499 0.03487708 0.060161956 0.03933193
0.051162776 0.02829931 0.017548572 -0.06143257 0.014716825 0.051605176 0.14551872 -0.04427611
0.035061885 0.037441365 -0.012475303 0.043668292 -0.006843535 0.040309552 0.011907692 -0.1494575
-0.032136973 -0.057884227 0.080437556 -0.074692346 0.082741454 0.0582262 0.020890573 0.03990071
0.055960104 0.0865078 0.016157145 0.068313025 -0.032222927 -0.01937409 0.025587808 0.08608111
0.053744458 -0.056262467 -0.107177936 -0.036662698 0.047157064 -0.036416996 -0.005906734 0.012591714
0.015691474 0.056794643 -0.0007960475 0.018072516 0.016971735 0.020631129 0.08136667 0.026789369
-0.018375952 0.018085297 0.04532677 0.03628175 0.038402047 0.12178027 0.02337923 -0.070657775
0.070432894 0.004111921 0.015276845 0.0045536933 0.08248853 -0.033221997 0.028636845 0.025548588
-0.012371294 0.027551202 -0.0016131001 0.031131178 0.018294787 -0.0022020484 0.010566618 0.021045273
-0.007374224 -0.040507123 0.03416687 0.062134456 0.038633697 0.039335493 -0.0069584856 -0.012467038
-0.012772842 0.10971271 -0.01569171 0.0350938 0.059301585 0.012187592 0.06667759 0.026774166
-0.024042083 0.007847686 0.0017410715 0.047127016 -0.014712841 0.0696711 0.08339993 0.015159349
-0.023991285 0.02850458 -0.026588557 0.01292975 0.0059238872 -0.044937022 -0.045927558 0.08912164
0.0226903 0.010785404 0.023092095 0.025015876 -0.08194667 0.009298093 -0.05086226 0.0138793215
-0.0017274925 0.04105918 0.066780224 0.055579986 0.04073724 -0.0030894657 0.08344016 0.03670023
0.077142596 -0.06372225 0.022675171 -0.023615405 0.047104467 0.02185143 0.08764122 0.050810065
-0.026992552 0.045000073 -0.08507104 -0.006937186 0.04505052 0.009524187 0.022270018 -0.075973056
0.045347318 -0.0047941604 0.08917734 0.032961395 0.0042645005 0.027861549 -0.022018386 0.087701365
-0.008472892 0.042201594 0.056930736 -0.0376842 0.0040590735 0.01972145 0.010657803 -0.011119478
-0.03096606 0.013939177 0.028585365 -0.05552559 0.043946173 0.051405124 0.05478622 0.008877979
0.06611002 0.08672011 0.009496085 0.020727877 0.043238014 0.0127412155 -0.011816482 0.03638878
0.07671581 0.026091237 0.02715142 -0.020674217 -0.052161455 0.061646078 0.047473397 0.035229716
0.04906476 0.036513027 0.004693753 0.082551636 0.01267754 0.001885939 0.06509349 0.01614195

action_model._discrete_distribution.branches.1.bias f4 [3]
00000000: 7ad0 6abd 036a 383c 07b0 6b3d
-0.057327725 0.011255744 0.05754092

action_model._discrete_distribution.branches.2.weight f4 [2, 256]
00000000: b9cd 353d 43c6 d93d cc92 08bd f6a9 fd3d
00000010: 5e01 a83c 7ccf d5bd 9ba3 5e3d 023e 8f3a
00000020: aa03 44bd ff5d 40bd 3018 11bd 56f1 ae3c
00000030: ac21 05bd ce43 2ebd 2cbf 253e d36e 0dbd
00000040: 76a1 38bb 38b5 b4bd 32ff 95bd 4629 95bc
00000050: b2f3 453d 6254 3fbd d27e f2bd 0f31 dc3d
00000060: 1b32 733c b651 af3c c8de a5bc a4b0 7cbd
00000070: ec76 e3bc 5462 b6bc 610b 07be 0119 183c
00000080: 32f7 863c d223 983c b008 a53e 4e34 3f3b
00000090: 77a0 3abc 3d41 f83d 0d3a 1ebd 0e88 143d
000000a0: 0e6a 30bd 6923 453d 045e d1ba b476 443d
000000b0: f35d 3a3d 8f5e 103d a843 d1bc bf45 2f3d
000000c0: 19f3 cabd 696d 413e 69c2 303d 60d7 77bd
000000d0: ee49 d23c c956 6cbd 7b9f 4a3b 1a3a 643d
000000e0: a7e1 07bc f357 01bd 1ce5 debb 887b 713a
000000f0: dbf2 45bb 7656 80bd 4aeb 90bc b2f3 8ebc
00000100: 64da c33c 24af 173c 1920 8dbd 1a4c 3fbd
00000110: 12e6 bcbc 2421 eabc 2bd7 afbd 50d6 14be
00000120: 94ab 89bd c422 53bd 9597 2bbd eeeb e13c
00000130: 5746 6d3d 826a e2bc 5920 e9bd b93e 75bd
00000140: aa2f 1dbe 6c0f 2b3d 8c4d 053d 2027 9e3d
00000150: a4d9 dfbd 95b9 653e bbec a83d b27f 01bc
00000160: ed60 dbbc fc34 d73c 193c 43bd d182 c73c
00000170: 3297 aa3c 6a1c 0b3d bcbe 4b3c d296 943c
00000180: c952 003d c3c3 02bd 9faf 03bd e853 84bd
00000190: 199b a63c fa29 51bd 9847 82bd e40b c1bb
000001a0: a88b 10bd 57e8 3cbd 2ec1 a6bd fd36 303c
000001b0: aff9 ac3b dbbd 0ebe 677e 13be 9608 65bb
000001c0: f85e 80bd a2ab 0cbd 7027 e73b 83ff a53d
000001d0: 7408 2c3e 3957 53bd 1937 453d 888b 05be
000001e0: 70e9 bebd 2041 b83d 6c65 9bbd 73e1 0d3d
000001f0: 4cd1 1f3d c826 663c 2769 883c adce efbc
00000200: 0ab4 49bd f6d7 a3bd b117 e63c 1c4c 5fbc
00000210: ad1b b1bc c400 d0bd 334f c4bd a7cc a13d
00000220: 189d 1dbd 3973 6a3d d0d8 f3bc 12e7 27bd
00000230: abe4 193c 0b3e f3b9 8a27 90bd fe99 a1bd
00000240: d52e c0bd 0d1d 32bc afe1 aabc 9bd5 2b3e
00000250: fb6b bdbd 3da7 a73d bdd8 93bd 770e c2bc
00000260: 490b 113c 5cfe 493d 6d48 cd3c a0e6 af3c
00000270: e511 01b9 faa4 57bd 3f19 9bbc 6aac 3dbd
00000280: 4381 6cbd f8e0 823d d911 c2bd 724e 303d
00000290: d978 883c 9da3 debd 0d6c e9bc 3a70 fdbc
000002a0: 553c 593d e178 8f39 e871 c33c 2601 8cbc
000002b0: 4139 8ebd c94d 3fbd 3a89 393c 7482 3c3a
000002c0: 6ae4 163d c7e9 8e3c 161b 6bbc 6c0c 523e
000002d0: d33c 463d 3e8e 0abd 5729 02bd 6049 9fbc
000002e0: 876b 903e 5ca9 b03a 1a2e 8abd 7015 72bb
000002f0: 1f22 183c 7675 9d3c 406e adbd ed52 ba3e
00000300: e09e a33d a1f0 fcbd ce24 e3bb 7b93 71bc
00000310: 71b0 823d 408d 81bd c337 6fbd 4964 d1bc
00000320: 980b d0bd dd78 b23b bcc3 94bd 24db b8bd
00000330: dbd3 45bd fbce 11bd 3548 4e3e 78ea 823c
00000340: a1b8 a8bd 6c7f 3b3d 3c32 4ebd be8c 103e
00000350: f5c9 44bd b94e fb3c 0c10 373c 6bb2 983d
00000360: f3ee 3f3d 6459 d73d bcf2 c63c 3e3c e5bc
00000370: ddf4 1ebd 3d68 213e 39c8 3b3d d26c 06b9
00000380: 8831 05bd e706 a6bd bba3 1c3c 2c9c d3bc
00000390: ca4f ae3b 6146 b6bc bab8 9c3e d862 98ba
000003a0: fd65 fabd b03c 84bc 4f28 64bc 2686 ad3c
000003b0: 8925 fb3d b0d0 8fbd a263 27bd f4c8 23bd
000003c0: 9387 8a3d de97 b73d 4f2e f03c 6531 c3bd
000003d0: 019c 1dbd 7c6a aebd 66b0 edbc 5a02 8dbd
000003e0: ad35 82bd 0fb8 a0bd 89c3 97bd 5901 b93d
000003f0: 1998 4dbc 30b2 9d3d d021 1cbd b317 8fbc
0.044385646 0.106335185 -0.03334312 0.12385933 0.020508464 -0.10439965 0.054355245 0.0010928514
-0.047855057 -0.04696464 -0.035423458 0.021355312 -0.032502815 -0.042545132 0.16186208 -0.03452952
-0.002817241 -0.08823627 -0.07324065 -0.018208157 0.04832811 -0.046711333 -0.11840595 0.10751545
0.014843489 0.021401267 -0.020247832 -0.061691895 -0.027766667 -0.022263683 -0.13187934 0.009283305
0.016475294 0.018571768 0.3223319 0.0029175463 -0.011390797 0.12121818 -0.03862958 0.036262564
-0.04306989 0.048129473 -0.0015973453 0.047964767 0.045499753 0.035246428 -0.025544956 0.042791124
-0.099096484 0.18889393 0.043154154 -0.060508132 0.025670018 -0.057699952 0.0030917812 0.055719472
-0.008293546 -0.031578016 -0.0068022143 0.0009211828 -0.0030204568 -0.06266491 -0.01769032 -0.017450187
0.023907848 0.009258065 -0.06890888 -0.046703435 -0.023058925 -0.028580256 -0.08585962 -0.14534879
-0.06722179 -0.051546827 -0.041892607 0.02757832 0.05792841 -0.027638678 -0.11383123 -0.05987427
-0.15350214 0.041762754 0.032544658 0.07722306 -0.109301835 0.22434075 0.08248278 -0.00790398
-0.026779616 0.026270382 -0.047664735 0.02435437 0.020824049 0.033962645 0.012435611 0.018138323
0.03132895 -0.031924974 -0.032149907 -0.06461316 0.020337628 -0.051065423 -0.06361312 -0.00589131
-0.035289437 -0.046120014 -0.08142315 0.010755298 0.005278788 -0.13939612 -0.14403687 -0.0034947745
-0.06268114 -0.03434337 0.007054262 0.081053756 0.168001 -0.051596854 0.04814825 -0.13041508
-0.093218684 0.089967966 -0.07587704 0.034638833 0.03901796 0.014047332 0.016651703 -0.029273355
-0.049243964 -0.08000176 0.028087469 -0.013628986 -0.021619642 -0.10156396 -0.095854186 0.079003625
-0.038479894 0.05723879 -0.02976647 -0.04099185 0.009392898 -0.00046394797 -0.070387915 -0.078907
-0.093839325 -0.010871184 -0.020859567 0.16780703 -0.09249111 0.08186195 -0.07219074 -0.023688538
0.008852788 0.04931484 0.02505895 0.021472275 -0.00012309065 -0.05264757 -0.018932937 -0.046307005
-0.05774046 0.06390566 -0.094760604 0.04304356 0.016659187 -0.108710505 -0.028493905 -0.030937303
0.053036053 0.00027365147 0.023858026 -0.017090391 -0.06944514 -0.04670504 0.011324221 0.000719107
0.036838926 0.017445458 -0.0143497195 0.20512551 0.04839785 -0.03382706 -0.031777706 -0.019444168
0.28207037 0.0013478207 -0.067470744 -0.0036939047 0.009285479 0.019221049 -0.08468294 0.36391392
0.079892874 -0.12350584 -0.0069318777 -0.014744635 0.0638131 -0.063257694 -0.058402788 -0.025560515
-0.10158461 0.005446537 -0.07263896 -0.09026173 -0.048297744 -0.035597783 0.20144732 0.015980944
-0.0823834 0.045775816 -0.050340876 0.14116189 -0.048044164 0.030677186 0.0111732595 0.074559055
0.04685874 0.10515097 0.024285667 -0.027982827 -0.03880774 0.1576242 0.045845244 -0.00012819775
-0.03251794 -0.08106785 0.009560521 -0.025831304 0.00531957 -0.022250356 0.30609685 -0.0011626137
-0.12226484 -0.01614222 -0.013925626 0.021182131 0.12263019 -0.07022226 -0.0408665 -0.039986566
0.0676414 0.08964513 0.029318957 -0.09530906 -0.038478855 -0.08516404 -0.029014777 -0.06885214
-0.06357894 -0.078476064 -0.07410342 0.0903346 -0.01254847 0.07700002 -0.038118184 -0.017467355

action_model._discrete_distribution.branches.2.bias f4 [2]
00000000: bcb5 b13d b2b5 b1bd
0.08677241 -0.08677234
