ML_stuff/results/cw_03/FindCubeWife.onnx (onnx, 356907 bytes, 13 tensors)

discrete_act_size_vector f4 [1, 4]
00000000: 0000 4040 0000 4040 0000 0040 0000 0040
3.0 3.0 2.0 2.0

network_body._body_endoder.seq_layers.0.weight f4 [256, 69]
00000000: d1e6 053d 1e12 42be 6298 d9bb 604b 273e
00000010: e6ff aa3e 71b2 393e 9373 66be 2353 13be
00000020: dc84 80bd 45fa ac3c 9337 853d 6626 d03d
00000030: 8421 70bd a3bb 2cbe ac03 4a3e 2f08 cf3d
00000040: b1e4 bfbe 592c c03c c450 8dbe 137b abbb
00000050: 3a5d 03bd e07a 183e 72fc 5dbd 2308 46bd
00000060: b5e2 3d3e 0f3c 55be c7bb 67be 7232 353e
00000070: 1c96 21bb f9c1 7f3e 1549 96be b8ce d73d
00000080: e2ec a13c 9d60 f2bd 44ea 26bd 38f8 cf3c
00000090: 9930 153c 2faa 463e de9f 0abe fea1 a53d
000000a0: d373 7d3e e983 1b3b 71c1 a33d b56b adb9
000000b0: 793f 2ebe 0161 773e 3a6d 25bd d26b 3e3e
000000c0: a9a4 57bd c9ec 423d c7e3 67be f86a adbd
000000d0: 2f91 d43d e477 163e 55c8 97bd 95bd b63d
000000e0: 7fce 5fbd e0db a03e c087 103e 5d3b 69bd
000000f0: e14f 5ebe 3cbb 433d bff2 0d3d 51f5 9d3e
00000100: c3a9 7c3d 9fb4 e23e 07ec 9c3c 66f0 0ebe
00000110: ec2a 363e 737f 54bd fda8 93bd 6dc8 c9bd
00000120: b54c 473e 2747 83bd 1c89 c8bd 9cba f93d
00000130: da36 a03d 6c54 993e 4955 b4bd dcdb 973d
00000140: 170f 423d 19db 0b3e 2b37 38be 4881 1bbd
00000150: 1113 073e c871 6f3c f1d8 0d3d c252 073d
00000160: 51ff 26be f8c3 c73d ff27 c8bd 7d7c ef3d
00000170: 4ddb 81bd dffa 743d 4283 5a3e 4d55 aa3c
00000180: eafc 60bd 0f85 ff3c c8c6 82bd 728f 9a3d
00000190: 37e1 23bb a0d6 a53d fd90 e73d e5a1 5b3e
000001a0: ccff 65be b755 ad3e c766 533e 6e76 313e
000001b0: 5651 67bb 0b9a c2bd 3aa4 6d3c 7af3 663e
000001c0: 6a98 06bd 3395 7f3d 5d09 803d 1a7f 4dbe
000001d0: 69cf 06bd e622 92bd 3a0c 0b3d ea50 973d
000001e0: 0bb0 623c 402e 3b3d 3ca0 413e af69 25bd
000001f0: c528 223d eefb 32be 4f26 91bd bc33 e1bc
00000200: 0668 2abe fd34 4bbe efd5 47be 9bb6 5abd
00000210: ec0b 0b3e 5f77 d63d 2d98 d43e c0ef f53d
00000220: 479e 673e 9949 dbbd b4e2 b93a f8f9 08be
00000230: b222 783d a451 6f3e 9ab2 c63d 3875 b9bd
00000240: 0ce2 62be ba7c 09be 8949 c5bd 018b b5bd
00000250: c407 e2bb 4ae9 d1bd a680 c93c 2512 203e
00000260: f4c1 7e3d 174f abbe dc32 8bbc 6e82 8ebd
00000270: 62e5 44bc 0f44 33bc bdab ef3d 32db 86bd
00000280: b8a0 8d3d 5858 f83d ba54 263d dca4 8cbc
00000290: a7e7 033e fad7 063d 0271 f53d d22a 933e
000002a0: 943b dabd cec3 c63c 6386 0b3e 4e42 f6bd
000002b0: 59b2 373e 7212 42bb c8e0 8f3e 6a96 33bd
000002c0: 3850 08be 3ac8 583e bb40 c7bd 641a 4b3e
000002d0: 5ae6 abbc b651 3bbd 8b3b d3be 810f 033e
000002e0: ae3b 2a3e 1e81 0d3e 57ea 873d bf74 8bbc
000002f0: 2043 c83c ad68 37be 692d 093e 452f 36bd
00000300: f153 0b3e 4ebb c93d 0a13 28bb c36d 7e3e
00000310: 333e 31be 9423 b93e 4df1 673b a139 343e
00000320: a849 29be fe5c 183e c721 74be fd0b 0b3f
00000330: 4d96 213e cff7 3ebe 687f c73e 67db c73b
00000340: 9506 1fbd fbbb f13c 3c52 fe3d 1ff4 b83c
00000350: 3639 f6bb ece0 023e e155 c73d 6c9b 023e
00000360: 7ca0 3b3e 2fd6 af3c 1457 04bc 1e8a 53bc
00000370: 3f39 6a3d baae 8e3b 1708 d03d 4738 21be
00000380: 157d e83d 442e 543e b475 c83c 7517 0c3e
00000390: ebd5 f6bc 7616 be3d afb9 813e 0c62 a4bc
000003a0: eaf3 97bd 50e1 ab3b ed30 9dbc 46a6 cbbd
000003b0: ef5c 7fbe 8da6 e03d a386 8c3d 1f9c d0bd
000003c0: b3fe acbd 1fa8 6a3e a462 c63d c56f 703e
000003d0: 98af 5d3e b448 17bd edf1 09bd 887d 8b3d
000003e0: 8722 993c 9498 123e 5df6 a0bc e4c3 0bbe
000003f0: a289 663e d9ac 953d 1520 10bd 2568 c03d
0.032690827 -0.18952224 -0.00664048 0.16337347 0.3339836 0.18134476 -0.22505026 -0.14387183
-0.06275341 0.021115432 0.065047406 0.10163574 -0.058625713 -0.16868453 0.19727963 0.10108983
-0.37479165 0.023458647 -0.27600682 -0.0052331774 -0.03207133 0.14890623 -0.05419583 -0.048347604
0.18543513 -0.20823692 -0.22630225 0.17695025 -0.0024656123 0.24976338 -0.29352632 0.10537475
0.019766275 -0.11834834 -0.040750757 0.025386915 0.009105825 0.19400857 -0.13537547 0.08087538
0.24751215 0.0023729748 0.079958804 -0.0003307738 -0.170164 0.24158098 -0.04038737 0.18595818
-0.052647267 0.047589097 -0.22645484 -0.08467668 0.10379254 0.14694172 -0.07411257 0.08922879
-0.05464029 0.3141775 0.14114285 -0.05694138 -0.21710159 0.047785982 0.03465533 0.30851224
0.061685335 0.44278428 0.019155515 -0.13958892 0.17789811 -0.051879358 -0.07209966 -0.09852681
0.19462855 -0.064100556 -0.097917765 0.12193796 0.07822962 0.2994722 -0.08805329 0.07414982
0.047377672 0.13657798 -0.17989795 -0.03796509 0.13190867 0.01461453 0.03463072 0.03303791
-0.16308333 0.09754175 -0.09773254 0.11693666 -0.063406564 0.05980956 0.21339133 0.020792628
-0.054928698 0.031191377 -0.06385571 0.07546891 -0.0025006065 0.08097577 0.11306951 0.21448477
-0.2246086 0.33854458 0.20644675 0.17330334 -0.0035296283 -0.095020376 0.014504487 0.22553816
-0.032860197 0.062398147 0.06251786 -0.20068017 -0.032912645 -0.071355626 0.033947207 0.0738848
0.013835917 0.045698404 0.18908781 -0.04038399 0.039589662 -0.17478916 -0.07087385 -0.02749049
-0.16641244 -0.19844432 -0.19515203 -0.053396802 0.13578767 0.10471987 0.4152235 0.12008619
0.22618972 -0.10707397 0.0014181943 -0.13376606 0.060579963 0.23370987 0.09702034 -0.09055561
-0.22156543 -0.13426486 -0.09633166 -0.088644035 -0.0068978984 -0.102495745 0.024597477 0.15631922
0.062196687 -0.33458778 -0.016992025 -0.06958471 -0.01201758 -0.010941519 0.11702678 -0.06584777
0.0691542 0.12126225 0.040608145 -0.017168455 0.12881337 0.032920815 0.11984445 0.28743607
-0.10655895 0.024263289 0.13625483 -0.12024365 0.17939128 -0.0029613045 0.28101182 -0.043844618
-0.13311851 0.2117013 -0.09729143 0.19834286 -0.020983864 -0.045732222 -0.41256365 0.12798883
0.16624328 0.13818786 0.06636494 -0.017023442 0.02444607 -0.17911024 0.13396229 -0.044478673
0.1360624 0.09850179 -0.0025646114 0.24846558 -0.17308883 0.36159956 0.003539163 0.17600109
-0.16532004 0.14879224 -0.2384101 0.5431517 0.15779991 -0.18649219 0.3896439 0.006099153
-0.038824636 0.029508581 0.12418029 0.022577344 -0.0075141443 0.12781113 0.09733177 0.12754601
0.18322939 0.021464435 -0.008077402 -0.012911348 0.0571835 0.004354325 0.10157793 -0.15744124
0.113519825 0.20720774 0.024470188 0.13680823 -0.0301313 0.09281628 0.25336978 -0.020066284
-0.0741957 0.005245365 -0.019188369 -0.099438235 -0.24937795 0.10969267 0.068616174 -0.10186028
-0.084470175 0.22915696 0.09686783 0.23480137 0.21649015 -0.03693457 -0.033677984 0.068110526
0.018693222 0.14316016 -0.019648725 -0.13648945 0.2251344 0.07308359 -0.035186846 0.09394864

network_body._body_endoder.seq_layers.0.bias f4 [256]
00000000: ad98 c93c be12 6c3d b0d8 433c 49e2 823d
00000010: 710c 07bd a6ca 4d3d 298d 903d db4b 043b
00000020: c604 793d 64b4 4cbc 3da9 4e3c 1457 093d
00000030: 1711 143d e7c0 7fbd 300a 6d3b 8c33 4dbb
00000040: 8ce7 043e 31a9 2f3d ef24 d3bd 37e5 debb
00000050: 078c 883c 0c98 853c a6f1 923d 3e48 21bd
00000060: 4621 093d 4484 4ebd 01f8 1b3c e2b6 1b3d
00000070: 34d0 b43c 0a75 013e 2ecf 873d d058 263d
00000080: 714b 393d 3131 0cbb ebe7 f6bc 89bb 123b
00000090: 6507 503c 0560 3abc 3351 c3bb 42c8 323d
000000a0: 1857 263d cbc9 1d3d cd20 d93c 90b4 473d
000000b0: a3ea a73d 9f0e 6bbd b7bf 35bd b222 3fbc
000000c0: 1059 babc ad4a 98bb 609e 863c f157 7bbd
000000d0: 8722 7e3c 813c 053d 0b7d c8bc 78cc 2e3d
000000e0: 0f78 ecbb 247b 88bc 1095 6bbd 784c 2bbd
000000f0: 8b47 2e3d ae36 063d 18cb 25bb 79d5 d43d
00000100: 8815 9dbd 3e7f 893d 4da0 453c b467 1d3d
00000110: dffe d43d 76cc 4a3d 2e50 663d 057d aebd
00000120: db5c b93c b1bd 1eba d7fe d4bd 6b4c 08bb
00000130: 075d 623d 3c3a 943b 8f80 5e3d 1f7b dabc
00000140: b243 8abc e8ae 0fbc bde7 473c dfd0 a53d
00000150: 7c40 27bd 51f9 1fbd a55c 6a3d 2f2a e3bc
00000160: 5d23 9abd 9553 c5bc 6700 8a3c c120 d33c
00000170: 9042 85bd 1ed1 f1b7 4c73 803d fba5 73bd
00000180: fbfd 853d dc9d 9dbc 1af8 443b 99dc 203d
00000190: a86b 8a3c 6758 353c c40a 84bd 9141 b6bc
000001a0: 99ac 11bd 7b52 123d 29b6 c73c 335f 873d
000001b0: e2f1 b63c 3ea7 95bd e76b bd3c bea6 4f3b
000001c0: 57f7 66bc b6a5 46bd dcef 1cbd d444 103d
000001d0: 9352 f03c e048 45bb f481 e03c 97ac dc3d
000001e0: 8de0 78bd a34a 003d bd0b efbc d200 1c3c
000001f0: d26f 81bd ebaa 24bd 9129 07be 1cb5 bc3c
00000200: e90a 13bd 85de 933c 608b 46bc 38c3 0e3d
00000210: 7666 ffbc f20c fdbc 4e10 c03d 089c f23c
00000220: cd62 ccbb 1bf7 99bd 08d6 c9bc ac35 81bc
00000230: 9662 0d3d 8c42 d23b 9c0f 9dbd bbdf 8e3d
00000240: 3647 04bc 8aab fcbc 86c2 b2bc 9e81 783c
00000250: bb88 8c3d e021 093d b118 92bd 47c2 cc3d
00000260: 558b 45bd 3ba0 5bbd bc21 cb3d add9 d03d
00000270: 91bd 02bd 704c 923d 430c 8dbc cce1 6c3d
00000280: 1779 85bd 3872 b4bd fca8 1f3d 422e a13c
00000290: 89e7 e03b 4071 023d 103b 463c 1d26 483d
000002a0: ed13 94bd c881 393d 80ee 7b3d cf53 233c
000002b0: 6be5 52bc 868e 7f3d 6065 8b3c a2ea f1bd
000002c0: 3cb2 ce3d cd59 9abb 9b43 8c3b fedb e0bc
000002d0: 2b93 91bc bb35 d73c 9faa cfbc 4190 21bc
000002e0: b98b 0cbb c2c8 163d 1735 39bc 76d4 8f3c
000002f0: afe5 93bc 8320 0ebc 74d4 153d cdbb 0cbd
00000300: 2935 3b3d e3bd 933d eb9b 77bc bcff a8bc
00000310: fb54 0fbd de21 27bc c350 d7bc 4afe e9bc
00000320: c893 183c 881e db3b 5763 053c 9f6d 0f3d
00000330: aa76 a63d e010 8abd ef0c 773d 5583 873c
00000340: afaa eabc 9f49 443d d215 adbc 8fa1 dd3c
00000350: fbbb 8fbc 2478 6f3d a589 f73c a892 973d
00000360: 8296 dfbc 9db6 ab3d 1adc 4bbd a59c de3d
00000370: 7619 8bbd cd91 31bc 82a8 ec3d e556 0fbc
00000380: e265 153e 2509 4ebd a2f2 d0bc ed03 633d
00000390: 1b9a e9bc 72e3 983d e396 183d 5bed 073c
000003a0: 469d d6bc 9ac1 bb3d ce23 4b3d a5f2 2bbd
000003b0: 4c5e fbbc 6b98 9dbc 77be 063c 5f2c 2f3d
000003c0: 6726 94bb ed5d 5b3d cb67 7dbd 8b98 89bc
000003d0: e332 50bd 5ad0 f63c 4d97 b73d 0ce4 7f3d
000003e0: 6b54 003d 0f2c d1bd 351e 433d b300 66bd
000003f0: 228c 7e3d 6aae 80bc f0cc e7bb a5d4 a83c
0.024608934 0.05763506 0.011953518 0.06390817 -0.03297085 0.05024209 0.07058174 0.0020186815
0.060795568 -0.01249418 0.012613592 0.03353031 0.03614911 -0.062439825 0.0036169402 -0.0031311242
0.12978953 0.042885963 -0.10309779 -0.006802227 0.016668333 0.016307853 0.07174997 -0.039375536
0.033478998 -0.050419107 0.009519578 0.038016208 0.022071935 0.12642303 0.06631313 0.040612042
0.045237962 -0.0021391625 -0.030139884 0.0022389612 0.0126970755 -0.011375432 -0.0059606074 0.043648012
0.040610403 0.038522523 0.026504898 0.048756182 0.0819905 -0.05738699 -0.044372287 -0.011665987
-0.022747546 -0.004647574 0.016432941 -0.061363164 0.015511162 0.032528404 -0.024473688 0.042675465
-0.0072164605 -0.01666028 -0.057515204 -0.041820973 0.042548697 0.03276699 -0.0025298055 0.10392279
-0.076701224 0.06713723 0.0120621445 0.038428977 0.10400175 0.049511395 0.05622881 -0.08519939
0.022627285 -0.0006055488 -0.10400169 -0.0020797502 0.0552645 0.0045235436 0.05432182 -0.026670037
-0.016877983 -0.008769728 0.012201247 0.080964796 -0.04083298 -0.039056126 0.05721726 -0.027730076
-0.07526276 -0.024087707 0.016845895 0.025772454 -0.065068364 -2.8826817e-05 0.06271991 -0.059484463
0.065425836 -0.019240312 0.0030055107 0.03927288 0.016897038 0.01106844 -0.06447366 -0.022248061
-0.035564993 0.03572319 0.024378853 0.06609955 0.022332136 -0.073072895 0.02312274 0.003168508
-0.014097056 -0.048497878 -0.038314685 0.03522189 0.02933625 -0.0030103251 0.027405716 0.107751064
-0.060761023 0.03132118 -0.029180402 0.00952168 -0.06320156 -0.040202063 -0.1319945 0.023035578
-0.035899077 0.018050442 -0.0121181905 0.034854144 -0.031176787 -0.030889962 0.0937811 0.029615417
-0.006237364 -0.07517835 -0.02463819 -0.015772663 0.034517847 0.0064166244 -0.07668993 0.06976267
-0.008073619 -0.030843515 -0.021821272 0.015167622 0.06862017 0.03347957 -0.07133616 0.09997993
-0.04822858 -0.053619605 0.09918544 0.10197768 -0.031919066 0.071434855 -0.01721776 0.057832524
-0.06517237 -0.08810848 0.038979515 0.019675378 0.0068635386 0.031846285 0.012099043 0.048864473
-0.07230363 0.045289785 0.06150675 0.009968712 -0.01287208 0.06239178 0.017016113 -0.11812331
0.10092589 -0.004710412 0.00428052 -0.02744865 -0.01777037 0.026270738 -0.025349913 -0.009861053
-0.0021445586 0.03681255 -0.0113041615 0.017557364 -0.018053858 -0.008674744 0.036579564 -0.03435879
0.045704994 0.072139524 -0.015112857 -0.020629756 -0.034993153 -0.010200946 -0.026283627 -0.028563637
0.009312578 0.006686989 0.00814136 0.035016652 0.08128102 -0.067415 0.06031507 0.016542116
-0.028645841 0.047921773 -0.021128569 0.027054576 -0.01754569 0.058464184 0.030217001 0.07401019
-0.027293447 0.0838444 -0.049770452 0.10869721 -0.06791966 -0.010837984 0.11555578 -0.008748745
0.14589646 -0.05030169 -0.025506321 0.055423666 -0.028515866 0.07465257 0.03725327 0.008296336
-0.02619804 0.09167786 0.049594693 -0.04197945 -0.030684613 -0.019237718 0.008224121 0.042766925
-0.0045211795 0.05355637 -0.061866563 -0.016796371 -0.05082978 0.030128647 0.08964405 0.06247334
0.031330507 -0.10213482 0.04763623 -0.05615301 0.06214536 -0.015708167 -0.007073991 0.02060921

network_body._body_endoder.seq_layers.2.weight f4 [256, 256]
00000000: 7ac9 443e b458 44be 0df2 343e 996d 13bd
00000010: 9fce 0fbd cd50 bd3d 2532 a5bc 8b5d 953d
00000020: 9a78 093d 1866 7c3e 8b4c e63d 83d5 80be
00000030: c10f fbbd a6c5 f3bc 7a4a 4d3d 8e2a b13d
00000040: 63f9 a0bd 2f9b 4f3e 5722 f33d 999e e53d
00000050: 4200 34be 10c3 95bb 1cf0 1bbc 76fe 043c
00000060: 3c7f 7c3e 62ed 3bbc 29d0 1c3e f78d 4f3e
00000070: 6f9c 6abe 3286 2b3e 91f0 cbbd 9616 e6bd
00000080: 00be d8bd dd37 093d b179 353e 7742 3a3e
00000090: fc70 68bd 69fd 133e 6342 90bd 6518 533d
000000a0: 16d7 23be 211d 7a3d f614 afbd 1927 783e
000000b0: 5f86 c83d 94f8 04bd a9ca ad3d 9eb4 66bd
000000c0: a0fc 1dba 469f b6bc 2eb7 863d 9897 8f3e
000000d0: 15eb 1a3d dbb0 08bc a674 ec3d 0351 babd
000000e0: 11df adbc a7e1 2ebe a575 c93d 831b 943d
000000f0: 8d6d 3cbe f306 93be 3f0f d73c f046 08be
00000100: dc58 9c3d 2d63 703d 665e 453d 7db3 98bc
00000110: 7fb5 3f3c 36d7 60be 7c83 89be ac92 0abe
00000120: f8d6 febc 36c8 d63d da6a 843d 1300 183e
00000130: 403d 1abe c6c6 053e d115 a33d b144 4ebd
00000140: f11d b73d f461 a73e 3e08 533e ec41 bf3d
00000150: 132f 033e d884 9c3e c8d9 f0bc 019f 7a3e
00000160: e4dc a0bd 5e27 193e 8d8b aebd f916 033d
00000170: ee39 69bd 98da 8a3a 61c4 443d cc14 233e
00000180: 97a3 ed3d ddfb 333d fe44 83be e250 a33d
00000190: 7373 0e3e 19dc 6ebe 4295 e4bc 4ff4 b43d
000001a0: 8f63 b73d e1bb 463c 83f8 bd3d 1a0a 883d
000001b0: 3c38 bdbd 5639 253e 363c 04be 949a 00be
000001c0: fd92 293e 8786 953d b39c 39be 7546 5f3d
000001d0: 1784 9c3d da69 a33e 1ce3 62be 8b04 95bd
000001e0: 8e2b b03c 2471 b3bd ae63 47bc ce0d cfb9
000001f0: 3d2d 8fbd 9346 a93d bcf7 753d a0f6 b43d
00000200: 6e8f fbbd 7e2b b73d a08d 76bc 3017 a53c
00000210: 5520 8e3d b259 483e 1dee 113e 92a1 6cbb
00000220: 1fd6 f23d 47f2 0ebe a0a9 aebd 5747 b33e
00000230: 62ed dabd c1e6 a8be 3c80 673d 8b36 f4bc
00000240: f529 633e 0a33 a13d 0797 22be 6714 e73d
00000250: d008 68bd c0e6 b7bd ebed 143e 40e9 b3bc
00000260: f258 883e 0832 333d ad85 7abd 4778 0dbe
00000270: 0ec7 833d cc5c 843e e620 983d 6f70 253e
00000280: 94e0 55bc 2596 08be d729 fa3b 5d94 413e
00000290: 4ad8 9c3d 0a4a 333d 9c9f 5e3d 6d6f 55be
000002a0: 1ae7 8b3e 6075 b5be c8c5 a93d 399e f93c
000002b0: 9055 9cbd 4794 f0bd 3695 1e3d 5871 1e3e
000002c0: 7ed1 9cbd b61d ccbd a837 9bbd 1cd7 403d
000002d0: 9ea6 5c3c fe13 93bd 6582 31be 5ec8 673d
000002e0: df09 023e 48d9 2dbe 742f a33d 1a73 54bd
000002f0: 7b16 17be c2a4 5abe 7c8a f63c 9917 8abd
00000300: fd19 f0bd 35fa 1b3e 9970 9a3d 8d40 9d3d
00000310: 0793 663e e9a2 11be 8832 c23c 2c4c 4bbd
00000320: 7c73 733b 7b2a 12be bf26 05be 80d6 803e
00000330: 12fc eabd c119 9b3d 55a8 0a3d 57c6 4ebd
00000340: b186 643d 07c4 68bd e281 873d f3bd 8bbc
00000350: 9daf f2bd cb71 013e 9c18 ce3d 4bce 9f3d
00000360: c6b7 783d 7960 c9bb 1ca5 babc 191a 17bc
00000370: b642 8b3e 1bd2 a83d 0c2e a83d 4c65 9cbb
00000380: 2b88 68bb 2d73 74be d0ce 3b3e 41d4 793d
00000390: 0a40 423e 8eba 8bbd 8def 86bd a6b7 aebd
000003a0: 5b9f 5dbe 6e46 b8bd 0dba 083c 174c 14bd
000003b0: 431d b83d 16c1 4bbe bf69 ae3d aa99 00bd
000003c0: 32a1 883d ca99 003e 7228 ca3d f432 d83e
000003d0: 879e a13d daaa 313c 66b7 193e f907 bc3c
000003e0: 383c c0bd b6cd 3a3e 58c5 16be d68b aa3c
000003f0: 9b5d 9b3d b454 cbbc 6922 013b 4a8e 1bbe
0.19217482 -0.19174463 0.1767046 -0.035993192 -0.03510916 0.09243927 -0.020165512 0.072932325
0.03356228 0.2464832 0.11245068 -0.25162897 -0.12258864 -0.029757332 0.050119855 0.08650695
-0.07860067 0.20274042 0.11871784 0.11211891 -0.17578223 -0.0045703724 -0.009517696 0.008117309
0.24657911 -0.011470171 0.15313782 0.20268999 -0.22911237 0.1675041 -0.09957994 -0.11234777
-0.105831146 0.03350054 0.17722203 0.18189417 -0.056748375 0.14452137 -0.07043912 0.051536936
-0.16000018 0.061062936 -0.0854892 0.24233665 0.09791254 -0.032463625 0.0848592 -0.056324594
-0.0006026719 -0.022292744 0.065779075 0.28045344 0.037821848 -0.008342947 0.115456864 -0.09097483
-0.02122453 -0.17078267 0.09836892 0.0723181 -0.18401165 -0.2871624 0.026252387 -0.1330831
0.07634136 0.05868833 0.04818573 -0.018640274 0.011700987 -0.21957096 -0.26858127 -0.13532513
-0.031108364 0.10487406 0.06465693 0.14843778 -0.15062428 0.13064107 0.079631455 -0.050358478
0.08941258 0.3269192 0.20608613 0.093387455 0.12810926 0.30570102 -0.029400721 0.24474718
-0.078546315 0.14956424 -0.08522711 0.03200433 -0.05694001 0.001059371 0.048038844 0.15925902
0.11603468 0.043941367 -0.25638574 0.079744115 0.13911228 -0.23326148 -0.027903203 0.08835661
0.08954536 0.012129755 0.092759155 0.06642552 -0.092392415 0.16135153 -0.12913594 -0.12558967
0.16559978 0.0730105 -0.18126182 0.054510552 0.07642382 0.31916696 -0.22156948 -0.07276257
0.021505143 -0.08761814 -0.012169762 -0.00039492402 -0.069910504 0.08265414 0.06005071 0.088361025
-0.122832164 0.08943842 -0.0150484145 0.020152658 0.069397606 0.19565466 0.1425099 -0.0036107046
0.118572466 -0.13959609 -0.08528447 0.35015365 -0.106898084 -0.3298855 0.05651878 -0.029811164
0.22183974 0.07871063 -0.15877925 0.11283188 -0.05664903 -0.08979559 0.14543884 -0.021961808
0.2663036 0.043748885 -0.06116264 -0.13815413 0.06434451 0.25852048 0.0742815 0.16156171
-0.013054032 -0.13338526 0.007634382 0.18904252 0.07658441 0.04377178 0.054351434 -0.20843287
0.27324754 -0.35441113 0.08289677 0.030470954 -0.07633507 -0.11747032 0.038716517 0.15472925
-0.07657145 -0.099666044 -0.07578975 0.047080144 0.013467459 -0.071815476 -0.17334898 0.05658757
0.12699078 -0.16977417 0.07968035 -0.051867582 -0.1475467 -0.21351913 0.030095331 -0.06742782
-0.11723707 0.15232165 0.075410075 0.07678328 0.22517024 -0.14222302 0.023705736 -0.04963319
0.0037147691 -0.14274018 -0.13003062 0.2516365 -0.1147386 0.075732715 0.03385194 -0.05048212
0.055792514 -0.05682757 0.0661657 -0.017058348 -0.11849902 0.12641065 0.100632876 0.07803019
0.060722135 -0.0061455336 -0.022783808 -0.009222531 0.27199334 0.082431994 0.08211908 -0.0047728177
-0.0035481553 -0.23872061 0.18340611 0.060993437 0.18969741 -0.06822692 -0.065886594 -0.08531122
-0.2164282 -0.089978084 0.008345139 -0.036205377 0.08989956 -0.19897875 0.08516263 -0.031396545
0.066713706 0.12558666 0.098709956 0.42226374 0.07891565 0.010843957 0.15011367 0.02295302
-0.09386486 0.18242535 -0.14723718 0.020818632 0.07586213 -0.024820663 0.0019704348 -0.15190998

network_body._body_endoder.seq_layers.2.bias f4 [256]
00000000: c1bc 09bd 4431 3ebb 3404 6cbd 6927 50bd
00000010: 5256 8dbd 9bb0 c53a cddf e2bd 974b 473c
00000020: ca22 0fbe 9ec6 73bc 729e 4ebd 9e54 463d
00000030: 09fc e9bc 3e33 8bbd a604 a6bc 49de 7abd
00000040: 89de c13c 8c5d ddbd 8e4c 31be 0d04 18bd
00000050: 2c0f cdbd 3971 a2bd ce9e 863c 2e46 11bd
00000060: 7191 c0bc ead0 45bc ec64 54bd 79f5 a93b
00000070: 9652 1cbd f71d 3a3d 1f89 b2bc 20a6 cebc
00000080: d0be 113c 29a9 87bd c9dd a7bd b964 ebbd
00000090: 55ec 46bd 3365 193d 0ba5 1dbc 149d 5ebd
000000a0: 81f9 02be d60c 04bd 9953 133d 0245 7bbd
000000b0: f4c0 bfbd dbcb ef3a 4a21 a9bd 7a5a ed3c
000000c0: 8a13 0abc 9f3f 04bd 5f53 b3bc 9f66 0bbd
000000d0: b9ba 883c 3261 513d 2cab ebbd ab56 dc3c
000000e0: f47e 17bd 1430 3dbe c57b 78bd 53e1 90bc
000000f0: 42c2 53be c551 95bd a9ef e23c 44bb fdbc
00000100: 93d2 abbd 5ac1 25be 275d 2cbd 0fe6 4c3b
00000110: 2204 0fbd 409f e93a a04c a1bc 4a21 b9bc
00000120: 1724 72bd 4e2b 263c 668f 45ba 0545 2bbd
00000130: 746e dcbc e200 edbc 26af 40bc 7957 a1bd
00000140: ceea d8bd 80e6 24bd 16f1 81bd 6fb4 053d
00000150: 2ce9 a3bc 57ba 343d 427a 6ebd f9ae 47bc
00000160: 007b 08bd 3264 c5bd e122 bdba a567 b7b8
00000170: 63e6 0abd 46ae 333b 8d95 22be aad2 5ebc
00000180: b27c a2bd 8109 a1bc 5980 85ba 488b 53bc
00000190: 7293 13bd db9b 43bd c57e b1bc dedc e93c
000001a0: 6255 30bd c364 103b e4c9 35be f8b6 8eba
000001b0: aeb1 a8bd e227 d0bc 8278 96bd aaea 67bd
000001c0: 51bf 0fbc 7e56 343d 2714 99bd ac0b f7bd
000001d0: 10aa eb3c cfbc b73d ec18 c5bc f337 bebd
000001e0: 907a 53bd 1fb2 39be 9761 823c a173 0dbd
000001f0: a14e eebd e25a 0fbc 9240 b63c a93c 1abd
00000200: c783 a7bd 255d 2e3c fed6 bfbd 7983 f1bc
00000210: 5505 4fbd 3771 dcbd 4bee 77bd 9a5b 3f3c
00000220: b3e5 8fbd 0e16 d4bc 526e a1bd 0c48 c73c
00000230: 432f 3e3c 63c6 9cbc d234 70be e01d 5bbd
00000240: d9d6 eabd a400 17bc 8c0a f5bc 92cf 34bd
00000250: 8140 b9bd 7050 38be de2e 55bd 71d5 3b3d
00000260: 3ce6 c1bc 4a8d 94bd 04a1 1cbe 7b16 0dbe
00000270: 2b76 d4bc 7c9d 26be 1d66 9d3c 3db7 02bd
00000280: 7132 1cbb 9978 2cbc c5a0 7dbd ce29 0b3d
00000290: 9bfc 8ebd 9e70 afbc f4cd 44bd eadc 49be
000002a0: fa05 38bd 29d1 29bd 218b e9bd 0cfc 213d
000002b0: 6a6a 2d3c 0f4c 2e3c 85ad 6cbd 5ed5 b9bd
000002c0: 3c5e bfbd ddc2 29bd 740f cbbd f631 9ebd
000002d0: 28fa 64bd 5a95 5bbd c4a5 f6bd bef4 86bb
000002e0: a371 52be 995e 713c 30ce d9bc 6f4b 72bc
000002f0: 8524 dbbd 9f20 f8bd 8f6b 47bd c16b 9abd
00000300: 4ad8 1cbd a4c8 94bd 1980 81bd 61f5 77bd
00000310: 75cf 9ebc 6744 67bd be9c 51bc 224b 03be
00000320: 0377 6abe 7c8c 99bc fddf 1fbc 7f53 dbbc
00000330: d5ea 583d 9486 3dbd 76d3 673d 6706 043c
00000340: afd5 50bd 74c9 e7bc a88e 093d 87f5 d9bc
00000350: 000a d2bc 27f5 1dbd cf7b 47be b23b 9fbd
00000360: d4e6 b03b 86a0 9dbd 7e2e 3d3c ab75 32bd
00000370: 5bc6 afbd fbb4 51bd 49bb d9bb 602c 503b
00000380: dd41 7b3b 47af ebbc 9979 d3bd bead 94bd
00000390: 4f62 813c e634 4ebc eecd b0bc 1c6c d7ba
000003a0: 1062 a3bd ab78 6ebc e27a c4bd 768c 23be
000003b0: 8129 5fbc 19c2 20be 09f1 393d d720 70bd
000003c0: 93ea 7ebd 1ccd 433d fef8 f1bc 4d2f 143d
000003d0: d390 debc cc6e 9d3c fa3e 33bc d142 f3bd
000003e0: fe9f 35be ffdc 86bd 4220 68bd bdee b8bd
000003f0: 370c 88bc bbf5 41be 8ec6 173a 8835 b0bd
-0.033627275 -0.0029021064 -0.057621196 -0.050818834 -0.0690123 0.001508254 -0.11077843 0.012164018
-0.13978115 -0.014878897 -0.050444074 0.04842054 -0.028562563 -0.06796883 -0.020265888 -0.061247144
0.023665683 -0.10808858 -0.1731436 -0.037113238 -0.100126594 -0.07931752 0.016433146 -0.03546732
-0.023506852 -0.012073735 -0.05185406 0.0051867333 -0.038164698 0.045438733 -0.0217939 -0.025225699
0.008895591 -0.066240616 -0.08196599 -0.11493821 -0.048565228 0.037450027 -0.009621869 -0.05434902
-0.1279049 -0.032238804 0.035968397 -0.061345108 -0.09362975 0.0018295007 -0.082583025 0.028973807
-0.00842751 -0.032287236 -0.02189034 -0.034033414 0.016690599 0.051118083 -0.11507258 0.026896795
-0.036986306 -0.18475372 -0.06066491 -0.017685568 -0.20679572 -0.07290987 0.02770217 -0.030973084
-0.08389773 -0.16187039 -0.042081024 0.0031265055 -0.03491605 0.001782395 -0.019689858 -0.022598881
-0.05911645 0.010142161 -0.00075363216 -0.04181387 -0.026908137 -0.028931085 -0.011760509 -0.07878012
-0.105916604 -0.040258884 -0.063448116 0.032642778 -0.020008646 0.04412302 -0.058222063 -0.012187713
-0.033320427 -0.09638251 -0.001442995 -8.745425e-05 -0.03391112 0.0027417107 -0.15877362 -0.013600031
-0.0793394 -0.019657852 -0.0010185345 -0.012911625 -0.036029287 -0.047756057 -0.021666894 0.0285477
-0.043050177 0.0022032715 -0.17752796 -0.0010888269 -0.08237015 -0.025409643 -0.07347204 -0.056620277
-0.008773641 0.044027798 -0.07474547 -0.12062773 0.028767616 0.08971559 -0.024059735 -0.09288015
-0.051630557 -0.18134354 0.015915675 -0.0345341 -0.11636091 -0.0087496955 0.022247586 -0.037655506
-0.081794314 0.010642325 -0.093671784 -0.029481636 -0.050542194 -0.107637815 -0.06052999 0.011679554
-0.070262335 -0.025889423 -0.0788237 0.024326347 0.011607948 -0.019137567 -0.2345765 -0.053495288
-0.1146676 -0.009216461 -0.029912256 -0.044143267 -0.09045506 -0.17999434 -0.05204665 0.04585785
-0.023669355 -0.07253511 -0.15295798 -0.13778107 -0.025935253 -0.16271013 0.01921373 -0.03191303
-0.0023833776 -0.0105268 -0.0619209 0.033975415 -0.069817744 -0.021416005 -0.048047975 -0.19713178
-0.044927575 -0.041459236 -0.1140349 0.03954701 0.010584453 0.010638251 -0.05778267 -0.090739
-0.09344146 -0.0414456 -0.09915057 -0.07724373 -0.05590263 -0.05360923 -0.12043336 -0.004118531
-0.20551161 0.0147320265 -0.026587576 -0.014788493 -0.10700325 -0.12115597 -0.04868656 -0.07540084
-0.038292207 -0.07264832 -0.06323261 -0.060536746 -0.019386033 -0.056461718 -0.012793718 -0.1282163
-0.22896962 -0.018743746 -0.009757993 -0.026773212 0.05295833 -0.04627092 0.05659815 0.008058167
-0.050985035 -0.028294303 0.033583313 -0.026606334 -0.025639534 -0.038563874 -0.19480823 -0.07775058
0.0053986106 -0.07696633 0.011546729 -0.04356925 -0.08582755 -0.051197987 -0.0066446406 0.003176473
0.0038338818 -0.028770102 -0.10325927 -0.07259701 0.015793948 -0.012585854 -0.02158257 -0.0016435417
-0.07977688 -0.014555137 -0.095937505 -0.1597155 -0.013620735 -0.15699042 0.045395885 -0.05862507
-0.062235426 0.04780303 -0.029537674 0.036177922 -0.027168667 0.019217871 -0.010940308 -0.118779786
-0.17736813 -0.065851204 -0.05667139 -0.09029911 -0.016607387 -0.18941395 0.000578978 -0.0860396

action_model._discrete_distribution.branches.0.weight f4 [3, 256]
00000000: 6643 163e 1c16 4f3b bca3 8fbc e2e0 83bd
00000010: c156 8dbd 8f40 bc3d 730c 9dbb dde1 803d
00000020: 15e4 8abd b305 8b3d 04ef 103d 193c dabc
00000030: 6890 f7bc 508a ecbd 93af 9cbb 896c 06bd
00000040: 0f81 8dbd 7cb2 75bd c715 eabc 0b2d 92bd
00000050: 3890 7dbd 438b cfbc 7041 09be 02b8 d8bb
00000060: 05ea 34bc ed96 453d d829 2d3d ae5f 6fbd
00000070: 4aa7 bc3d e2eb 8ebd 48ff 9d3d 3a9a acbc
00000080: f44c 36bc 2e0a 93bc b73d e53b 8de5 e93c
00000090: 43a8 5cbd eca4 ca3b a45f a6bc 87f8 c93d
000000a0: 91fc 0dbc ae8b 3dbc bf4d 41be b675 5ebc
000000b0: 122e 5dbc 8564 20bc e67a 913d ffb5 153c
000000c0: d930 8ebc aa8d 433b 680f d5bc d4ee 9cbd
000000d0: ecb9 f4bc e035 83bd 103b 80bd 0e19 6a3d
000000e0: 2f8e 0bbc 07e5 8dbd 8b36 5d3d 1206 b03c
000000f0: d16b c8bc 8e06 97ba 74da a23d fdfe 52bc
00000100: fd8f e63c 5bff 16bc 2b4d 963c 3ae7 853d
00000110: ac27 a7bd 51ff d8bd 1b0f 06bd 8e9e 85bd
00000120: 80be 153d 0fb1 1d3c a4de 6e3d 1709 05bd
00000130: b394 3ebb f3a9 a2bd 8552 bfbd 2afa 103d
00000140: 5153 063d 8b28 943c c506 89bc bb50 eabc
00000150: a074 ecbd f9f0 e4bd e69d 513c 5d80 9fbd
00000160: 4302 9fbd 9b68 16bd 7bc7 8ebd 8943 1e3d
00000170: b6fe 99bd d184 e43c 5821 04bb ad14 03bd
00000180: c9e7 04bd b3bd 34bd 602d 09be 75ad 36bc
00000190: 9767 a3bd 0002 c0bc ac6b 523d 18ec 973c
000001a0: ef1a 3e3c 4d7f d9bc 6ecc febc 5647 b3bb
000001b0: 00c6 4dbd 27f0 c63c 41da 8a3d 5149 b1bc
000001c0: f441 cd3c 6832 263d 009d 96bd 471f 193d
000001d0: 3c0b 01bc 3a9a 2b3d 90d9 ca3b 8bfc 373c
000001e0: d315 b43c c642 21bd 64a6 493d 18c4 81bd
000001f0: 5bb7 f43b 0f48 173d 2ec0 133e a82f 203d
00000200: cb16 9f3d c6db 5cbd 45e1 a33b 3eeb 3bbd
00000210: 5e4f 06bd dfcc e23d cb3b 27bd aa94 543c
00000220: 8548 6b3d b3c9 90bd ed4e 683c e46f 03be
00000230: 01cc 60bc 89a9 86bc 804b eebc 6d4b 7abd
00000240: 9390 57bd 0c70 8bbc 05b9 9e3d 1002 dbbd
00000250: b442 22bd 05a6 d83b 25d4 1a3d 7dc0 163d
00000260: c69e 6c3c bb93 91bd 488a 6abd 20df 623c
00000270: c8f4 b73c 2a8f 653d 21da 81bd 73f6 df3c
00000280: cf72 37bd 5fc1 173d 7e7a 593d f872 cebc
00000290: 49f7 32bd 6a22 a43c fba1 73bd 5f77 c33c
000002a0: a6a8 94bb da34 d83b 249d 47bd f219 1fbc
000002b0: 6db6 4fbc 3c1f a5bd cc68 4d3d 6d8f afbd
000002c0: 3aef f9bc 2163 25bd 6d7b 40bb ca8d 46bd
000002d0: 2a83 213d cf79 223e fc01 923d 5bc3 8fbc
000002e0: 7dfd 7bbd 0ae4 02be 32fb 1f3c 4256 4a3d
000002f0: 4ebc bebd ee7c aabd a519 613d 921d 143d
00000300: 1553 81bd b413 c9bc c79d 79bd 83fd 0d3c
00000310: 154a 1cbe b995 953c 1b8c 013d 5573 bb3c
00000320: 8117 013c 2f56 d3bd 4235 063e 8d0a 93bd
00000330: b00b 39bd 9237 d03b 9ce8 d63b 07ca d6bc
00000340: 36ce 2abd 7dc8 963c 2fe7 4c3d 471c 73bd
00000350: 6a48 45bd 3ddf eebd dc3b 90bc 4b18 4f3d
00000360: 3c8c 573d ff64 2b3d 6a40 fa3d 40cf 353d
00000370: 54c8 493d 9122 fd3d 40f7 953c 61b5 8a3c
00000380: a32c b43d fe29 d33c 1171 963c 5634 1cbe
00000390: 1db5 a5bc 0944 21bc 639a 35bc 1932 0a3e
000003a0: 326a 1f3d 357a d8bd 0d95 acbc 4202 53bd
000003b0: a425 37bd 66fe 343d 6cbc cabd 910c d53a
000003c0: 0e42 b23c 50ba cfbd 9c85 21bd d924 27bd
000003d0: fc75 0ebe fa73 c93c 4a5c 9e3d cad4 6fbd
000003e0: 853f 00bd 5472 1f3d 1eb1 6f3d f14c 40bd
000003f0: 3260 31bd a88f 61bd c77a b7bd 331d a8bd
0.14674148 0.0031598872 -0.01753413 -0.06439377 -0.069013126 0.09192001 -0.004792744 0.0629308
-0.067817844 0.067881964 0.035384193 -0.026639985 -0.030220225 -0.115498185 -0.0047816723 -0.03281835
-0.069093816 -0.05998467 -0.028574837 -0.071374975 -0.061905116 -0.02533496 -0.13403869 -0.0066137323
-0.011042123 0.048239637 0.042276233 -0.058440857 0.09211595 -0.06978585 0.07714707 -0.021069635
-0.0111267455 -0.01794919 0.0069958824 0.028551841 -0.053871404 0.006184211 -0.020309277 0.09861856
-0.008666174 -0.011568947 -0.18877314 -0.013577869 -0.013499754 -0.009789591 0.07103519 0.0091376295
-0.017357277 0.0029839077 -0.026008323 -0.0766274 -0.02987381 -0.0640676 -0.06261265 0.0571528
-0.008517786 -0.06928449 0.054007094 0.02148727 -0.024465473 -0.0011522339 0.07951823 -0.012878177
0.02814483 -0.009216155 0.018347343 0.065382436 -0.08161864 -0.10595573 -0.03272925 -0.065243825
0.036558628 0.009624734 0.058317795 -0.032479372 -0.002908033 -0.079425715 -0.09341911 0.035394825
0.0327943 0.018085739 -0.01672686 -0.028602948 -0.11545682 -0.111787744 0.012793994 -0.07788155
-0.07764103 -0.036720853 -0.06971642 0.038638625 -0.075192854 0.027895363 -0.0020161476 -0.03200214
-0.03244761 -0.044126224 -0.13396215 -0.011149754 -0.079787426 -0.023438454 0.051372215 0.018545195
0.011603101 -0.02654996 -0.031103339 -0.0054711504 -0.050237656 0.024284435 0.0677991 -0.021641405
0.025055863 0.040575415 -0.07354164 0.037383344 -0.007876214 0.04189513 0.0061904863 0.0112296445
0.021983063 -0.03937032 0.049230948 -0.0633623 0.0074681467 0.036933955 0.1442878 0.03910795
0.07768019 -0.05392053 0.0050012195 -0.04587864 -0.032790534 0.11074232 -0.040828507 0.012974897
0.057442207 -0.07069721 0.014178974 -0.12835652 -0.013720513 -0.016438263 -0.029088736 -0.061107088
-0.05262811 -0.017021202 0.077501334 -0.10693753 -0.039614394 0.006611588 0.037799973 0.036804665
0.014442151 -0.071082555 -0.05726078 0.013847142 0.022455588 0.056044735 -0.06340433 0.027339196
-0.044787224 0.037049647 0.053095333 -0.025201306 -0.04369286 0.020035941 -0.05948065 0.023860632
-0.004536706 0.0065980973 -0.048733845 -0.009710776 -0.012677771 -0.08062598 0.05014877 -0.08572278
-0.03050958 -0.04037774 -0.0029370442 -0.048475064 0.03943173 0.15866779 0.07129285 -0.017549207
-0.061521042 -0.12782302 0.0097644795 0.049398668 -0.0931326 -0.0832461 0.054956097 0.036161013
-0.06314675 -0.024545528 -0.060941484 0.008666399 -0.15262635 0.01825987 0.031627756 0.022882143
0.007879139 -0.103191726 0.13106254 -0.07179747 -0.04517716 0.0063542807 0.006558491 -0.026219381
-0.041700564 0.018406147 0.05002516 -0.05935314 -0.048164763 -0.11663673 -0.017606668 0.050560277
0.052623972 0.041844364 0.12219317 0.044387102 0.049263313 0.12360109 0.018306375 0.016932191
0.08797576 0.02577686 0.018364461 -0.1525434 -0.020227963 -0.009842881 -0.011084172 0.13495673
0.038919635 -0.10570184 -0.021067167 -0.051515825 -0.04471363 0.044187926 -0.0989922 0.0016254355
0.021760013 -0.10142958 -0.03943406 -0.040806625 -0.13912195 0.024591435 0.077324465 -0.05855254
-0.031310577 0.03892739 0.05851852 -0.046948377 -0.04330463 -0.055068642 -0.08958965 -0.08208694

action_model._discrete_distribution.branches.0.bias f4 [3]
00000000: 63b6 b23b dcd4 0f3d 10fd e0bc
0.005453871 0.035115108 -0.02746442

action_model._discrete_distribution.branches.1.weight f4 [3, 256]
00000000: 1ce6 ea3d 2c72 ec3b 3823 7cbc 9582 80bd
00000010: 5810 23bc 2850 44bd b5ea 8a3c 9467 983c
00000020: e6b5 903c 2831 0c3d 4c8e 50bd 0169 8cbc
00000030: df8e 8d3d 7b6b 24be 6ed6 a1bd ea71 cfb9
00000040: a3b0 4ebe efcd cbbd 02d1 e3bc 537f 12be
00000050: 73bf 7ebd b7f7 91bc 4e82 59be ea48 41bc
00000060: 3983 4abb 2ade 903c 3b7d 53bd f5b0 80bd
00000070: b362 7abc f451 77be 8efe 063e cc95 24be
00000080: af13 733c fcdd 74bc c7f3 db3a 4a7b bf3c
00000090: 1e97 873c 3bd9 39bc c362 e63c 98d4 23bd
000000a0: de75 903d 076a 73bd 5ab7 8abd 0392 18bd
000000b0: ac05 dbbd 7c85 8c3d 4449 2d3d 4151 6ebd
000000c0: bf53 8abb 4ba8 3a3d 33fe b33c 69aa 21be
000000d0: 525d 62be 51fa 38be e321 b4bd 53dc 49bd
000000e0: 7f7d c7bb 3a64 c93c 3644 4abc 5045 b5bd
000000f0: 3f72 e63b c712 1cbd aa20 063d e744 9d3d
00000100: e555 3ebd db1d c83b d28a 91bb 078a 923d
00000110: 094f 5d3d 8ff2 f93b fa88 883c 6517 42bd
00000120: c0ec 2e3c abfd 4fbd 4614 64bd e750 863b
00000130: a5ce 9dbd 589a 2abc 8e3f 32ba e7d1 9bbc
00000140: 71a8 123d b209 b8bd 009f 92bd c96d 903d
00000150: db4b 0abe 3eb5 033d c407 293b 122a babd
00000160: 4d33 8bbd b7ec 82ba 77c4 8d3c 76c3 a53d
00000170: e947 8bbc 8b4a 9a3b 67fb 81ba 094d cfbd
00000180: 8e07 e2bd 8e05 333d 6fbe 1bbe 5781 553b
00000190: 4e3b 523d c16a 9c3c 5d14 af3c a5c6 89bd
000001a0: 1ceb 05be 82b5 d3bc 8b17 dabb 7e56 7d3c
000001b0: 356d f8bd cfcb 163d d2a7 aebc 6e28 5c3b
000001c0: 0728 233d ed65 8b3d b5e2 013e a907 87bc
000001d0: 334e 2fbd 9568 4abd 0a2a d23b 5e3d b03a
000001e0: 5212 9a3d fcdf 8dbd 1610 b93d e1a6 ec3b
000001f0: c904 533d b217 7bbd e0cf b83b c6f0 4c3b
00000200: 86fd c1b9 efd2 ca3a dfeb 403d eed5 3e3d
00000210: 0600 973d 3807 353d 67e6 9abd 5669 0bbe
00000220: 9eac d23c cc9d 6a3d 3ef7 143d d5b1 3abe
00000230: 523d 543c a142 823d dbfe 863d 4ac4 9bbd
00000240: 3efb 643c a011 3cbd 2054 383c db4a a8bd
00000250: 59cc c13d f0c4 57bd 1903 073d b0ca 8fbd
00000260: 7366 34bd 5e43 10be da77 b43b 3efd 1d3d
00000270: 2cee ae3d e752 80bd e449 a53d 27f7 efbd
00000280: af95 15bd 3fe2 e4bb 11a1 d93c a671 2c3b
00000290: 2052 a83c 397e 9f3c b454 f8bc 9844 c9bc
000002a0: c39e 20bd 46ca 92bc b8e6 a7bd a760 e83c
000002b0: 46a4 81bd 9fc7 11be 19b5 7f3c d5dd 9ebc
000002c0: 98cd 92bc ea37 c4bd 1c52 99bd 50bc fa3c
000002d0: 8db7 123d 5089 393d 8088 6bbd 2664 b73b
000002e0: 79aa d63c ebe6 04be 8aaf 88bd 5439 b2bd
000002f0: a332 cebc 70f8 253d fc72 793d eb17 bdbc
00000300: a761 2d3d c3b2 9d3c 09bd 413b 148d 383d
00000310: f037 cc3c 13d2 bebc f73e a53d a7b4 2cbc
00000320: 53e5 433c 6035 df3d 9401 503d e16f cf3c
00000330: 515b 823d 2cc2 e13d 27c6 fabc cb80 07be
00000340: 2ff8 fcbb ad44 96bc 4156 1cbd 673d ddbb
00000350: de97 cbbc 7071 053d 0593 b13c 0ac0 603d
00000360: 05c0 1f3d 4118 f73c 245f c4bd b6b7 dd3c
00000370: 8a25 66bd 401c 4cbd e82b 3cbd aaad 21bd
00000380: 171d 51bd 68fe b0bd d435 4d3d 178c 043d
00000390: 6b89 cabd 806d a4bc 95b0 a8bd e9cb 94bc
000003a0: 6272 833d 2d82 1abe 9202 86bd 7873 3ebd
000003b0: 9740 d13c 0cac 0c3c d1da dfbd be6d 73bd
000003c0: a30f c43d 2cc7 8e3d 1d42 f0bd 8333 9c3c
000003d0: 200e 30be 6f92 333d d1a5 983d eda7 cc3b
000003e0: 67f5 6d3c e27e 3dbd 38c0 923c 0041 16ba
000003f0: 968b cabd 2e14 a43c 1e98 1ebd ec84 903d
0.11469671 0.007215759 -0.015389256 -0.062749065 -0.009952627 -0.047928005 0.01695762 0.018604077
0.017664861 0.034226567 -0.050916955 -0.017139914 0.06912016 -0.16056626 -0.07902227 -0.0003956699
-0.20184569 -0.09951388 -0.027809624 -0.14306383 -0.0621943 -0.017818315 -0.21241114 -0.011797169
-0.0030900969 0.017684061 -0.0516331 -0.06283752 -0.015282321 -0.24152356 0.13183042 -0.16072768
0.014836236 -0.014945503 0.0016781025 0.023374218 0.01655155 -0.011343296 0.028123265 -0.039997667
0.070537314 -0.059427287 -0.06773253 -0.037248623 -0.10694441 0.068613976 0.0423062 -0.05818296
-0.004221409 0.045570653 0.021971798 -0.15787663 -0.22105911 -0.18064238 -0.08795526 -0.049282383
-0.0060879583 0.024583925 -0.012345364 -0.08851111 0.007032662 -0.038103845 0.032745995 0.07679158
-0.046468634 0.0061070747 -0.0044415975 0.07155233 0.054030452 0.007627792 0.016666878 -0.047385592
0.010676563 -0.050779026 -0.055683397 0.004099 -0.0770543 -0.010412775 -0.00067996315 -0.019020988
0.03580517 -0.08986224 -0.07159233 0.0705219 -0.13505499 0.032155268 0.0025791982 -0.090900555
-0.06796894 -0.0009988759 0.017305596 0.08093922 -0.017002063 0.0047085932 -0.0009916843 -0.10122115
-0.11036597 0.04370647 -0.15209363 0.0032578313 0.05132609 0.019093873 0.021372015 -0.067273416
-0.13077968 -0.025843386 -0.0066556386 0.015462516 -0.121302046 0.03681546 -0.021320257 0.0033593434
0.039833095 0.0680655 0.12684138 -0.016483145 -0.042799186 -0.049416143 0.006413703 0.0013446023
0.075230256 -0.06927487 0.09036271 0.007222042 0.051518235 -0.061301894 0.005640015 0.0031271442
-0.00037000718 0.001547424 0.047099944 0.046590738 0.07373051 0.044196337 -0.07563477 -0.13614401
0.025717076 0.057279393 0.0363686 -0.182319 0.012954073 0.06360365 0.065915786 -0.076057985
0.013975916 -0.045915246 0.011250526 -0.082174025 0.09462804 -0.05267805 0.03296194 -0.070210814
-0.044043016 -0.14088199 0.0055074515 0.03857159 0.085415214 -0.06265812 0.08070734 -0.117170624
-0.036519703 -0.0069849784 0.02656606 0.0026312857 0.020546973 0.019469367 -0.030313827 -0.02456884
-0.039213907 -0.017918717 -0.08198303 0.0283664 -0.06330161 -0.14236306 0.015607142 -0.019392887
-0.0179203 -0.09580977 -0.07486364 0.030607373 0.03581958 0.045296967 -0.057503223 0.0055966554
0.026204335 -0.12978713 -0.066741064 -0.08702341 -0.02517063 0.04052013 0.060900673 -0.023082694
0.042329457 0.01925028 0.0029562137 0.045056418 0.024929017 -0.02329353 0.0806865 -0.010541118
0.011956531 0.10898852 0.050782755 0.025321903 0.063650735 0.110233635 -0.030612065 -0.13232724
-0.0077200155 -0.018343294 -0.038168196 -0.0067517045 -0.02485269 0.032578886 0.02167655 0.054870643
0.039001483 0.030162932 -0.09588459 0.02706514 -0.056188144 -0.04983163 -0.04594031 -0.03947226
-0.051053133 -0.08642274 0.050100163 0.032360163 -0.09889492 -0.020071745 -0.08236805 -0.018163638
0.06418301 -0.1508872 -0.06543459 -0.04649684 0.025543494 0.008585941 -0.10930408 -0.05943083
0.09573295 0.06971583 -0.1173136 0.019067531 -0.17192888 0.04384082 0.07453502 0.0062456043
0.0145238405 -0.046263583 0.017913923 -0.00057317317 -0.09889905 0.020029154 -0.03871929 0.07056603

action_model._discrete_distribution.branches.1.bias f4 [3]
00000000: 3875 b83c 2815 a63c 984c 0abd
0.022516832 0.02027376 -0.03376445

action_model._discrete_distribution.branches.2.weight f4 [2, 256]
00000000: 1cfe 65bc 0aad b23c e63b a5bc 6df8 83bc
00000010: 78b3 52bd 1050 e23b 87d7 473c 8bd3 733d
00000020: b907 423d e6a3 333c 3112 07bd 2f38 2bbd
00000030: 22b3 acbc 40e4 3ebd c3e2 37bd 3a52 4cbd
00000040: 7b01 07bd a0eb fc3c 79fd 853d 0591 4d3d
00000050: c466 463d 31f9 f73c 4c00 3cbd c345 53bd
00000060: fd77 03bc df01 38bc 21ae 963d 00d3 53bd
00000070: 5c1f eebd c96c 92bd 6030 22bd f4d8 41bd
00000080: b8e1 8a3c 6777 debd 4bb3 c33d 3b47 b53b
00000090: e54e b4bc 7c23 64bb 2418 28bb 8703 103e
000000a0: cc7e abbc 8718 d33c ce22 2abe a906 fb3c
000000b0: bdb2 a23c 984a 1ebd d344 bf3d ac04 febd
000000c0: 4e7a c03c dafa 083d 06b8 293d bd89 39bd
000000d0: ebd9 2fbd 98c1 98bd c562 2b3d 7cca abbc
000000e0: be02 963c 46c8 f93c e737 c93c e4e8 773c
000000f0: e6ed 013c a1dc babc e115 89bd 903d 64bd
00000100: 8666 2ebc e9c3 153d 0c84 b0bb 3b00 343d
00000110: 1141 5a3d 40cb 88bd 9d9d 53bd 307b ebbd
00000120: 02e6 963d 316e 0dbd 2362 cfbc d26f d13b
00000130: 1d04 b1bd cca0 80bc cda5 7abd 5bd0 893d
00000140: 6fd2 683d ed5e 293d bbb2 a5bc a63b cdbd
00000150: e7d8 7a3d 27b4 05bd 1164 0a3e a9ca 50bd
00000160: 12c8 3e3d 5bd5 dd3d da9b 4ebd 3cd4 883c
00000170: 9c20 c23a 675b cbba 2c77 853b 19ef b2bc
00000180: 9a86 29bd d26c 42bd b605 26bd b08c 383b
00000190: f229 c5bd 9233 15bd 475b c23c 0ecf 52bd
000001a0: a8b2 233d f7df 6dbd da2d d93c dda6 b33c
000001b0: 3d49 a33d 4aeb f7b9 3b50 40bd d672 a9bb
000001c0: 6cb2 89b9 be43 26bd 0bcc 01bc 93e3 4b3d
000001d0: 9894 0ebd aee0 053a b2ac dcbb 9801 2c3a
000001e0: db2a 6d3d 3742 2d3c 25af ffbc 03d7 2fbd
000001f0: 6bff d53c 818e e1bc 8374 b6bc d92a 0c3d
00000200: 9d13 2f3d 341c 0cbd 2197 e03b c219 04bd
00000210: e873 46bd 3226 683d e40a a5bc a520 543b
00000220: a405 5fbc cda8 1ebd 38f7 263d 076c 86bd
00000230: 8f92 cb3a e906 6abd 7f55 023d 56e0 98b9
00000240: 0e06 953c 5442 ce3a d3d8 343d 699f 35bd
00000250: f865 ad3c a6cc 503d c657 223d a13d 08bd
00000260: 3460 88bc a099 973c 5387 c03b 0751 423c
00000270: 58bd 3c3d 5364 213d a063 9ebc 666e b03b
00000280: b946 24bd a6f0 d43c 0c12 dabb 5db4 29bd
00000290: 8c88 723c d8fb a8bd 6ff1 d03c ea90 033d
000002a0: 64bb 36bc 4cfa 71bd a0ff c13c 69a7 64bd
000002b0: 0ae7 5cbd 0cda efbd 68b2 ea3c de75 ab3b
000002c0: acd3 543d 3c03 033d 249b 82bb 75d2 323d
000002d0: 702c be3d 4ba3 be3d 4739 ba3d 319b 933b
000002e0: 0656 033d d2aa 4ebe 3af7 afbd e415 1e3d
000002f0: f04f 5f3a c8d1 56bc 69f3 ee3d 7cc8 36bd
00000300: 5549 e5bc 74c4 363c 01b3 94bd 2098 673d
00000310: ec48 b7bd 1a1e 533d c287 4bbb 50a1 643b
00000320: 4991 7d3d cab0 e9bb 57b3 22bc 4130 5dbd
00000330: aa67 a5bd c9ad 23bc 7dac 8abd fe14 f6bc
00000340: 64da df3b 89c1 2e3c a4d9 5ebc eefd 60bb
00000350: d38e 18bd 669f 0e3b 0759 8f3c 81c7 a13c
00000360: b87d ca3c cba2 163d 72d2 7fbc 944e 093d
00000370: b739 98bd a308 e4bc ed3e 8dbd 04ae 27bd
00000380: 89c4 1abd b484 cfbc 735c 953d 72e7 153d
00000390: 50e6 7fbd 06d8 393c eae4 01bc b19b 2f3d
000003a0: 98c1 4aba cc8e 16bd c8a1 35bc 5c4e 9f3d
000003b0: 5c95 a8bd c186 2f3c 35ba 80bc 41c4 023e
000003c0: 2a79 d93c 73c0 46bd 4dce 883b b33f 8cbd
000003d0: e2dc 34bd b177 80bd 888a 41bd a30c 6b3d
000003e0: be32 26bc 41d4 04bd 06cc afbc 9ad0 073d
000003f0: a5d3 c33c e205 0a3d 5dab dbbc 1d70 ae3b
-0.014037635 0.021811027 -0.020170163 -0.01610967 -0.051440686 0.006906517 0.012197382 0.059527915
0.047370646 0.010964369 -0.032976333 -0.041801628 -0.02108151 -0.046604395 -0.04489399 -0.049883105
-0.032960396 0.030874074 0.06542487 0.05018713 0.04843785 0.03027019 -0.04589872 -0.0515802
-0.008024213 -0.011230915 0.07357431 -0.051714897 -0.11627075 -0.07149655 -0.039596915 -0.047326043
0.016953334 -0.10862618 0.09555682 0.005532173 -0.022010276 -0.003481119 -0.0025649155 0.14063846
-0.020934485 0.025768531 -0.1661484 0.030642824 0.01986062 -0.038645357 0.09339299 -0.12403235
0.02349582 0.033442356 0.041435264 -0.045297373 -0.042932432 -0.074588 0.04184224 -0.020970576
0.018311854 0.030491006 0.02456279 0.015131209 0.007930255 -0.022810282 -0.06693626 -0.055722773
-0.010644561 0.036563788 -0.005386835 0.043945532 0.05328471 -0.06679392 -0.051663984 -0.114981055
0.07368089 -0.034528915 -0.02531535 0.006391504 -0.08643363 -0.015701674 -0.061193276 0.06729194
0.05684131 0.041350294 -0.020226827 -0.10021143 0.06124201 -0.03264251 0.13514735 -0.05097452
0.04657752 0.1083171 -0.0504416 0.016702764 0.0014810744 -0.0015514911 0.0040730443 -0.021842526
-0.04138813 -0.04746706 -0.04053279 0.0028160028 -0.09627141 -0.036426134 0.023725165 -0.051466994
0.0399653 -0.058074918 0.026511122 0.021930153 0.079729535 -0.00047286815 -0.046951514 -0.00517116
-0.0002626361 -0.040591948 -0.007922183 0.04977758 -0.03480968 0.0005107027 -0.006734454 0.0006561517
0.0579022 0.010574869 -0.031211445 -0.04292966 0.02612277 -0.027533771 -0.022272354 0.03422055
0.042743314 -0.034206584 0.0068539535 -0.032251127 -0.04845038 0.05667705 -0.020146795 0.003236809
-0.013612185 -0.0387352 0.04076311 -0.06563573 0.0015531349 -0.057135496 0.031819817 -0.00029158843
0.018191364 0.001573632 0.044152092 -0.04434148 0.021166787 0.050976418 0.03963449 -0.0332619
-0.016647436 0.018505871 0.005875507 0.011860139 0.04607901 0.039402317 -0.019334614 0.0053842543
-0.04010651 0.025993656 -0.0066549834 -0.041431773 0.014803063 -0.082511604 0.02550575 0.032120623
-0.011153076 -0.059076592 0.023681462 -0.055823717 -0.053931274 -0.11711511 0.028649524 0.0052325567
0.05195968 0.031985506 -0.0039857794 0.04365774 0.092858195 0.093084894 0.09092956 0.0045045842
0.03206446 -0.2018235 -0.085920766 0.038595095 0.00085186865 -0.013111539 0.116675206 -0.04462479
-0.027989069 0.0111552365 -0.07260705 0.056541562 -0.089494556 0.05154238 -0.003105626 0.0034886189
0.061906133 -0.0071316706 -0.009930453 -0.054001097 -0.08076413 -0.009990164 -0.06771181 -0.030039307
0.006831454 0.01066626 -0.013601694 -0.0034331041 -0.037245583 0.002176249 0.017498506 0.019748451
0.02471815 0.036776345 -0.015614139 0.033522204 -0.07432883 -0.02783615 -0.06896768 -0.04093744
-0.037785087 -0.025331832 0.07293024 0.036597677 -0.062475502 0.011343008 -0.0079281125 0.04287309
-0.0007734536 -0.036757275 -0.011085935 0.07778618 -0.08231613 0.01071328 -0.01571379 0.12770177
0.026547033 -0.048523378 0.0041749836 -0.06848087 -0.044155963 -0.06272829 -0.047251254 0.0573851
-0.010143934 -0.032428984 -0.02145959 0.033157922 0.02390463 0.033697017 -0.02681511 0.0053234235

action_model._discrete_distribution.branches.2.bias f4 [2]
00000000: b1cd 96bd a3cd 963d
-0.07363451 0.07363441
