ML_stuff/results/cw_05/FindCubeWife.onnx (onnx, 356907 bytes, 13 tensors)

discrete_act_size_vector f4 [1, 4]
0	0x40400000	3.0
1	0x40400000	3.0
2	0x40000000	2.0
3	0x40000000	2.0

network_body._body_endoder.seq_layers.0.weight f4 [256, 69]
0	0x3c69bd55	0.014266332
1	0xbca052de	-0.019570764
2	0x3d23eb08	0.040019065
3	0x3e0acd8c	0.13554972
4	0x3dab9752	0.083784714
5	0xbbbb5b16	-0.0057176454
6	0x3d8dabdd	0.06917546
7	0xbc839e99	-0.016066836
8	0x3e94f0ff	0.29090115
9	0x3dd4b772	0.10386552
10	0xbdf928d8	-0.121659935
11	0xbe849a6a	-0.2589906
12	0xbd8161e2	-0.06317498
13	0xbcab9979	-0.020947205
14	0xbbbcc61a	-0.0057609202
15	0x3db2c55c	0.087290496
16	0x3e088c95	0.13334878
17	0x3e622f7d	0.22088428
18	0xbdd966c1	-0.10615302
19	0x3e0e4bd9	0.13896121
20	0xbdbc6aa7	-0.0920003
21	0xbe126421	-0.14296009
22	0xbe45b95c	-0.1930899
23	0x3e458e27	0.19292508
24	0x3d961268	0.073277295
25	0x3e065cfb	0.13121407
26	0x3cd71c31	0.02625856
27	0x3e3ee4e7	0.18642007
28	0xbe2f1f5b	-0.17101805
29	0xbdadbd9c	-0.08483431
30	0x3df0b969	0.11754114
31	0xbde1f7be	-0.11033581
32	0x3dbf0d7f	0.09328746
33	0xbc28c1d0	-0.010300115
34	0x3e2f7446	0.17134199
35	0xbdb698a9	-0.08915836
36	0xbcc50bc8	-0.02405347
37	0x3c50d19a	0.012745285
38	0xbd6258d3	-0.05526049
39	0x3dff7896	0.12474172
40	0xbcf413b0	-0.029794544
41	0x3d6d5344	0.057940736
42	0xbde86655	-0.11347643
43	0x3e1660bc	0.14685339
44	0xbd56a68f	-0.052404936
45	0x3df89a05	0.12138752
46	0x3deadab1	0.11467493
47	0x3caf669e	0.021411236
48	0x3c1e07da	0.009645427
49	0xbe1a02c0	-0.15040112
50	0xbdd77c42	-0.10521747
51	0xbdefe7f0	-0.117141604
52	0x3b9b3c3b	0.0047374046
53	0xbe544383	-0.20728879
54	0x3cc6b602	0.02425671
55	0xbe3ba29d	-0.18323751
56	0x3d197239	0.037462447
57	0xbdbf105e	-0.09329294
58	0xbdb9ffa5	-0.090819634
59	0x3d6ace05	0.05732538
60	0xbe0bdeae	-0.13659164
61	0x3da14353	0.07874169
62	0x3d78ac2f	0.060711082
63	0xbdd50277	-0.10400861
64	0xbc769f0b	-0.015052567
65	0x3bd261a7	0.0064203325
66	0xbde7e419	-0.11322803
67	0xbdac4ffe	-0.08413695
68	0xbccea4bd	-0.025225038
69	0x3d398b84	0.045299068
70	0xbcae6911	-0.021290334
71	0xbba208b2	-0.004944884
72	0x3cbfce5a	0.023413826
73	0xbda48a6c	-0.080342144
74	0xbdf9f548	-0.12204987
75	0xbddfd5b2	-0.10929431
76	0xbe09bfac	-0.13452023
77	0xbd39b962	-0.04534281
78	0xbd5cfafe	-0.053950302
79	0xbda251fd	-0.07925794
80	0x3e875913	0.26435146
81	0xbd9c1e74	-0.07622996
82	0xbd87b77e	-0.06626795
83	0xbe090974	-0.13382512
84	0x3ce73008	0.028221145
85	0xbe9dd17a	-0.3082388
86	0xbe1975e9	-0.14986385
87	0x3caab8f7	0.020840151
88	0xbd4b3efa	-0.049620606
89	0x3eb4645d	0.3523282
90	0xbd41e5f4	-0.04733844
91	0xbdd7bda5	-0.10534219
92	0xbd3f6489	-0.046726737
93	0xbd8d85ec	-0.06910309
94	0xbd05864d	-0.032598782
95	0xbdc0cecd	-0.09414444
96	0x3e187c7f	0.14891241
97	0x3e80903c	0.25110042
98	0x3d8ab31f	0.06772446
99	0x3dcc9656	0.09989612
100	0x3c911296	0.017709058
101	0xbc929bbb	-0.017896524
102	0xbdde6aa5	-0.108601846
103	0xbde09b09	-0.109670706
104	0xbdb91871	-0.09037865
105	0x3dcbfe95	0.09960667
106	0xbd81c2f6	-0.06336014
107	0x3d67bb7a	0.056575276
108	0xbe1f6a08	-0.15567791
109	0x3e93942b	0.2882398
110	0xbd3e5b3a	-0.04647372
111	0xbd6da88a	-0.05802206
112	0xbe0e30a9	-0.1388575
113	0xbacd6e22	-0.0015673081
114	0x3b548ea5	0.0032433656
115	0x3d3ce2ce	0.046114735
116	0x3d99716f	0.07492339
117	0x3de2a5d5	0.11066786
118	0x3e89c93e	0.26911348
119	0xbdd4cb15	-0.10390297
120	0xbddd0f9a	-0.107939914
121	0x3ca0ee2d	0.019644821
122	0xbdc4cfe8	-0.096099675
123	0xbd86e1ba	-0.06586023
124	0x3e23abbb	0.15983479
125	0xbcfbc78d	-0.030734802
126	0xbceb66e0	-0.028735578
127	0x3e26732d	0.16254874
128	0xbde66963	-0.1125057
129	0xbc9d5bc9	-0.019208806
130	0xbdbb3620	-0.09141183
131	0x3c323427	0.010876692
132	0x3e0e8801	0.13919069
133	0x3d727901	0.05919743
134	0x3da5c866	0.080948636
135	0xbcaabcee	-0.020842042
136	0x3d7136b6	0.058890067
137	0xbd9f60ef	-0.077821605
138	0xbd9cf580	-0.07664013
139	0x3c8fdf17	0.017562432
140	0x3d9b2a09	0.07576377
141	0x3b8ee069	0.004360248
142	0xbd04bc5c	-0.032406196
143	0xbd8f744d	-0.070046045
144	0xbe754ecc	-0.2395584
145	0x38811743	6.155532e-05
146	0x3d08de29	0.033414993
147	0xbda5d2c9	-0.08096845
148	0xbe3fc6ab	-0.1872813
149	0xbd029938	-0.031884402
150	0x3e34254f	0.17592357
151	0xbe231b8e	-0.1592848
152	0x3dd53d37	0.104120664
153	0x3e69c240	0.22828007
154	0xbe255332	-0.16145018
155	0xbe400879	-0.18753232
156	0xbdf9d412	-0.12198652
157	0xbdc85138	-0.09781116
158	0x3db970cb	0.09054717
159	0xbc184b80	-0.009295344
160	0x3de7cd3d	0.11318443
161	0x3d0a890b	0.0338221
162	0xbcb36fe7	-0.021903945
163	0x3dd21def	0.10259616
164	0x3bd837bb	0.0065984405
165	0xbe5a57c1	-0.21322538
166	0xbe3e56c4	-0.18587786
167	0xbce987c3	-0.028507119
168	0xbda3a19d	-0.0798981
169	0x3ce72cd6	0.028219622
170	0xbe8bbdc6	-0.27293223
171	0xbe3b0768	-0.18264544
172	0x3e3d946f	0.18513654
173	0xbe1f6bad	-0.15568419
174	0xbe32060c	-0.17385119
175	0xbe6a9c4a	-0.22911182
176	0xbd5e40bf	-0.054260965
177	0x3c166f5f	0.009181826
178	0x3cdc807e	0.026916739
179	0xbda862d7	-0.08221977
180	0x3ce29cec	0.027662717
181	0x3cfa22a1	0.03053409
182	0xbe332a40	-0.17496586
183	0x3eaf054a	0.34183723
184	0x3dae0666	0.08497314
185	0x3b06bfea	0.0020561167
186	0x3dbb2eb3	0.091397665
187	0xbd9e12f1	-0.077184565
188	0xbab81f65	-0.0014047442
189	0xbdba30eb	-0.090913616
190	0xbccbeb56	-0.02489249
191	0x3cde7f5f	0.027160345
192	0x3d3fdb4e	0.046840005
193	0xbd1982e9	-0.03747836
194	0xbd81fe98	-0.06347388
195	0xbdcf870c	-0.1013318
196	0x3d0f1274	0.034929708
197	0xbd8edd1e	-0.069757685
198	0xbdb80742	-0.08985759
199	0x3d94ef4e	0.07272206
200	0xbcb24567	-0.02176161
201	0xbe362623	-0.17787986
202	0x3e5c5416	0.21516451
203	0x3de30887	0.11085611
204	0xbd5aaf96	-0.053390108
205	0xbe028683	-0.12746625
206	0xbe54ac1f	-0.20768784
207	0xbc537c5e	-0.012908069
208	0xbc4b0226	-0.012390649
209	0xbd17857e	-0.036992542
210	0x3cddbe5f	0.027068315
211	0x3e0cb03e	0.13739106
212	0xbd35751e	-0.044301145
213	0xbceb5a32	-0.028729532
214	0xbd9bbea6	-0.07604723
215	0x3e051495	0.12996133
216	0xbd7a7ea4	-0.06115593
217	0x3e81b636	0.25334328
218	0xbe01a0e0	-0.12659025
219	0x3e1d0fdd	0.15338083
220	0xbd1ee64f	-0.03879386
221	0xbe9220f2	-0.2854076
222	0xbcf293b9	-0.029611455
223	0xbc964050	-0.018341213
224	0xbe8d8d70	-0.2764697
225	0x3d21f959	0.039544437
226	0xbe87c69d	-0.26518717
227	0xbd836759	-0.064161964
228	0x3d48b936	0.049004756
229	0xbc0831c3	-0.008312645
230	0xbe15bcd4	-0.14622813
231	0x3df1fe0f	0.11816036
232	0x3db6b831	0.089218505
233	0xbe3484e2	-0.17628816
234	0x3dacdabb	0.08440157
235	0xbd06bb76	-0.03289362
236	0x3d5e56f5	0.054282147
237	0x3e0dab90	0.13834977
238	0xbd3aeed0	-0.045637906
239	0xbd151ded	-0.036405493
240	0x3e18a59a	0.14906922
241	0xbd5636d0	-0.052298367
242	0xbe1472d3	-0.14496927
243	0x3d944d49	0.072413035
244	0xbc7eae04	-0.015544418
245	0xbd3aa4d8	-0.045567364
246	0x3bbdb68e	0.0057895845
247	0xbc709a94	-0.014685292
248	0xbe130ed4	-0.14361125
249	0xbcd16e36	-0.025565248
250	0xbd4a95cb	-0.04945926
251	0x3c77cc14	0.01512434
252	0x3c8aee43	0.016959315
253	0xbd80504e	-0.06265317
254	0xbe19b1a9	-0.15009178
255	0xbebbd5d5	-0.36686578

network_body._body_endoder.seq_layers.0.bias f4 [256]
0	0x3be2dc0f	0.0069232057
1	0xba8b1d7f	-0.0010613649
2	0x3b474622	0.0030406793
3	0x3c7192b4	0.014744449
4	0x3a1be76c	0.00059472653
5	0x3c65642a	0.014000932
6	0xbb89f891	-0.0042105396
7	0x3b7cb15d	0.0038557865
8	0x3b4bca1f	0.0031095815
9	0x3bfba9c9	0.007680152
10	0x3b3cfd4e	0.0028837505
11	0x3ba0754b	0.004896795
12	0x3ca6165c	0.020274334
13	0x3c2173be	0.009854255
14	0xbad3685d	-0.0016129125
15	0x3c6c460b	0.014420996
16	0x3cc984ce	0.024599459
17	0xbc28f36e	-0.010311944
18	0x3c32540e	0.010884298
19	0xbb6d235c	-0.0036184406
20	0x3c34a8bd	0.0110265585
21	0x3b8f9552	0.004381814
22	0x3b757b46	0.003745751
23	0x3c71af58	0.014751278
24	0xbc481ac6	-0.012213415
25	0xba35c2dd	-0.0006933639
26	0x3c81af22	0.01583058
27	0xbc0827cd	-0.0083102705
28	0xbbb9a483	-0.0056653633
29	0xbc19e035	-0.009391834
30	0x3c4faedd	0.012675968
31	0xbbe14d7d	-0.0068756924
32	0x3bfec09b	0.007774425
33	0x3c499e34	0.012305785
34	0x3b642529	0.0034812188
35	0x3bf978fb	0.007613299
36	0x3c645029	0.013935127
37	0x3cd88a22	0.026433054
38	0x3c7cbc4b	0.015425752
39	0xbba22793	-0.0049485653
40	0x3c0d4588	0.008622535
41	0x3bfcc75b	0.0077141947
42	0xba27f244	-0.0006406645
43	0x3b43eb2a	0.0029894807
44	0x3b15cba6	0.002285698
45	0xbbd22289	-0.0064128083
46	0xbc9f9d90	-0.019484311
47	0x3bbdb0ea	0.005788912
48	0xbc74011e	-0.0148928445
49	0xbbadf2f5	-0.0053085038
50	0xbc8b3f1f	-0.016997872
51	0x3b1fca9d	0.0024382242
52	0x3ca55da1	0.020186247
53	0x3c4f8b6b	0.012667517
54	0x3b9d6c73	0.004804188
55	0x3b4e49be	0.003147706
56	0x3cbeefaf	0.02330765
57	0xba01b3e4	-0.0004947765
58	0x3c18df85	0.009330635
59	0xbb22c46e	-0.002483632
60	0xbb73fd70	-0.0037229918
61	0x3cc1f1ea	0.023674924
62	0x3c14fb3c	0.009093102
63	0xbb865a67	-0.0041001323
64	0x3c020d55	0.007937749
65	0x3a4dfcf0	0.000785782
66	0xbb4b59d0	-0.0031028874
67	0x3bd494c6	0.0064874617
68	0xb8e13d2c	-0.0001074023
69	0x3a2ff716	0.0006712539
70	0x3c1bc2ea	0.00950692
71	0xbb46a9d9	-0.003031364
72	0x3c0770b1	0.008266614
73	0x3c7b5536	0.01534014
74	0x3babe3a7	0.005245644
75	0x3c09cfc5	0.0084113525
76	0x3bd4f1f2	0.0064985687
77	0x3b193dc6	0.0023382767
78	0x3c539fd7	0.012916527
79	0xbb5dd87d	-0.003385096
80	0x3c60a535	0.013711263
81	0x3c964fff	0.018348692
82	0x39153c56	0.00014232224
83	0x3b693216	0.0035582832
84	0x3c7b4c05	0.015337949
85	0x3b8c8d84	0.004289331
86	0xbc8b14b5	-0.016977647
87	0xbb3a2e73	-0.0028409034
88	0x3c5e4fd5	0.013568838
89	0x3bb8919d	0.005632593
90	0x3c823f2c	0.015899263
91	0xbb97ef4b	-0.0046366802
92	0x3b629979	0.003457634
93	0x3c9063bd	0.017625684
94	0x3b84b11e	0.0040494343
95	0x3b5843da	0.0032999427
96	0x3babf2c5	0.0052474462
97	0x3c330181	0.0109256515
98	0x3984be22	0.00025318662
99	0x3c89b0b4	0.016807891
100	0xba71ab99	-0.00092189905
101	0xbaca1ec1	-0.0015420542
102	0x3c9ef5a2	0.019404236
103	0x3c6dc90e	0.014513267
104	0x3c8987d8	0.016788408
105	0x3b870f16	0.0041216714
106	0xbc2ee94e	-0.010675741
107	0x3aed0195	0.0018082137
108	0x3b9ad4d6	0.004725079
109	0x3b50c441	0.0031855258
110	0xbb01a662	-0.001978301
111	0x39959bba	0.0002853552
112	0x3bc0ce24	0.005883949
113	0x3c468ecf	0.012119009
114	0x3c55e379	0.013054722
115	0x3cc8760c	0.024470352
116	0x3c81e692	0.015857015
117	0x3c05e2d4	0.008171756
118	0x3ac74860	0.0015204065
119	0xbc81cc78	-0.015844569
120	0x3b4b8965	0.0031057235
121	0xb846ef48	-4.7429727e-05
122	0xbbe962e4	-0.0071223844
123	0x3cab9efc	0.020949833
124	0xbc0f2f6a	-0.008739332
125	0xbc9c68f2	-0.01909301
126	0x3c556802	0.013025286
127	0xbc041e94	-0.008063931
128	0x3c25c396	0.010117432
129	0xbc4ce7c9	-0.012506434
130	0x3ce75d56	0.028242748
131	0x3c1b370e	0.009473575
132	0x3c35cd42	0.011096301
133	0xbabb8b7e	-0.001430854
134	0xbc8decb2	-0.01732478
135	0xba8b6039	-0.0010633535
136	0xb95415a0	-0.00020225951
137	0xbbfd48f2	-0.007729643
138	0x3bd3f6b3	0.006468618
139	0xbb84152c	-0.004030844
140	0x3bc61297	0.0060446966
141	0x3cb15377	0.021646244
142	0xbc428a7d	-0.0118738385
143	0xbc032964	-0.008005474
144	0x3bc350c4	0.0059605557
145	0x39ae2d1d	0.00033221478
146	0x3a532896	0.0008055059
147	0xbba58969	-0.005051781
148	0xbaeb4d69	-0.0017952147
149	0x3c407dbe	0.011748729
150	0x3cb2de56	0.021834534
151	0xbc7a3efd	-0.015273807
152	0x3bd44fe4	0.0064792503
153	0x3ca10dff	0.019659994
154	0xbc05c84d	-0.008165431
155	0x3c8827c1	0.016620519
156	0xbc219159	-0.009861314
157	0x3bfeb0c6	0.007772538
158	0xbb0d1e18	-0.002153283
159	0xbbb10627	-0.0054023447
160	0xbb9dd013	-0.004816064
161	0x3c3e4f7c	0.01161563
162	0x3bfbbfce	0.007682777
163	0x3c338ca3	0.010958823
164	0xbb2c3c67	-0.002628112
165	0x3c9ef1f3	0.01940248
166	0x3c4812cd	0.012211514
167	0xba631e7a	-0.0008663904
168	0x3c59725b	0.013271893
169	0x3c4f83d8	0.012665711
170	0x3c7269d4	0.014795739
171	0x3ca907bc	0.02063357
172	0xbb734e0f	-0.0037125384
173	0x3b355a1d	0.002767212
174	0x3c0c7262	0.008572193
175	0x3be477b8	0.0069722794
176	0x3c6b220c	0.014351379
177	0x3c01e8e3	0.00792906
178	0x3c983ed8	0.018584654
179	0x3c0b9be2	0.008521052
180	0x3b23176c	0.0024885787
181	0x3caa4477	0.0207846
182	0x3c11622b	0.008873503
183	0x3c87592a	0.016522009
184	0x3be2cd99	0.006921482
185	0x3c1899d9	0.009314024
186	0x3c84264d	0.016131544
187	0x3b584961	0.0033002722
188	0x3c1de216	0.009636423
189	0x3b6ceb52	0.0036151004
190	0x3b7cfbcf	0.0038602238
191	0x385fd6b8	5.3367316e-05
192	0x3c5e19d3	0.013555962
193	0x3c47bf97	0.012191675
194	0x3c0e23eb	0.008675556
195	0x3bcd04bb	0.0062566674
196	0x3cd088eb	0.025455913
197	0x3cacaed7	0.021079464
198	0x3c9ca9df	0.01912397
199	0x3c28e77a	0.010309095
200	0x3bfcece1	0.007718668
201	0xbbfbecb8	-0.007688131
202	0x3c705fb1	0.014671252
203	0x3b8b71d7	0.004255514
204	0x3c1ce4da	0.009576047
205	0xbbda7dbb	-0.0066678203
206	0xbb2428ce	-0.0025048736
207	0x3aea3252	0.001786778
208	0x3be9b5d0	0.0071322694
209	0x3c3e166a	0.011602024
210	0x3b87c3c5	0.0041432106
211	0xb983918f	-0.00025094717
212	0x3c104b73	0.008807051
213	0x3a9d0621	0.0011979976
214	0x3c177956	0.009245237
215	0x3bca035c	0.0061649512
216	0x3b9c2b3b	0.0047658957
217	0xbc877ffa	-0.016540516
218	0x3c5eda22	0.013601812
219	0x3c22d16f	0.009937628
220	0x3bea1cf2	0.007144564
221	0xbbbbed66	-0.005735087
222	0x3bedf7aa	0.00726219
223	0xbc3502b1	-0.011048005
224	0x3cd232c0	0.025658965
225	0x3b1b62f7	0.002371011
226	0x3c3b7f87	0.011443979
227	0x3c120fc9	0.008914896
228	0x3ba65df8	0.00507712
229	0x3be2f639	0.0069263247
230	0x3cd519fb	0.026013365
231	0x3a8f354d	0.0010925919
232	0x3bbab03b	0.005697278
233	0xba27295f	-0.0006376709
234	0x3cb424a0	0.02199012
235	0xbc142692	-0.009042399
236	0x3a767f46	0.00094031205
237	0x3bebb4f5	0.0071932026
238	0xbbd6002a	-0.0065307813
239	0x3c37c3b4	0.011216093
240	0xbba0f273	-0.0049117147
241	0x3bcf18e4	0.006320106
242	0x3b15e421	0.002287157
243	0xbc4f1ac8	-0.0126406625
244	0x3a8d3d89	0.0010775785
245	0xbae03554	-0.0017105737
246	0x3b3d0483	0.00288418
247	0x3c423cfb	0.011855359
248	0x3c069b7c	0.008215781
249	0xbbb6b040	-0.00557521
250	0x3c5905c9	0.013246008
251	0x3cd8e7b8	0.02647768
252	0x3b8573c8	0.00407264
253	0x3c01273a	0.0078828875
254	0xba3f089c	-0.00072873547
255	0x3c428d34	0.011874486

network_body._body_endoder.seq_layers.2.weight f4 [256, 256]
0	0xbe3cb801	-0.18429567
1	0xbbe019d0	-0.0068390146
2	0x3e3145f5	0.17311843
3	0xbbef7511	-0.0073076566
4	0xbcf60db4	-0.030035831
5	0xbda963f2	-0.08271016
6	0xbcb0ffaf	-0.021606294
7	0x3d9f612c	0.07782206
8	0x3c91aba1	0.017782034
9	0x3b87e288	0.0041468777
10	0x3d4a204c	0.049347207
11	0xbd3fda84	-0.046839252
12	0xbd00349a	-0.031300165
13	0xbd7f0a71	-0.062265817
14	0x3d5a0c02	0.053234108
15	0x3d7e483f	0.062080618
16	0xbdb77160	-0.089571714
17	0x3c2ff64b	0.010739873
18	0xbd805a5d	-0.062672354
19	0x3d86472d	0.065565445
20	0x3d12ead5	0.035868485
21	0xbc6e2380	-0.014534831
22	0xbbce5fa4	-0.0062980223
23	0xbc493373	-0.012280333
24	0x3db7a708	0.089674056
25	0xbd4c3a29	-0.049860153
26	0x3b905b03	0.0044053807
27	0x3dc7aac8	0.09749371
28	0x3b689bac	0.0035493178
29	0x3dbdbdb0	0.09264696
30	0xbd684fda	-0.056716777
31	0xbd317995	-0.04332884
32	0x3d8d8cce	0.06911622
33	0xbcf37944	-0.02972091
34	0x3e09e44e	0.13465998
35	0x3ce3a944	0.027790673
36	0x3da96c80	0.08272648
37	0xbc1a8780	-0.00943172
38	0xbd011131	-0.031510536
39	0x3da371b4	0.079806715
40	0x3dac6349	0.08417375
41	0x3c73f399	0.014889621
42	0xbd811cb9	-0.063043065
43	0xbc681752	-0.014165716
44	0xbd65ce79	-0.05610511
45	0xbd1dbd63	-0.03851069
46	0x3de8f434	0.11374703
47	0x3d7ad03d	0.061233748
48	0xbd4f5bca	-0.050624646
49	0x3cf0feec	0.029418431
50	0x3deb27de	0.114822134
51	0x3dc2b562	0.09507252
52	0x39814eb3	0.00024663433
53	0xbcfa8f29	-0.030585842
54	0xbc8b88f5	-0.01703308
55	0xbc93dfa3	-0.018050974
56	0x3d40410f	0.046937045
57	0xbcbdc852	-0.02316681
58	0x3d8143b8	0.063117445
59	0x3e5767f5	0.2103575
60	0xbd495e88	-0.049162418
61	0xbc1308b1	-0.00897424
62	0xbd7a9d25	-0.06118502
63	0xbc1e1627	-0.009648836
64	0x3da6e536	0.08149187
65	0xbc77f750	-0.0151346475
66	0x3b1cafe4	0.002390855
67	0x3cead06a	0.028663833
68	0xbdf83261	-0.12118984
69	0xbd15d39a	-0.036578752
70	0xbb4f33ef	-0.0031616648
71	0x3b9e4ccf	0.0048309336
72	0xbdb19514	-0.086710125
73	0xbd7320bf	-0.0593574
74	0x3c719374	0.014744628
75	0x3dc9db30	0.0985626
76	0xbdac9c78	-0.084282815
77	0xbd83ffdb	-0.06445285
78	0xbd9ae057	-0.07562321
79	0xbe40036f	-0.1875131
80	0x3d9e65b6	0.077342436
81	0x3d644962	0.055734046
82	0x3d11cddc	0.035596713
83	0x3e18f035	0.14935382
84	0x3df4d261	0.11954189
85	0xbba15a8b	-0.0049241236
86	0xbd206e2d	-0.03916757
87	0xbd079c65	-0.033108134
88	0xbd15ccf1	-0.0365724
89	0xbcbaaf27	-0.022788597
90	0xbc0b5e66	-0.008506393
91	0xbd4128b0	-0.047157943
92	0xbd470769	-0.04859105
93	0xbda7ef72	-0.081999674
94	0xbd8880c0	-0.06665182
95	0xbd12d9ee	-0.035852365
96	0xbd490e20	-0.049085736
97	0xbc8dcb05	-0.017308721
98	0x3be54abd	0.006997435
99	0xbcbeebb8	-0.023305759
100	0xbdeca1d9	-0.115543075
101	0x3d038b8f	0.032115515
102	0xbc183f77	-0.009292475
103	0x3cef7a04	0.029232986
104	0xbde28f74	-0.11062518
105	0x3d744a7a	0.05964134
106	0xbda32c20	-0.079674006
107	0x3c7483cc	0.014924001
108	0x3d916ba1	0.07100607
109	0x3d3e8f34	0.046523288
110	0xbd1f9e7a	-0.038969494
111	0xbd4cc562	-0.049992926
112	0x3d665fc7	0.056243684
113	0x3b49e740	0.0030808002
114	0x3cdbe2e7	0.026841594
115	0x3de6dd0d	0.11272631
116	0xbd0621f1	-0.032747213
117	0xbcb605e2	-0.022219602
118	0xbd518231	-0.05114955
119	0x3dbd1529	0.092325516
120	0xbd6f6f46	-0.058455728
121	0xbc6a6927	-0.014307297
122	0x3d1ae87c	0.03781937
123	0xbd6f144a	-0.05836896
124	0xbc9899a4	-0.018627949
125	0x3d8f2e92	0.069913045
126	0x3c51caca	0.012804696
127	0x3d7ab114	0.06120403
128	0xbd6ab063	-0.05729712
129	0xbd948455	-0.07251803
130	0x3d059f51	0.03262264
131	0xbdb71717	-0.08939951
132	0xbe1f5816	-0.15560946
133	0x3db7ae6a	0.08968814
134	0x3c9e6214	0.019333877
135	0xbdc47476	-0.09592526
136	0xbe1460fe	-0.14490125
137	0xbcbc44d5	-0.02298204
138	0xbc8854fb	-0.016642084
139	0xbd0046ce	-0.031317525
140	0xbba87d88	-0.0051419176
141	0xbd946302	-0.07245447
142	0xbd6b3194	-0.05742033
143	0xbc1dae0d	-0.0096240165
144	0x3dcb50ef	0.09927546
145	0xbc7f4912	-0.015581386
146	0xbc2bff5f	-0.010497897
147	0x3d478616	0.04871186
148	0xbd714ceb	-0.058911245
149	0x3bc95aa1	0.006144837
150	0x3c89bd3e	0.01681387
151	0x3e1c9fff	0.15295409
152	0x3e19bace	0.15012667
153	0xbb9b6c1c	-0.0047431123
154	0x3d3475e4	0.04405774
155	0xbd79b5b2	-0.060964294
156	0x3c2dfd88	0.010619529
157	0x3d97f115	0.074190296
158	0xbbe3680a	-0.0069398927
159	0x3d848227	0.06470137
160	0xbd2ba01b	-0.041900735
161	0xbd93744b	-0.071999155
162	0xbd6c4a63	-0.05768813
163	0x3d3838ea	0.044976152
164	0xbbed9118	-0.0072499625
165	0x3d84254d	0.06452427
166	0x3dd8d6e7	0.10587864
167	0xba759092	-0.0009367551
168	0x3df2ce20	0.118557215
169	0xbbc3edd5	-0.0059792795
170	0x3d509b86	0.05092957
171	0xbc72e82d	-0.014825863
172	0x3b1e138c	0.0024120538
173	0x3d5552ea	0.052081026
174	0x3d9993f1	0.07498921
175	0x3bceb4cd	0.006308174
176	0xbd2f2301	-0.04275799
177	0xbc150e4b	-0.009097646
178	0xbde47f0a	-0.11157043
179	0xbd10c60d	-0.035345126
180	0x3d2d4c8d	0.042309333
181	0xbd285f49	-0.041106496
182	0x3d7f0ff4	0.062271073
183	0x3d80865e	0.062756285
184	0x3d68ff19	0.056883905
185	0xbc371541	-0.011174501
186	0xbcb5f7e3	-0.022212928
187	0x3dd18e4e	0.102322206
188	0x3d0db0d2	0.034592457
189	0x3dfeeb7f	0.12447261
190	0xbbb68bea	-0.0055708783
191	0x3d61e8dd	0.055153716
192	0x3d7c90a2	0.06166137
193	0xbd95c133	-0.073122405
194	0xbdcf7acc	-0.101308435
195	0xbc797449	-0.015225478
196	0xbdafd91c	-0.08586332
197	0xba1046d8	-0.00055037206
198	0xbd357d60	-0.04430902
199	0x3d444f2f	0.047927078
200	0xbd55d6d4	-0.05220683
201	0x3c0ccd83	0.00859392
202	0x3c276995	0.010218044
203	0xbdcd6ed2	-0.10030903
204	0xbc526cce	-0.012843324
205	0xbd5f4fbb	-0.054519396
206	0xbd829244	-0.06375554
207	0xbcde4360	-0.027131736
208	0x3c3a4105	0.011368041
209	0x3d7c2b82	0.06156493
210	0xbdc540a9	-0.096314736
211	0x3d483763	0.048880946
212	0xbc390785	-0.011293297
213	0xbd3a4f2b	-0.045485657
214	0xbc81f386	-0.015863191
215	0x3d1b06b7	0.0378482
216	0x3d96c7d9	0.07362337
217	0xbc165768	-0.009176113
218	0xbce45760	-0.027873695
219	0xbcb421db	-0.0219888
220	0x3c6f5d86	0.0146097
221	0xbd35e440	-0.04440713
222	0xbcb9abf1	-0.022664996
223	0xbd53096e	-0.051522665
224	0x3e1cd921	0.15317203
225	0xbd5dbac1	-0.05413318
226	0x3da09f85	0.07842926
227	0x3de52c3c	0.11190078
228	0xbde4497d	-0.11146829
229	0x3c6e41a2	0.014542015
230	0xbcb261cb	-0.021775147
231	0x3d2755e8	0.04085341
232	0xbd1e42da	-0.038637973
233	0xbd45232d	-0.04812925
234	0xbd4d061e	-0.050054662
235	0x3cb22b66	0.02174921
236	0x39e94fdb	0.0004450072
237	0xbc3f9d10	-0.011695161
238	0x3c847593	0.016169345
239	0x3d7c7400	0.061634064
240	0xba856261	-0.0010176414
241	0xbcacfbfa	-0.021116246
242	0x3c2a0de3	0.010379287
243	0xbc839c0e	-0.016065624
244	0x3cb91d37	0.022596939
245	0x3ce2d38b	0.027688762
246	0x3d87151c	0.06595823
247	0x3d0bdd7a	0.034146763
248	0xbcd36e81	-0.025809528
249	0xbd1d277e	-0.03836774
250	0xbb8d1eae	-0.004306636
251	0x3cd89bf4	0.026441552
252	0xbc754226	-0.014969384
253	0xbbefbeef	-0.007316462
254	0x3e00fb7f	0.12595938
255	0x3c54c3d7	0.012986145

network_body._body_endoder.seq_layers.2.bias f4 [256]
0	0x3c6af8ee	0.014341576
1	0x3c3af46c	0.011410814
2	0xbb1a5546	-0.0023549362
3	0x3c40749b	0.011746551
4	0x3b67c2f6	0.0035364009
5	0xbae13f7d	-0.0017185059
6	0x3c1aa2c9	0.009438225
7	0x3c069a53	0.008215505
8	0x3be3e423	0.0069546863
9	0x3c0685f4	0.008210648
10	0x3c070a61	0.008242221
11	0x3b595078	0.0033159535
12	0x3c2add69	0.010428765
13	0x3b2b279a	0.0026116134
14	0x3c6dca78	0.014513604
15	0x3b193664	0.0023378367
16	0x3bd0ec86	0.006375852
17	0x3c1d093b	0.00958472
18	0x3bb16cc8	0.005414579
19	0xbbb3618b	-0.0054742745
20	0x3b6bc901	0.0035977962
21	0x3a9951cc	0.0011697351
22	0x3b443e88	0.0029944498
23	0x3c5faea0	0.013652474
24	0xba9e7b6c	-0.0012091226
25	0x3c118264	0.008881185
26	0xbba6bfc3	-0.0050887777
27	0x3c705140	0.014667809
28	0xbb0e25cf	-0.0021690016
29	0x3bb9b429	0.0056672287
30	0x3b0295fa	0.0019925819
31	0xbc35e72f	-0.011102482
32	0x3b6b5e4d	0.0035914362
33	0xbc1216bc	-0.008916553
34	0xbb249f72	-0.002511945
35	0x3b8a9e38	0.004230287
36	0x3be2c3c4	0.0069203097
37	0xbb2a5f00	-0.0025996566
38	0x3c90a9e9	0.017659144
39	0xbbd26e0f	-0.0064218114
40	0x3b95c08a	0.0045700716
41	0xbb2d5372	-0.0026447442
42	0x3ccb46a2	0.024813954
43	0x3bb3a40c	0.0054822024
44	0x3bda41dc	0.006660683
45	0xbb77e788	-0.0037827212
46	0x3b4e328c	0.0031463234
47	0x3a6e2478	0.0009084414
48	0x3b40bb0c	0.0029408364
49	0x3aaac247	0.001302787
50	0x3b9e8706	0.0048378734
51	0x3c475ea9	0.012168565
52	0x3ab5f60b	0.0013882531
53	0xbb01be72	-0.0019797352
54	0xbb4ad061	-0.0030946957
55	0xbb9b6eb6	-0.0047434224
56	0x3b19fd8f	0.002349708
57	0xb92fd8e8	-0.00016770104
58	0xba07b2cf	-0.0005176486
59	0x3c702f59	0.014659726
60	0xbb7e6ad8	-0.0038821008
61	0x3b3dab1c	0.00289411
62	0x3b4cd066	0.0031252145
63	0xbbd38774	-0.0064553563
64	0xbb98d30b	-0.00466383
65	0x3a783e64	0.0009469746
66	0xbb3dda8f	-0.0028969382
67	0x3a2eb97b	0.0006665212
68	0x3c99c4d0	0.018770605
69	0x3a0e6946	0.0005432557
70	0x3c82da8d	0.015973354
71	0x3bae762e	0.0053241467
72	0x3c27b265	0.010235404
73	0x3be499f8	0.0069763623
74	0x3a06c05c	0.0005140358
75	0xbbd52b9d	-0.0065054432
76	0x3c0e4286	0.008682853
77	0x3b397d39	0.0028303398
78	0x3c20a10d	0.0098040225
79	0xbbc3ba36	-0.005973126
80	0x3ba39fba	0.004993406
81	0xbbc1f4b6	-0.0059190644
82	0x3bccb4af	0.006247125
83	0xba36e284	-0.00069765025
84	0xbb0ac152	-0.0021172357
85	0x3b7e74cc	0.003882694
86	0x3c0432c7	0.008068747
87	0xbb4513d5	-0.0030071635
88	0x3bfa778c	0.0076436456
89	0x3be86b20	0.0070928484
90	0x3b89b072	0.004201942
91	0x3ca30c1e	0.019903239
92	0x3c5901ea	0.013245085
93	0x3bf349c4	0.007424565
94	0x3b41574f	0.0029501503
95	0x3b53d415	0.0032322456
96	0xbbc7d357	-0.0060981917
97	0xbb5d299a	-0.003374672
98	0xb9182528	-0.00014509691
99	0x3b4f20d1	0.0031605253
100	0x3c457be6	0.0120534655
101	0x3b480ab2	0.0030523953
102	0x3b2c3e9a	0.002628243
103	0x3bf34637	0.0074241417
104	0x39efee47	0.00045763163
105	0xbb36c5b9	-0.0027888848
106	0x3c83ccf9	0.01608895
107	0x3bfc3735	0.007697011
108	0xbb3d8838	-0.0028920304
109	0x3c88bd1d	0.016691739
110	0x3c418c97	0.011813304
111	0x3ae80dbc	0.0017704288
112	0xbadafed3	-0.0016708024
113	0x3b69179b	0.0035567048
114	0x3c801fe2	0.015640203
115	0x3c450b77	0.012026659
116	0x3b6c327f	0.003604084
117	0x3bcd66ca	0.006268357
118	0x3c15d983	0.009146097
119	0x3be38aa5	0.006944018
120	0xb9d482a6	-0.00040533132
121	0x3bdf6e59	0.0068185744
122	0x3bde9398	0.006792497
123	0x3b9e4217	0.004829656
124	0xba353448	-0.00069123926
125	0xbb0872aa	-0.0020820298
126	0xba65a000	-0.00087594986
127	0xbb0a635e	-0.0021116356
128	0x39d59daa	0.00040743995
129	0x3bedcce6	0.007257092
130	0xbbb8cb62	-0.0056394795
131	0x3c3baefc	0.011455294
132	0x3b1fd6f7	0.0024389604
133	0x3bd79ebc	0.006580202
134	0x3bae88fe	0.0053263893
135	0x3c1d6f11	0.009609
136	0x3b98054c	0.0046393033
137	0x3c4ab6aa	0.012372652
138	0x3c12a9d2	0.008951621
139	0xb99882eb	-0.0002908924
140	0x39ec27d8	0.00045043114
141	0x3c86a6f6	0.016437035
142	0x3b51b2de	0.0031997482
143	0x3c4460e0	0.011985987
144	0xbb5d0b7b	-0.0033728767
145	0xbb509a33	-0.003183019
146	0xbc25f175	-0.010128369
147	0x3b1b1571	0.0023663903
148	0x3c1e4daf	0.009662076
149	0x3bcc5842	0.006236107
150	0xbb9a9e58	-0.004718583
151	0x3c814151	0.015778216
152	0x3c52cd17	0.01286628
153	0x3aa1e9a7	0.0012352959
154	0x3c0809e5	0.00830314
155	0xbc046462	-0.008080574
156	0x3c8d87fc	0.017276756
157	0xbc72bc92	-0.0148154665
158	0x3c7712ec	0.015080195
159	0x3c0cfe22	0.008605512
160	0x3b4ef619	0.003157979
161	0xbc257e73	-0.010100949
162	0x3c13481e	0.008989362
163	0xbba79c55	-0.005115072
164	0x3bad73b7	0.0052933353
165	0x3c477652	0.012174206
166	0x3bc9c6b4	0.0061577205
167	0x3b6ea455	0.0036413867
168	0x3ba2b26f	0.0049651186
169	0x3c686bce	0.014185859
170	0x3ca8fada	0.020627428
171	0x3c444244	0.01197869
172	0x3b572db1	0.003283363
173	0xbc4bcc8a	-0.012438903
174	0x3b7e223a	0.0038777725
175	0x3c084e5c	0.008319464
176	0xb9d6d196	-0.00040973414
177	0x3b832958	0.0040027313
178	0x3c81e33f	0.01585543
179	0xba546168	-0.0008101673
180	0x3bef1933	0.007296705
181	0x3b2ccb9e	0.0026366482
182	0x3c226100	0.009910822
183	0x3c170b43	0.009218994
184	0xb9f20b1c	-0.00046166114
185	0x3af29a30	0.0018509086
186	0x3c40746b	0.011746506
187	0xbc21d463	-0.009877297
188	0xbbc8bf1f	-0.006126299
189	0x3c8140bf	0.015777944
190	0x3a08333c	0.0005195623
191	0x3b296fa3	0.0025853894
192	0x3ba94294	0.0051654074
193	0xba507c25	-0.0007953069
194	0xba7e106e	-0.0009691779
195	0x3bfd573a	0.0077313455
196	0x3be20c1f	0.0068984176
197	0x3c5685f7	0.013093463
198	0x3c87d776	0.016582232
199	0x3c3e2983	0.011606577
200	0xbb79e63e	-0.003813162
201	0x3b4b1b4c	0.0030991612
202	0x3a4a99a4	0.0007728583
203	0x3c457f86	0.01205433
204	0x3c70434b	0.014664481
205	0x3b127556	0.002234777
206	0x3b271cfa	0.002549945
207	0x3a2e3b36	0.00066463964
208	0x3c88232e	0.016618337
209	0xbb8d5bf0	-0.0043139383
210	0xbb94efd4	-0.0045451913
211	0x3c0f3602	0.008740904
212	0xbbc79a0c	-0.006091362
213	0x3ccebdce	0.02523699
214	0x3b92015f	0.00445573
215	0x3c7301d7	0.014831982
216	0x3c132ea6	0.00898329
217	0x3bdcac03	0.0067343726
218	0x3c00edd9	0.007869207
219	0x3aba7605	0.0014225846
220	0xbbf61cc9	-0.0075107557
221	0xbb950664	-0.004547881
222	0x3b9e7a31	0.0048363437
223	0x3c48c0c5	0.012252991
224	0x3b4e3842	0.0031466638
225	0x3b36f08d	0.0027914376
226	0x3c1b53fa	0.009480471
227	0xbaa56b11	-0.0012620409
228	0x3c5cf6e6	0.0134866
229	0xbba7b0bf	-0.0051175053
230	0xbb721410	-0.0036938228
231	0x3bcd5b7f	0.0062670107
232	0x3d1c9876	0.038231336
233	0x3b6264a0	0.003454484
234	0x3bd8b897	0.0066138017
235	0x3b5293ba	0.003213151
236	0x3cb360fd	0.021896834
237	0xbbcad06c	-0.0061893966
238	0x3c8264f2	0.015917275
239	0x3c49310f	0.012279763
240	0x3c340898	0.010988377
241	0xbabe174e	-0.0014502795
242	0x3b24aa96	0.0025126091
243	0x3bfdc23e	0.0077441027
244	0x3ac50ea3	0.0015034269
245	0xbb6b7a8e	-0.0035931203
246	0x3ae9ab37	0.0017827515
247	0x39695604	0.00022252655
248	0x3c5bc73a	0.0134141985
249	0x3c49d6a6	0.012319243
250	0xbb05a1bd	-0.0020390593
251	0x3b50def9	0.0031871183
252	0xbb9da6c7	-0.004811141
253	0x3b838d09	0.0040146154
254	0x3c087166	0.008327818
255	0x3b3ea0d6	0.0029087565

action_model._discrete_distribution.branches.0.weight f4 [3, 256]
0	0x3c05a9b1	0.008158133
1	0xbc6ef702	-0.014585258
2	0x3c58bae4	0.013228152
3	0x3c05f449	0.008175918
4	0xbc8a5f18	-0.016891047
5	0xbc5e4149	-0.01356537
6	0xba5de733	-0.00084649323
7	0x3947006f	0.0001897828
8	0x3cd049ce	0.025425818
9	0x3c533a44	0.01289231
10	0xbb7e33b6	-0.0038788146
11	0xba7685ca	-0.00094040914
12	0x3c44d70a	0.01201416
13	0xbb26c200	-0.0025445223
14	0x3cd0ff12	0.025512252
15	0xbc96c464	-0.018404193
16	0xbcf3bacb	-0.029752156
17	0xbc0bd8e7	-0.0085356
18	0xbc9cbe4c	-0.01913371
19	0x3b905a72	0.004405313
20	0xbb1eecfc	-0.002425014
21	0x3c3ebdb3	0.0116419075
22	0xbb38a074	-0.002817181
23	0xbcaae41f	-0.02086073
24	0x3a4f7b1b	0.00079147675
25	0x3c820d99	0.015875624
26	0xbc1c54dd	-0.009541717
27	0xbad2245f	-0.0016032568
28	0xbc04201d	-0.008064297
29	0x3c7d3cde	0.015456406
30	0xbc0a4e2f	-0.008441492
31	0xbc26781a	-0.01016047
32	0xbb5f343e	-0.0034058238
33	0x3c3788b4	0.011202026
34	0xbcb5767f	-0.02215123
35	0x3caef123	0.021355217
36	0x3c5b7880	0.013395429
37	0xbb94fe24	-0.0045468975
38	0xbcc69b51	-0.024243983
39	0xbb252648	-0.002519982
40	0x3c6d6571	0.014489518
41	0x3ba74863	0.0051050647
42	0x3cc8fa08	0.024533287
43	0xbb354972	-0.0027662185
44	0xba3be2f4	-0.00071673025
45	0xbb836c9c	-0.00401075
46	0x3c5bf4a0	0.013425022
47	0xbc57816f	-0.013153418
48	0x3c84c305	0.016206274
49	0xbc9be24a	-0.019028801
50	0x3bc3fb1f	0.0059808637
51	0xbbe15e5d	-0.006877704
52	0x3a6e6e3b	0.0009095405
53	0x3bb70aa3	0.005585985
54	0x3c394927	0.011308945
55	0x3c18b76a	0.009321073
56	0xbc139841	-0.009008468
57	0xbbf04c82	-0.007333339
58	0xbc1cb772	-0.009565221
59	0xbc47256d	-0.012154919
60	0xbcac3d58	-0.021025345
61	0xbb1fdf82	-0.0024394696
62	0xbc8b9478	-0.017038569
63	0x3c27c8ab	0.010240714
64	0x3bb6d3e9	0.005579461
65	0xbc75e97d	-0.015009281
66	0xbb0eb031	-0.0021772499
67	0xbb0bae4c	-0.0021313606
68	0x3c49834a	0.012299368
69	0x3843c2e0	4.6673114e-05
70	0x3b16c173	0.0023003488
71	0x3c75eaa4	0.015009556
72	0x3c09e4ee	0.0084163975
73	0x3bd0e75e	0.0063752374
74	0xbc250ad3	-0.0100733815
75	0xbc5d53fb	-0.013508792
76	0xbc553dc3	-0.013015213
77	0xbc858606	-0.016299259
78	0xb962eacc	-0.00021640508
79	0xbc1fe700	-0.009759665
80	0xb9ee0d44	-0.0004540478
81	0xbc9741af	-0.018463938
82	0x3c8acc7b	0.016943207
83	0x3b2f20d5	0.002672245
84	0xbc610a95	-0.013735433
85	0xbb280408	-0.0025637168
86	0xbce1e97f	-0.02757716
87	0x3c8f333b	0.017480483
88	0x3bd71bd3	0.006564596
89	0x3abffcc6	0.0014647476
90	0x3b40395c	0.0029331064
91	0x3c7a6ffe	0.01528549
92	0x3c1dff24	0.00964335
93	0x3c4fbc47	0.012679166
94	0x3b1728a0	0.0023064986
95	0xbc3b30d3	-0.011425215
96	0xbb4bf5a4	-0.0031121755
97	0xbc4bdafb	-0.012442346
98	0x3c397b61	0.01132092
99	0x3cbe98c6	0.023266207
100	0x3c512a9b	0.012766506
101	0xbc402bb1	-0.011729167
102	0x39267979	0.00015876246
103	0xbc1c2ecd	-0.009532643
104	0x3c8ad6a3	0.01694805
105	0xbc9ed0f7	-0.019386752
106	0xbaf25867	-0.0018489481
107	0x3b95d57d	0.004572569
108	0xbccf6256	-0.025315445
109	0x3c5f2d62	0.01362166
110	0x3c23c466	0.0099955555
111	0x39f045de	0.00045828422
112	0x3c1c701b	0.009548212
113	0x3c357340	0.011074841
114	0x3c03c17d	0.008041737
115	0x3b5432a3	0.0032378815
116	0x3bc83a07	0.006110433
117	0xbc04ef6b	-0.008113722
118	0xbcae75e0	-0.021296442
119	0x3ae3aae6	0.0017369657
120	0x3ad1e8bb	0.0016014794
121	0x3cb5de71	0.022200795
122	0x3c1b007d	0.009460566
123	0xbc9ba630	-0.019000143
124	0x3a6341dc	0.00086691766
125	0xbbd11a3f	-0.0063813026
126	0x3be98d4a	0.0071274387
127	0xbbd6a271	-0.0065501262
128	0xbbb6ba8b	-0.005576437
129	0xbcc516da	-0.024058748
130	0x3b0f963c	0.0021909615
131	0x3ac8bf4b	0.0015315799
132	0x3acee9bb	0.001578621
133	0x393e8e23	0.00018172762
134	0x3c0a19ad	0.008428973
135	0xbac9b3ee	-0.0015388706
136	0xbc612568	-0.0137418285
137	0x3bbb2e33	0.0057122945
138	0xbc2bb54f	-0.010480239
139	0x3b96285b	0.0045824475
140	0xbb65fb99	-0.003509259
141	0x3c8aeebb	0.016959539
142	0x3afa80f0	0.0019111913
143	0xbb0e1283	-0.0021678514
144	0x3a95e325	0.0011435492
145	0x3bb15983	0.005412282
146	0x3c06dca3	0.008231315
147	0xbbc71543	-0.0060755326
148	0x3c075fdb	0.0082626
149	0xbbbd53cf	-0.005777813
150	0xbbd5dd3f	-0.0065266187
151	0xbad9bae2	-0.0016611482
152	0x3b1c127f	0.0023814735
153	0xbb8f47e6	-0.0043725846
154	0x3c529f9d	0.012855438
155	0xb895a114	-7.134877e-05
156	0x39dd85c9	0.00042252082
157	0xbb0c983e	-0.0021453048
158	0xbc9aba76	-0.01888774
159	0xbc92736e	-0.017877307
160	0x3c31cdd6	0.010852298
161	0xbc6690cc	-0.014072608
162	0xbaaab8d9	-0.001302506
163	0xbc028e41	-0.007968486
164	0x3c5dd249	0.013538905
165	0xbc3a7ec1	-0.01138276
166	0xbbf93480	-0.0076051354
167	0x3c4b1399	0.012394809
168	0xbc55c419	-0.013047242
169	0x3b260b66	0.0025336384
170	0x3c9556b3	0.018229818
171	0xbc75f288	-0.015011437
172	0xbaea2305	-0.001786322
173	0x39dd3a10	0.00042195665
174	0x3a9c126c	0.0011907346
175	0xbb7d39c2	-0.0038639163
176	0xbba75416	-0.0051064594
177	0x3aae655e	0.0013305356
178	0x3cacd16b	0.021095952
179	0xbc42054c	-0.011842083
180	0x3b916ade	0.0044377884
181	0xbcd0920b	-0.025460264
182	0xbb6dbd47	-0.0036276148
183	0x3ad19d19	0.0015992253
184	0xbc2500d6	-0.010071
185	0x3c80aeb0	0.015708297
186	0xba809aeb	-0.0009811794
187	0xb9e87b08	-0.00044342154
188	0xbc41e0a5	-0.011833345
189	0x3d1babfd	0.038005818
190	0x3c2c3c87	0.010512478
191	0xbce11c5b	-0.027479341
192	0x3bca970e	0.006182558
193	0xbc63d03a	-0.013904626
194	0x3bb52339	0.0055278805
195	0x3c522b8f	0.012827768
196	0x3bf72740	0.0075425208
197	0xbbf1e889	-0.0073824567
198	0x3ba17c8e	0.004928178
199	0x3c40c770	0.0117663
200	0xbb626b2c	-0.0034548743
201	0xb9f656b2	-0.0004698537
202	0x3bca2273	0.0061686574
203	0xbb51a173	-0.00319871
204	0x3ca8ab28	0.020589426
205	0x3c38fb30	0.0112903565
206	0xbc0db3d7	-0.008648834
207	0xbc0c02d1	-0.008545593
208	0x3b1cfb6c	0.002395357
209	0xbc61230c	-0.013741266
210	0xbc5aa9db	-0.013346161
211	0xbb2855ea	-0.0025685974
212	0x3b8629bf	0.004094332
213	0x3b9d9b1c	0.0048097502
214	0xbc5a787d	-0.013334391
215	0xbc093246	-0.0083738025
216	0x3bf5d663	0.0075023635
217	0x3c62e99b	0.013849641
218	0xbd080732	-0.033209987
219	0x3b044274	0.002018121
220	0x3c484e04	0.012225632
221	0x3c1624f4	0.009164084
222	0xbcdbdb3e	-0.026837941
223	0xbb4f4412	-0.0031626266
224	0x3b6b93d6	0.0035946271
225	0x3be68eca	0.0070360648
226	0xbc4fb766	-0.012678003
227	0xbc0ca3d1	-0.008583979
228	0xbb8ac980	-0.0042354465
229	0x3bc1a214	0.005909214
230	0xbc67cf82	-0.014148595
231	0xbb5a280f	-0.0033288037
232	0x3d00c00c	0.03143315
233	0xbb6afb13	-0.0035855218
234	0x3c571017	0.013126395
235	0xbc32ae8a	-0.010905871
236	0x3cfbfbee	0.030759778
237	0x3a77d63b	0.0009454225
238	0x3c004b28	0.007830419
239	0xbbfc820a	-0.0077059316
240	0x3b33d29f	0.0027438772
241	0xbbb0a00b	-0.0053901724
242	0xbc847ccc	-0.016172789
243	0xb7e7dbad	-2.763964e-05
244	0xbc2746ae	-0.010209722
245	0xbcac0776	-0.020999651
246	0xbb618dc1	-0.0034416767
247	0xba64c15b	-0.0008726322
248	0xbb0f7448	-0.0021889377
249	0x3cab469c	0.020907693
250	0xbacd0dc8	-0.0015644366
251	0xbbcdcafd	-0.0062803016
252	0xba805906	-0.0009792156
253	0xbc6622b5	-0.014046361
254	0xbc6330d6	-0.013866624
255	0xbb9fb5b4	-0.0048739556

action_model._discrete_distribution.branches.0.bias f4 [3]
0	0x3c08a70d	0.008340609
1	0xbc444f8e	-0.011981858
2	0x3b29773b	0.002585842

action_model._discrete_distribution.branches.1.weight f4 [3, 256]
0	0x3bc78af9	0.006089565
1	0xbb506741	-0.0031799825
2	0xbcd8d29b	-0.026467612
3	0xbcc30d70	-0.023810118
4	0x3c6388e5	0.013887619
5	0xbb0e5e9d	-0.0021723874
6	0x3c9588a0	0.018253624
7	0xbcbc0fc5	-0.022956738
8	0xbb45704c	-0.0030126749
9	0x3bae8d79	0.0053269234
10	0x3c63a7e0	0.013895005
11	0xbb899c35	-0.0041995295
12	0x3b229e78	0.0024813693
13	0xbb4ba02b	-0.003107081
14	0x3bcf90cc	0.0063344
15	0xbc96507e	-0.018348929
16	0x3ba6d84a	0.0050917016
17	0x3cf49b38	0.02985917
18	0xbbebe2ca	-0.007198666
19	0x3ba12477	0.004917677
20	0xbd135625	-0.035970826
21	0xbca03bd8	-0.019559786
22	0xbc52da56	-0.012869438
23	0x3ae98b16	0.001781794
24	0x3c3eb740	0.01164037
25	0xbcdd7159	-0.027031587
26	0xbb9d3474	-0.0047975127
27	0x3c91b316	0.01778559
28	0x3c141e99	0.009040498
29	0x3c2e669f	0.010644584
30	0x3c2e5b7d	0.01064193
31	0x3b6aa708	0.0035805125
32	0xbc8749de	-0.016514715
33	0xbc8f541f	-0.017496167
34	0xbc034a90	-0.008013383
35	0x3bfb1e7a	0.007663545
36	0xbcb82b0e	-0.022481468
37	0x3c8578f7	0.016293032
38	0x3c9f33af	0.019433824
39	0xbbf27cba	-0.0074001225
40	0x3a0b81e7	0.0005321786
41	0xbc2e3d4b	-0.010634731
42	0xbc38868e	-0.011262549
43	0xbc11dc5b	-0.0089026345
44	0x3babba58	0.0052407198
45	0xbacd715d	-0.0015674044
46	0xbcdfb5ee	-0.02730843
47	0x3c47f9bf	0.01220554
48	0x3c191cc4	0.009345237
49	0xbc5e9cc0	-0.013587177
50	0xbca2e33b	-0.019883743
51	0xbc8931c5	-0.016747365
52	0xbc94b752	-0.01815382
53	0xbb37084d	-0.0027928532
54	0x3959a77e	0.00020757128
55	0xbb86321a	-0.004095328
56	0xbc51b425	-0.012799297
57	0xbc40e29a	-0.011772776
58	0x3aef180c	0.001824142
59	0x3c94bee7	0.018157436
60	0x3bafb20f	0.0053618024
61	0x3c04fd3a	0.008117015
62	0xbbe7ae0f	-0.00707031
63	0x3c37c084	0.011215333
64	0xbb9a2db9	-0.0047051576
65	0x3c203ac6	0.009779638
66	0xbb9a7a71	-0.004714303
67	0xbc8830ae	-0.016624775
68	0x3c332192	0.010933297
69	0x3b86702b	0.004102727
70	0xbc71928d	-0.014744413
71	0xbbbf2258	-0.0058329515
72	0xbcfdeb21	-0.030995907
73	0xbbd5ad96	-0.006520937
74	0x3c3661c4	0.011131708
75	0xb965078c	-0.00021841953
76	0xbc7d0f6b	-0.01544557
77	0xbc6ad0aa	-0.014331976
78	0xb9d77550	-0.000410954
79	0xbc5e7ffe	-0.01358032
80	0xbbfd50eb	-0.0077305934
81	0x3b92d1c2	0.0044805715
82	0xbce9b036	-0.028526407
83	0xbbbe3aee	-0.005805365
84	0x3ae569ef	0.0017502884
85	0x3c502fea	0.012706736
86	0x3b7aa2c9	0.0038244
87	0xbc846c47	-0.016164912
88	0xbb2f5e9f	-0.002675928
89	0xbb8d24c6	-0.0043073623
90	0xb916d711	-0.00014385233
91	0xbb8575ae	-0.0040728664
92	0xbc7bf05f	-0.015377133
93	0xbc8f044d	-0.017458105
94	0x3c2f4d91	0.010699646
95	0x3c4a3ca7	0.012343562
96	0xbc0208c2	-0.007936658
97	0x3c671677	0.014104477
98	0x3c7cecd4	0.015437324
99	0xbc66f4d9	-0.014096462
100	0x3c88c968	0.0166976
101	0x3c58f617	0.013242266
102	0xbcfe347f	-0.031030891
103	0x3af168f1	0.0018418116
104	0xbc334084	-0.010940675
105	0x3c4f8836	0.012666753
106	0x3caeca86	0.021336805
107	0xbc9e9e74	-0.019362666
108	0x3a0907a2	0.00052272726
109	0x3c464373	0.012101042
110	0x3c210864	0.009828661
111	0xbcb41d4d	-0.021986628
112	0xbca5a3bd	-0.020219678
113	0xbce0a3dc	-0.027421884
114	0x3c910d6c	0.017706595
115	0x3c338e42	0.01095921
116	0xbc6c5072	-0.0144234765
117	0x3c365e8a	0.011130938
118	0xbbbc4e64	-0.0057466496
119	0x3b5bfef3	0.003356871
120	0x3c7480af	0.014923259
121	0xbc819510	-0.015818149
122	0xbc5d6521	-0.013512881
123	0x3c4bba06	0.012434488
124	0x3b14f94a	0.0022731596
125	0xbb913ae1	-0.0044320677
126	0xbc53e371	-0.012932644
127	0xbc3b0d3d	-0.0114167305
128	0x3c120633	0.008912611
129	0xbb5619dc	-0.0032669222
130	0xbc3ed7a1	-0.01164809
131	0x3c82a17f	0.015946148
132	0xbc68b56e	-0.014203412
133	0x3c571b37	0.013129047
134	0xbc9ecd9b	-0.01938515
135	0x3c83fe74	0.016112544
136	0xba98ce9c	-0.0011658254
137	0xbb62a5b5	-0.0034583632
138	0x3c95b5f4	0.018275239
139	0x3c77f729	0.015134611
140	0xbb138242	-0.002250806
141	0x3c950175	0.018189171
142	0x3b6dac14	0.0036265897
143	0x3a10ed8a	0.000552856
144	0xbb3f9e50	-0.0029238649
145	0xbb92cb97	-0.004479836
146	0x3b18f5c5	0.002333985
147	0xbcd93122	-0.026512686
148	0x3cb3fe64	0.021971889
149	0x3bea2364	0.007145332
150	0x3b5201a5	0.0032044437
151	0x3a38523c	0.0007031297
152	0xbc148114	-0.009063978
153	0x3c6731ea	0.0141110215
154	0xbcaf1497	-0.021372123
155	0xbc8b3bae	-0.01699623
156	0x3c5d5a30	0.013510272
157	0xbb8bb79d	-0.004263832
158	0xbcd5058e	-0.026003625
159	0xbc2c9807	-0.010534293
160	0xbb1f6276	-0.0024320162
161	0xbc5a8b83	-0.013338926
162	0x3cab8f5a	0.020942379
163	0xbba7c723	-0.0051201745
164	0x3c07733b	0.008267219
165	0x3c9d7f32	0.01922569
166	0xbc11130c	-0.008854639
167	0x3ca020d5	0.019546906
168	0x3a6b9e05	0.00089880853
169	0xbca345b3	-0.019930696
170	0xbbd1ddde	-0.0064046225
171	0x3c8985d6	0.01678745
172	0x3c2af22b	0.010433714
173	0xbba7d462	-0.0051217536
174	0x3c9f5c2e	0.019453134
175	0x3cbcbb6e	0.023038592
176	0xbb8fbc63	-0.004386471
177	0x3c35c7db	0.011095013
178	0x3c3a7a9f	0.011381774
179	0xbbb5fd96	-0.0055539114
180	0x3b3399a1	0.0027404802
181	0x3c2a5bbe	0.01039785
182	0xbcf41137	-0.029793365
183	0x3c284830	0.010271117
184	0xbc932de5	-0.01796622
185	0xbca65986	-0.02030636
186	0x3b1579e7	0.0022808255
187	0xbc0faa53	-0.008768636
188	0xbb8abe73	-0.004234129
189	0x3c1585c7	0.009126133
190	0xbc953d50	-0.018217713
191	0x3c36226e	0.011116607
192	0x3b974c38	0.0046172403
193	0x3c573166	0.013134336
194	0xbc29d7c4	-0.010366384
195	0x3c74fd63	0.01495299
196	0xbb5c978f	-0.0033659672
197	0x3ca60986	0.020268213
198	0x3c3b6ede	0.011440007
199	0x3a2e4496	0.00066477933
200	0xbcc508e3	-0.02405209
201	0xbcc33d84	-0.023833044
202	0xbcfa1f1b	-0.03053241
203	0x3c51bab9	0.012800866
204	0xbbd30561	-0.00643985
205	0xba5e0f8d	-0.0008470945
206	0xbcb42610	-0.021990806
207	0x3ba80a92	0.005128213
208	0x3cb5e754	0.022205032
209	0x3cc4a737	0.024005516
210	0xb88d4356	-6.735946e-05
211	0x3c2b5a7e	0.010458587
212	0xbc34dfcb	-0.0110396845
213	0x3b92b3fa	0.0044770213
214	0xbb27737d	-0.0025551014
215	0xbb7e2c16	-0.0038783601
216	0x3cbe11cf	0.023201851
217	0xbd120a66	-0.035654448
218	0x3cd9d1cc	0.026589297
219	0x3b4b1485	0.0030987572
220	0x3b94411d	0.0045243637
221	0xbb4d30e6	-0.0031309663
222	0x3cf35afb	0.029706469
223	0x3b2ecfc7	0.0026674138
224	0xbb690e3a	-0.0035561458
225	0xbb148ace	-0.0022665742
226	0xbc01a199	-0.007912063
227	0xbc421b13	-0.011847275
228	0x3cdb0a03	0.026738172
229	0xbc3e6aeb	-0.011622171
230	0x3cde04ac	0.027101837
231	0x3c7e5cf4	0.015525091
232	0xbb4a21f5	-0.0030842994
233	0xbbb41cc5	-0.0054965937
234	0xbb7abffc	-0.0038261404
235	0xba8ba9ee	-0.0010655501
236	0xbcb30328	-0.021852091
237	0x394437d5	0.00018712816
238	0x3c5ca24a	0.013466427
239	0x3ce21744	0.027598985
240	0x3c228fde	0.009921996
241	0xbc5f6300	-0.013634443
242	0x3ca5f296	0.020257276
243	0x3c29bd49	0.0103600705
244	0xbc520f16	-0.01282098
245	0xba0b49cf	-0.00053134275
246	0x3aeadade	0.0017918011
247	0x3c4adc5f	0.012381642
248	0x3c9e96c9	0.01935901
249	0x3cb3006e	0.02185079
250	0xbb989056	-0.004655878
251	0x3c315f23	0.010825905
252	0x3bf60168	0.007507492
253	0x3c7c91a5	0.015415584
254	0xbba9cb39	-0.0051816967
255	0xbcb5464b	-0.022128245

action_model._discrete_distribution.branches.1.bias f4 [3]
0	0xba88f28a	-0.0010448259
1	0x3c10fd56	0.0088494625
2	0xbbf139f9	-0.007361647

action_model._discrete_distribution.branches.2.weight f4 [2, 256]
0	0x3c91b113	0.01778463
1	0x3984d088	0.0002533237
2	0xba1dba1a	-0.0006016806
3	0xbb97e19b	-0.0046350486
4	0x3b79ba61	0.0038105475
5	0x3ae345b4	0.0017339499
6	0x3c3411de	0.010990588
7	0xbc71d654	-0.014760572
8	0xbbda8d00	-0.0066696405
9	0xbb80c7df	-0.0039300765
10	0x3be0c6a8	0.006859619
11	0xbc2e2da4	-0.010630999
12	0x3aedacc4	0.0018133153
13	0xbbae1d57	-0.005313556
14	0xbbc2fdc0	-0.0059506595
15	0xbc11c0f1	-0.0088960985
16	0x3c85bb4f	0.016324667
17	0x3ac4753a	0.001498855
18	0xbb5679ed	-0.0032726482
19	0xbb8aa13b	-0.004230646
20	0xbc662214	-0.014046211
21	0x3a1b0e69	0.0005914928
22	0xbbc20437	-0.0059209126
23	0x3b85278d	0.0040635527
24	0x3b97df81	0.004634798
25	0xbb6f10cc	-0.0036478518
26	0x3a7adf80	0.0009570047
27	0x3a8eaa8e	0.001088457
28	0x3ad4dc41	0.0016239957
29	0x3c418a7b	0.0118128015
30	0x3c366bc8	0.0111340955
31	0xbc9c687d	-0.019092793
32	0x3a7d088e	0.0009652459
33	0xbbcd16c7	-0.006258819
34	0x3c0e48f2	0.008684384
35	0xbc38a74f	-0.011270358
36	0xbc303a56	-0.010756096
37	0xbc1122c0	-0.008858383
38	0x3c1060c3	0.008812132
39	0xbc8b624d	-0.017014647
40	0x3b8e213d	0.0043374584
41	0xba8596dd	-0.0010192055
42	0xbb549ef6	-0.003244338
43	0x3a6b080c	0.00089657377
44	0xbbc5d1f5	-0.0060369917
45	0xbc4e15b1	-0.012578414
46	0xbc5b731f	-0.013394146
47	0x3b6da448	0.003626125
48	0x3a8159b7	0.0009868656
49	0xbb82e02f	-0.00399401
50	0xbb95b2a1	-0.0045684134
51	0xba9cbe89	-0.0011958639
52	0x3b8dd7fa	0.004328725
53	0xbc46006f	-0.012085064
54	0x3b9c0159	0.004760903
55	0x3b88d1a8	0.0041753836
56	0x3c052ba6	0.008128082
57	0xbc913fe1	-0.017730655
58	0x3c30252c	0.01075105
59	0x3b44b814	0.0030016946
60	0x3c4ece3c	0.012622412
61	0x3b248c2e	0.0025107968
62	0xbbd06535	-0.006359721
63	0xbc4e48c5	-0.012590592
64	0x3b14e03b	0.002271666
65	0xbbaa7bf3	-0.005202764
66	0x3b93afa0	0.00450702
67	0xbbdf81ae	-0.006820879
68	0xb9e375e4	-0.0004338465
69	0xbc57146e	-0.013127429
70	0xbba06e13	-0.0048959344
71	0xbb804847	-0.003914866
72	0x3b104c8b	0.002201828
73	0xbb1e311d	-0.002413816
74	0x3b014421	0.0019724446
75	0xbbfa5682	-0.007639707
76	0x390fc7ff	0.00013712047
77	0xbb7e3b1c	-0.0038792556
78	0x3baa9b6e	0.005206517
79	0xb9340716	-0.00017168777
80	0x3b263e96	0.0025366894
81	0x3c1403f4	0.009034146
82	0xbc3dadaa	-0.011577049
83	0xbca13e37	-0.019682987
84	0xbc1acabd	-0.009447751
85	0xbbd0c8d5	-0.0063715973
86	0x3c8a375b	0.016872099
87	0xbbcdb9c3	-0.006278248
88	0x3a8992c2	0.0010496008
89	0xbc42a5e9	-0.011880376
90	0xbc11993f	-0.008886634
91	0xbb87e44a	-0.004147087
92	0xbc776a40	-0.015101016
93	0xbc39f712	-0.01135041
94	0xbc8bfa91	-0.017087253
95	0x3bc3d12c	0.005975863
96	0xbcc39836	-0.02387629
97	0xbc0bdeba	-0.008536989
98	0xbbb5d1c0	-0.005548686
99	0x3ae5c05c	0.0017528641
100	0x3be8a428	0.007099647
101	0xbc6745bd	-0.014115748
102	0xbb932b98	-0.0044912808
103	0x3c4fac73	0.012675392
104	0x3c2295f2	0.009923445
105	0x3afd8d6b	0.0019344514
106	0x3c88fadb	0.01672118
107	0xbb8f6fab	-0.0043773255
108	0xbc436c90	-0.011927739
109	0x3c1eb172	0.009685861
110	0x3adf8918	0.0017054407
111	0x3ab3dffb	0.0013723368
112	0x3ba9f7a5	0.005186992
113	0xbb941013	-0.0045185178
114	0xbbbfe9c7	-0.005856726
115	0x3aae21e1	0.0013285243
116	0x3b9ae222	0.004726664
117	0x3b8515e5	0.004061448
118	0x3c024f14	0.007953424
119	0x3ba0cc50	0.0049071684
120	0x3b035355	0.0020038683
121	0x3cbee16a	0.023300845
122	0xbb6785b2	-0.0035327491
123	0x3b80c28d	0.0039294423
124	0xbca9ea13	-0.020741498
125	0x3bbe2ca5	0.005803662
126	0x3c2de167	0.010612822
127	0xbc03a530	-0.008034989
128	0x3bdd1626	0.006747025
129	0x3c987f12	0.01861528
130	0x38c75c8c	9.506298e-05
131	0x3c10e86b	0.008844475
132	0xbce5df7c	-0.028060667
133	0x3bdae94f	0.0066806446
134	0xba593013	-0.00082850567
135	0xbc71d51b	-0.014760281
136	0x3b96454f	0.004585899
137	0x3aac4f16	0.0013146128
138	0x3c242211	0.010017888
139	0xb9df62e2	-0.00042607548
140	0x3befd6bb	0.007319299
141	0x3b073ab3	0.0020634353
142	0xba3d1363	-0.00072126667
143	0x3c25c584	0.010117892
144	0x3b5c638e	0.0033628675
145	0xb9f9b1c8	-0.00047625438
146	0x3810d008	3.452602e-05
147	0xbc2e29bc	-0.010630067
148	0x3c9302cd	0.017945671
149	0x3b2e2e5c	0.0026577925
150	0xbb6f7063	-0.0036535494
151	0xbb2a8786	-0.002602072
152	0x3b7afd76	0.0038298047
153	0xbb7228e9	-0.0036950654
154	0x3b591c15	0.003312831
155	0xbb55926e	-0.00325885
156	0x3c181931	0.00928335
157	0xbbda9a4f	-0.006671227
158	0xbab0a2e6	-0.0013476282
159	0xbb5bb518	-0.0033524688
160	0x3a067560	0.00051291846
161	0x3c219fa4	0.009864721
162	0x3b85eb5a	0.004086894
163	0xbbfa17ff	-0.007632255
164	0x3b46d36c	0.003033842
165	0x3acae992	0.0015480986
166	0xbc89070d	-0.016726995
167	0xbb9e36fc	-0.004828332
168	0x3c9f7235	0.019463638
169	0xbbe8f083	-0.0071087494
170	0xbbdc00c2	-0.0067139575
171	0x3b8a355c	0.0042177867
172	0x3b9028ad	0.00439938
173	0xbb92688d	-0.00446803
174	0xbc1d9e92	-0.009620326
175	0x3b28793b	0.0025707025
176	0x3b863e8d	0.004096812
177	0x3c395e75	0.011314024
178	0xbc4d9b49	-0.01254923
179	0x3b8f4d09	0.004373197
180	0x3aa4b41a	0.0012565881
181	0xbafe4cda	-0.0019401566
182	0x3b8f6baa	0.004376848
183	0xbc42e6f5	-0.011895885
184	0x3bcbc120	0.0062180907
185	0xbc74956e	-0.014928205
186	0x3c53b51c	0.012921598
187	0xbc2bb4b4	-0.010480095
188	0xbcb10fbf	-0.021613954
189	0xbbf3a61e	-0.007435574
190	0x3b75ded2	0.0037516844
191	0x3b93eb8e	0.0045141643
192	0x3b122600	0.0022300482
193	0xbc9a00a0	-0.018799126
194	0x3b677945	0.0035320085
195	0x3b4d20ce	0.003130007
196	0x3b482146	0.003053741
197	0xbb6b5a18	-0.0035911854
198	0x3c02402a	0.007949868
199	0xbc41efcf	-0.01183696
200	0xbc3028a0	-0.010751873
201	0xbb6129ba	-0.0034357146
202	0xbc33691e	-0.010950355
203	0xbb648280	-0.0034867823
204	0x3b861be4	0.0040926803
205	0xbc52aed4	-0.012859065
206	0xbbb4b6ac	-0.0055149402
207	0xbbd5f41c	-0.0065293442
208	0x3c17dba6	0.009268677
209	0x3baf1b47	0.005343828
210	0xbaf4c50f	-0.0018674451
211	0x3a775208	0.0009434526
212	0xb9ea7e3e	-0.00044726016
213	0xba85758b	-0.0010182125
214	0xbbd6e529	-0.0065580797
215	0x3c8705c6	0.016482245
216	0xbbc2c66c	-0.005944064
217	0x3b245b88	0.002507897
218	0x3c8bfe41	0.017089011
219	0xbc44b971	-0.012007103
220	0xbc3f20a0	-0.011665493
221	0xbb083c42	-0.002078787
222	0xbc3f2986	-0.011667615
223	0x3b5b33bf	0.003344759
224	0xbc18a4be	-0.009316621
225	0xbbe3b4d2	-0.0069490457
226	0x3a78c3b4	0.0009489611
227	0xbb749126	-0.003731796
228	0x3cc378d2	0.023861323
229	0xbbfcf61b	-0.0077197677
230	0x3af46a06	0.001864732
231	0x3b97fd3b	0.0046383417
232	0x3c0470ce	0.008083535
233	0xbc08c974	-0.008348811
234	0xbb719c97	-0.0036867016
235	0xbc24ed5f	-0.010066359
236	0xbac1ad5d	-0.0014776398
237	0xbb8ad4b6	-0.004236783
238	0xba8637b4	-0.001023999
239	0x3c2eda37	0.010672144
240	0xbad04842	-0.0015890675
241	0xbc351eb9	-0.011054688
242	0x3c177357	0.009243808
243	0xbbced616	-0.006312142
244	0x3b8a5e5d	0.0042226748
245	0x3b0d8e13	0.0021599575
246	0x3aac0282	0.0013123306
247	0xbcc361cb	-0.023850342
248	0x3b44bea2	0.0030020853
249	0x3ba27ccd	0.004958725
250	0x3c4cee10	0.01250793
251	0xbba264ac	-0.0049558487
252	0x3b0a8117	0.0021134072
253	0x3a0f6fe5	0.00054716907
254	0xbbaa1877	-0.0051909047
255	0xbb436776	-0.0029816306

action_model._discrete_distribution.branches.2.bias f4 [2]
0	0xbab2ccc9	-0.0013641353
1	0x3ab2cc9a	0.0013641298
