ML_stuff/results/cw_07/FindCubeWife/FindCubeWife-36084.onnx (onnx, 356907 bytes, 13 tensors)

discrete_act_size_vector f4 [1, 4]
0	0x40400000	3.0
1	0x40400000	3.0
2	0x40000000	2.0
3	0x40000000	2.0

network_body._body_endoder.seq_layers.0.weight f4 [256, 69]
0	0x3d823e01	0.063594826
1	0x3d98f72f	0.074690215
2	0xbd1a20dc	-0.037628993
3	0xbba63c06	-0.0050730733
4	0xbd5ea584	-0.054357067
5	0xbda49c77	-0.08037656
6	0x3db5831a	0.08862896
7	0x3d8bfd73	0.06835451
8	0x3cda283c	0.026630513
9	0x3e0eaa32	0.13932112
10	0xbe8674a3	-0.26260862
11	0x3bd2a6d0	0.006428577
12	0x3dbb60fb	0.09149357
13	0x3e74812c	0.238774
14	0xbddded5f	-0.108362906
15	0xbcb56008	-0.022140518
16	0xbc1b8713	-0.009492653
17	0x3dbf8bc2	0.093528286
18	0xbd84496b	-0.06459316
19	0xbe0523d9	-0.13001956
20	0x3d618ec3	0.05506779
21	0xbe7aa036	-0.24475178
22	0xbd8dcb4c	-0.069235414
23	0xbebf4015	-0.37353578
24	0x3d8d6ada	0.06905146
25	0xbd9e84af	-0.07740151
26	0xbe027fde	-0.1274409
27	0x3c8432b6	0.016137462
28	0x3e1e3c3a	0.15452662
29	0xba90d9b3	-0.0011051208
30	0xbdfccf15	-0.12344185
31	0x3d5284e0	0.05139625
32	0x3d8b8afb	0.06813618
33	0x3e7948c6	0.24344167
34	0x3d7e76a3	0.06212486
35	0xbe114e31	-0.14189984
36	0xbe1188f6	-0.14212403
37	0xbd99f1c0	-0.07516813
38	0xbd6555a0	-0.05598986
39	0xbd7d6336	-0.061862193
40	0xbe0e3b93	-0.13889913
41	0xbd5a5655	-0.05330499
42	0x3e1db4b3	0.15400963
43	0x3e2135d0	0.15743184
44	0x3e2d6f30	0.16936946
45	0xbcc6c480	-0.02426362
46	0xbdbef6b3	-0.09324398
47	0xbe8c4994	-0.27399886
48	0x3d90a386	0.070624396
49	0xbc76d20d	-0.015064728
50	0x3e90985d	0.28241244
51	0x3c15cd31	0.00914316
52	0x3d3e8d52	0.046521492
53	0xbd8b131c	-0.06790754
54	0xbca23911	-0.019802602
55	0xbdac73eb	-0.08420547
56	0x3dcf5b11	0.101247914
57	0xbe04230a	-0.12903991
58	0xbd9164c4	-0.07099298
59	0xbcb904d6	-0.022585314
60	0x3dcf68e7	0.101274304
61	0x3d4221c1	0.04739547
62	0xbe0f44dd	-0.13991113
63	0x3b7d024d	0.0038606108
64	0xbe909b06	-0.28243273
65	0x3afbe8c6	0.0019219152
66	0x3e14cf1f	0.14532135
67	0xbe0b38e7	-0.13595925
68	0xbcd0b683	-0.025477653
69	0xbda87e5a	-0.08227225
70	0xbcc3ccd8	-0.023901388
71	0x3d13e122	0.036103375
72	0xbd2d3803	-0.042289745
73	0x3d8ba7f7	0.06819146
74	0x3d6effc5	0.05834939
75	0x3bdae97e	0.0066806665
76	0x3e30d314	0.1726802
77	0x3e26e75b	0.16299193
78	0xbdd5235a	-0.104071334
79	0xbd5900d9	-0.052979324
80	0xbd01df41	-0.031707052
81	0x3d94a3ef	0.0725783
82	0xbdc26e1e	-0.094936594
83	0x3e7be5cc	0.2459938
84	0xbe97a9eb	-0.29621825
85	0x3dd05373	0.10172167
86	0xbe6952c1	-0.22785474
87	0x3e07f970	0.13278747
88	0x3dddf15b	0.108370505
89	0x3cfdbe26	0.030974459
90	0xbdd50ee5	-0.104032315
91	0xbd6d0779	-0.057868455
92	0x3e2f79f3	0.17136364
93	0x3e86f259	0.26356772
94	0x3d3db026	0.046310566
95	0x3ca328dc	0.019916944
96	0x3d4ba47f	0.049717423
97	0x3d88f7f7	0.066879205
98	0x3e93f323	0.28896436
99	0x3e1ea734	0.1549347
100	0x3e35e2ec	0.17762345
101	0xbdf7b2a5	-0.120946206
102	0x3d837d47	0.06420379
103	0x3d1dc758	0.038520187
104	0x3dbebbeb	0.09313186
105	0x3d6b1532	0.05739326
106	0xbe46fa75	-0.1943148
107	0xbbd68d71	-0.006547623
108	0x3c76e7df	0.015069931
109	0xbdb0590f	-0.086107366
110	0xbc8b932d	-0.017037952
111	0x3e6ce744	0.23135096
112	0xbdeb8d1a	-0.11501522
113	0x3d9dc740	0.077040195
114	0x3e751ff3	0.23937969
115	0xbe51815d	-0.20459504
116	0xbe8d3c5a	-0.27585107
117	0x3d61d558	0.0551351
118	0xbd0d5a97	-0.03451022
119	0xbcd01d26	-0.025404524
120	0xbdc736ba	-0.09727235
121	0xbdd09441	-0.10184527
122	0x3ddf7641	0.10911227
123	0xbe80d840	-0.25164986
124	0xbcb52cb7	-0.022116048
125	0x3d1e25fc	0.038610443
126	0x3d6739b8	0.05645153
127	0x3cb91221	0.022591652
128	0xbe4085b3	-0.18801002
129	0xbc4396dc	-0.011937823
130	0x3d775f32	0.06039352
131	0x3da2630a	0.079290465
132	0xbdfbe112	-0.12298788
133	0x3de9b1a6	0.11410837
134	0xbd471ca6	-0.048611306
135	0xbd8796a6	-0.06620531
136	0x3e28aec7	0.16472922
137	0x3d982cb0	0.074303985
138	0xbe39f1ce	-0.18158647
139	0x3cfe146e	0.031015601
140	0x3e0e6acf	0.13907932
141	0xbe698a7a	-0.22806731
142	0x3c711ee1	0.014716835
143	0xbd99505a	-0.07486029
144	0x3dccffaa	0.100097016
145	0x3db49762	0.088179365
146	0xbd0f95ac	-0.035054848
147	0x3bc6f920	0.0060721785
148	0xbdbf5848	-0.0934301
149	0xbe9dc908	-0.30817437
150	0xbd2bf65f	-0.041983005
151	0xbdcc2894	-0.09968677
152	0x3ce7a05b	0.028274706
153	0xbdd0adb8	-0.10189384
154	0xbe2b3346	-0.16718778
155	0xbe48946c	-0.19587868
156	0xbd879846	-0.06620841
157	0x3cda1e90	0.026625901
158	0xbc9ae324	-0.018907137
159	0x3e093522	0.13399175
160	0xbcba65ac	-0.022753559
161	0x3db107e0	0.0864408
162	0x3e38dbfe	0.1805267
163	0xbe264c1d	-0.16239972
164	0xbcc36052	-0.02384964
165	0xbc5f5c5c	-0.01363286
166	0x3e356d7f	0.1771755
167	0x3e315c08	0.17320263
168	0x3d49f0ba	0.04930184
169	0x3dea1b5f	0.11431002
170	0x3d991151	0.07474006
171	0x3bda4091	0.006660529
172	0x3e0381f3	0.1284254
173	0x3dd274d2	0.10276188
174	0x3d5dcd6b	0.05415098
175	0x3e03308b	0.12811486
176	0x3ddb3a79	0.10704512
177	0xbd964aac	-0.07338461
178	0x3e09621b	0.1341633
179	0xbd1a108f	-0.037613448
180	0xba647d69	-0.00087161973
181	0x3dcf481c	0.10121176
182	0xbca6bcb0	-0.020353645
183	0x3c9e217a	0.019303072
184	0xbdad671f	-0.084669344
185	0x3ba4bdee	0.005027524
186	0xbc301bf1	-0.010748849
187	0x3da5e50b	0.08100327
188	0x3e36a852	0.17837647
189	0xbdd451cb	-0.10367163
190	0xbd9e3a6c	-0.07725987
191	0x3e9761f3	0.29566917
192	0x3d1d7399	0.03844032
193	0xbdff84f8	-0.12476534
194	0x3d94f4e6	0.07273273
195	0xbe1ba44a	-0.1519939
196	0x3d7949f4	0.060861543
197	0x3d678625	0.056524415
198	0xbd88234c	-0.06647357
199	0x3e5d9161	0.21637489
200	0x3e2debf1	0.16984536
201	0x3d2dacbc	0.04240106
202	0xbc8e7d3c	-0.0173937
203	0x3d7fe957	0.06247839
204	0x3d6c75e0	0.0577296
205	0xbe2d6563	-0.16933207
206	0xbb7a2a5a	-0.0038172216
207	0xbc834afc	-0.016026966
208	0xbe39d225	-0.1814657
209	0xbdcbcdaa	-0.09951337
210	0xbc963858	-0.018337414
211	0xbcaebc65	-0.021330068
212	0x3d5a7cbb	0.05334161
213	0x3e180c60	0.1484847
214	0xbde62938	-0.112383306
215	0xbd9fe677	-0.078076296
216	0x3c699dc3	0.014258805
217	0x3d4054a8	0.046955734
218	0x3da9891e	0.08278106
219	0xbe93b9f7	-0.28852817
220	0x3d233a48	0.039850503
221	0x3d62cad4	0.055369213
222	0x3dda03a1	0.106452234
223	0xbceb47e9	-0.028720813
224	0x3c1173d0	0.0088777095
225	0x3cc5c7a7	0.024143053
226	0x3d80a580	0.062815666
227	0x3de5fd9b	0.11230012
228	0xbc9a70af	-0.01885256
229	0x3da92483	0.08258917
230	0xbe036a61	-0.12833549
231	0x3d1e96fd	0.038718212
232	0x3e3f153f	0.18660448
233	0x3e36da16	0.1785663
234	0xbe4c01a6	-0.19922504
235	0xbdcf74f8	-0.10129732
236	0xbdfb0c1b	-0.12258168
237	0x3e5fdfd4	0.21862727
238	0x3d19bda5	0.037534375
239	0x3cb6ee46	0.022330415
240	0xbdc20fb8	-0.09475654
241	0xbe8ee1c0	-0.2790661
242	0x3e446785	0.19180115
243	0xbe017e1d	-0.12645765
244	0x3dc43d1c	0.09581968
245	0x3def99a7	0.11699229
246	0xbd4de7a4	-0.050269738
247	0xbe6de9f4	-0.23233777
248	0xbd261247	-0.040544774
249	0xbd5f99ed	-0.054590154
250	0xbe2b84c2	-0.16749862
251	0x3e00e952	0.12589005
252	0x3cea1f96	0.028579514
253	0x3d56d2ff	0.052447315
254	0xbc91db74	-0.017804839
255	0x3d469224	0.048479214

network_body._body_endoder.seq_layers.0.bias f4 [256]
0	0xbc22208e	-0.009895457
1	0x3bb8a7c2	0.0056352327
2	0xbac03578	-0.0014664372
3	0xbbae10eb	-0.0053120754
4	0x3b4db865	0.0031390425
5	0x3b9f54e7	0.004862416
6	0xba444aee	-0.0007487972
7	0x3c311442	0.0108080525
8	0x3b26af4b	0.0025434073
9	0x3c5a7e8b	0.013335834
10	0x3c730751	0.014833287
11	0x3cc713ff	0.024301527
12	0x3c6670b4	0.014064956
13	0x3c7b6fbe	0.015346466
14	0x3aab28f1	0.0013058466
15	0x3c230205	0.009949212
16	0x3c114e41	0.008868755
17	0xbc42e56b	-0.011895518
18	0xbb3c575f	-0.00287386
19	0x3b753bb5	0.0037419621
20	0x3c8500ee	0.016235795
21	0x3ae9bbe2	0.0017832483
22	0x3c5f399a	0.013624573
23	0xbb480a35	-0.0030523662
24	0xbc4bcf74	-0.012439597
25	0x3b9a00ed	0.0046998174
26	0xbc2b57a3	-0.010457906
27	0x3bec6309	0.0072139543
28	0x39641942	0.00021753184
29	0x3c0dc721	0.008653433
30	0x3c5f1d44	0.013617817
31	0x3b7f28a9	0.0038934147
32	0x3c66b4ad	0.014081162
33	0x3b45a103	0.0030155785
34	0x3c827a3d	0.015927428
35	0x3c990164	0.01867742
36	0x3c003ace	0.00782652
37	0x3c8a035b	0.016847303
38	0x3c93af42	0.018027905
39	0x3bf8f7dd	0.007597907
40	0x3c835cf8	0.016035542
41	0xbaf6f178	-0.0018840274
42	0x3c2df0a9	0.01061646
43	0x3bcc3bb3	0.0062327026
44	0x3bce2d5d	0.006292029
45	0x3c28a98d	0.01029433
46	0x3c9902b4	0.018678047
47	0x3b58968f	0.0033048724
48	0x3b3319df	0.0027328653
49	0x3cb20b6e	0.021733966
50	0x3c281408	0.010258682
51	0x3b0a9c92	0.0021150452
52	0x3b94f62f	0.004545949
53	0x3c86950e	0.016428497
54	0x3c1490b1	0.0090677
55	0x3c67fdea	0.014159659
56	0x3cba63c7	0.022752656
57	0x3add5291	0.0016885569
58	0xbbcf5575	-0.006327326
59	0x3b814f95	0.0039462545
60	0x3c05a74e	0.008157564
61	0x3c1b9bc1	0.009497584
62	0xbb650a99	-0.0034948944
63	0x3c8cda0a	0.017193813
64	0x3ae9c763	0.0017835911
65	0xbd09c18b	-0.033631843
66	0x3c4da417	0.012551329
67	0x3c3a6a6f	0.011377915
68	0xbc3e5939	-0.011617952
69	0x3b9d77af	0.004805527
70	0xbb6f2bfa	-0.0036494718
71	0xb8969e0d	-7.1819966e-05
72	0xb8cf0b24	-9.872604e-05
73	0x3c8211bc	0.015877597
74	0x3c8b0436	0.016969781
75	0x3c7f3bbc	0.015578207
76	0x3b0e148f	0.0021679734
77	0x3bd13669	0.00638466
78	0x3c05c214	0.008163948
79	0x3c9e4826	0.019321512
80	0x3c805a6a	0.015668113
81	0x3c3c3da5	0.011489307
82	0x3921717c	0.00015396433
83	0x3b6e9e24	0.0036410177
84	0x3bfb6566	0.0076719997
85	0xbb3c8972	-0.0028768447
86	0xbc0726de	-0.008249013
87	0xbc162cc0	-0.009165943
88	0x398c8cff	0.0002680793
89	0x3aa93ea0	0.001291234
90	0x3bf7ba43	0.007560046
91	0x3bf17c7a	0.007369575
92	0x3bba7d20	0.0056911856
93	0x3b7a054a	0.0038150125
94	0x3becda08	0.00722814
95	0x3c67a1b5	0.014137675
96	0x3958947c	0.0002065468
97	0x3bd31afd	0.0064424262
98	0x3b65c259	0.0035058467
99	0x3c682e16	0.014171144
100	0x3c01e02f	0.007926985
101	0x3c021546	0.007939642
102	0x3c712652	0.014718609
103	0xbae91f5c	-0.0017785835
104	0x3af22ebc	0.0018477063
105	0x3c5c7524	0.013455663
106	0xbad511a9	-0.0016255873
107	0x3be54847	0.0069971415
108	0x3c931534	0.017954446
109	0x3bb20ebb	0.005433885
110	0xbb26e7eb	-0.0025467824
111	0x3c81161f	0.015757618
112	0x3a695e42	0.000890229
113	0xbab7d8b2	-0.0014026372
114	0x3c1c8b38	0.009554677
115	0xbb428013	-0.002967839
116	0x3be04fad	0.0068454356
117	0x3b2b0ea4	0.0026101256
118	0x3c23dac7	0.010000891
119	0x3c462476	0.012093654
120	0x3ba17566	0.004927325
121	0xba36afa0	-0.0006968919
122	0x3ba4b328	0.00502624
123	0x3c057a0e	0.008146776
124	0xbc09efd0	-0.008418992
125	0x3c78c892	0.015184538
126	0x3b9e6e5d	0.0048349337
127	0x3c2ab39c	0.010418799
128	0xbcb78459	-0.022401975
129	0xbaa05419	-0.0012232094
130	0x3c4be157	0.012443862
131	0x3ad6e6f4	0.0016395734
132	0x3c15e355	0.009148438
133	0xbc315466	-0.010823345
134	0x3c9d8edd	0.019233162
135	0x3a504855	0.00079453486
136	0x3c32eb79	0.010920399
137	0x3ca0a586	0.019610178
138	0x3cd784b4	0.026308395
139	0xbbd9dfa2	-0.0066489736
140	0x3b7c82dc	0.0038530147
141	0x3c5098c0	0.012731731
142	0xbc32fb3a	-0.010924155
143	0x3c8c2e22	0.017111842
144	0x3c79706d	0.015224558
145	0x3c219991	0.009863273
146	0x3cbfab0d	0.023396993
147	0x3aac7ea9	0.0013160306
148	0x3c0788e4	0.008272383
149	0x3b48507d	0.0030565553
150	0x3c4720d2	0.012153821
151	0xbc887509	-0.01665737
152	0x3c8cc96a	0.017185885
153	0x3c1f8a56	0.009737572
154	0x3c2fa2cf	0.010719969
155	0x3bddbbfa	0.0067667933
156	0x3c8fe872	0.017566893
157	0xbba8f0d4	-0.005155662
158	0x3c98638d	0.018602157
159	0x3c539e2e	0.012916131
160	0x3c402178	0.01172673
161	0x3c854991	0.01627043
162	0x3c479e6a	0.012183765
163	0xbc915fd8	-0.017745897
164	0x3ac18f4a	0.0014767435
165	0xbc24a65d	-0.01004943
166	0xbbaa2368	-0.005192209
167	0x3bf369cf	0.007428385
168	0x3bfcfc08	0.007720474
169	0x3c082e43	0.008311811
170	0x3b534a43	0.0032240308
171	0x3c2fbc27	0.010726011
172	0xbbdc0065	-0.006713914
173	0x3c83da94	0.016095437
174	0x3b6b974b	0.0035948332
175	0x3c9b868f	0.018985061
176	0x3a2c7b71	0.00065796735
177	0x3bd0df4e	0.0063742762
178	0xb96c378c	-0.00022527407
179	0x3b8afa74	0.004241282
180	0x3a3679d9	0.0006960906
181	0x3c7a29aa	0.015268723
182	0x3bbd66c9	0.005780075
183	0x3c2844e3	0.01027033
184	0x3c570ef2	0.013126122
185	0xbbb1ef46	-0.005430135
186	0xbb4f83a1	-0.003166415
187	0xbb1ee7c6	-0.0024247034
188	0x3b92dcfa	0.004481909
189	0xbc89b603	-0.016810423
190	0xbc113c78	-0.0088645145
191	0x3c03916a	0.008030275
192	0x3c31ac0a	0.01084424
193	0xbc02793e	-0.007963477
194	0x3c16e2c5	0.0092093395
195	0x3a719a1e	0.00092163857
196	0x3aed3c71	0.0018099678
197	0x3bebb2c6	0.0071929423
198	0x3bdfd81f	0.0068311836
199	0x3c76f8a7	0.015073932
200	0x3b3fe785	0.0029282284
201	0x3c5ad2bb	0.013355906
202	0x3c8ed222	0.017434184
203	0xbaff5a1a	-0.0019481808
204	0x3b8821f4	0.004154438
205	0xbb3b930d	-0.0028621585
206	0x3b800918	0.003907334
207	0x3bc8680c	0.006115919
208	0x3b280425	0.0025637236
209	0x3c016f52	0.007900076
210	0x3c92009d	0.017822558
211	0x3c6718b0	0.014105007
212	0x3c46ac64	0.012126062
213	0xbb90afef	-0.004415504
214	0x3cc41796	0.023937028
215	0x3b2d669d	0.0026458867
216	0x3b88b95a	0.0041724863
217	0x3c2e4b52	0.010638075
218	0xbbca4e5f	-0.0061738933
219	0x3c908773	0.017642712
220	0x3c1a1f1c	0.009406831
221	0x3c09fb74	0.0084217675
222	0x3bf5a47b	0.0074964142
223	0x3c916c62	0.017751876
224	0x3c498fcd	0.012302351
225	0xbc88ede1	-0.016714992
226	0x3c336279	0.010948771
227	0x3b8dd11d	0.0043279068
228	0x3bb967ea	0.0056581395
229	0xbb0a5de0	-0.0021113083
230	0x3c6f0fc9	0.014591166
231	0x3ccc3c92	0.024931226
232	0x3c980d11	0.018560918
233	0x3c18b269	0.00931988
234	0x3bfdcbb3	0.00774523
235	0xbc330ed1	-0.0109288255
236	0xbbe606f0	-0.00701987
237	0x3c97f061	0.018547239
238	0x3904b6a3	0.00012656538
239	0x3aef061e	0.0018236076
240	0x3c5bed33	0.013423252
241	0x3a630c51	0.0008661198
242	0x3b7e6f5b	0.0038823697
243	0x3c12bd63	0.008956286
244	0x3c5ecc1f	0.013598471
245	0x3cb1a381	0.02168441
246	0x3c2507e0	0.010072678
247	0x3befba82	0.0073159346
248	0x3c81f81d	0.01586538
249	0x3bb631b0	0.0055601224
250	0x3c994b72	0.018712733
251	0x3c2d79bc	0.010588106
252	0xbb306bd7	-0.0026919746
253	0x3bcc031a	0.0062259557
254	0xbab4cce3	-0.0013793971
255	0x3bd8f999	0.0066215512

network_body._body_endoder.seq_layers.2.weight f4 [256, 256]
0	0xbdd77288	-0.10519892
1	0xbd1ee6a9	-0.038794193
2	0xbd41bd87	-0.047299888
3	0x3d431b56	0.04763349
4	0x3bc0e5af	0.0058867554
5	0x3c81d8c6	0.015850436
6	0x3ce9ba95	0.028531352
7	0x3cdef41a	0.027216006
8	0x3de31fd1	0.11090053
9	0x3d95838c	0.07300481
10	0x3cdac048	0.026703015
11	0x3bcd6246	0.0062678186
12	0xbd866db2	-0.065638915
13	0x3d1d469e	0.038397424
14	0xbc597b0e	-0.013273967
15	0x3cdb55d5	0.026774326
16	0x3d4ee816	0.050514303
17	0xbd1f6f92	-0.03892476
18	0xbbdddd3f	-0.0067707594
19	0xbd7ec175	-0.062196214
20	0xbc0be495	-0.008538385
21	0xbbe42350	-0.0069622174
22	0xbd7a52a0	-0.061113954
23	0x3b735e1e	0.0037134956
24	0x3dc6cc97	0.09706991
25	0xbe143817	-0.14474522
26	0x3cb406b7	0.021975858
27	0xbc2c8956	-0.01053079
28	0xbd7a3b0e	-0.061091475
29	0xbd681f32	-0.056670375
30	0xbd3bed8d	-0.045880843
31	0xbc8bb08a	-0.017051954
32	0x3dd66474	0.10468379
33	0xbd46a2fa	-0.04849527
34	0x3d97f729	0.07420189
35	0x3d1ec10c	0.038758323
36	0xbdb118f3	-0.08647337
37	0xbdb58356	-0.08862941
38	0x3d7059e3	0.058679473
39	0xbc3069e0	-0.01076743
40	0x3dc38121	0.09546114
41	0x3d14aa71	0.036295358
42	0xbd2f6d46	-0.04282882
43	0x3d999bdd	0.07500432
44	0xbd651252	-0.055925675
45	0x3d413ef1	0.047179166
46	0x3d424088	0.047424823
47	0xbd1ee38a	-0.038791217
48	0xbdc352c5	-0.095372714
49	0x3dab49bf	0.08363675
50	0xbd573d52	-0.052548714
51	0x3d0ddecd	0.034636308
52	0x3bc157b4	0.0059003476
53	0xbda436da	-0.080182746
54	0xbdeed353	-0.11661401
55	0xbd344cc2	-0.044018514
56	0xbcf7cf09	-0.03025009
57	0x3aedfbc4	0.0018156697
58	0xbdd89abd	-0.10576389
59	0x3ced9bd7	0.029004974
60	0x3c109d52	0.008826571
61	0x3bc91cbb	0.006137458
62	0xbdb29e29	-0.08721573
63	0x3d047383	0.032336723
64	0x3d03e247	0.032198217
65	0xbcb3fce3	-0.021971172
66	0xbcb42b90	-0.021993428
67	0x3d535cef	0.0516023
68	0x3d145727	0.036215927
69	0xbcecc37f	-0.028901814
70	0x3ca505e1	0.020144405
71	0x3d5ed095	0.054398138
72	0x3da0e219	0.07855625
73	0x3cf13af9	0.029447066
74	0x3d298d29	0.041394386
75	0x3dd39499	0.10331077
76	0xbd171742	-0.036887415
77	0xbd2a34e2	-0.04155434
78	0xbe107c23	-0.14109854
79	0xbc7ead34	-0.0155442245
80	0x3b487e94	0.0030593025
81	0x3dab0a20	0.083515406
82	0x3e3e33ce	0.1857445
83	0x3de98e4f	0.11404096
84	0xbd6dc7bc	-0.05805181
85	0x3cbb8cee	0.022894349
86	0x3de60eaa	0.11233266
87	0xbd138d1f	-0.036023255
88	0xbda4f473	-0.080544375
89	0x3d2a9ead	0.04165523
90	0x3d72b2bf	0.059252497
91	0xbc9e13cc	-0.01929655
92	0xbd1848d1	-0.037178818
93	0x3d0ec676	0.034857236
94	0x3bbd1c34	0.0057711843
95	0x3d72fc8b	0.059322875
96	0x3c5aa3be	0.013344703
97	0x3df3116e	0.11868559
98	0xbd57d7f9	-0.052696202
99	0xbc9138d5	-0.017727295
100	0xbdaeed5b	-0.08541366
101	0xbae4c88c	-0.0017454787
102	0x3cb6bf7c	0.022308104
103	0xbde21c41	-0.11040545
104	0x3d08c2ad	0.033388782
105	0xbcadd743	-0.021220809
106	0xbd00a9b8	-0.031411856
107	0xbd89a468	-0.06720811
108	0x3d671687	0.056417968
109	0xbcc23d93	-0.023711002
110	0x3cee80bd	0.029114122
111	0x3cd6ab36	0.026204687
112	0x3cfc5c3b	0.030805698
113	0xbdfebaf7	-0.124380045
114	0x3d49be13	0.049253535
115	0x3c8a6716	0.016894858
116	0x3c30871f	0.010774403
117	0xbd1d5e46	-0.038419984
118	0x3dcf9dc2	0.10137512
119	0xbc70e28a	-0.014702449
120	0xbca1e904	-0.01976443
121	0x3d5f2724	0.054480687
122	0x3d81952d	0.06327281
123	0xbd6a2ec6	-0.057173513
124	0xbc77ba32	-0.015120076
125	0xbdb4ff2a	-0.08837731
126	0xbc4af427	-0.012387312
127	0xbd1665ad	-0.03671806
128	0x3bddf6ee	0.006773821
129	0x3dabd673	0.08390512
130	0x3e346567	0.17616807
131	0xbdb4d94a	-0.08830507
132	0x3d7d6bf0	0.061870515
133	0xbd2254b6	-0.039631568
134	0x3c3c2449	0.01148326
135	0x3b1e76d4	0.0024179714
136	0x3d96cb20	0.07362962
137	0xbd0457b7	-0.032310214
138	0x3d463164	0.048386946
139	0xbb891b1d	-0.0041841404
140	0x3c26d3dd	0.010182348
141	0x3cc60bdd	0.024175579
142	0x3c317401	0.01083088
143	0x3dba40fb	0.09094425
144	0x3bd1ea42	0.0064060995
145	0xbc897b9e	-0.016782578
146	0xbdcbc1de	-0.099490866
147	0xbcfb2aa9	-0.03065999
148	0x3c235112	0.009968059
149	0xbdc3e162	-0.09564473
150	0xbb2c9ff1	-0.002634045
151	0x3c6f383d	0.014600811
152	0x3d73c3cf	0.05951291
153	0xbbf27657	-0.007399361
154	0xbb419fad	-0.0029544637
155	0xbbf37bfd	-0.007430552
156	0xbc65f677	-0.014035813
157	0xbd30197b	-0.04299305
158	0xbc5f3f6d	-0.013625962
159	0xbc615519	-0.013753199
160	0x3ddc5f45	0.10760359
161	0xbc841b5f	-0.016126333
162	0xbb708f26	-0.0036706417
163	0xbd51fc60	-0.051266074
164	0x3d0ed2fe	0.034869187
165	0x3e010f7b	0.12603562
166	0xbd9b2943	-0.075762294
167	0xbc9b4b15	-0.0189567
168	0x3db7c3c9	0.0897289
169	0xbd4058e4	-0.046959773
170	0x3c0d4a84	0.008623723
171	0xbce070dc	-0.027397566
172	0x3e121971	0.14267518
173	0x3cb07e1c	0.021544509
174	0xbc0e1cbd	-0.008673844
175	0xbcb69d97	-0.022291942
176	0xbca51c9d	-0.020155245
177	0xbb3c3194	-0.0028716074
178	0xba8b538e	-0.001062976
179	0x3dc8443c	0.0977864
180	0x3df85706	0.121259734
181	0x3c9e6220	0.019333899
182	0xbdc2af09	-0.095060416
183	0x3d294b73	0.04133172
184	0x3c3abc16	0.011397382
185	0x3d82e003	0.06390383
186	0x3bbc0289	0.005737607
187	0x3cd25a56	0.025677841
188	0xbaa541ea	-0.0012608145
189	0x3daf2110	0.08551228
190	0xbddf0077	-0.108887605
191	0xbd951738	-0.07279819
192	0xbcb0f2ab	-0.021600088
193	0x3da6887c	0.08131501
194	0x3b330af9	0.0027319773
195	0xbc74cbba	-0.01494115
196	0xbd20fcfc	-0.039303765
197	0xbd94ae44	-0.07259801
198	0xbcd1b2c6	-0.025597941
199	0xbd7c20e1	-0.061554793
200	0xba04c466	-0.0005064666
201	0xbbce0e07	-0.0062882933
202	0x3ac4517d	0.0014977899
203	0xbd9c5d1b	-0.07634946
204	0xbd621582	-0.055196293
205	0x3cd304eb	0.025759181
206	0x3dcf0e16	0.101101086
207	0xbc5c777e	-0.0134562235
208	0x3cf8e510	0.030382663
209	0x3d41e597	0.047338095
210	0x3b58a886	0.0033059432
211	0x3c60eb31	0.013727949
212	0x3d79b035	0.06095906
213	0x3d8d093a	0.068865255
214	0xbda1ad9d	-0.07894442
215	0x3db58233	0.08862724
216	0xbdd3064b	-0.10303935
217	0xbdb49bf5	-0.08818809
218	0xbba979bf	-0.005171984
219	0xbdc64548	-0.09681183
220	0x3c14e050	0.009086683
221	0xbd546751	-0.051856343
222	0x3c60afc4	0.013713781
223	0x3cb6a1de	0.022293981
224	0xbda985de	-0.08277486
225	0xbd35467a	-0.044256665
226	0x3d1b28b9	0.037880633
227	0xbd063e80	-0.03277445
228	0xbd785961	-0.060632113
229	0x3caa71b3	0.02080617
230	0xbcccc284	-0.024995096
231	0x3c7038d0	0.014661983
232	0xbd0e5d3a	-0.034756877
233	0xbcc40417	-0.023927731
234	0x3d2cd5af	0.042195972
235	0x3c5999bb	0.013281281
236	0x3d172444	0.03689982
237	0xbc0ec7f7	-0.0087146675
238	0xbdabe239	-0.08392758
239	0xbda04b3b	-0.07826849
240	0xbd3289e3	-0.04358853
241	0xbc82c191	-0.01596144
242	0x3cfe9447	0.031076564
243	0xbd837891	-0.064194806
244	0xbcab2f0a	-0.020896453
245	0xbdb29906	-0.08720593
246	0x3d85cb56	0.06532924
247	0x3d830145	0.063967265
248	0x3d1590e5	0.036515135
249	0xbdb7e94e	-0.08980046
250	0xbbed3de4	-0.007240044
251	0xbb384df8	-0.0028122645
252	0xbd489bc2	-0.048976667
253	0xbdc89d84	-0.09795669
254	0x3cdf8009	0.027282732
255	0xbd01dc27	-0.031704094

network_body._body_endoder.seq_layers.2.bias f4 [256]
0	0x3b55b51f	0.0032609177
1	0x3a6f44bc	0.00091273687
2	0x3a8fb54d	0.0010964066
3	0xbafd23ed	-0.0019313075
4	0xb975e086	-0.00023448662
5	0x3bced908	0.0063124932
6	0xbc085113	-0.008320111
7	0x39052efd	0.00012701373
8	0x3bbf0606	0.0058295755
9	0x3bce597f	0.00629729
10	0x3c1b0607	0.009461886
11	0x3c6d8dfb	0.014499183
12	0x3c7b47e5	0.015336965
13	0x3ba56da2	0.0050484696
14	0x3c03fb70	0.008055553
15	0x39908ac0	0.00027569197
16	0x3b4b1883	0.0030989952
17	0x3b8853ef	0.0041603963
18	0xbbc0b518	-0.005880963
19	0x3b25b45e	0.002528451
20	0x3c08120d	0.008305085
21	0xbb43c70a	-0.0029873275
22	0xbbdd69a8	-0.00675698
23	0xbad4b9c0	-0.0016229674
24	0x3b4b78eb	0.0031047415
25	0x3c26fefe	0.010192631
26	0x3b926e2d	0.0044687004
27	0xbc266c85	-0.010157709
28	0x3bc2b82b	0.0059423647
29	0x39189a40	0.00014553312
30	0x3b578e8f	0.0032891368
31	0x3b935925	0.004496711
32	0x3c6ed5d7	0.014577351
33	0x3c19200a	0.009346018
34	0x3bae7f68	0.0053252466
35	0xbbeab39a	-0.0071625235
36	0x3c2300e9	0.0099489475
37	0xbb9b4418	-0.004738342
38	0x3c2b2699	0.010446214
39	0x3c0c5a5e	0.008566467
40	0xbb70f6e8	-0.0036768261
41	0x3a47dd73	0.0007624246
42	0x3b7cafee	0.003855701
43	0x3c262a44	0.010141913
44	0xbb90cf56	-0.0044192476
45	0x3cba9a4d	0.022778654
46	0x3acd568a	0.001566605
47	0x3c1c1cff	0.009528398
48	0x3c168714	0.009187479
49	0x3afbb12f	0.0019202585
50	0x3c10213f	0.008796989
51	0x3bb0b416	0.0053925617
52	0x3c5368bb	0.012903388
53	0x3b160e74	0.0022896798
54	0xbba7f43f	-0.005125552
55	0xbb5b48ca	-0.0033460134
56	0x3c900442	0.017580155
57	0x3c10f6bf	0.008847891
58	0x3c1209ea	0.0089134965
59	0x3c958832	0.01825342
60	0x3c5b0551	0.013367967
61	0x3b6cf585	0.0036157083
62	0x3bcdbd71	0.0062786867
63	0x3c8262c2	0.015916232
64	0x3a9b0c87	0.0011829295
65	0x3bc51721	0.00601472
66	0x3c704385	0.014664535
67	0x3bc744ef	0.0060812156
68	0x3bd623d2	0.006535032
69	0x3c31c87a	0.01085102
70	0x3c385ff4	0.011253346
71	0x3b485d18	0.0030573066
72	0xb8b0eae6	-8.436087e-05
73	0x3ac551fd	0.0015054342
74	0x3b944585	0.004524889
75	0x3b4d14d0	0.0031292923
76	0x3c7d92e6	0.015476918
77	0xbb705c45	-0.003667609
78	0x3c2922e9	0.010323265
79	0x3bd36d4b	0.0064522377
80	0x3baf240e	0.005344874
81	0x3c70e92a	0.014704028
82	0x3c1d025e	0.009583084
83	0x3ad91ce5	0.0016564397
84	0x3c420c36	0.011843732
85	0x3c23b071	0.009990797
86	0xba0ee8d3	-0.00054515636
87	0x3c743d12	0.014907138
88	0x3c03b789	0.008039364
89	0x3be07768	0.006850172
90	0x3c211a21	0.00983289
91	0xbae044f8	-0.0017110398
92	0x3a760feb	0.0009386527
93	0x3c084d15	0.008319159
94	0x398d986d	0.00027007182
95	0x3c5b61f7	0.013390056
96	0xbbd661b5	-0.0065424093
97	0xbb42906a	-0.0029688128
98	0x3c0ddb33	0.008658218
99	0x3c006d2a	0.007838527
100	0x3b24e8ad	0.00251631
101	0xbb84a245	-0.0040476643
102	0x3b7c7d66	0.0038526892
103	0xb9cf59db	-0.00039549064
104	0x3b648809	0.0034871122
105	0x3c7f3804	0.01557732
106	0x3c190052	0.009338455
107	0x3b9c0842	0.0047617266
108	0x3a9f5411	0.0012155791
109	0x39409453	0.00018365802
110	0x3ba6445a	0.005074066
111	0x3b0b479f	0.0021252406
112	0xbbb2bec3	-0.0054548695
113	0x3c02c781	0.007982136
114	0x3c24176a	0.010015348
115	0x3c904ad1	0.0176138
116	0x3c89e95a	0.016834904
117	0x3bbf2fbc	0.005834548
118	0xba0430ba	-0.0005042661
119	0xbbde4275	-0.0067828246
120	0x3c1707f8	0.0092182085
121	0x386403b2	5.4362878e-05
122	0x3c2950e5	0.010334228
123	0x3ba533b4	0.005041564
124	0x3b7d0467	0.003860736
125	0xbc048dff	-0.008090495
126	0xbbea945e	-0.0071588
127	0xbc227c05	-0.009917264
128	0x3bfbd44c	0.00768522
129	0x3c5684da	0.013093198
130	0xbb4da541	-0.0031379017
131	0x3c5c5ce0	0.0134498775
132	0x3c32b08e	0.010906352
133	0x3b559fdc	0.0032596504
134	0x3c7ef902	0.015562298
135	0x3b6c0182	0.003601164
136	0x3c0b775d	0.008512345
137	0x3bca2899	0.0061693904
138	0x3c30681f	0.010767012
139	0x3ba67487	0.005079809
140	0xbb8e4431	-0.004341625
141	0x3c112448	0.008858748
142	0x3c32b1be	0.010906635
143	0x3c6756b0	0.014119789
144	0xbc159042	-0.009128632
145	0x3beb1e58	0.007175248
146	0x3c0578d0	0.00814648
147	0x3c791cce	0.0152046215
148	0x3c50f766	0.012754297
149	0xbc412cd9	-0.011790478
150	0x3c41516c	0.011799198
151	0x39f60530	0.0004692464
152	0x3b84f63d	0.004057674
153	0x3c52a07e	0.012855647
154	0x3c6f27ad	0.014596862
155	0x3bd9edf7	0.006650682
156	0x3b8ccbbf	0.0042967494
157	0x3c2619fa	0.010138029
158	0x3b216ca4	0.0024631405
159	0xbc11f7bc	-0.008909162
160	0x3cb6934c	0.022287033
161	0x3c109f4a	0.00882704
162	0x3c4f8118	0.012665056
163	0x3c3fba54	0.011702139
164	0xb9e5aa6b	-0.00043805255
165	0xbad0bcf4	-0.0015925453
166	0x39ef6a6c	0.00045664923
167	0xbb705902	-0.0036674147
168	0xba2ec1c4	-0.00066664466
169	0x3c3a956c	0.011388164
170	0xbb3f03ce	-0.0029146555
171	0x3b46fa4f	0.0030361598
172	0x3b6484e7	0.0034869255
173	0x3c8f26be	0.017474528
174	0xbb1764e7	-0.0023100914
175	0x3b78be9e	0.0037955414
176	0x3c9e7138	0.019341096
177	0x3c1ece65	0.009692763
178	0x3c851c7d	0.016248936
179	0x3c323016	0.010875722
180	0x3bae50b6	0.00531968
181	0x3c0aaf42	0.008464636
182	0x3c174298	0.009232186
183	0x3c60d1b3	0.013721871
184	0x3ba912aa	0.0051596956
185	0xbb4603c5	-0.003021465
186	0x3c0a4e56	0.008441528
187	0x3bf8107d	0.007570325
188	0x3b4db8ff	0.0031390784
189	0x3c26b63f	0.010175287
190	0x3c977856	0.018489998
191	0xbc46ce2b	-0.012134115
192	0x3b4521d5	0.003007998
193	0x3bf231ba	0.007391182
194	0x3bb6abec	0.005574694
195	0x3c58313c	0.013195332
196	0x3bd18a54	0.006394664
197	0x3c0e41fd	0.008682725
198	0x3bf5701c	0.007490171
199	0x3c16dc93	0.009207862
200	0x3c0f9820	0.008764297
201	0x3c3de30a	0.011589775
202	0x3c13c12a	0.009018222
203	0x3c01058c	0.007874858
204	0x3b866f64	0.0041026343
205	0x3c627630	0.013822123
206	0x3c82d62b	0.015971264
207	0x3c42190d	0.011846793
208	0x3c1743f9	0.009232515
209	0x3c46417b	0.012100573
210	0xbabe21e2	-0.0014505947
211	0x3b67dfca	0.0035381191
212	0xba07e85e	-0.0005184467
213	0x3c25009f	0.010070949
214	0xbbf65636	-0.0075176014
215	0x3a235f42	0.0006232151
216	0xbadaa51e	-0.0016681289
217	0x3b3c6529	0.002874682
218	0xbb1e6e20	-0.0024174526
219	0x3bda27ad	0.0066575618
220	0x3c88a63c	0.01668083
221	0x3ba421a9	0.0050088954
222	0x3bcb0d19	0.0061966297
223	0xb9d32f03	-0.00040280083
224	0x388af13d	6.625287e-05
225	0x3b8af02b	0.004240056
226	0x3c44e972	0.012018548
227	0xbb899c3b	-0.0041995323
228	0x3c11287d	0.008859751
229	0x3c7467e3	0.014917347
230	0xbbae7825	-0.005324381
231	0xbc3f0e71	-0.011661158
232	0x3c38e6f0	0.011285529
233	0x3c1e6291	0.009667055
234	0x3c77b612	0.015119093
235	0x3b50c997	0.0031858438
236	0x3c67a965	0.014139508
237	0x3c1cd555	0.009572347
238	0x3afa4616	0.0019094374
239	0x3cab53aa	0.020913918
240	0x3b4ae152	0.0030957055
241	0x3c1c899e	0.009554295
242	0x3c8d26c8	0.017230406
243	0x3bd57b40	0.0065149367
244	0x3c68f8ee	0.014219506
245	0x3c19a73e	0.009378253
246	0x3c45e267	0.012077904
247	0x3a087aae	0.0005206269
248	0xbb5abe68	-0.003337765
249	0x3c784707	0.015153653
250	0x3adc0af9	0.0016787938
251	0xba6c09e5	-0.000900416
252	0x3beab1b0	0.0071622953
253	0x3ba7d02a	0.0051212506
254	0x3bebce02	0.007196189
255	0xbb771296	-0.0037700287

action_model._discrete_distribution.branches.0.weight f4 [3, 256]
0	0x3ca5f2ae	0.02025732
1	0xbc5b6b5b	-0.013392295
2	0x3c997d40	0.018736482
3	0x3cac3cdc	0.021025114
4	0x3b03cc55	0.0020110805
5	0x3a3788a1	0.0007001255
6	0x3bfc029a	0.00769074
7	0x3b5fd986	0.0034156754
8	0xbbf1ac90	-0.0073753074
9	0x3c0ab867	0.0084668165
10	0xbc4f081b	-0.01263621
11	0xbc3834ac	-0.011243027
12	0x3ae8a7ae	0.0017750168
13	0xbc42d63e	-0.0118919
14	0xba9b62e5	-0.0011855034
15	0xbc5ffbd2	-0.0136708785
16	0xbb5972be	-0.0033179964
17	0x3b6b370a	0.003589096
18	0x3c119165	0.008884762
19	0x3c886411	0.016649278
20	0xbc48d487	-0.012257702
21	0x3c9296ea	0.017894227
22	0x3b27ba4e	0.0025593224
23	0xbbe9c5dd	-0.007134183
24	0xbbe2dbbe	-0.006923168
25	0xbcb9ea6a	-0.022694785
26	0x3bbef1f7	0.0058271843
27	0xbb0bdd59	-0.002134165
28	0x3bade82d	0.0053072185
29	0x3c0f6756	0.008752665
30	0xbac80d2a	-0.0015262712
31	0x3c83b459	0.016077207
32	0x3a2efb23	0.00066749955
33	0x3c649ca7	0.013953364
34	0x3b072ab9	0.002062483
35	0xbc17f58e	-0.009274853
36	0xbccdaf66	-0.02510805
37	0x3ca88d5f	0.020575223
38	0x3bcf3b64	0.0063242186
39	0xbae07b2f	-0.0017126555
40	0xbbb7bc7b	-0.0056071854
41	0xbbb847cc	-0.005623793
42	0x3c44102b	0.011966745
43	0xbb96438d	-0.0045856894
44	0xbc1d9430	-0.00961785
45	0x3b9db730	0.0048130974
46	0xbc431f90	-0.011909381
47	0x3c1216cf	0.008916571
48	0xbbb9e919	-0.0056735394
49	0x3cc68027	0.02423103
50	0xbc02ce6d	-0.007983786
51	0xbc083dfd	-0.00831556
52	0x3c24d750	0.0100611
53	0xbc0779f0	-0.008268818
54	0xba81ab1b	-0.0009892912
55	0x3b2028f4	0.0024438472
56	0x3ca01b47	0.019544257
57	0xbc0a69f3	-0.008448112
58	0xba75ebf2	-0.0009381167
59	0xbb7e651a	-0.0038817585
60	0xbcb2fba2	-0.021848504
61	0xbc7c97e7	-0.015417076
62	0xbb5d44fb	-0.003376304
63	0xbc364092	-0.011123793
64	0xbc2db457	-0.010602078
65	0x3b29e82f	0.0025925746
66	0xbbf026de	-0.007328852
67	0x3aeef32b	0.0018230429
68	0xbb8a6716	-0.0042237146
69	0xba07cf72	-0.0005180753
70	0x3b182e62	0.0023221006
71	0x3be47724	0.0069722105
72	0x3bdd8b98	0.0067610256
73	0x3b02aabe	0.0019938196
74	0xbc15cc84	-0.009142999
75	0xbbe16c3e	-0.0068793586
76	0x3c0dd71e	0.008657245
77	0xbc0a993f	-0.008459388
78	0x3c408549	0.011750528
79	0x3b1e530f	0.0024158393
80	0x3c369556	0.011144003
81	0xbc0ae2af	-0.008476897
82	0x3cb4e649	0.022082465
83	0x3cecfb44	0.028928407
84	0xbaa86b12	-0.0012849292
85	0x3cb3a2e4	0.021928258
86	0x3b097539	0.002097441
87	0xbbcf02fd	-0.006317495
88	0xbba4181c	-0.005007757
89	0x3d33ad6f	0.04386657
90	0xbad60125	-0.0016327245
91	0x3ca67de0	0.020323694
92	0xba8c57df	-0.001070734
93	0xbc931ed1	-0.01795903
94	0xbc84b3f9	-0.016199099
95	0x3c6ce04f	0.014457776
96	0x3b602dd0	0.0034206994
97	0xbc3d8473	-0.011567223
98	0x3c83b6f3	0.016078448
99	0x3a5470e6	0.00081039814
100	0xbbad719f	-0.0052930857
101	0xbb781392	-0.0037853462
102	0xbb7d3be5	-0.0038640436
103	0x3a8b98b5	0.0010650369
104	0x3c38b10e	0.011272682
105	0x3bfa842c	0.0076451506
106	0xbb964077	-0.0045853215
107	0xb92ec7c3	-0.0001666835
108	0x3c97b401	0.01851845
109	0x3bf44a0e	0.007455117
110	0x3a177efb	0.00057791144
111	0x3c4e2d6d	0.012584073
112	0xbc2430d6	-0.010021409
113	0x3c037691	0.008023874
114	0x3b8dc6e8	0.00432669
115	0xbb0c7db5	-0.0021437232
116	0xb937e34e	-0.00017536918
117	0x3c2002b9	0.009766274
118	0x3bab4204	0.0052263755
119	0x3ba7909b	0.005113674
120	0xbcb82204	-0.022477157
121	0xbb8a55f9	-0.0042216745
122	0xbb1dcaf1	-0.0024077261
123	0xbb9599d0	-0.004565455
124	0x3c5477ed	0.012968046
125	0xbb7c32e9	-0.0038482493
126	0xb9ea31d7	-0.00044669092
127	0x3c9d4b4b	0.019200942
128	0xbbd03452	-0.0063538933
129	0xbb3e2eba	-0.002901955
130	0x3b8c3677	0.0042789537
131	0xbc1ad103	-0.009449246
132	0xbc848aec	-0.016179524
133	0x3c7fc694	0.01561131
134	0xbcdae75a	-0.026721645
135	0x3b8172c4	0.0039504487
136	0xbbc51ee6	-0.0060156463
137	0x3c8c694f	0.017140059
138	0xb7a0cbca	-1.9168383e-05
139	0xbbaa40be	-0.005195706
140	0x3c909f6c	0.017654143
141	0x3c1d55db	0.009602989
142	0x3b8f1fdd	0.004367812
143	0x3b846cec	0.004041305
144	0x3c3196f6	0.010839215
145	0x3c87a46f	0.0165579
146	0x3b904587	0.0044028196
147	0xbc8b2f1a	-0.016990233
148	0x3a351369	0.00069074944
149	0x3b883ce9	0.0041576517
150	0xbc28be1a	-0.01029923
151	0x3c8e460c	0.017367385
152	0xbc66d7a4	-0.014089499
153	0x3c0f1324	0.008732591
154	0xbc8fd17b	-0.017555943
155	0x3ad55b2c	0.0016277782
156	0x38548f9c	5.0678485e-05
157	0x3c012f08	0.007884748
158	0x3bcb49c4	0.006203862
159	0x3ab46bfd	0.0013765093
160	0x3b878dcb	0.004136776
161	0x3aaea1db	0.0013323383
162	0x3c3a148c	0.011357438
163	0xbc3930e7	-0.011303163
164	0xbc8963c6	-0.016771208
165	0xbbae3736	-0.0053166403
166	0xbbea9b1d	-0.007159604
167	0xba01c655	-0.0004950513
168	0x3c5e781f	0.013578444
169	0x3bbd4b85	0.005776825
170	0x3c346030	0.011009261
171	0xbb3f1be0	-0.0029160902
172	0xbc5f1b64	-0.01361737
173	0x3c81e35a	0.01585548
174	0x3b994048	0.0046768524
175	0xbb76b9eb	-0.0037647437
176	0xbc5955ff	-0.013265132
177	0xba67053e	-0.0008812732
178	0x3b6dd767	0.003629172
179	0xbc65491d	-0.013994482
180	0xbc981162	-0.018562976
181	0x3c00c9d0	0.007860616
182	0x3ca89e71	0.020583363
183	0xbcb90f69	-0.022590356
184	0x3bb66fe6	0.0055675386
185	0xbbb8b32c	-0.0056365933
186	0xbc93be7a	-0.018035162
187	0x3c29824b	0.010346006
188	0x3c145697	0.009053848
189	0xbc7c76a2	-0.015409144
190	0x3bdf7c28	0.0068202205
191	0xbc03553a	-0.008015925
192	0xbb6cf15f	-0.003615461
193	0xbb88ec54	-0.004178563
194	0xba4af559	-0.0007742248
195	0x3c322806	0.0108738
196	0x3cf9be2e	0.030486193
197	0xbbee0262	-0.0072634676
198	0xbb90f8f5	-0.0044242092
199	0x3ba84f11	0.0051363786
200	0xbcccd5db	-0.025004318
201	0xbb7ee3b8	-0.0038893055
202	0x3c2eeec7	0.010677046
203	0x3b8a101c	0.004213346
204	0xbb421151	-0.0029612372
205	0xbc5d504a	-0.013507912
206	0x3cfaff26	0.030639242
207	0x3af7da6c	0.0018909699
208	0xbbe75ac1	-0.0070603793
209	0xbaf6a890	-0.0018818546
210	0xba72ad3a	-0.000925738
211	0xbb23e9b2	-0.002501112
212	0x3c17fe99	0.009277009
213	0xbbc3c3ce	-0.0059742695
214	0x3c03d862	0.008047195
215	0xbc88f6e8	-0.016719297
216	0x3c8af0a2	0.016960446
217	0xbb94bf1e	-0.0045393845
218	0x3cec502b	0.02884682
219	0x3becb35f	0.007223531
220	0xbbfdb551	-0.007742562
221	0x3cca730c	0.024713062
222	0x3b6fc21e	0.0036584209
223	0x3b9a609c	0.0047112238
224	0xbb4f4917	-0.0031629258
225	0xb7e230ff	-2.6964115e-05
226	0x3bd0cfa4	0.006372409
227	0xbb54d51e	-0.003247566
228	0x3b49f13d	0.0030813955
229	0x3bb2c2fd	0.0054553733
230	0x3c15c126	0.009140288
231	0x3c2e31bf	0.010631978
232	0x3bae7153	0.005323568
233	0xbc7561af	-0.014976903
234	0xbb0c82df	-0.002144031
235	0xbbb38e69	-0.005479623
236	0x3acdb550	0.0015694294
237	0xbc8d4040	-0.01724255
238	0x3ae386eb	0.0017358934
239	0x3a998731	0.0011713264
240	0xbbcde943	-0.0062839105
241	0x3c63f080	0.01391232
242	0x3c0bfe69	0.008544543
243	0xbb96bf97	-0.004600476
244	0xbc4c55dd	-0.012471643
245	0x3bc1a7b2	0.0059098834
246	0x3cfed38b	0.03110673
247	0x3c00dc49	0.00786502
248	0xbbabfc8a	-0.005248611
249	0x3c76ea54	0.015070517
250	0xbc3264db	-0.010888304
251	0x3c186189	0.009300598
252	0xbbebac46	-0.0071921675
253	0xbc64fe5f	-0.013976662
254	0x3c79392e	0.015211387
255	0x3c3d3222	0.011547597

action_model._discrete_distribution.branches.0.bias f4 [3]
0	0xbac11b93	-0.0014732949
1	0xbb65c0fd	-0.0035057657
2	0x3b83e700	0.00402534

action_model._discrete_distribution.branches.1.weight f4 [3, 256]
0	0x3b08c711	0.0020870606
1	0x3bb6b0e0	0.0055752844
2	0xbb5d5d72	-0.0033777622
3	0x3cc8e35c	0.024522476
4	0x3b72da6f	0.0037056466
5	0xbc337795	-0.010953804
6	0x3c5ea6cc	0.013589572
7	0xbc301726	-0.0107477065
8	0xbb0f2199	-0.0021840094
9	0xbbc02bc8	-0.005864594
10	0xb98cbcaa	-0.00026843447
11	0xbc80ae79	-0.015708195
12	0xbc5a85dd	-0.01333758
13	0xbb74c718	-0.0037350114
14	0xbba6e625	-0.0050933533
15	0xbc79355b	-0.015210475
16	0xbb012f91	-0.001971219
17	0xbc429b3c	-0.011877831
18	0x3ca6363a	0.02028953
19	0xbc42eb39	-0.011896902
20	0x3cab1226	0.020882677
21	0xbb4c4303	-0.0031167872
22	0x3ca376b0	0.019954056
23	0x3b2ccac4	0.0026365975
24	0x3c52d708	0.01286865
25	0xbb90a556	-0.004414241
26	0xbb8059ea	-0.0039169686
27	0x3c1de3a6	0.009636795
28	0xbb90cfc3	-0.0044192984
29	0x3c55db32	0.0130527485
30	0xbbd3420d	-0.006447083
31	0x3c0a14e8	0.008427836
32	0xbc347131	-0.011013315
33	0x3cad96bd	0.021190042
34	0xbb38dbd8	-0.002820721
35	0x3ca57c31	0.02020082
36	0xbc30d788	-0.010793574
37	0x3c03a969	0.008035996
38	0xbc13cda1	-0.009021194
39	0x3b68aea6	0.003550449
40	0x3ca39743	0.019969588
41	0xbba56d8d	-0.00504846
42	0xbb39d598	-0.0028356072
43	0xbc1d4c1f	-0.009600668
44	0x3c85c7ac	0.016330563
45	0xbc4923af	-0.012276574
46	0xba50b1a6	-0.0007961042
47	0xbc210930	-0.009828851
48	0xbbd285c8	-0.0064246394
49	0x3cb0b960	0.021572769
50	0xbbefc52f	-0.0073172073
51	0xbb2da9d6	-0.0026498935
52	0x3bb821fb	0.005619285
53	0xbc8c9da3	-0.01716501
54	0x3c5821fe	0.013191698
55	0xb94ffc1d	-0.00019834978
56	0x3b2b0708	0.002609672
57	0xbbb2a563	-0.0054518445
58	0xbc6682f7	-0.01406931
59	0xbca6a717	-0.020343347
60	0xbcac9691	-0.02106789
61	0xbc5f7bc1	-0.013640345
62	0xbbf007a9	-0.007325132
63	0x3c68a9ce	0.014200641
64	0x3c94164b	0.018077036
65	0xbc1ab4b5	-0.009442498
66	0xbc995f88	-0.01872231
67	0xbbe52d4e	-0.006993926
68	0x3c89fa59	0.016843008
69	0xbc6fcc50	-0.014636114
70	0xb992554b	-0.00027910838
71	0xbc8b90e7	-0.017036868
72	0x3be9aebe	0.0071314266
73	0x3cbebe5d	0.023284132
74	0x3b8924e8	0.004185308
75	0xbbbb8eeb	-0.0057238243
76	0xbb9b9228	-0.004747648
77	0xbad36c3b	-0.0016130278
78	0xbbab35ba	-0.0052249106
79	0xbc3a6e81	-0.011378885
80	0xbc6cc6e6	-0.014451718
81	0xbc28fc52	-0.010314064
82	0xbabc8f3f	-0.0014385952
83	0x3c46c4c4	0.0121318735
84	0xbc884c31	-0.016637893
85	0xbbcb7752	-0.0062092924
86	0x3c42c721	0.011888296
87	0x3c1afe1c	0.009459998
88	0xbbca251b	-0.006168974
89	0x3986202a	0.00025582436
90	0x3b984d76	0.004647906
91	0x3cb04499	0.021517085
92	0x3a5bf035	0.00083899806
93	0xbc84bb44	-0.016202576
94	0x3b2409d6	0.0025030277
95	0x3c5ff074	0.013668168
96	0xbc004835	-0.0078297155
97	0x3cb14afe	0.021642204
98	0xbc3210d5	-0.010868271
99	0xbbad336b	-0.0052856705
100	0x3a4794b5	0.00076134066
101	0xbb664565	-0.0035136577
102	0x3c09391a	0.0083754305
103	0xba1fc7ea	-0.0006095158
104	0x3c816efe	0.015799996
105	0x3a9d09eb	0.0011981105
106	0xbc3eb970	-0.011640891
107	0x3bae3b22	0.005317108
108	0x3ca3d6d5	0.0199999
109	0x3c74fa54	0.014952261
110	0xbb01d7e4	-0.0019812519
111	0xbbbc3fc7	-0.0057449075
112	0x3b643508	0.0034821648
113	0xbc0c6315	-0.008568545
114	0xb9a8b04e	-0.00032174814
115	0xbc957329	-0.01824339
116	0xbc6ae255	-0.014336188
117	0xbbf5d2fb	-0.0075019575
118	0xbc83edee	-0.016104665
119	0x3b812e7f	0.0039423103
120	0xbc0be31a	-0.008538032
121	0x3cb8e636	0.02257071
122	0xbc015b0c	-0.007895242
123	0xbcbc0687	-0.022952331
124	0xbc0d85a1	-0.008637817
125	0x3c6ec8d5	0.014574249
126	0x3c8767df	0.016529022
127	0x3ce7edbc	0.028311603
128	0x3b51b17d	0.003199666
129	0x3c08591b	0.008322026
130	0xbc4f5af3	-0.012655961
131	0x3bb32973	0.0054675876
132	0xbc830c34	-0.01599703
133	0x3bf0e80e	0.007351882
134	0xba8a8bec	-0.0010570264
135	0x3bc2ef59	0.0059489426
136	0xbc3fdbfa	-0.011710161
137	0x3b69b70f	0.003566209
138	0xbc8bba57	-0.017056627
139	0x3b9b913d	0.0047475384
140	0x3bfcd67c	0.007715998
141	0x3c2b480d	0.01045419
142	0xbc6375f8	-0.013883106
143	0xbc2f89ef	-0.010714038
144	0x3ca1a165	0.01973028
145	0x3adfef7e	0.0017084924
146	0x3bd1e624	0.0064056087
147	0xbcc2f4dc	-0.023798399
148	0xbc124747	-0.008928127
149	0x3c3269d9	0.010889494
150	0xbc550491	-0.013001577
151	0xbab13015	-0.0013518358
152	0x3bd852e7	0.0066016796
153	0xbc45fdc1	-0.012084425
154	0xbca428db	-0.020039013
155	0xbca2c9d3	-0.019871628
156	0x3b776e1e	0.0037754844
157	0xbb5aede0	-0.0033405945
158	0x3c2f488f	0.010698452
159	0x3cd3c4ae	0.02585062
160	0xbcee2801	-0.02907181
161	0xbafa45d7	-0.00190943
162	0xbc1dfa14	-0.009642143
163	0xbb4f4200	-0.0031625032
164	0xbbf49dc7	-0.0074650976
165	0x3c02fd84	0.007995013
166	0xbba21895	-0.004946778
167	0x3c7d5e7a	0.0154644195
168	0x3b3002d8	0.0026857164
169	0xbc885a7f	-0.016644714
170	0x3b537890	0.0032267906
171	0x3c71d4c1	0.014760197
172	0xbb11d83f	-0.0022254137
173	0x3c212d52	0.009837465
174	0x3b88641a	0.0041623237
175	0x3c149af7	0.00907015
176	0xbc652ac3	-0.013987246
177	0xb99b02ea	-0.00029566075
178	0xbc80c9e2	-0.015721265
179	0xbc194a5d	-0.0093561085
180	0x3c4e01d6	0.01257368
181	0xbc0f86d3	-0.008760172
182	0xbb52b51c	-0.0032151407
183	0xba793f8f	-0.0009508067
184	0x3c03ce70	0.008044824
185	0x3bf38005	0.0074310326
186	0x3b523c54	0.0032079415
187	0x3af4ec57	0.0018686157
188	0x3bd86319	0.0066036102
189	0xbc47dc7d	-0.012198565
190	0xbba611a0	-0.005068019
191	0xbb940351	-0.004516997
192	0xba3be820	-0.0007168073
193	0x3b9ee997	0.0048496234
194	0xbbf14ccf	-0.0073638926
195	0xb9f248d0	-0.00046212086
196	0x3a681cb0	0.00088543724
197	0xba870f71	-0.0010304285
198	0xbc98d99a	-0.018658448
199	0xbb675ebc	-0.0035304269
200	0xbc5027e5	-0.012704824
201	0xbc8d144d	-0.017221594
202	0xbc682de1	-0.014171095
203	0xbaaf0b8b	-0.001335488
204	0xbc5f60af	-0.013633891
205	0x3ae7a7e1	0.0017673933
206	0x3bb7332c	0.005590817
207	0xbbaaaed8	-0.0052088313
208	0xbb983791	-0.004645296
209	0xbb052fa8	-0.0020322595
210	0x3c9bb334	0.01900635
211	0x3c865cb8	0.016401634
212	0x3c1ebaa3	0.009688052
213	0xbc348164	-0.011017177
214	0x3cacdb9c	0.021100812
215	0x3bc2904c	0.0059376117
216	0x3b97dd6a	0.004634549
217	0x3c76c0ae	0.015060587
218	0x3c177a6d	0.009245497
219	0xbc04906b	-0.008091073
220	0xbc6f2523	-0.014596256
221	0x3c127571	0.008939133
222	0xbbb12815	-0.0054063895
223	0x3c84ebf1	0.016225787
224	0x3b7492dd	0.0037318983
225	0xbb313f33	-0.0027045726
226	0x3b77439a	0.0037729503
227	0x3c164257	0.00917109
228	0xbc598809	-0.013277062
229	0xbc332d3d	-0.010936079
230	0x3d0fa4a8	0.035069138
231	0x3c86a4da	0.01643603
232	0xbb2c7c04	-0.0026319036
233	0xba727a72	-0.0009249813
234	0xbc5355df	-0.012898891
235	0xba6a18f9	-0.0008930113
236	0xbbc89368	-0.006121088
237	0xbc5e3734	-0.013562966
238	0x3b15aad7	0.0022837424
239	0x3c5b433e	0.013382731
240	0x3c8adfe0	0.016952455
241	0xbbed3610	-0.007239111
242	0xbbe3e431	-0.006954693
243	0x3c43c48c	0.011948716
244	0xbbee1352	-0.0072654868
245	0xbc20d532	-0.009816455
246	0xbb40dd2f	-0.002942871
247	0xbbe2e882	-0.0069246897
248	0x3c39b237	0.011333994
249	0x3b35f042	0.0027761613
250	0x3c12e2fd	0.008965251
251	0x3cdc4d36	0.026892286
252	0xbca2ffce	-0.019897368
253	0xbc6ce48c	-0.014458787
254	0xbbaa9d6f	-0.005206756
255	0x3bce9cf0	0.0063053295

action_model._discrete_distribution.branches.1.bias f4 [3]
0	0xbc2ad4ed	-0.010426742
1	0x3c4863a7	0.01223079
2	0xba427595	-0.0007418034

action_model._discrete_distribution.branches.2.weight f4 [2, 256]
0	0xbc097624	-0.008389983
1	0xbbb280d9	-0.0054474887
2	0x3bfc4124	0.007698195
3	0x3aba8bd0	0.0014232341
4	0x3cb1e961	0.021717729
5	0xbc7e88ae	-0.015535517
6	0x3b22cdef	0.0024841984
7	0xbbe57f65	-0.007003712
8	0x3aade1eb	0.0013266181
9	0x3c8c8623	0.017153805
10	0xbbf3513e	-0.0074254563
11	0x3bf65d6b	0.0075184605
12	0x3b1acc1b	0.0023620191
13	0xbccca483	-0.024980789
14	0xbc25e10e	-0.010124458
15	0xbbc9a0ee	-0.0061532175
16	0xbbea7399	-0.0071548936
17	0xbabde4d6	-0.0014487754
18	0x3c20a282	0.00980437
19	0x3b8d37bd	0.004309623
20	0xbc6c7bbd	-0.014433798
21	0xbc2d6647	-0.010583467
22	0x3bb41aa5	0.0054963403
23	0x3bdfc9ff	0.0068294997
24	0x3c1dad3d	0.009623823
25	0x3b18438a	0.0023233616
26	0xbc9770b8	-0.018486366
27	0x3c07ecfd	0.0082962485
28	0xbbd57100	-0.006513715
29	0x3c2bce82	0.010486247
30	0x3c21f923	0.009886059
31	0xbc5770cf	-0.013149454
32	0x3bdd56ed	0.006754747
33	0x3b8fbc75	0.0043864795
34	0x3c4aeb5b	0.012385215
35	0x3c28fe01	0.0103144655
36	0x3acc3bf9	0.0015581838
37	0xbbad9060	-0.005296752
38	0xbc07a69d	-0.00827947
39	0xbc566bbf	-0.013087212
40	0x3bbb047e	0.0057073226
41	0x3b97fd9b	0.0046383864
42	0x3bb8c22f	0.005638383
43	0xbbba86eb	-0.005692353
44	0xbc0aa939	-0.008463197
45	0xbcd3e68d	-0.025866771
46	0x38f782db	0.000118022515
47	0xbc980afc	-0.018559925
48	0xbc50262d	-0.012704414
49	0xbbfafdf6	-0.007659669
50	0xbb9bc8e2	-0.0047541717
51	0xb9a9c092	-0.00032377668
52	0xbcad0602	-0.021121029
53	0xbc1f0be6	-0.009707427
54	0x3c14dc76	0.009085765
55	0x3c371a3a	0.0111756865
56	0xbc068878	-0.008211248
57	0x3c963084	0.01833368
58	0xbbef0a43	-0.0072949245
59	0xbc1ffd9b	-0.009765054
60	0xbc935bdf	-0.017988143
61	0xbc207544	-0.009793583
62	0xbc585dc9	-0.013205954
63	0xbcd062c9	-0.02543773
64	0xbca842cf	-0.02053967
65	0x3c17450a	0.009232769
66	0xbb9514de	-0.0045496067
67	0x3b5c1480	0.0033581555
68	0xbc8da33c	-0.01728975
69	0x3c6a291b	0.014292027
70	0x3c79f912	0.015257137
71	0xbb3cb50c	-0.0028794436
72	0xbbf0f3e8	-0.0073532946
73	0xbb278c08	-0.0025565643
74	0xbccfcbdc	-0.025365762
75	0x3bc4e948	0.0060092546
76	0xbc08236d	-0.008309227
77	0xbad098c3	-0.0015914667
78	0xbbdea5b4	-0.0067946557
79	0x3ac17de5	0.0014762251
80	0x3c4f9b9a	0.012671376
81	0x3b2dd3f3	0.0026524037
82	0xbc58665c	-0.013207998
83	0x3bd953c0	0.006632298
84	0xbc0ee4ba	-0.008721525
85	0xbc8cac64	-0.017172046
86	0xbbc8ac62	-0.0061240653
87	0xb88c99db	-6.704378e-05
88	0xba3a2ee0	-0.0007102322
89	0xbb49ba4b	-0.0030781205
90	0x3b897284	0.0041945595
91	0x3b1ef63d	0.0024255656
92	0x3b8badf7	0.0042626816
93	0x3c35886f	0.011079892
94	0xbc961674	-0.018321253
95	0xbc4c88cd	-0.012483788
96	0x3ae6e27f	0.0017615109
97	0x3a22c43f	0.00062090525
98	0xbc705109	-0.014667758
99	0xbcfd9986	-0.030956995
100	0xbc003eb4	-0.00782745
101	0x3a5142d4	0.00079826755
102	0x3a9a1fec	0.0011758781
103	0xbc80e4d5	-0.015734116
104	0x3a87eb66	0.0010369837
105	0x3b1c7071	0.0023870731
106	0x3babff39	0.005248931
107	0xbbd0ac69	-0.006368209
108	0x3b9833dc	0.004644854
109	0xbc05b5cb	-0.008161019
110	0xbb749028	-0.003731737
111	0xbc80045a	-0.015627075
112	0x39908502	0.0002756492
113	0xba980743	-0.0011598844
114	0xbcd3261b	-0.025775006
115	0xbb03005a	-0.0019989223
116	0xbc07b248	-0.008282252
117	0xbb802588	-0.003910724
118	0xbc3e4315	-0.011612673
119	0xbb9df35e	-0.0048202714
120	0xbc8fb1a6	-0.017540764
121	0x3c1941c8	0.009354062
122	0x3bf695c6	0.0075251786
123	0xbbdd9b60	-0.006762907
124	0x3c9344c5	0.017977128
125	0x3ac101b7	0.0014725243
126	0x3bc131e0	0.005895838
127	0x3bd17041	0.0063915555
128	0xbc9640d4	-0.01834146
129	0xbbe6d983	-0.0070449724
130	0x3b1462f6	0.0022641993
131	0xbc7d286e	-0.015451534
132	0xbc3e23c9	-0.0116052115
133	0xb995b96d	-0.00028557648
134	0xbc95e0b1	-0.018295618
135	0xbc005fb7	-0.00783532
136	0xbc886261	-0.016648473
137	0x3bfe9958	0.007769745
138	0xbbfa5493	-0.0076394766
139	0xbb970000	-0.0046081543
140	0x3c3346c1	0.010942162
141	0xbbb3474b	-0.0054711453
142	0xbaea96ec	-0.0017897761
143	0xbbc4f35e	-0.006010457
144	0x39a85a04	0.00032110524
145	0x3a963d45	0.0011462352
146	0xbc126297	-0.008934638
147	0xbc4399ee	-0.011938555
148	0xbbdecd4e	-0.0067993766
149	0x3c4b43af	0.012406274
150	0xbc9e597d	-0.01932978
151	0xbc55bf30	-0.013046071
152	0xbb940cc5	-0.004518124
153	0xbbcc998d	-0.0062438906
154	0xba00efe1	-0.0004918557
155	0xbbcac499	-0.006187987
156	0x3bc4d38b	0.006006663
157	0x3c96f8b4	0.018429138
158	0xbbbaf9dc	-0.005706055
159	0x3c0fe59f	0.008782773
160	0xbc2800b4	-0.010254074
161	0xbc3c96ec	-0.011510592
162	0x3c5f9f45	0.013648813
163	0x3b57e07e	0.0032940204
164	0x3bf7315f	0.0075437273
165	0xb77c6a39	-1.5045102e-05
166	0x3b9a0168	0.0046998747
167	0xbbf4feb9	-0.0074766544
168	0xbbdab14d	-0.006673968
169	0xbc87c5fd	-0.0165739
170	0x3b841cd8	0.0040317588
171	0x3bac5e3d	0.0052602575
172	0xbc1581f4	-0.0091252215
173	0xbbae4848	-0.005318675
174	0xbb6cb6fc	-0.003611981
175	0x3c14877e	0.009065507
176	0xbd0967ef	-0.033546384
177	0xbb8dfb3e	-0.004332929
178	0xbb3a1422	-0.0028393348
179	0xba9dfb2a	-0.0012053002
180	0xbcca9978	-0.024731383
181	0xbc94e6dc	-0.018176489
182	0x3b0e3110	0.0021696724
183	0xbb369a87	-0.0027863102
184	0xbb96c682	-0.0046013007
185	0x3a4734fa	0.00075991417
186	0xbbd23411	-0.006414898
187	0xbc15c5e7	-0.009141422
188	0xbc286a74	-0.010279287
189	0x3bcea8a7	0.006306726
190	0xbc859f6c	-0.01631137
191	0xbbc63b3d	-0.006049542
192	0x3abf313a	0.0014586814
193	0xbbfa604c	-0.007640874
194	0xbb294ae3	-0.002583199
195	0xbbbdc96b	-0.005791833
196	0x3c0ac1d9	0.008469068
197	0x3c022215	0.007942696
198	0x3c340747	0.010988063
199	0xbcbae311	-0.022813352
200	0xbb71f99a	-0.0036922456
201	0xbcd01083	-0.025398498
202	0x3c717bbe	0.014738975
203	0xbb78c31e	-0.0037958096
204	0x3bf6b1f5	0.0075285384
205	0xbca63d02	-0.020292763
206	0xbc71e3c8	-0.01476378
207	0xbbad6dfc	-0.005292652
208	0xbb89ad00	-0.0042015314
209	0x3c6c4c06	0.014422422
210	0x3c35b1d1	0.011089758
211	0xbb617642	-0.0034402763
212	0xbbfcb402	-0.0077118883
213	0x3b84aba7	0.004048783
214	0x3a0981a7	0.0005245455
215	0x3b99430c	0.004677182
216	0x3c13585e	0.008993236
217	0xbc920d2d	-0.017828548
218	0x3c846693	0.016162192
219	0x3b3273cd	0.0027229667
220	0x3b7bd443	0.0038426078
221	0xbc898cdb	-0.016790798
222	0x3bf6be9e	0.0075300476
223	0xbb08a532	-0.0020850417
224	0x3b9410ea	0.004518618
225	0x3abb2aca	0.001427972
226	0x3cdf481a	0.02725606
227	0xbaca4496	-0.0015431817
228	0x3ac7a05c	0.0015230286
229	0xbc43e838	-0.011957221
230	0x3b819d4c	0.003955519
231	0x3c625c59	0.013815963
232	0xbbee4b4d	-0.00727216
233	0xba7b5685	-0.00095877826
234	0xbc0b297e	-0.008493779
235	0x3c078862	0.008272262
236	0xbca76b91	-0.020437034
237	0xbb395878	-0.0028281491
238	0x3baa8346	0.0052036373
239	0xbc9c2a63	-0.01906318
240	0x3a9d9ebf	0.001202546
241	0xbc196ace	-0.009363843
242	0xbc053b48	-0.0081318095
243	0xbb46f80f	-0.0030360257
244	0xbc7be0cd	-0.015373421
245	0xbb898c9c	-0.00419767
246	0xbc44f426	-0.0120211
247	0x3b0e84b8	0.0021746587
248	0x3ad28b71	0.0016063285
249	0x3c5ce41e	0.013482122
250	0x3bf650ee	0.007516972
251	0xbc9a111a	-0.018806983
252	0x3a92bbbb	0.0011194864
253	0xbc119a7c	-0.00888693
254	0x3a263905	0.0006340894
255	0xbbc54cd2	-0.0060211206

action_model._discrete_distribution.branches.2.bias f4 [2]
0	0xbbfb69a9	-0.007672508
1	0x3bfb69a1	0.007672504
